models/checkpoint_critic_local_12.pth (torch_old, 349244 bytes, 5 tensors)

fcs1.weight f4 [256, 200]
0.030963093 0.012339614 0.00934042 0.026708312 -0.04438825 -0.045093946 0.05565922 -0.02548033
0.015083194 0.05844602 -0.012789443 0.047447033 0.029131122 -0.055927478 0.047603212 -0.013336286
-0.047982253 0.013791412 -0.014662817 -0.0025079697 0.049311303 -0.02532792 -0.034786478 -0.04497184
0.026918866 -0.047825612 0.009970225 -0.009157941 0.002992861 0.032027535 -0.013547346 -0.014459081
0.0034647807 -0.051661246 -0.0053377002 -0.05894877 0.0018209442 -0.059976682 0.049857818 0.036884926
0.0559572 -0.017580688 -0.05620055 0.060229786 -0.02835945 -0.031176679 -0.04039842 -0.062064134
-0.042531244 0.023058519 0.007355012 0.025587283 -0.04860294 0.053352423 -0.017295219 0.04319212
0.0026348382 0.014717944 -0.04323291 -0.060275167 0.01959002 -0.009274259 0.025247797 0.020711534
0.0010633618 0.041540697 0.00090134144 0.016359493 0.018520921 0.02470579 0.00031218678 0.0015063733
-0.032644838 0.03750103 -0.0045480356 -0.04250332 0.02943077 0.044427387 0.04459986 -0.034924284
0.010888375 -0.03509874 0.06127181 -0.049620815 -0.010143243 0.039890945 -0.026237637 0.027091749
-0.05137632 0.01951944 0.008786038 0.024201043 -0.022532277 -0.024825163 -0.013182901 -0.044805914
-0.049954496 -0.036350064 0.03173861 0.005501367 0.023914643 0.057307474 0.06033606 0.0583013
-0.032905526 -0.029642992 0.02377998 0.04333435 -0.062284157 -0.03480675 -0.061031953 -0.0032052174
-0.0058813393 0.029870227 -0.035586484 -0.03912148 -0.005045302 0.045227222 -0.040084653 -0.007955939
0.021800064 0.03536749 0.058015592 -0.020484544 0.017127417 -0.009158067 -0.021440089 0.025179163
-0.028309494 -0.034534775 0.04967577 -0.01855681 -0.06200993 0.003947012 -0.019524276 0.044149503
-0.029868372 0.048313923 0.037786707 -0.05987698 -0.061136633 -0.055224948 0.051884383 0.0015847385
-0.050174832 0.048042618 -0.01917331 0.031447887 -0.04426524 -0.03731446 -0.05704961 -0.029122785
0.009995088 0.043994248 0.0374687 0.06151083 -0.015965067 -0.031689532 -0.020275705 -0.01629521
0.0052567795 0.012265079 -0.043190956 -0.02100905 -0.03220202 -0.038656473 0.012578294 -0.05890868
-0.04318344 -0.044108093 0.03994236 -0.02247899 0.010719724 0.051776953 0.0061830133 -0.018583901
-0.06168578 0.007845566 0.044623673 -0.04370307 -0.016915813 0.047639884 0.04666985 0.033852726
0.0042449757 0.036933705 -0.0067634806 -0.043956496 -0.049055263 0.048399806 0.040780246 -0.056447417
-0.057521828 0.009653613 -0.0046948567 0.031675316 0.009120174 0.038435824 0.060604103 -0.04147759
-0.025262803 0.025734112 0.06186045 -0.01624515 0.03702672 0.021481253 0.005193025 -0.023733817
-0.03771518 -0.024853036 -0.060528226 0.014660165 -0.029299736 0.028989956 0.037822217 -0.06078598
0.0059519783 -0.055085957 0.041821696 -0.023221567 -0.010450736 -0.060863085 -0.0289881 -0.0067500994
-0.060796455 -0.011672996 -0.006498389 -0.03518346 -0.041537873 -0.055502653 -0.004336454 0.0572982
0.053059317 0.014269866 -0.041444108 0.00926289 -0.01344429 0.007560663 0.0069902763 0.03682953
-0.046207182 0.030242361 0.05862306 0.057057284 -0.025974557 -0.047454372 -0.028380267 -0.035695747
-0.021008931 -0.04589908 -0.046564244 0.03946209 0.0025909021 -0.005530484 -0.029963158 0.023882814
00000000: 50a6 fd3c 182c 4a3c 9008 193c 64cb da3c
00000010: 74d0 35bd 6eb4 38bd ecfa 633d 20bc d0bc
00000020: 801f 773c 1865 6f3d d08a 51bc d257 423d
00000030: 64a4 ee3c 3614 65bd 96fb 423d 7080 5abc
00000040: 0a89 44bd 60f5 613c 503c 70bc c05c 24bb
00000050: a6fa 493d 807c cfbc 447c 0ebd 6434 38bd
00000060: f484 dc3c cae4 43bd 285a 233c 300b 16bc
00000070: e023 443b 4e2f 033d b0f5 5dbc c8e5 6cbc
00000080: 6011 633b be9a 53bd e0e7 aebb 4474 71bd
00000090: c0ac ee3a 1caa 75bd b637 4c3d a614 173d
000000a0: 6033 653d 6005 90bc 8c32 66bd 82b3 763d
000000b0: 1452 e8bc 3c66 ffbc d078 25bd f636 7ebd
000000c0: 3e35 2ebd 38e5 bc3c 5002 f13b 6c9c d13c
000000d0: e013 47bd 1288 5a3d b4ae 8dbc 38ea 303d
000000e0: 40ad 2c3b 8823 713c fe14 31bd 18e3 76bd
000000f0: 407b a03c 10f3 17bc 78d4 ce3c 3cab a93c
00000100: 8060 8b3a 9426 2a3d 0048 6c3a 5804 863c
00000110: 30b9 973c cc63 ca3c 00ad a339 8071 c53a
00000120: 98b6 05bd ae9a 193d b007 95bb f617 2ebd
00000130: cc18 f13c 7ef9 353d 58ae 363d c40c 0fbd
00000140: 2865 323c b2c3 0fbd 26f8 7a3d 323f 4bbd
00000150: d82f 26bc b064 233d 50f0 d6bc 84ef dd3c
00000160: fa6f 52bd 3ce7 9f3c 50f3 0f3c 4441 c63c
00000170: 9c95 b8bc 245e cbbc 18fd 57bc 6886 37bd
00000180: 169d 4cbd cee3 14bd 5800 023d d044 b43b
00000190: a4e8 c33c 3ebb 6a3d f222 773d 58cd 6e3d
000001a0: f2c7 06bd dcd5 f2bc 3cce c23c 5c7f 313d
000001b0: ac1d 7fbd 8691 0ebd a4fc 79bd a00e 52bb
000001c0: 40b8 c0bb 68b2 f43c 22c3 11bd d83d 20bd
000001d0: 1053 a5bb 2e40 393d ce2f 24bd a059 02bc
000001e0: 0c96 b23c 80dd 103d c2a1 6d3d 34cf a7bc
000001f0: cc4e 8c3c b80b 16bc 20a3 afbc 8844 ce3c
00000200: 50e9 e7bc 5674 0dbd d278 4b3d 7404 98bc
00000210: 20fe 7dbd f055 813b 60f1 9fbc 1cd6 343d
00000220: 84ae f4bc d2e4 453d 3cc6 1a3d 9041 75bd
00000230: 686a 7abd 8e33 62bd b884 543d 00b7 cf3a
00000240: 2084 4dbd 56c8 443d 5811 9dbc 80cf 003d
00000250: 784f 35bd 0cd7 18bd daac 69bd e892 eebc
00000260: 70c2 233c 5033 343d c878 193d c8f2 7b3d
00000270: 2cc9 82bc e2cc 01bd 3c19 a6bc 887d 85bc
00000280: 1041 ac3b 78f3 483c 00e9 30bd 2c1b acbc
00000290: 44e6 03bd 4056 1ebd 3015 4e3c 3a4a 71bd
000002a0: 1ee1 30bd b0aa 34bd 9a9a 233d dc25 b8bc
000002b0: c8a1 2f3c 1214 543d e09a ca3b 443d 98bc
000002c0: 3aaa 7cbd b08a 003c 50c7 363d fe01 33bd
000002d0: 0893 8abc 0a22 433d e228 3f3d 28a9 0a3d
000002e0: 7019 8b3b cc47 173d 30a0 ddbb ba0b 34bd
000002f0: 2cee 48bd e03e 463d 3009 273d 6835 67bd
00000300: 029c 6bbd 302a 1e3c 50d7 99bb fabd 013d
00000310: c86c 153c e26e 1d3d 023c 783d 68e4 29bd
00000320: f0f3 cebc 58d0 d23c 6261 7d3d 8c14 85bc
00000330: 54a9 173d 74f9 af3c 402a aa3b 6c6d c2bc
00000340: 3c7b 1abd 9898 cbbc 72ec 77bd 3031 703c
00000350: 0006 f0bc 587c ed3c 78eb 1a3d b8fa 78bd
00000360: d008 c33b d0a1 61bd 3a4d 2b3d 283b bebc
00000370: 9039 2bbc 924b 79bd 7478 edbc f02f ddbb
00000380: b405 79bd 1840 3fbc 70f0 d4bb 881c 10bd
00000390: 9e23 2abd c056 63bd d018 8ebb 84b1 6a3d
000003a0: ba54 593d 28cc 693c 4cc1 29bd 60c3 173c
000003b0: 7045 5cbc 70bf f73b b00e e53b 90da 163d
000003c0: be43 3dbd d4be f73c bc1e 703d e6b4 693d
000003d0: 98c8 d4bc 845f 42bd bc7d e8bc b435 12bd
000003e0: ec1a acbc ac00 3cbd 26ba 3ebd 00a3 213d
000003f0: 20cc 293b 1039 b5bb 4c75 f5bc e4a5 c33c

fcs1.bias f4 [256]
-0.0049929842 0.045204982 0.06075967 -0.011762377 0.045607068 -0.05023613 9.119511e-05 0.04946056
0.031010568 -0.04403107 -0.041929036 -0.016814832 0.0070711374 0.028010271 0.010439798 -0.045107625
0.035968453 -0.05306501 0.029385082 0.043260947 0.05468955 -0.018326286 0.05132857 0.06989703
-0.0024570823 -0.06270294 0.052508585 -0.045771852 0.043772794 0.033782877 0.046545632 0.03857962
0.019875124 0.00030162185 0.027205132 0.005960129 0.020065494 -0.06713872 0.02000267 0.019977212
-0.01519233 -0.039969698 0.014518157 0.021895252 0.052805647 -0.06838947 0.068463586 -0.04366859
0.045745037 0.06865845 0.031053111 -0.031023514 0.03930807 0.010946371 0.031185716 -0.058253136
0.064331226 -0.022112109 -0.055730015 -0.0056106076 -0.036595367 0.05358111 -0.05364655 0.020290777
0.007750556 0.05383069 0.055245675 -0.016441148 -0.0614876 -0.06917574 -0.026165541 -0.02916037
-0.024946477 -0.03176985 -0.03471008 0.036806032 0.04516565 0.06379596 -0.056615535 0.0015566275
-0.062820785 -0.054192867 0.0518616 0.010256067 -0.02365503 0.028831929 -0.028397419 -0.050877545
0.026394397 0.04555694 -0.06655601 -0.046074264 -0.0051552877 -0.01830662 -0.061472267 -0.017954778
-0.017366584 -0.06503392 0.04555089 0.011284113 0.0007093847 -0.010645863 -0.04424797 0.02097208
-0.010908481 0.06997604 0.062993415 -0.047247797 -0.06805381 0.010879509 -0.07033893 0.0105655715
-0.05031897 0.0027007759 -0.06429957 -0.041298106 0.0087559 -0.059143856 -0.05129818 -0.0702898
-0.06720167 -0.01930629 0.03564798 0.045049332 -0.045161642 0.018033005 -0.05121418 0.0071392953
0.061877437 0.03341426 0.053123154 -0.02034856 -0.021432754 0.0047919676 -0.038128797 -0.019633308
0.056372903 0.04392226 0.058620803 -0.07026041 0.0028847978 -0.06942785 -0.0069847703 0.041204937
0.030366525 0.0019260496 0.020501196 -0.052288808 0.025082625 -0.0025169775 0.030410923 -0.062125437
-0.040479124 -0.015366238 -0.05213795 0.051653214 0.04101198 0.07034365 0.059828363 -0.007169284
0.004344642 -0.06712945 -0.026815698 0.029132336 0.06679345 0.043958575 0.021575242 0.037958935
-0.036675483 0.026154056 0.00984332 0.037340052 0.053488538 -0.025468625 -0.04288083 -0.06816058
0.041479744 -0.003030166 0.0671506 0.002939023 -0.049282618 0.0025829077 0.05628278 0.04838267
0.027793951 -0.06434071 0.06392943 0.011551373 0.056943245 -0.055079713 -0.029093541 -0.024875853
0.05895651 0.007456064 -0.04043744 -0.00750196 0.058784656 -0.02931068 -0.056176096 0.05400323
0.008569732 0.01017265 -0.052583374 -0.05764628 -0.025479104 -0.023909647 -0.034264233 0.020324267
0.007257268 -0.004813127 0.024645723 0.023185007 0.0518639 0.0035150424 -0.06011895 -0.011708505
-0.038107537 0.040656596 0.019783974 -0.052387632 0.0085787475 -0.004019782 0.021386124 -0.05255781
-0.009670526 -0.04431565 0.05948461 -0.000713177 0.06273804 0.041029066 0.0635447 -0.047478177
-0.055042103 -0.0137207545 0.006018311 0.009018362 0.063956894 -0.00475201 -0.05291763 -0.011042938
-0.030074239 -0.067984514 0.014780305 -0.06821865 0.025489226 0.029686183 -0.01274848 -0.06235032
-0.01834096 0.037043035 -0.04619756 0.048573464 0.067426525 0.02107808 0.055901356 -0.048323885
00000000: 309c a3bb dc28 393d 22df 783d fcb6 40bc
00000010: 7ace 3a3d 66c4 4dbd 0040 bf38 2897 4a3d
00000020: e009 fe3c ec59 34bd c8bd 2bbd 42bf 89bc
00000030: 00b5 e73b cc75 e53c b00b 2b3c c6c2 38bd
00000040: a853 133d b25a 59bd fcb8 f03c 6432 313d
00000050: 2602 603d 0221 96bc e83d 523d 2d26 8f3d
00000060: 0007 21bb 666a 80bd 3e13 573d 447b 3bbd
00000070: 1a4b 333d ea5f 0a3d a2a6 3e3d aa05 1e3d
00000080: 28d1 a23c 0023 9e39 4cdd de3c 304d c33b
00000090: 6460 a43c 0680 89bd a4dc a33c 40a7 a33c
000000a0: 40e9 78bc 44b7 23bd 90dd 6d3c ac5d b33c
000000b0: bc4a 583d c70f 8cbd a336 8c3d d6dd 32bd
000000c0: 265f 3b3d cd9c 8c3d 1863 fe3c 0625 febc
000000d0: 8001 213d 6858 333c 3079 ff3c d79a 6ebd
000000e0: 17c0 833d 7424 b5bc 2845 64bd 30d9 b7bb
000000f0: 06e5 15bd de77 5b3d 7cbc 5bbd d838 a63c
00000100: 60f8 fd3b 927d 5c3d 4a49 623d 96af 86bc
00000110: 6cda 7bbd 03ac 8dbd 1e59 d6bc bae1 eebc
00000120: 8e5c ccbc 1a21 02bd 282c 0ebd ecc1 163d
00000130: 9eff 383d 75a7 823d b1e5 67bd c007 cc3a
00000140: 2fa8 80bd 57f9 5dbd d46c 543d 1009 283c
00000150: 32c8 c1bc f030 ec3c b4a1 e8bc f964 50bd
00000160: 1039 d83c ea99 3a3d 844e 88bd 5eb8 3cbd
00000170: b0ed a8bb c4f7 95bc 58ca 7bbd e615 93bc
00000180: 5e44 8ebc 8130 85bd 9293 3a3d 00e1 383c
00000190: 00f6 393a fc6b 2ebc 5c3d 35bd a4cd ab3c
000001a0: 7cb9 32bc 994f 8f3d b102 813d e886 41bd
000001b0: cc5f 8bbd f83f 323c db0d 90bd 381b 2d3c
000001c0: 441b 4ebd 80ff 303b 7eaf 83bd 3428 29bd
000001d0: e874 0f3c d440 72bd 0a1e 52bd 19f4 8fbd
000001e0: 07a1 89bd 3a28 9ebc 9e03 123d a685 383d
000001f0: 6afb 38bd f4b9 933c f6c5 51bd c0f0 e93b
00000200: 3273 7d3d 64dd 083d aa97 593d 06b2 a6bc
00000210: be93 afbc f005 9d3b f12c 1cbd 08d6 a0bc
00000220: 46e7 663d d4e7 333d 5e1c 703d b1e4 8fbd
00000230: e00e 3d3b 3030 8ebd 80e0 e4bb 82c6 283d
00000240: 38c3 f83c 8073 fc3a 20f2 a73c ca2c 56bd
00000250: 147a cd3c e0f3 24bb 5420 f93c 3e77 7ebd
00000260: 70cd 25bd acc2 7bbc 9a8e 55bd 5292 533d
00000270: 2efc 273d 5510 903d 960e 753d 50ec eabb
00000280: 805d 8e3b 2a7b 89bd 98ac dbbc f0a6 ee3c
00000290: 01cb 883d e80d 343d 90be b03c d47a 1b3d
000002a0: 0839 16bd 0841 d63c e045 213c e2f1 183d
000002b0: cc16 5b3d 94a3 d0bc cfa3 2fbd c697 8bbd
000002c0: aae6 293d c095 46bb 4186 893d a09c 403b
000002d0: 92dc 49bd 0046 293b c688 663d e82c 463d
000002e0: 24b0 e33c 10c5 83bd 6fed 823d f841 3d3c
000002f0: 523d 693d 449b 61bd 9455 eebc 72c8 cbbc
00000300: 627c 713d 0052 f43b bba1 25bd 00d3 f5bb
00000310: 2ec8 703d f41c f0bc e818 66bd 7e32 5d3d
00000320: 1068 0c3c 30ab 263c aa61 57bd 811e 6cbd
00000330: 8eb9 d0bc 2ade c3bc a758 0cbd 147f a63c
00000340: 60ce ed3b 70b7 9dbb d4e5 c93c 7cee bd3c
00000350: 3e6f 543d a05c 663b 4a3f 76bd 08d5 3fbc
00000360: a616 1cbd 8887 263d 0012 a23c 6a94 56bd
00000370: e08d 0c3c 60b8 83bb f431 af3c dc46 57bd
00000380: 2071 1ebc 5484 35bd 22a6 733d 80f4 3aba
00000390: cd7c 803d 180e 283d b923 823d 7a78 42bd
000003a0: d473 61bd 04cd 60bc 4035 c53b c0c1 133c
000003b0: d5fb 823d c0b6 9bbb 28c0 58bd 70ed 34bc
000003c0: 405e f6bc 773b 8bbd 1829 723c 38b6 8bbd
000003d0: c8ce d03c 7030 f33c 00df 50bc 0d63 7fbd
000003e0: c83f 96bc 70ba 173d a739 3dbd f8f4 463d
000003f0: eb16 8a3d f0ab ac3c d2f8 643d 44ef 45bd

fc2.weight f4 [128, 276]
0.040601455 0.058081128 0.06158086 -0.008846171 0.038976736 -0.042799283 0.041608192 0.055685885
0.02436281 0.036196038 -0.07686759 -0.027113121 0.08084328 -0.024666801 0.04967817 0.068205945
-0.068437845 -0.044742715 -0.08253008 -0.0049400926 -0.045866832 0.0468724 -0.036163744 0.06767916
-0.08025511 0.041822366 -0.0031012595 -0.04400659 -0.040733118 -0.044116613 0.052233152 -0.040924106
0.047029324 0.007469721 -0.012277 -0.041380923 0.026206233 -0.027523492 0.079762824 -0.007506229
0.05497276 -0.036256373 0.0728138 0.0052594766 -0.06354526 -0.07615008 -0.0378277 -0.03835163
0.07793512 -0.07836699 -0.03572509 -0.0371831 0.06238834 -0.042214 -0.005530603 -0.03653272
-0.053163085 0.06223605 -0.006823048 -0.041165628 0.052025728 -0.001465112 -0.051539462 -0.04142937
0.041984893 -0.06958497 0.04116974 -0.056893725 -0.020471454 0.07643434 0.019590385 -0.0069513544
-0.03641925 -0.018572293 -0.00329794 -0.047091927 -0.01703465 -0.04201949 0.037278704 -0.004062563
-0.071337625 0.05943171 0.035367064 -0.04743437 -0.054675177 -0.010648496 -0.0730412 -0.026996996
-0.0069349557 -0.0012146756 0.018930212 0.060875647 0.05336287 0.08692219 0.007844269 -0.08434767
-0.06881507 -0.03046054 -0.008697338 0.016968355 0.069830514 -0.07665096 0.002475135 -0.07439489
0.008041449 0.049565427 0.052858464 -0.0700811 -0.074365005 -0.018360905 -0.087174505 0.06552612
0.07961308 -0.07733834 0.05169288 -0.011452593 -0.037886877 0.0048530623 -0.02222842 0.06450731
-0.06155701 -0.007411167 0.06626459 0.06966216 0.054657735 -0.042286344 -0.0017583445 -0.04037199
-0.063064486 -0.06972038 -0.054890346 -0.054893572 -0.017723426 -0.018866554 -0.05484484 0.087436445
0.07255042 -0.025155462 -0.07044292 -0.044069577 0.06463694 -0.0094071105 0.05815626 -0.058657423
-0.05469765 -0.021655038 -0.027472854 -0.028911684 0.0066337883 -0.039458122 -0.01520925 -0.00941214
-0.0316436 0.024970986 0.04951083 0.0030728206 -0.027885124 -0.02287867 -0.06443628 0.04249292
-0.018909775 0.08083517 -0.060328797 0.08086353 0.06861373 0.022948809 -0.05551489 -0.063291155
0.019067109 -0.08337708 -0.056715854 -0.04305509 0.074923344 0.057727687 -0.0248176 0.006375186
0.05109247 -0.04393598 -0.06818846 0.0521994 -0.049560595 0.05911637 -0.049128473 0.057289846
-0.084877454 0.039161794 -0.044994004 -0.08310033 -0.02295784 0.0075610355 0.044183694 0.014246643
0.046342634 -0.012274332 -0.06771763 0.08346514 0.07491765 0.07535953 -0.020045355 -0.070599854
0.057297044 -0.06492152 0.08075524 -0.023753047 -0.053418845 -0.02793919 -0.049817987 -0.019851059
0.020675734 0.004554756 0.038130827 -0.054209024 -0.054368917 0.010176472 -0.033227425 0.08601495
0.01656156 0.0053123236 0.08600526 0.07306292 0.035051256 0.06435666 0.009667508 0.0511036
-0.015703224 -0.06615613 0.001455985 0.060349293 0.013158269 0.063182436 -0.046548013 0.05896292
0.048697494 0.0034953132 -0.023628168 0.037123002 0.01951503 -0.077779025 0.0007580295 -0.012800448
0.021970496 0.055142157 0.023962013 0.07190778 0.022754714 0.0028546304 -0.08209517 -0.062015273
0.014269523 -0.0258784 -0.032145295 -0.0054849163 0.009894341 0.04113186 -0.028671648 0.07530897
00000000: b64d 263d 7ae6 6d3d 363c 7c3d 88ef 10bc
00000010: 12a6 1f3d 4d4e 2fbd 5a6d 2a3d e216 643d
00000020: 8494 c73c 4c42 143d c16c 9dbd 561c debc
00000030: 2991 a53d 0812 cabc 567b 4b3d 8faf 8b3d
00000040: 2429 8cbd 2344 37bd 8805 a9bd 80e0 a1bb
00000050: dcde 3bbd 46fd 3f3d 6f20 14bd 5f9b 8a3d
00000060: cb5c a4bd ee4d 2b3d 803e 4bbb 4140 34bd
00000070: c5d7 26bd 9fb3 34bd 6ef2 553d 09a0 27bd
00000080: d2a1 403d 90c4 f43b 7825 49bc 0b7f 29bd
00000090: 74ae d63c f278 e1bc b15a a33d d0f6 f5bb
000000a0: 1e2b 613d 9081 14bd 671f 953d b057 ac3b
000000b0: 0424 82bd 93f4 9bbd 38f1 1abd 9916 1dbd
000000c0: 739c 9f3d df7e a0bd 7954 12bd 4e4d 18bd
000000d0: ea8a 7f3d 96e8 2cbd 103a b5bb 55a3 15bd
000000e0: 89c1 59bd 3aeb 7e3d e093 dfbb 4a9d 28bd
000000f0: ee18 553d 0009 c0ba 0b1b 53bd d8b1 29bd
00000100: 5af8 2b3d 9182 8ebd 9aa1 283d 6509 69bd
00000110: c0b3 a7bc 9b89 9c3d 047c a03c 30c8 e3bb
00000120: 5a2c 15bd ec24 98bc 4022 58bb 77e3 40bd
00000130: 408c 8bbc a11c 2cbd 8eb1 183d 401f 85bb
00000140: 7619 92bd aa6e 733d 0edd 103d 8b4a 42bd
00000150: 14f3 5fbd 0877 2ebc a096 95bd ce28 ddbc
00000160: a03e e3bb c035 9fba 8813 9b3c be58 793d
00000170: 0693 5a3d 4304 b23d 4085 003c 79be acbd
00000180: eaee 8cbd 6288 f9bc 487f 0ebc 3801 8b3c
00000190: 4d03 8f3d 2efb 9cbd e035 223b 595c 98bd
000001a0: 48c0 033c 1e05 4b3d 1e82 583d ae86 8fbd
000001b0: ae4c 98bd 9c69 96bc 8c88 b2bd 8f32 863d
000001c0: 2f0c a33d 9063 9ebd eabb 533d a8a3 3bbc
000001d0: 452f 1bbd 7006 9f3b 6018 b6bc 691c 843d
000001e0: 3423 7cbd 60d9 f2bb bbb5 873d 09ab 8e3d
000001f0: cae0 5f3d 7234 2dbd 4078 e6ba 1a5d 25bd
00000200: f427 81bd 8fc9 8ebd b3d4 60bd 15d8 60bd
00000210: b830 91bc 088e 9abc fca4 60bd e111 b33d
00000220: 5195 943d d412 cebc 6144 90bd 4d82 34bd
00000230: 5f60 843d 4820 1abc 4235 6e3d c442 70bd
00000240: a50a 60bd e865 b1bc c00e e1bc 32d8 ecbc
00000250: 4060 d93b d79e 21bd 3830 79bc 6035 1abc
00000260: b89c 01bd f48f cc3c decb 4a3d 6061 493b
00000270: 586f e4bc 0c6c bbbc 2bf7 83bd 0e0d 2e3d
00000280: ace8 9abc e98c a53d 541b 77bd c79b a53d
00000290: 5b85 8c3d 24ff bb3c 9563 63bd cb9e 81bd
000002a0: a032 9c3c 9ac1 aabd e24e 68bd 895a 30bd
000002b0: 6971 993d de73 6c3d 484e cbbc f0e6 d03b
000002c0: 5646 513d 37f6 33bd 64a6 8bbd 0acf 553d
000002d0: 0d00 4bbd 0224 723d f03a 49bd c2a8 6a3d
000002e0: 3bd4 adbd 1e68 203d a24b 38bd 8130 aabd
000002f0: 1412 bcbc 90c2 f73b f6f9 343d c06a 693c
00000300: c6d1 3d3d 481a 49bc 8aaf 8abd c5ef aa3d
00000310: 6d6e 993d 1956 9a3d 2836 a4bc a896 90bd
00000320: 4eb0 6a3d 93f5 84bd 0163 a53d c095 c2bc
00000330: b8cd 5abd bae0 e4bc f20d 4cbd b09e a2bc
00000340: 2860 a93c 1040 953b 122f 1c3d 480a 5ebd
00000350: f1b1 5ebd 38bb 263c 7b19 08bd 9b28 b03d
00000360: 1cac 873c 0013 ae3b 8723 b03d 03a2 953d
00000370: e891 0f3d 6dcd 833d 7864 1e3c 0252 513d
00000380: 0ca4 80bc dd7c 87bd c0d6 be3a d230 773d
00000390: c895 573c cb65 813d 21a9 3ebd 1a83 713d
000003a0: 0677 473d a011 653b dc8f c1bc 4a0e 183d
000003b0: fcdd 9f3c 9c4a 9fbd 80b6 463a f8b8 51bc
000003c0: 78fb b33c bedc 613d fc4b c43c 6344 933d
000003d0: 1868 ba3c c014 3b3b 8321 a8bd ba03 7ebd
000003e0: b8ca 693c f0fe d3bc c9aa 03bd d0ba b3bb
000003f0: e01b 223c e279 283d cee0 eabc 973b 9a3d

fc2.bias f4 [128]
0.02534201 0.048130088 -0.023765225 0.025280729 0.037375122 0.027145773 0.0080179125 0.053546436
0.048840955 -0.017662797 -0.018232442 0.023546375 -0.055658348 0.026777774 -0.049520392 0.05547428
0.053504497 -0.030781414 0.0054827854 -0.029809255 -0.030537166 0.056930184 -0.040940367 0.032836325
-0.026757132 -0.014133003 0.0035327226 -0.03839162 -0.01949301 -0.031613383 -0.016870923 0.05488816
-0.0048594736 -0.031202137 0.03398457 -0.057148296 -0.04909255 0.0021527447 -0.05966199 0.023400202
0.05609732 0.037784234 0.023779564 -0.053968772 -0.0122544505 0.012235768 -0.029702583 0.03369361
-0.014430217 -0.047582254 0.025988124 0.015776575 -0.043614507 -0.04005319 0.011040658 0.013200738
-0.054133795 0.033081405 -0.008169752 -0.02761693 0.017198578 0.010034129 0.015770301 -0.01900959
-0.008290831 -0.04604637 0.025043927 -0.012299169 0.0060383305 -0.05038833 0.0042933375 -0.016056549
0.03254594 -0.043178156 -0.05995463 -0.0028627813 0.016694486 -0.054801416 0.016656093 0.004066393
-0.040958002 -0.012909707 0.032745264 -0.03908217 0.003647022 0.053581662 0.010638885 0.003104508
-0.05682215 0.049516335 -0.02083183 -0.013933502 0.057477698 -0.035131637 0.056077294 0.032365166
0.04223662 -0.0236248 0.045254536 -0.041741863 0.019253977 0.043141246 -0.028424345 0.040308893
0.013838612 -0.01590741 0.049788125 0.054369524 -0.03835296 -0.005409587 -0.0020846203 -0.051291756
-0.029440662 -0.015095111 0.024491273 -0.0075433105 0.020270593 -0.014333904 -0.045415666 0.03517686
0.035939507 0.02237083 -0.025590263 0.00475882 -0.00058107823 0.0038623214 0.034642205 0.031523623
00000000: 0c9a cf3c 0e24 453d 4aaf c2bc 8819 cf3c
00000010: a816 193d d060 de3c 905d 033c 8253 5b3d
00000020: 740d 483d 92b1 90bc 345c 95bc 54e4 c03c
00000030: 02fa 63bd 105d db3c e5d5 4abd 0039 633d
00000040: 8827 5b3d 4e29 fcbc f0a8 b33b 8a32 f4bc
00000050: 1429 fabc a02f 693d 16b1 27bd 627f 063d
00000060: c631 dbbc 1c8e 67bc 4085 673b 8840 1dbd
00000070: ceaf 9fbc 097d 01bd e434 8abc 68d2 603d
00000080: 383c 9fbb a09b ffbc 6833 0b3d 5514 6abd
00000090: 4515 49bd 1015 0d3b 2160 74bd c8b1 bf3c
000000a0: 4ec6 653d a4c3 1a3d 5ccd c23c 5c0e 5dbd
000000b0: e4c6 48bc 8878 483c d552 f3bc 5002 0a3d
000000c0: b86c 6cbc 9ce5 42bd 0ce5 d43c e03d 813c
000000d0: 20a5 32bd d00e 24bd e0e3 343c e847 583c
000000e0: 66bb 5dbd 5e80 073d 6cda 05bc e63c e2bc
000000f0: 08e4 8c3c 3066 243c b830 813c 00ba 9bbc
00000100: 44d6 07bc 1e9b 3cbd ec28 cd3c 7482 49bc
00000110: 30dd c53b fe63 4ebd 20af 8c3b 0689 83bc
00000120: e44e 053d 94db 30bd fc92 75bd 809d 3bbb
00000130: e0c2 883c 7377 60bd 5c72 883c 603f 853b
00000140: 94c3 27bd 3c83 53bc e61f 063d a014 20bd
00000150: e002 6f3b 7278 5b3d b84e 2e3c 0075 4b3b
00000160: 58be 68bd a4d1 4a3d 84a7 aabc 5849 64bc
00000170: bc6d 6b3d 31e6 0fbd 4eb1 653d 5691 043d
00000180: 4e00 2d3d cc88 c1bc d25c 393d 84f9 2abd
00000190: 84ba 9d3c e0b4 303d 2cda e8bc f01a 253d
000001a0: 58bb 623c 4250 82bc a2ee 4b3d 94b2 5e3d
000001b0: fe17 1dbd e842 b1bb 209e 08bb 4e17 52bd
000001c0: 8b2d f1bc 7c51 77bc eca1 c83c e02d f7bb
000001d0: 840e a63c c0d8 6abc c705 3abd 9c15 103d
000001e0: 4e35 133d 0843 b73c aca2 d1bc e0ef 9b3b
000001f0: 8053 18ba 001f 7d3b fce4 0d3d ea1e 013d

fc3.weight f4 [1, 128]
-0.00030132895 0.0018992452 -0.0023385307 0.0011677789 -0.0024415741 0.0022492297 -0.0010141472 0.0016101445
0.0010538623 0.0010335804 -0.0012486427 -0.0013325737 -0.0028931606 -0.0016830321 -0.0014968672 0.0027898056
0.0015038326 0.0014056014 0.0012071375 0.0021759109 0.0018301271 -0.0017617329 0.0021246509 -0.0028212294
4.3406384e-05 -0.0017186347 0.0021054973 -0.00012702728 -0.0019475237 -0.0015814261 -0.0012783133 -0.000112753594
0.0024665003 -0.0028464622 -0.0011410074 -0.0022106874 0.0011751796 -0.0012137722 -0.0001819618 -0.0019118596
0.0005989 0.00074639614 0.0013613468 0.0006171202 -0.0013712557 -0.0007129193 0.0013281591 0.001979148
0.0017513102 7.164385e-05 3.6826124e-05 0.0004497706 -0.0029228367 0.0020896685 -0.0026250759 0.0018810299
0.0021000444 -0.0006485053 0.0021531465 0.001418985 -0.00071176235 -0.0020711282 -0.0013726974 -0.0016188436
-0.0014689747 0.00095397606 -0.0026962238 0.0012466838 0.00082831667 -0.0026025688 0.0025394694 0.00035158568
-0.002881313 -0.00042643608 0.00034595886 0.0012935554 -0.0024685808 0.0013531954 -0.0011618711 0.0013990905
-0.00032808236 0.0029428657 -0.0009189416 0.002931939 -0.0005499937 0.0007083935 0.00018545357 0.0017304248
0.002996685 0.0027384502 0.0001602266 0.0015811133 0.002119393 0.002422024 0.0014383662 -0.0022925255
0.0017038472 -0.0024775618 -0.002502737 0.0005949207 -0.00083476235 0.0017252224 -0.0008030948 -0.0011348526
0.0014234707 -0.0025236725 0.0018386459 0.0018063653 0.0020591966 -0.0013743482 0.0011083833 0.001601167
0.00021007494 -0.0011155625 -0.0004125859 0.002294253 0.0013763183 0.0019410588 0.0012162239 0.0024310704
-0.0026650443 -0.0024146698 0.0013533006 0.0019870247 0.00076873647 0.0018732492 -0.0021273252 0.00067977305
00000000: b0fb 9db9 18f0 f83a 0942 19bb 2810 993a
00000010: d102 20bb d067 133b 22ed 84ba 7c0b d33a
00000020: c021 8a3a 3479 873a 7fa9 a3ba c1a9 aeba
00000030: 2e9b 3dbb 3099 dcba 8732 c4ba 2cd5 363b
00000040: 401c c53a 283c b83a d038 9e3a ba99 0e3b
00000050: e0e0 ef3a f2e9 e6ba ba3d 0b3b 60e4 38bb
00000060: 400f 3638 d043 e1ba 62fc 093b a032 05b9
00000070: 0d44 ffba db47 cfba 148d a7ba 2076 ecb8
00000080: 02a5 213b b68b 3abb db8d 95ba 2ee1 10bb
00000090: 7c08 9a3a 7017 9fba 00cd 3eb9 5d97 faba
000000a0: 80ff 1c3a cca9 433a 386f b23a 3cc6 213a
000000b0: b5bb b3ba 34e3 3aba a015 ae3a 98b4 013b
000000c0: 388c e53a 803f 9638 c075 1a38 30cf eb39
000000d0: 108d 3fbb d2f2 083b 7709 2cbb e48c f63a
000000e0: e6a0 093b 7400 2aba ce1b 0d3b 3cfd b93a
000000f0: 9095 3aba c4bb 07bb 15ec b3ba 612f d4ba
00000100: 9d8a c0ba 4014 7a3a 21b3 30bb c467 a33a
00000110: 6423 593a dc8f 2abb 3a6d 263b 0855 b839
00000120: 69d4 3cbb 4893 dfb9 d061 b539 848c a93a
00000130: eac7 21bb b45d b13a ed49 98ba b061 b73a
00000140: 7802 acb9 18dd 403b 20e5 70ba c625 403b
00000150: 742d 10ba 7cb3 393a 5076 4239 6ccf e23a
00000160: 0864 443b 9277 333b 8002 2839 5c3d cf3a
00000170: 84e5 0a3b d2ba 1e3b 9087 bc3a 323e 16bb
00000180: a053 df3a 975e 22bb f604 24bb 74f4 1b3a
00000190: f4d3 5aba dc20 e23a c886 52ba 56bf 94ba
000001a0: c093 ba3a 3364 25bb b8fe f03a 90c3 ec3a
000001b0: 96f3 063b 7923 b4ba 2c47 913a 40de d13a
000001c0: 9047 5c39 1138 92ba 5850 d8b9 2e5b 163b
000001d0: 9465 b43a 206b fe3a b469 9f3a 9852 1f3b
000001e0: 06a8 2ebb 703f 1ebb 3c61 b13a be38 023b
000001f0: 0885 493a d087 f53a 986a 0bbb cc32 323a
