models/checkpoint_critic_local_10.pth (torch_old, 349244 bytes, 5 tensors)

fcs1.weight f4 [256, 200]
00000000: 2002 7cbc 4048 ed3c 9c54 8ebc 6044 ff3b
00000010: 764f 7cbd 1481 27bd a205 2d3d 224e 27bd
00000020: 9072 51bd c8e6 023d 9019 09bc 3818 703d
00000030: d812 fabc 00e7 0c3b c01b 023c 0e94 5c3d
00000040: a0d9 403d 180e 103d 90d7 4b3c 648d a7bc
00000050: c00a 193c 48b2 6d3c d07f 2c3d 18bd 57bc
00000060: 34cc 253d b88a 0c3d 86e0 5fbd 5a60 30bd
00000070: 42fd 39bd 8062 0dbc 76f0 4fbd 0894 533c
00000080: 3a8f 623d 287f 09bd b27f 2dbd ee71 21bd
00000090: b8f2 173d e4b7 d63c 28d3 6cbc a03e 7ebd
000000a0: 5cd4 703d c647 0b3d a061 a23b f6b3 57bd
000000b0: 149c d4bc d8de 293d c88d 733d 80ac bcba
000000c0: 3424 893c fa1b 1dbd d0a1 bd3b 5877 d4bc
000000d0: 6063 9a3b 0083 eb3a 5665 21bd 4ca3 153d
000000e0: 2cb7 aa3c cc57 bdbc d446 d83c 88bd 4ebd
000000f0: 44bc 42bd 8cab 4b3d f88e 833c 4c3b 283d
00000100: 00d0 c03a 2211 6fbd 1088 cebc ea38 2abd
00000110: 4af7 523d 004d af3a be3a 53bd faf1 74bd
00000120: e85c 48bd a452 253d 8482 a0bc e412 6dbd
00000130: 4098 053d 281b 3cbc b46d b83c 186e a23c
00000140: 78dd a1bc 2806 2abd b8e7 66bd 40a0 7dbb
00000150: 30c4 7bbd b889 5b3c 087d eb3c acc2 79bd
00000160: c2dd 38bd 58f3 1c3d a8e2 6b3d 80a1 25bc
00000170: f876 2d3d 9e0f 313d 803a c2ba e642 453d
00000180: 7869 31bc 54e5 89bc c8fd 273d 1e76 543d
00000190: 203b 383b 70f4 133c 62ef 69bd d0ef 39bc
000001a0: ece2 55bd f040 b93b 7cce f73c 8800 6d3d
000001b0: dcf5 85bc d0dd c2bb b8d8 4e3c 70e6 fe3b
000001c0: cc0d 8fbc 2048 7b3d 90dc 24bc 8658 4bbd
000001d0: 787d 7cbd 8cf5 1d3d 2080 373c 22eb 7dbd
000001e0: 482b 95bc 007b 18ba 200b 4bbd e06b a33c
000001f0: 8c0d 93bc 6447 2c3d 0a36 58bd 2012 8cbc
00000200: ea25 76bd 70a3 a0bc 0006 0d3c 7a01 30bd
00000210: 00ed bfbb 72fa 2cbd 2815 34bd ace4 f6bc
00000220: 403b ec3a 02e8 4c3d 68b9 c9bc b09b 84bc
00000230: c8e4 54bc 5c28 78bd 785d 4b3c 62f9 683d
00000240: eaae 17bd 5efd 53bd fc5e e2bc 665d 7cbd
00000250: e058 babc 300f 07bd c02c c2bb ec48 c6bc
00000260: bebd 303d f0e4 af3c 886e 263d 2494 76bd
00000270: 20f8 44bb d80a 743d 4689 743d ecc2 c93c
00000280: 6e58 793d ccba 85bc d813 773c fc79 893c
00000290: 2ed5 753d 58d3 b53c 405c abbb e415 bb3c
000002a0: 1c2d ec3c ec81 eabc ac78 6abd fcdc e93c
000002b0: 8e26 59bd 6c9e 1bbd 063f 083d 18d8 0abc
000002c0: 2eab 4e3d 1af6 3ebd c024 31bd 1480 463d
000002d0: 00ae a5bc 542d cc3c e241 713d 1222 1b3d
000002e0: 6498 753d e626 4b3d 5012 65bc d0b4 0fbd
000002f0: f0fd 46bd bc1c babc 0044 e539 78ea a1bc
00000300: f0f1 5dbd e0fd 753c 966e 52bd 500d fcbc
00000310: 6ec9 1dbd a8c8 e2bc 841c 213d 2037 ddbb
00000320: 001f d23a 346d ad3c 8eaa 20bd 3cd7 70bd
00000330: 00c4 443c f2ea 27bd 9e05 253d 4064 033c
00000340: 5030 7c3c c094 893c f0f0 9ebb 3eaa 5e3d
00000350: 6490 d33c 10e2 773c 82e1 00bd f054 85bb
00000360: 40ec 5dbd 14ff 163d 68f1 34bc a09d 263b
00000370: 587f c3bc 46b1 5d3d d0f0 d2bb 507d 00bc
00000380: 8893 f93c 507a f9bc 9edf 26bd f043 ad3c
00000390: 7214 6c3d 82b8 19bd e4aa ef3c a0d8 43bb
000003a0: 584c eabc 142c 663d aa77 273d a280 37bd
000003b0: 483e 493d e889 14bd d073 e73b 00cb 88b9
000003c0: 0028 0c39 180b 553c 4019 2fbd 26a0 6b3d
000003d0: f2f5 7a3d d836 5d3c d07c 513d 485a 57bc
000003e0: cc03 6e3d 5892 04bd 8edc 2ebd 1c84 6c3d
000003f0: 507a b2bc 5cf9 b5bc 4c77 9a3c 7044 73bd
-0.015381366 0.028965116 -0.01737433 0.0077901334 -0.061599217 -0.040894583 0.0422417 -0.040845998
-0.051134646 0.03195837 -0.008367911 0.058616847 -0.030526564 0.0021499991 0.007941186 0.053852133
0.047082543 0.03516969 0.012441531 -0.020453162 0.009340942 0.014507838 0.04211408 -0.013167642
0.040477946 0.03431198 -0.05465748 -0.043060638 -0.04540754 -0.008629441 -0.05076643 0.012913711
0.055312373 -0.03356853 -0.042358108 -0.039415292 0.03709671 0.026210733 -0.01445464 -0.062071443
0.05879627 0.034003995 0.0049554855 -0.05266186 -0.02595333 0.041472286 0.059461385 -0.0014394671
0.016740896 -0.03835676 0.005787112 -0.025935814 0.0047115535 0.0017968118 -0.039403282 0.036532685
0.020839296 -0.023113154 0.026400961 -0.05047372 -0.047542825 0.049724147 0.016059384 0.041072175
0.0014710426 -0.05836595 -0.025211364 -0.041558184 0.051505364 0.0013374388 -0.051569693 -0.05980108
-0.048916727 0.040362015 -0.019593485 -0.057879344 0.0326159 -0.011481084 0.022513248 0.019827887
-0.019758925 -0.041509777 -0.056373328 -0.0038700253 -0.061466396 0.013399534 0.028746143 -0.06097667
-0.04513336 0.03831801 0.057589203 -0.010109305 0.042349786 0.043227784 -0.001481846 0.048159502
-0.010828368 -0.016832985 0.04101351 0.051870458 0.0028111413 0.009030446 -0.05711306 -0.01134868
-0.052218363 0.005653493 0.030249827 0.057861835 -0.016352586 -0.0059468523 0.012624912 0.007778935
-0.017462634 0.06134808 -0.010062352 -0.04964497 -0.061643094 0.03856425 0.011199981 -0.06199182
-0.018209115 -0.0005816668 -0.049571157 0.0199489 -0.017950796 0.04206027 -0.05278591 -0.017098486
-0.06009475 -0.019609183 0.008607388 -0.04297016 -0.00585711 -0.04223103 -0.04396549 -0.030138336
0.0018023029 0.050025947 -0.024624541 -0.016187519 -0.012993999 -0.060585365 0.012412421 0.056878455
-0.037032045 -0.0517553 -0.027633183 -0.06161251 -0.022747457 -0.03297347 -0.005925745 -0.024204694
0.043149702 0.02147147 0.040632755 -0.06019987 -0.003005512 0.059580654 0.059701227 0.024629079
0.06087535 -0.016324423 0.015080415 0.0167818 0.060017757 0.022195503 -0.005229503 0.022837587
0.028830104 -0.028626405 -0.057243988 0.028547756 -0.053015284 -0.03799288 0.03326323 -0.008474372
0.05045622 -0.04662142 -0.04324794 0.04846199 -0.020224571 0.024923958 0.05890072 0.03787429
0.059959784 0.049597643 -0.013981417 -0.035084546 -0.048582017 -0.02271878 0.00043728948 -0.019765124
-0.054185808 0.015014142 -0.051374994 -0.030768067 -0.038522176 -0.027683571 0.039333835 -0.006750956
0.0016030967 0.021170236 -0.039225154 -0.058799013 0.012009621 -0.040995546 0.04028856 0.008019507
0.015392378 0.016794562 -0.0048504993 0.054361574 0.025825687 0.015129581 -0.03146506 -0.004068963
-0.054180384 0.036864355 -0.011043884 0.0025423542 -0.023864433 0.05412414 -0.0064373985 -0.007842377
0.030465856 -0.030453831 -0.0407406 0.02115056 0.057636686 -0.037529476 0.029256292 -0.0029883757
-0.028600857 0.05619438 0.040885605 -0.04480041 0.04913166 -0.03626433 0.0070633665 -0.00026091188
0.00013366342 0.013003133 -0.04274869 0.057525776 0.061269708 0.013501845 0.05114442 -0.013144083
0.05810909 -0.032366127 -0.042690806 0.057743177 -0.021786839 -0.02221363 0.018855713 -0.05939144

fcs1.bias f4 [256]
00000000: 88da 773c c6c5 2a3d caeb b1bc c086 beba
00000010: 7e26 7b3d d068 01bd 70dd 403c 9e17 63bd
00000020: 7e98 8abd a248 3f3d f7f8 893d aca9 40bd
00000030: 6c43 3c3d 7a96 a4bc 405f ef3b 87da 863d
00000040: b22a 8cbd c436 69bc 7c92 17bc fce9 83bd
00000050: 40d2 6ebd ee5d 7b3d d9eb 57bd debc 83bd
00000060: 750e 3bbd 884d 493c 3f3f 68bd 9c15 8abc
00000070: d12f 89bd d079 443d d497 063d 9c1e 3a3d
00000080: a0fb 533d e3ac 803d 6e7d 0dbd 1062 fbbb
00000090: 9e85 433d 2e15 b5bc 1e14 713d ab8a 813d
000000a0: 2e9d 7c3d 1570 8cbd c893 41bc 1673 60bd
000000b0: 1bde 8d3d b651 4a3d 1294 1fbd a5f2 2cbd
000000c0: 3848 143c 2091 71bb 0077 27bc bf9e 36bd
000000d0: 5e65 cbbc e395 26bd 00e2 5cb9 13a1 07bd
000000e0: 2e8d 8ebd 60e9 3b3d 60ad 4abc a837 59bc
000000f0: 7c47 d5bc 4ce7 813c 10eb 5abc 9802 bd3c
00000100: 3015 0c3d 5055 1a3c 24e9 12bc 70e7 b9bc
00000110: d49d f13c a010 3cbb 0d7d 0dbd ae3d 1fbd
00000120: 60f2 1d3d 68f3 40bc 1482 d53c 3070 013c
00000130: 4caa 2dbd 230c 85bd 50c8 94bb 865d 44bd
00000140: ea30 f7bc ac0f 17bd 64e3 81bd 0c8c bf3c
00000150: ec16 fc3c 1483 1cbd 8496 c13c 40b1 82ba
00000160: 8094 993b 4c2c 553d 2ec4 793d 509a 8b3c
00000170: ba68 b1bc aa2a 013d 849c 11bd a506 853d
00000180: 7e52 d7bc 5078 443d 4e24 1fbd 7695 3fbd
00000190: 2e27 b8bc d894 43bd be1f 0a3d be43 0abd
000001a0: b398 0dbd 0647 93bc 2b6d 813d 13f8 8fbd
000001b0: aaee 8bbc 50d1 143d 68e7 9b3c 489f 2b3d
000001c0: c7c9 6abd 4cc6 40bc be93 e0bc 4812 d23c
000001d0: c96e 6ebd 18ac 33bc a1cc 42bd ac3d 0b3d
000001e0: 6a12 3f3d cc88 df3c f455 fe3c f07f 82bb
000001f0: c8e7 2fbd 796e 09bd e4c6 e9bc 86e1 0ebd
00000200: 1d88 893d 9ee6 283d f9db 4ebd 8a5d edbc
00000210: c00a 1bbc 96a9 48bd 7e12 2ebd 4fba 8e3d
00000220: f21c 3a3d 4765 4abd 9a1e 073d eb4b 86bd
00000230: 0b19 15bd c0b3 d7ba 5419 e63c 3e31 8dbd
00000240: d809 f0bc 207a 67bc 03c1 8d3d 76c7 1cbd
00000250: 31b7 18bd a096 d1bb 5050 fa3c ca75 f9bc
00000260: 926b 183d fc4c 3cbc d649 31bd 2e97 6b3d
00000270: a2fe 5cbd ff63 873d d158 5ebd 5a2e 4a3d
00000280: e412 af3c 0f43 18bd 4a60 693d 02a7 043d
00000290: e092 23bd 0a56 29bd b436 3fbc 1c39 74bc
000002a0: 5e6d d1bc 7e74 7dbd 3ca6 3cbc 7755 6abd
000002b0: 72b9 043d 8f99 873d 1804 e93c 600c b33c
000002c0: 9aa1 adbc 6020 ab3b 7377 21bd feb8 12bd
000002d0: aa5e aabc 40a3 a1bb 009a c93b 2c73 e93c
000002e0: a087 8d3c 8037 e4bb 282e eb3c fc7c d33c
000002f0: 90b0 ee3b 3892 ed3c acb1 debc 0a33 3fbd
00000300: ccef dd3c 2650 683d 4873 21bc 9275 7b3d
00000310: c0d6 1cbb 86d6 313d d50e 88bd 713e 82bd
00000320: 10a5 f73b 7378 85bd 6c5a f33c da51 733d
00000330: f0d3 503d 947b 153d 80a2 893c c0d3 163d
00000340: 68db 293c 40f7 453b a2cc 4f3d 9ad4 513d
00000350: 2c6b 893c c43b 44bc f2f1 4f3d 0cfd c3bc
00000360: ec7a e73c c0ba 6e3c 583f 723c 2012 dbbc
00000370: a216 153d c225 f2bc f4ec 9e3c 5c92 5ebd
00000380: 1490 f73c 5edf b4bc 2090 423d 486e 77bc
00000390: aca6 c23c 4a79 3fbd 080c 0d3c 8fa7 0bbd
000003a0: 6800 4e3c b60d 6cbd 36b1 0cbd 1e20 223d
000003b0: bee8 6f3d 0136 8c3d 104f a5bb ca0e 1e3d
000003c0: 002c 7a3a 24ff fdbc 5aaa 4dbd ae80 81bd
000003d0: 2f48 0fbd a6a9 713d c256 763d 3f87 8f3d
000003e0: 6024 453c 548d 68bd 1771 813d 868c 54bd
000003f0: a03a fa3c 3838 433c 00fe 1139 8714 49bd
0.0151277855 0.041692518 -0.021718878 -0.0014536008 0.061316006 -0.031594098 0.011771545 -0.055442445
-0.06767367 0.046700127 0.067369394 -0.04703681 0.045962736 -0.020091284 0.007305056 0.065846495
-0.06844081 -0.014234249 -0.009251233 -0.06441113 -0.05830598 0.061368875 -0.052715156 -0.06432508
-0.045668084 0.012286551 -0.05670094 -0.016856007 -0.066985734 0.047967732 0.03285964 0.045439348
0.05175364 0.062829755 -0.034543447 -0.007671602 0.04773485 -0.022104826 0.058857076 0.06325277
0.061673336 -0.068573155 -0.011815019 -0.054797255 0.06927129 0.049394332 -0.03895957 -0.04222359
0.009050421 -0.0036860183 -0.010221243 -0.044584986 -0.02482861 -0.040670287 -0.00021065027 -0.033112597
-0.06960522 0.04587686 -0.012370437 -0.013257898 -0.026035063 0.015857361 -0.013361707 0.023072526
0.034199893 0.009419754 -0.008966718 -0.022693366 0.029494204 -0.0028696433 -0.034543086 -0.03887718
0.038561225 -0.011776783 0.026063003 0.007900283 -0.042398736 -0.064964555 -0.0045404807 -0.047940753
-0.030174691 -0.03688018 -0.063421994 0.02338221 0.030772649 -0.038210943 0.023631342 -0.0009971038
0.004686892 0.052044198 0.060978107 0.017041355 -0.021656383 0.03153483 -0.035549656 0.06495408
-0.026284453 0.0479663 -0.038852982 -0.046773396 -0.02247962 -0.04774937 0.033721678 -0.03375601
-0.034569453 -0.017978203 0.0631965 -0.07029738 -0.017081577 0.03633243 0.019031242 0.04189995
-0.057321336 -0.011766028 -0.027414199 0.025643483 -0.05821112 -0.010966323 -0.04755843 0.03399436
0.04664842 0.02728691 0.031046845 -0.0039825365 -0.042945653 -0.03355262 -0.028537221 -0.034883045
0.06715415 0.04123556 -0.05050275 -0.028975267 -0.009463012 -0.048989855 -0.042498104 0.06969129
0.04543776 -0.04941299 0.03298817 -0.06557449 -0.036400836 -0.0016456768 0.02808825 -0.06894158
-0.029301569 -0.014128238 0.0692158 -0.03827616 -0.03728408 -0.0063961297 0.030555874 -0.030451674
0.037211962 -0.011492964 -0.043283306 0.057517223 -0.053953774 0.066108696 -0.05428392 0.04936061
0.021371312 -0.037173327 0.056976594 0.032385834 -0.039934993 -0.04134182 -0.011670757 -0.014906194
-0.025564846 -0.061878674 -0.011514243 -0.057210412 0.032403417 0.06621086 0.028444335 0.021856487
-0.021195222 0.0052223653 -0.039420556 -0.035820954 -0.020797092 -0.004932791 0.0061523914 0.028497301
0.017276585 -0.006964624 0.028708532 0.025816433 0.0072842315 0.029000387 -0.02718433 -0.046679534
0.027091883 0.05671706 -0.009854145 0.06139142 -0.0023931712 0.043417476 -0.06643454 -0.06359566
0.007557519 -0.065171145 0.029706202 0.05940423 0.05098337 0.036494806 0.016801119 0.036823034
0.010367252 0.0030207187 0.050732262 0.051228143 0.016774736 -0.01197714 0.050767846 -0.023924373
0.028256856 0.014570892 0.01478561 -0.026742041 0.036398537 -0.02955902 0.019400097 -0.054338798
0.030220069 -0.022079166 0.04750073 -0.015101977 0.023761116 -0.04674653 0.0086088255 -0.034095343
0.012573339 -0.057630263 -0.03434869 0.03958141 0.05857157 0.06846238 -0.0050448254 0.038588323
0.00095432997 -0.03100545 -0.050211288 -0.06323372 -0.03498095 0.05899968 0.060141332 0.07008218
0.012032598 -0.056775406 0.06320398 -0.051891826 0.030545533 0.011915259 0.000139229 -0.049091842

fc2.weight f4 [128, 276]
00000000: e083 063c 4e2b 283d 2395 a43d 651a 31bd
00000010: 1c57 8abd f02b c43c 3f98 873d 58bf 47bc
00000020: 6632 febc 19b6 55bd c381 b23d ea0d e8bc
00000030: 380e 59bc c534 a23d 6465 76bd 0c7e c0bc
00000040: d880 3abd 3340 18bd a951 8dbd b5e2 963d
00000050: 9e28 0a3d f4c1 c9bc d404 a1bd e759 8fbd
00000060: 5a68 193d 4402 8abc 9fe1 af3d b88e 93bd
00000070: 1ac7 2bbd ae04 453d 1884 a43c 344c 89bc
00000080: c695 5d3d 8a96 2b3d cfaf 923d 90a2 11bc
00000090: ea75 723d 86b0 a2bd acbe e8bc c6a8 d8bc
000000a0: abe3 90bd f9bf 943d ea39 99bd 15cd 8c3d
000000b0: 9a3c 763d c079 a03b 88a8 9c3c 4522 873d
000000c0: b6cc 8abd 7190 54bd a2ff d8bc d628 693d
000000d0: 47a1 a4bd 9e02 d5bc 07e0 9a3d 90ca 373c
000000e0: 1db8 93bd 084a af3c 80f0 3aba 868d 45bd
000000f0: 4924 06bd ac17 60bd f59f 82bd c882 ae3c
00000100: d650 6c3d b609 59bd 9ac7 abbd ab88 64bd
00000110: 16b9 7c3d 5002 c03c 367e 7a3d 006e 1dbc
00000120: fa91 633d a7b8 03bd c0b2 5e3c 1195 9b3d
00000130: d0e3 27bc 8911 a93d d600 523d ff6a ab3d
00000140: ea3c 6fbd 2a22 323d e6e7 213d 7099 d43c
00000150: 4a8f 3fbd befa 1f3d 00e5 73ba 28fd c8bc
00000160: 0f23 adbd 48fc a4bc d0ea 8ebc 86b6 3c3d
00000170: 62c8 ebbc 005c cbb9 47e9 ae3d 14ac a73c
00000180: 98b4 6ebc c0ac 023d d2be 0fbd aa3d 4b3d
00000190: 0030 45bc 40b5 013d 3c90 4bbd a012 acbc
000001a0: 15ba 883d c86d 98bc 8626 aebd 1d9d 9a3d
000001b0: d0db 25bc 8a80 35bd affd a23d 623d 793d
000001c0: fff5 ae3d 201c 303c a679 7abd 6f34 94bd
000001d0: 663f 76bd a63b 2e3d 104d 5fbd a20e 3b3d
000001e0: d52a 8e3d 5a60 143d c1e4 833d c6e4 063d
000001f0: a823 80bd ace2 7fbd 989c 9ebc 3770 863d
00000200: 408d 493b 1c47 a8bd ee3e 303d e703 04bd
00000210: 46bb 453d be4e 72bd 001b bb39 e6b6 763d
00000220: 2a65 2f3d 72c0 233d 1583 a33d 7e41 183d
00000230: 4021 f5ba 9abf 2c3d 72d5 31bd c889 80bd
00000240: c8c5 853c c80d 22bc 16f9 d5bc 57fd b23d
00000250: e6a4 1d3d 1893 0e3d d807 983c 395b 68bd
00000260: a334 28bd d6fc 693d e4b3 74bd ec27 7abd
00000270: 5423 933c 968c a4bd 4681 563d dcc8 10bd
00000280: a4e0 c93c 0079 fc3c 8c2f e93c 5485 cc3c
00000290: 80b7 b5bc 60b6 243b a09d 303b 7fff 4cbd
000002a0: 9512 86bd aed6 303d 86a3 243d 2491 0b3d
000002b0: ec4b c73c 9eab 723d 72ea 47bd b577 12bd
000002c0: 17b4 853d f93a 79bd 2774 9b3d 28c6 643c
000002d0: 465d 393d c9e0 41bd ce4f 9abd ecaa 6dbd
000002e0: c6a4 7a3d 5061 4cbc 7b9a 9a3d cadb 283d
000002f0: d01d fcbc a2c8 94bd e16e 863d f7f8 25bd
00000300: bde2 48bd e0c0 bebb 022b 773d 80f8 e7ba
00000310: ff8c a3bd 1044 2a3c 9840 b83c bc43 aa3c
00000320: a04e 6bbd 9df7 b2bd 7606 a1bd e078 833b
00000330: 943b eb3c f09e fabc b0b2 a7bc f326 aebd
00000340: 8d15 a63d 84de e73c 4f7c 84bd 7073 453c
00000350: c0a0 413c 2316 adbd 86e3 4cbd 062e 173d
00000360: 1e24 5f3d 199a ae3d 9588 963d 7289 363d
00000370: 0c3d 99bc 9c82 d03c 7483 59bd ea9a 0e3d
00000380: 55a0 75bd 1889 a9bc 4d2a 8a3d 551d 3ebd
00000390: 905e cbbc a8c3 11bc 34cc f43c d610 b2bd
000003a0: 94e6 9ebd 7b86 29bd 372f 5abd 605a 54bb
000003b0: 7447 bf3c 7e29 673d b834 83bd 5e88 743d
000003c0: 74fa b43c a1f9 96bd 206d 13bc 61de 973d
000003d0: 28e3 90bd f979 acbd 280d da3c a285 463d
000003e0: 3696 453d 4012 1b3b c884 043d 8cff 30bd
000003f0: 1483 e03c 5a63 423d 20e7 1ebd c1fb 7abd
0.008210152 0.041056924 0.08036258 -0.043238062 -0.06754896 0.023946732 0.066208355 -0.012191616
-0.031029891 -0.052175615 0.08716156 -0.028326947 -0.013248019 0.07920221 -0.060155287 -0.023497604
-0.04553303 -0.0371706 -0.06900341 0.0736746 0.03373014 -0.024628617 -0.07862249 -0.069995694
0.037453033 -0.016846783 0.08587956 -0.07204956 -0.041937925 0.048100166 0.020082518 -0.01675997
0.054097913 0.041891612 0.07162439 -0.008888856 0.059194483 -0.079438254 -0.028411232 -0.026447665
-0.07074674 0.072631784 -0.07481749 0.06875054 0.060116388 0.004897326 0.01912333 0.06598333
-0.06777327 -0.051895563 -0.026489083 0.05692371 -0.08038574 -0.026002225 0.07562261 0.011217728
-0.07212851 0.021397606 -0.0007131174 -0.04823067 -0.032749448 -0.054710075 -0.06378166 0.021302596
0.05769428 -0.052987777 -0.0838768 -0.0557944 0.06169995 0.023438603 0.06115552 -0.009608746
0.055559136 -0.03215852 0.013592422 0.075967915 -0.010247186 0.08255298 0.05127033 0.08370017
-0.0584077 0.043489613 0.039527796 0.025952071 -0.04676751 0.039057486 -0.0009303838 -0.024534777
-0.084539525 -0.020139828 -0.017445952 0.046072505 -0.028782073 -0.00038787723 0.08540588 0.020467795
-0.014569424 0.03190303 -0.03509409 0.049619354 -0.01203537 0.031666994 -0.0496981 -0.021004975
0.06676117 -0.018607035 -0.085034415 0.07549498 -0.010123208 -0.044312038 0.079585426 0.060849555
0.08543014 0.010748893 -0.06115117 -0.072365634 -0.060119055 0.042537354 -0.054516852 0.04566825
0.06941763 0.0362247 0.06440116 0.03293302 -0.06256801 -0.06247203 -0.01936178 0.06564372
0.0030754358 -0.08216688 0.043028764 -0.032230284 0.0482743 -0.059157126 0.00035687536 0.06023302
0.042821087 0.039978452 0.07983986 0.037171833 -0.0018701926 0.042174913 -0.043416448 -0.0627628
0.016329661 -0.009890981 -0.02611975 0.08739727 0.038487338 0.03480825 0.018558428 -0.05672762
-0.041065823 0.05712589 -0.05974187 -0.06107323 0.017961182 -0.08034627 0.05236938 -0.035347804
0.02464325 0.030819416 0.028465055 0.02496592 -0.022182226 0.0025133118 0.002694942 -0.050048348
-0.06546513 0.043173485 0.04019501 0.034073964 0.024328195 0.0592457 -0.04880757 -0.035758693
0.0652849 -0.060847256 0.07590514 0.01396326 0.045254968 -0.047333512 -0.07534753 -0.058024332
0.061192296 -0.012474373 0.07548996 0.041225232 -0.030775934 -0.0726483 0.06564117 -0.040520635
-0.04904436 -0.0058213323 0.06034375 -0.001769796 -0.07985877 0.010392204 0.022491738 0.020784251
-0.05744803 -0.08738635 -0.078625605 0.004012212 0.028714933 -0.030593365 -0.020470947 -0.08503523
0.08109579 0.028304346 -0.064690225 0.012051448 0.011818111 -0.08451488 -0.05002167 0.036909126
0.054477803 0.085254855 0.0735027 0.04456467 -0.018705867 0.025452904 -0.05310388 0.034815706
-0.059967358 -0.020695254 0.067463495 -0.046414692 -0.024825364 -0.008896746 0.029882528 -0.086946175
-0.07758823 -0.041388016 -0.053267684 -0.00324025 0.023349501 0.056436054 -0.0640654 0.059700362
0.022092082 -0.07371832 -0.008998185 0.07415462 -0.070745766 -0.08421702 0.026617602 0.048467286
0.048238955 0.0023662 0.032353193 -0.04321246 0.027406253 0.04745803 -0.038794637 -0.061275247

fc2.bias f4 [128]
00000000: 085e 44bc b051 b33c aa1c 61bd 6633 0dbd
00000010: 426b 003d 263a 4bbd 8818 d63c a675 c8bc
00000020: de8c 263d 7e3d 163d 6057 2d3b 6e43 e0bc
00000030: 14cc 033d 9f64 f4bc 3cf2 5a3d 77ad 4fbd
00000040: b0f9 84bb b4fd 39bd 9018 cd3c 20b0 193d
00000050: a6d1 adbc fabf 063d c80c 12bc 8eab 5b3d
00000060: e0e8 893c 800a a7ba a07a 86bb bcba 1ebd
00000070: d40b 403d 20ce 26bd fc90 753d 4253 23bd
00000080: 7cae b1bc 602c 123c 9c18 e13c 2e86 513d
00000090: dc35 9c3c 30d7 08bb 0039 393b 3e1a dfbc
000000a0: a076 ac3b a8f9 85bc a8ad a93c 006c 55bd
000000b0: a430 d93c bd6b 1ebd 41ff f3bc 36ac 3ebd
000000c0: 7820 173c b01c a83b 4098 c0bc 1470 5d3d
000000d0: 486e a0bc 0846 32bc a223 72bd 3cb1 293d
000000e0: 78db 2fbc 3886 2f3c a032 87bb c824 953c
000000f0: 9a9d 5b3d d319 edbc 5c93 2d3d 8034 42bc
00000100: 6cf0 a43c c434 a0bc 7e6f d1bc 2822 bdbc
00000110: f035 08bc d437 e73c bf0d 1dbd b618 5fbd
00000120: 08db 12bc d7dc 48bd a320 6ebd ba19 d9bc
00000130: e605 93bc cc95 3cbd 50f7 233d 8461 8a3c
00000140: 3c81 093d 0fa1 5fbd abef 5fbd 9a08 3cbd
00000150: a4bf 0bbc 7853 b0bb f63e 6d3d 5006 4b3c
00000160: 2001 0f3b 0278 1fbd 9da3 66bd acea 263d
00000170: 1aa8 e2bc b8a7 85bc bdf6 57bd 000c 40b8
00000180: c645 203d fc31 953c 3122 23bd 4616 553d
00000190: 4a9c 2c3d e84c 313d 4c54 c1bc e008 563b
000001a0: e911 31bd 58f5 e5bb d044 123d e035 b93b
000001b0: 0871 653c 54e9 0f3d d0e3 16bd 409c 24bd
000001c0: 84b7 053d 021f 743d a06e 303c 187a 15bd
000001d0: 2c45 4d3d 3811 8abb e671 6b3d 90bb d4bc
000001e0: ea0e cebc e08f 483d d082 ad3b 0c54 453d
000001f0: ab98 34bd 9811 5b3d 9051 583d 8749 75bd
-0.011985309 0.021889538 -0.054958977 -0.034472845 0.03135229 -0.049616 0.026134744 -0.024470162
0.040661685 0.036679737 0.0026449785 -0.027375903 0.032177046 -0.029833136 0.05345367 -0.05070254
-0.0040580854 -0.045407966 0.025036126 0.03752148 -0.021218132 0.032897927 -0.00891418 0.053630404
0.016834676 -0.0012744218 -0.0041039735 -0.038752303 0.04688628 -0.04072392 0.05995272 -0.039874323
-0.021689646 0.008921713 0.027477555 0.051153354 0.01906865 -0.0020880215 0.0028262734 -0.027234193
0.0052631646 -0.016354397 0.020712689 -0.05210495 0.026512451 -0.038676966 -0.0297848 -0.046550952
0.00922405 0.005130373 -0.023510098 0.054061964 -0.019583836 -0.010880955 -0.059116013 0.04142879
-0.010733478 0.010713153 -0.004125908 0.018206015 0.053617097 -0.028942978 0.04237686 -0.011853337
0.020134173 -0.01955641 -0.025565859 -0.023087576 -0.008313641 0.028224863 -0.038343187 -0.054466926
-0.008963354 -0.049038734 -0.058136594 -0.026501525 -0.017947149 -0.046041295 0.040030777 0.016892202
0.033570513 -0.054596957 -0.054671925 -0.04590664 -0.008529577 -0.005381044 0.057921372 0.012391642
0.002182074 -0.038932808 -0.056308378 0.040751144 -0.027668048 -0.016315326 -0.052725542 -4.5787543e-05
0.03912904 0.018212311 -0.03982753 0.052023195 0.042141236 0.043286234 -0.023599766 0.0032659099
-0.04322997 -0.0070177726 0.035710156 0.0056521744 0.0140039995 0.03513463 -0.036838353 -0.040188074
0.032645717 0.059599884 0.010768563 -0.03649339 0.050114796 -0.0042134784 0.05748167 -0.025968343
-0.025153596 0.048965335 0.005295135 0.048175856 -0.044090908 0.053483576 0.05281216 -0.059884574

fc3.weight f4 [1, 128]
00000000: 9233 253b 986c 0d3b 9696 18bb 5e5e 263b
00000010: d020 7dba 488d 293b 40e1 e1b9 d857 8a39
00000020: a877 42bb b29e d3ba c4d4 3aba b8fd a93a
00000030: 00c2 8239 1584 39bb cde8 93ba ce41 04bb
00000040: e4ea 0b3b 26bd 24bb 8be5 cdba d0b8 db39
00000050: d4e5 64ba b093 1139 9e4e 19bb 2aee d2ba
00000060: 60a1 9d3a f0aa 8bba 6c0e 643a 10cd a53a
00000070: 2e71 c7ba 9ae9 0b3b 54b6 7bba e0a4 833a
00000080: 7075 5cb9 c0b1 07bb 8430 3cbb 0044 e0b8
00000090: 16aa 343b 2070 a3b8 88fb 8939 cc5d 223a
000000a0: a35d 8dba 9c1e 803a a0c4 b9ba 82ca e2ba
000000b0: 909d 22b9 38a0 283b c00c a4b8 d089 653a
000000c0: 7cd6 033a 38f5 193b 4008 6238 60d2 603a
000000d0: cea3 143b e0ae 6239 f69e a3ba 9d30 40bb
000000e0: 34f2 51ba b704 18bb 58b3 4e3a e4f4 3c3b
000000f0: 06ea e1ba 8007 5a3a 0c52 143b 40ac 003b
00000100: 7871 6aba b517 bbba b25a 223b 4c32 193a
00000110: 52ac 1b3b 5a06 0a3b 8c43 50ba 3033 cd39
00000120: 90e4 283b 28ae ffba 2491 2f3a 98c7 66ba
00000130: ec11 f43a c05f cf38 7476 2fbb 1819 ae39
00000140: 608c be3a ccba 34bb 344d de3a 2093 443b
00000150: bc17 75ba 6aab 173b 00e5 8e39 ac03 c3ba
00000160: 000b 26b7 2036 103b 32b5 26bb cc5a a23a
00000170: c44b 923a f20f 343b deca 173b baf0 183b
00000180: 9e5d 0cbb f986 41bb 8895 773a 8841 e63a
00000190: 0f43 f2ba d217 3d3b 2e47 3f3b a400 06ba
000001a0: e806 f339 8873 a9b9 94ab 2f3a fe61 193b
000001b0: 1424 8d3a cc48 323a 192a f0ba 74b2 063b
000001c0: ccb9 74ba b4db e8ba dfc9 f1ba 0c7a 0b3a
000001d0: 34df 5cba d030 1139 660a ddba 75dc d7ba
000001e0: f041 caba 4654 433b 007c 8939 8549 43bb
000001f0: 8813 483a 5c59 17ba 6087 b639 64b9 be3a
0.002520774 0.002157962 -0.0023283116 0.0025385837 -0.00096560735 0.0025871564 -0.0004308317 0.0002638686
-0.0029673371 -0.0016145317 -0.00071270415 0.0012969291 0.00024940073 -0.0028307487 -0.001128459 -0.0020180824
0.0021349723 -0.0025137155 -0.0015708668 0.0004190863 -0.0008731757 0.00013883295 -0.0023392807 -0.0016092707
0.0012026243 -0.0010655802 0.0008699659 0.0012649614 -0.0015216225 0.0021348954 -0.0009602059 0.0010043643
-0.00021024584 -0.0020705312 -0.002871544 -0.00010693818 0.00275672 -7.7933306e-05 0.00026318082 0.00061937864
-0.0010785352 0.0009774747 -0.0014172979 -0.0017302784 -0.0001550822 0.0025730263 -7.822504e-05 0.00087561924
0.0005029214 0.002349211 5.3890282e-05 0.000857627 0.0022680643 0.00021618186 -0.0012483287 -0.002932585
-0.00080088084 -0.002319617 0.00078850007 0.002883249 -0.0017235882 0.00083171576 0.0022631912 0.001963392
-0.00089433 -0.0014274033 0.0024773297 0.00058439816 0.0023753834 0.0021060915 -0.00079446356 0.00039138785
0.0025771 -0.0019506859 0.0006697348 -0.00088035455 0.0018621064 9.888364e-05 -0.0026773484 0.00033206563
0.0014537685 -0.002757716 0.0016960264 0.002999492 -0.0009349545 0.0023142942 0.0002725497 -0.0014878414
-9.896932e-06 0.0022004917 -0.002543759 0.0012386679 0.0011161496 0.0027475324 0.002316169 0.0023336844
-0.0021418105 -0.0029529913 0.0009444584 0.0017567137 -0.001848312 0.002885331 0.0029186714 -0.000511179
0.00046353717 -0.0003232027 0.00067012873 0.0023404355 0.0010768198 0.0006801009 -0.0018323093 0.0020553144
-0.0009335547 -0.0017765672 -0.0018447003 0.00053206156 -0.0008425594 0.00013846462 -0.0016864061 -0.00164689
-0.0015431028 0.002980487 0.00026223063 -0.002979846 0.0007632305 -0.00057735085 0.00034814607 0.00145511
