models/checkpoint_critic_local_9.pth (torch_old, 349244 bytes, 5 tensors)

fcs1.weight f4 [256, 200]
000000 78 c5 45 bc a4 43 6f bd d8 30 8b bc 80 65 ce bb
       -0.012071006 -0.058414117 -0.016991064 -0.006298721
000010 d8 49 6c bd 3c 3c a5 bc 44 91 34 bd 24 ce c2 bc
       -0.05768761 -0.020170324 -0.04408385 -0.023779936
000020 1c 03 33 bd 18 ab 5d 3d 14 da 31 3d 48 ed 31 bc
       -0.043704137 0.054118246 0.043420866 -0.010859795
000030 84 21 a5 3c c2 6f 5a 3d e0 3f f7 bb c0 fe 0d 3b
       0.020157583 0.053329237 -0.0075454563 0.0021666735
000040 c0 4a 64 bd 64 22 7e bd 30 54 36 3c 3a 8d 5a bd
       -0.05573535 -0.062044516 0.01112847 -0.05335734
000050 f2 d9 68 3d 00 e2 1d 3a fa d3 28 3d 7c 80 76 bd
       0.056848474 0.00060227513 0.04121778 -0.060181126
000060 b8 99 b7 3c c6 b7 05 bd 24 61 62 3d 48 af 4a bc
       0.022412166 -0.032645963 0.05526842 -0.012370892
000070 0a 80 09 bd 0e 9f 00 bd d2 76 04 3d 88 72 0c bd
       -0.033569373 -0.031401686 0.03233988 -0.034288913
000080 50 12 31 3c f0 66 59 bc f0 df 59 bc 58 31 b7 3c
       0.010807589 -0.013269171 -0.01329802 0.022362396
000090 ac 41 35 3d 06 09 27 bd a8 10 81 bc b0 13 29 bc
       0.044252083 -0.04078009 -0.015755013 -0.010319635
0000a0 5a 50 19 3d 10 7f 28 3c e0 09 0a 3c a6 33 50 bd
       0.037430145 0.0102842 0.008425206 -0.050830506
0000b0 3c 9e de 3c 16 75 14 3d e6 11 3a 3d 5c 5a 8d bc
       0.027175061 0.036244474 0.045427226 -0.017255
0000c0 9c ca 0f 3d 00 91 00 3c 88 20 80 bc 0c c1 6a 3d
       0.035105333 0.007847071 -0.015640512 0.05731301
0000d0 28 15 b6 bc 9e 47 57 bd 08 d9 1a 3d 88 3c 46 3c
       -0.022226885 -0.052558534 0.037804633 0.012099393
0000e0 ae 5a 4f 3d 1c 7a 32 3d 94 15 ca bc 84 1b 01 3d
       0.05062359 0.043573484 -0.024668492 0.03152038
0000f0 ce 4f 3c 3d f0 be 02 bd 30 1c b5 bc 14 a3 c6 bc
       0.045974545 -0.031920373 -0.022108167 -0.024247684
000100 d8 71 36 bd 80 c4 25 bc 8a 9d 39 bd a4 70 4e 3d
       -0.044542164 -0.01011765 -0.045316257 0.05040039
000110 e0 11 7c 3c 30 68 b3 bc 18 ab f9 3c bc e6 ac bc
       0.015385121 -0.021900266 0.030477092 -0.021106116
000120 7a 0d 2f 3d 88 e4 08 3c 80 2d 98 ba a8 73 37 3d
       0.04273746 0.008355267 -0.001161024 0.044788033
000130 a2 13 7e bd 70 a9 bd bb 56 41 0c 3d d0 0b b5 3b
       -0.062030442 -0.005788021 0.034241997 0.00552509
000140 98 c1 49 bd e2 4d 31 3d 34 97 a2 3c f8 8f 6e bc
       -0.04925689 0.043287165 0.01984749 -0.014560692
000150 38 52 0e 3d 24 40 b0 bc 94 eb 34 bd f0 1f 1f 3d
       0.03474638 -0.02151496 -0.044169977 0.038848817
000160 70 f2 6d 3d 4c df ee bc b8 d8 7b 3d 0a 80 76 bd
       0.058092535 -0.02915921 0.061485976 -0.0601807
000170 f0 6d 9b bc 34 11 81 3c 2c a1 f3 3c 08 7f ab 3c
       -0.01897332 0.015755273 0.029739939 0.020934597
000180 a0 96 30 3b d4 d7 4a 3d 3c 1b a2 bc 58 d9 cd 3c
       0.0026945248 0.049522236 -0.019788377 0.025128052
000190 e2 00 74 bd c8 5c 43 bd ec b0 34 bd 40 6b 96 ba
       -0.059571154 -0.047695905 -0.04411404 -0.0011476055
0001a0 f6 48 06 bd 58 67 5f 3d 04 fe c0 3c 78 5e 33 bc
       -0.032784425 0.054541916 0.023558624 -0.010947816
0001b0 f0 f5 c0 bb 1e 0a 21 bd 78 ee 63 bd 4a d9 25 bd
       -0.005888693 -0.03931629 -0.055647343 -0.040490426
0001c0 50 2b 93 3b 84 49 a4 bc 1e ba 17 3d 50 26 4d bc
       0.0044912472 -0.020054586 0.03704273 -0.012521341
0001d0 c6 32 76 bd 80 94 b2 bb 76 a1 25 bd 28 d6 06 bc
       -0.060107015 -0.0054498315 -0.040437184 -0.00822977
0001e0 a4 0d 14 3d 10 10 c1 3b c0 e6 96 bc 7e ee 06 bd
       0.03614582 0.0058918074 -0.018420577 -0.032942288
0001f0 4c a0 7b 3d e4 94 31 bd f2 1a 3e bd e8 60 63 3c
       0.061432168 -0.043354884 -0.046412416 0.013878085
000200 0e 15 16 3d 70 c1 fd 3c 80 49 e4 3a 70 80 0d bd
       0.036641173 0.030976027 0.0017416924 -0.034546316
000210 30 fc 32 3d 40 b2 1b bd a0 14 30 3d 20 2e d4 bb
       0.043697536 -0.03801179 0.04298842 -0.006475225
000220 5c 6b a7 3c 8a b1 4e bd b0 89 47 3c 9c 46 84 3c
       0.020436935 -0.050462283 0.012178823 0.01614695
000230 38 db 67 3c b8 23 78 3d ec 3f 8a bc 20 73 31 3d
       0.014151387 0.06058094 -0.016876183 0.043322682
000240 60 41 1f bb 00 71 c6 bc f8 1d 49 bd 70 dc f4 bc
       -0.002430044 -0.024223804 -0.049100846 -0.029890269
000250 c0 81 3b bc c0 dc b5 bc b0 7c 73 3d 38 f5 6a bc
       -0.011444509 -0.022199988 0.059445083 -0.014340691
000260 c6 05 45 bd 86 f6 4b 3d e4 22 e8 bc cc 5c af 3c
       -0.04810121 0.04979565 -0.02833695 0.021406554
000270 80 b7 35 3b 00 12 28 b9 b0 16 43 3d 96 5d 75 3d
       0.0027727783 -0.00016028434 0.04762906 0.059903704
000280 80 21 9e 3c 48 0c d4 3c 88 79 66 3d a0 04 4c 3c
       0.019303083 0.025884762 0.056268245 0.012452275
000290 92 44 48 3d d8 49 f3 3c e0 f4 53 3b d0 bc 3f bd
       0.04889352 0.029698297 0.0032342002 -0.046810925
0002a0 80 91 72 bb f8 7d 61 3c 2c de e2 3c 1a fa 42 3d
       -0.0037012994 0.013762943 0.02769383 0.047601797
0002b0 60 cc 4e 3d 54 91 2f 3d f0 bb 6b bd d0 90 00 3c
       0.050487876 0.042863205 -0.057552278 0.007847026
0002c0 04 22 cc bc c8 6b 68 3c 2e 09 0c bd 88 94 83 3c
       -0.024918564 0.014185853 -0.034188442 0.016062036
0002d0 78 f4 d9 bc 54 1d 6a bd 7c 1e 19 3d 8c 41 2c bd
       -0.02660583 -0.057156876 0.037382588 -0.042054698
0002e0 ce 48 0f bd 50 2b 52 bd f4 d7 92 3c a0 bb b2 3b
       -0.03498154 -0.051310837 0.01792524 0.0054544955
0002f0 50 62 cc 3c 1a 55 16 bd bc 1c 48 bd f0 b0 eb bc
       0.024949223 -0.036702253 -0.04885553 -0.028770894
000300 46 70 2f bd cc f9 f6 3c 80 50 eb 3b 8a 77 07 3d
       -0.04283168 0.03014841 0.007181227 0.033072986
000310 62 1b 1f 3d 0c 38 d0 3c 5e ad 6b bd 66 3a 5d bd
       0.038844474 0.02541735 -0.057538383 -0.05401077
000320 94 91 5b 3d b6 c5 17 bd aa 55 0a 3d 44 d0 72 bd
       0.05360563 -0.037053786 0.033773102 -0.05928065
000330 e0 db 3a bb 10 ec 83 bc 54 11 df bc 32 59 26 3d
       -0.0028512403 -0.016103774 -0.027229942 0.040612407
000340 62 84 41 bd ac 2a 1f 3d 60 30 ab 3c dc 46 ef 3c
       -0.04724539 0.038859054 0.02089709 0.029208593
000350 d0 b5 dc bb d2 6a 75 3d d0 5a fd bc e0 ec 11 bb
       -0.006735541 0.059916325 -0.030927092 -0.0022266433
000360 c0 0b ff bc 3c 02 30 bd 80 99 c9 bb e0 25 e7 bc
       -0.031133533 -0.04297088 -0.006152332 -0.028216302
000370 f4 db ef bc 4e dc 7b 3d 68 73 52 bc f0 a7 ea bb
       -0.029279687 0.061489396 -0.012844898 -0.007161133
000380 80 b5 32 3d a2 99 07 bd 48 a2 0c 3c d8 80 d6 bc
       0.043630123 -0.0331055 0.008583613 -0.026184484
000390 b0 03 8b 3c c4 aa a0 bc 8c 94 1f 3d 5c 29 9a bc
       0.016969532 -0.019612677 0.038960025 -0.01881855
0003a0 a0 05 b3 3c be 85 09 3d d4 fa 81 3c 52 fc 31 3d
       0.021853268 0.033574812 0.015866674 0.043453522
0003b0 9c da b6 3c d0 1d a7 3c 20 ca 6a bb 90 74 cf bc
       0.022321038 0.020399958 -0.0035826042 -0.025324136
0003c0 68 29 1c bd a0 ac d2 bb cc d0 f2 3c b0 a3 1e bd
       -0.038125426 -0.00642927 0.029640578 -0.038730323
0003d0 40 55 4b bb 40 4e 1e bc e8 b3 bd bc c8 cc e0 bc
       -0.0031026155 -0.009662211 -0.023157075 -0.027441397
0003e0 00 8e 9c 3c 02 85 5d 3d 28 1c 4e bd 0a e2 20 bd
       0.01911068 0.054081924 -0.05031982 -0.039278068
0003f0 7c 93 32 3d e0 52 5c 3d 78 c6 6f 3c b6 f3 28 3d
       0.043597683 0.053789973 0.014634721 0.041248046

fcs1.bias f4 [256]
000000 fa 94 7a 3d 2a 7d 4d 3d f4 cf 3f bd a6 31 57 bd
       0.06117723 0.050168194 -0.04682918 -0.052537583
000010 68 4a 25 3c d6 63 5b 3d b0 09 e7 3b 2c 96 fe 3c
       0.010088541 0.053562008 0.0070507154 0.031077467
000020 40 7b b9 3c 31 7e 8a 3d 1e d7 46 bd b0 e2 bd 3c
       0.022641778 0.0676235 -0.048544995 0.023179382
000030 54 7e b7 3c 96 7b 56 3d bb e8 84 3d 66 26 8d bc
       0.022399105 0.052363954 0.06489702 -0.017230224
000040 9c 96 2b 3d ba 57 05 3d d8 c2 27 bc fc 84 b9 bc
       0.04189168 0.032554366 -0.010239325 -0.02264642
000050 b6 e2 1c bd cc 2c b7 bc 00 1e 44 bd 20 07 fd 3c
       -0.038302146 -0.022360228 -0.047880173 0.030887187
000060 ee c7 58 3d 74 3a 4c bd 6c f9 1e bc a0 77 55 bc
       0.052925043 -0.049860433 -0.0097030215 -0.013029009
000070 00 df 01 3b 38 0b af bc e0 81 a3 3b 00 13 0f bb
       0.0019816756 -0.021367654 0.0049898475 -0.0021831393
000080 f1 7c 27 bd 88 72 0e 3d ff 94 90 3d 83 94 90 bd
       -0.040890638 0.034777194 0.07059669 -0.07059576
000090 7c 22 57 3d 50 02 92 3b c0 ea 3a 3b a8 7f 3d bd
       0.05252312 0.004455842 0.002852127 -0.04626432
0000a0 d6 67 3a 3d 65 ae 32 bd 24 77 af bc 4c e6 8b bd
       0.045509182 -0.043623347 -0.021419115 -0.06831035
0000b0 e6 0b 7c 3d 46 09 28 bd 1e 47 96 bc 04 3e 48 3d
       0.061534785 -0.04102447 -0.018344458 0.048887268
0000c0 76 c1 30 bd 8c 77 89 3c fa 90 0c 3d 06 1d 79 3d
       -0.04315325 0.016780637 0.034317948 0.060818695
0000d0 c0 8e 40 3d c2 31 88 bd 30 8a ef bb c9 3a 0e bd
       0.047011137 -0.066501155 -0.0073101744 -0.03472403
0000e0 06 05 f1 bc c0 56 22 3d 7c 86 d3 bc 3c 23 49 3d
       -0.02942134 0.039633512 -0.025820963 0.049105868
0000f0 79 fb 8a bd 4f 94 87 bd 92 d1 01 3d a0 ea 76 3c
       -0.06786246 -0.066200845 0.031694002 0.015070587
000100 0c 83 80 3c fc 01 ab 3c 68 32 1a 3c 50 b5 c0 3b
       0.015687488 0.02087497 0.009411432 0.005880989
000110 34 bb 08 bd 1d af 8d 3d 88 91 ac 3c 34 8b b5 3c
       -0.033381656 0.06918166 0.021065488 0.022161104
000120 13 3a 8a 3d 2a cd 0f bd a0 cd 8e bb 80 1a 57 ba
       0.06749358 -0.03510777 -0.0043580085 -0.0008205548
000130 ea cb 81 bd 00 4a 0d bd 84 3c 86 bd f0 c5 7b 3c
       -0.06337722 -0.0344944 -0.06554511 0.015367016
000140 44 0e 87 3c e9 86 1d bd b8 2c 25 3d 5a 5b d9 bc
       0.016486295 -0.03845874 0.04032585 -0.026532818
000150 a6 2e 1c bd e6 ab 20 3d f0 bf 93 3c 9c 24 10 bd
       -0.038130425 0.039226435 0.018035859 -0.035191163
000160 e4 6a 6d bd ef de 2d bd 32 1d 58 bd 4c bd 83 3c
       -0.057963267 -0.042448934 -0.052762218 0.016081475
000170 54 69 31 3d 7e 8f 78 3d e4 a8 42 3d dc e6 5a bd
       0.04331334 0.06068372 0.047524348 -0.05344282
000180 3e 51 4a 3d 78 3f 9b 3c 5a 2b 6b 3d 12 89 48 3d
       0.049393885 0.018951163 0.05741439 0.048958845
000190 2e c6 a9 bc 2c af 85 bc 24 1e a7 3c 38 ca c5 bc
       -0.020724382 -0.01631888 0.020400114 -0.024144277
0001a0 94 7f 80 bd c4 eb ea 3c 24 f1 ea bc 40 0d 57 3b
       -0.062743336 0.028676875 -0.028679438 0.0032814294
0001b0 36 93 6e 3d 32 e1 aa bc f2 a8 5a bd 72 cc 5d 3d
       0.05824586 -0.020859335 -0.053383775 0.054150052
0001c0 c0 d0 af bb 9a a2 6d bd 80 01 b9 bb ea 84 f8 bc
       -0.005365461 -0.058016397 -0.0056459308 -0.030336816
0001d0 90 22 0f bc 80 59 8a 3b f3 ea 81 3d ce df 12 3d
       -0.008736268 0.004222095 0.06343641 0.035857968
0001e0 2c ef 81 bc 7e 0a 79 bd 1b 5e 87 3d 08 2a 02 3c
       -0.015861116 -0.06080102 0.06609746 0.007944591
0001f0 e8 50 0f 3c cc a8 15 bd 80 3f 34 bb 93 71 11 bd
       0.008747317 -0.03653793 -0.002750367 -0.035508703
000200 8a fc 1b bd be 6c 19 3d 6a f5 66 3d 70 29 17 3c
       -0.038082637 0.03745722 0.05638639 0.009226188
000210 b0 9d 4c bc 10 94 14 bd 09 0e 82 bd 00 aa ad 39
       -0.0124887675 -0.036274016 -0.06350333 0.0003312379
000220 62 a0 a2 bc 74 92 0e 3d 60 4e 04 bb 68 68 92 3c
       -0.019851867 0.034807637 -0.0020188317 0.01787205
000230 c0 41 f5 bc 84 ff bc 3c 82 45 7c 3d b4 c7 75 bc
       -0.029938579 0.023071058 0.061589725 -0.015001226
000240 44 27 0a bd df 0b 19 bd 54 58 ca 3c 2f a4 84 bd
       -0.033728853 -0.037364837 0.024700321 -0.06476628
000250 82 66 01 3d 0a 93 02 3d 1a 35 6e bd d8 e1 42 bd
       0.0315919 0.03187851 -0.05815611 -0.047578663
000260 94 05 13 3d d8 f8 40 bc 00 42 89 bd 98 c6 70 3c
       0.03589399 -0.011778079 -0.067020416 0.014695786
000270 18 04 74 3c c9 3a 83 3d 8f fd 03 bd dc 07 78 bc
       0.014893554 0.06407697 -0.032224234 -0.015138593
000280 a4 75 21 3d 09 5c 8d 3d b1 19 83 3d 36 cd 65 bd
       0.03941883 0.0690232 0.064013846 -0.056103908
000290 e8 f8 b7 bc 10 81 3c bd 5e f2 8a bd d6 16 5f 3d
       -0.022457555 -0.04602152 -0.06784509 0.054465137
0002a0 0c 64 f1 3c fb d8 82 bd ac e5 4f bc d0 9d 28 bd
       0.029466651 -0.06389042 -0.012689035 -0.041166127
0002b0 46 63 12 bd 3c 56 ea 3c 0a 86 25 3d 26 f1 90 bc
       -0.035739206 0.028605573 0.040411033 -0.017693114
0002c0 9f 75 80 bd 52 26 01 3d 74 08 7d bd 29 3c 8d 3d
       -0.062724344 0.031530686 -0.06177564 0.0689624
0002d0 6d 83 81 bd 6c 4c 82 bd 08 12 27 3c 8a 4e 82 bc
       -0.063238956 -0.063622326 0.01019717 -0.015906591
0002e0 b8 75 c6 3c a4 fd 36 3d 80 32 30 3b d6 21 cf bc
       0.024226055 0.044675484 0.002688557 -0.025284689
0002f0 10 32 89 3b 94 5a 22 bd 24 30 cd bc c6 c0 28 3d
       0.004186876 -0.039637163 -0.02504737 0.041199468
000300 8e ea 7c 3d d8 00 4d 3c da 2e 9f bc 82 c8 8e bc
       0.061747126 0.012512408 -0.01943152 -0.017429594
000310 b1 16 6d bd b0 18 18 3d 9c 45 b5 3c bc 25 28 bc
       -0.05788297 0.03713292 0.022127919 -0.010262903
000320 58 34 87 bd 1e 4a 5f bd bc ad a3 bc 94 8b ad 3c
       -0.06601781 -0.054514043 -0.019980304 0.02118472
000330 f0 84 43 3c 52 5c 1a bd ed 36 84 3d c0 cd f4 bb
       0.01193355 -0.0376857 0.06455789 -0.0074708164
000340 18 ad 62 bd 72 9e 0f 3d 14 08 bf 3c 54 0c 50 3d
       -0.055340856 0.035063215 0.023319282 0.050793007
000350 c5 67 1f bd d5 99 4d bd fc 78 34 bc 8a e9 d1 bc
       -0.03891732 -0.050195534 -0.011015173 -0.025624055
000360 94 3f 4a bd a6 81 68 3d 95 a0 90 bd d7 10 87 bd
       -0.04937704 0.056764267 -0.070618786 -0.06595009
000370 20 82 34 3b 3f 15 0f bd 5a 4b 38 bd 6e 37 4a 3d
       0.002754338 -0.03493237 -0.044993736 0.049369268
000380 d4 aa 38 3d 68 7f 46 bd 34 cb f2 bc 14 1b 54 bd
       0.04508479 -0.048461348 -0.02963791 -0.051783636
000390 88 98 6f bc 84 44 ad 3c 2a 68 66 bd 01 f8 69 bd
       -0.014623769 0.021150835 -0.056251682 -0.05712128
0003a0 fe 06 5b 3d 18 b5 7c bc 04 ea 47 3d 40 cd 9e 3a
       0.053473465 -0.0154240355 0.04880716 0.0012115613
0003b0 d0 72 ba 3c a0 07 7b bd 0d 37 0b bd 68 d7 25 bc
       0.022759825 -0.06128657 -0.033988047 -0.010122158
0003c0 02 5b 26 bd 3c a3 a5 3c 56 38 fd bc 7a c5 25 3d
       -0.040614136 0.020219438 -0.030910652 0.04047153
0003d0 07 85 82 3d 80 ba f0 bb d0 64 59 3d e0 fe 47 3c
       0.06373029 -0.0073464513 0.053074658 0.012206763
0003e0 4c ff 32 3d f0 55 fd 3b 68 8a 2f 3c 80 4d 6c 3a
       0.0437005 0.007731192 0.010714151 0.0009014234
0003f0 51 a6 89 3d 18 6a b6 bc 2e ed 66 3d 9e f2 b8 bc
       0.067211755 -0.022267386 0.056378536 -0.022576626

fc2.weight f4 [128, 276]
000000 1c 9b bc 3c d0 46 b3 bc 3f 0b 90 3d 90 7e f3 bb
       0.02302318 -0.021884352 0.07033395 -0.007430859
000010 34 2f 15 3d 30 7e 6d bd ad ad 41 bd f2 5c 02 3d
       0.03642197 -0.05798167 -0.04728477 0.03182692
000020 0c 9c 8d bd 0a db 08 3d 9c 94 8b bd 60 b9 98 3c
       -0.06914529 0.033412017 -0.06815454 0.018643081
000030 40 c3 b1 bd 66 7a 56 3d 77 5e a4 3d 3f e6 49 bd
       -0.08679819 0.052362822 0.0802583 -0.049291845
000040 40 4c 0d bb dd 59 b0 bd 2d f2 7c bd f0 45 6d bc
       -0.002156034 -0.0861089 -0.061754394 -0.014482006
000050 48 aa 8f bd 91 bf 95 bd 47 5a 63 bd a7 dd 87 3d
       -0.070149004 -0.07311929 -0.055506017 0.06634074
000060 a0 ee e7 bb 46 0f 30 bd 98 c7 a3 3c 04 c5 9d bc
       -0.007078007 -0.042983316 0.019992635 -0.019258983
000070 17 b7 a7 3d 70 42 b3 bd 28 36 ec 3c 00 a3 55 ba
       0.081892185 -0.08752906 0.028834417 -0.0008149594
000080 38 9a e7 bc 80 24 91 bd da 08 16 3d 27 5a 98 3d
       -0.02827178 -0.0708704 0.036629535 0.0743907
000090 97 b8 15 bd 4c 08 f6 bc f9 1f 87 3d fa c8 6c 3d
       -0.03655299 -0.030033253 0.06597895 0.057808854
0000a0 80 79 c4 ba 21 d0 25 bd be ae 6b 3d f0 34 44 3c
       -0.0014989823 -0.04048169 0.057539694 0.011975512
0000b0 cd 2f 93 3d a4 05 53 bd 43 f1 53 bd de 69 31 bd
       0.07186852 -0.05151905 -0.051743757 -0.043313853
0000c0 f8 a2 54 bc f4 6a fc 3c 2f 0a 98 bd 94 51 b7 bc
       -0.012978308 0.030812718 -0.07423817 -0.022377767
0000d0 e8 07 32 bc 00 82 09 ba e0 1c c3 3c f0 d2 20 bd
       -0.010866143 -0.0005245507 0.02381748 -0.039263666
0000e0 e0 cc fc 3b 86 fd 67 3d f0 91 b7 bc 89 15 b4 3d
       0.0077148527 0.056638263 -0.022408456 0.0879317
0000f0 1c 4b 11 3d aa e2 33 3d 7d 62 ae bd e0 bb bc bc
       0.03547202 0.043917336 -0.08514879 -0.023038805
000100 e2 73 1d bd ce a6 8a bd 96 36 47 3d 50 a8 a4 bd
       -0.038440593 -0.06770097 0.04863604 -0.080399156
000110 f3 13 89 3d e0 c1 6f 3b c6 e8 88 bd 02 e9 17 3d
       0.06693258 0.0036584064 -0.06685023 0.037087448
000120 6d 61 80 3d f2 84 9a bd 5e b9 19 3d b8 71 e7 3c
       0.062685825 -0.075448886 0.037530296 0.028252468
000130 9a c3 50 3d 6c 27 b8 3c a0 47 dd 3c 7b 8c 88 3d
       0.05096779 0.022479735 0.027011693 0.066674195
000140 c7 55 81 bd f9 4c 03 bd bd cf ae bd 32 72 95 bd
       -0.06315189 -0.03205583 -0.08535717 -0.07297172
000150 30 f9 56 3c bf 3f 8a 3d b3 b0 81 3d b0 67 aa bc
       0.013120934 0.0675044 0.06332531 -0.020801395
000160 e4 b3 da 3c 01 1b 80 3d 78 53 4b 3c fd 0a 9b 3d
       0.026697107 0.062551506 0.012410037 0.07570455
000170 7d 85 9c 3d 26 8f 46 3d 17 79 9c bd c0 b5 93 bc
       0.07642648 0.04847636 -0.076402836 -0.018031001
000180 3c 4c 7a bd d8 4a 8a 3c b2 15 64 3d 92 3c 62 3d
       -0.06110786 0.016881391 0.055684753 0.055233546
000190 ce 05 76 3d 8e bd 6e 3d e5 75 8e bd 40 5b 87 bb
       0.06006413 0.058286242 -0.0695608 -0.004130751
0001a0 d6 b2 e7 bc 7c ed f3 bc b8 4e d9 3c 0d c7 aa bd
       -0.028283518 -0.029776327 0.026526794 -0.08338747
0001b0 00 b4 80 bb 82 f6 1a 3d 30 30 b1 3c 00 92 cd 39
       -0.0039277077 0.037832744 0.021629423 0.00039209425
0001c0 d1 96 67 bd c0 dd e5 ba 19 f0 95 bd a0 44 84 bd
       -0.056540314 -0.00175374 -0.073211856 -0.06458402
0001d0 b0 f7 50 bc 18 d9 07 3c 20 7e b1 bd 24 3e a8 bc
       -0.012754366 0.008291505 -0.086666346 -0.020537443
0001e0 dd 3b 04 bd 80 7c 07 bc bf 46 a2 3d 00 28 19 39
       -0.032283653 -0.008269429 0.0792365 0.00014606118
0001f0 10 7a 13 bc ad 37 52 bd 25 0b 6a bd 04 d4 f5 3c
       -0.00900127 -0.051322628 -0.057139535 0.030008323
000200 80 85 61 bd b3 2e 2b bd 45 d5 a7 bd 78 7a 95 3c
       -0.055058956 -0.041792583 -0.08194975 0.018246874
000210 94 d8 a0 3c 65 59 b4 bd c1 c1 a3 bd ee 83 2c 3d
       0.019634522 -0.08806113 -0.0799594 0.042118005
000220 f7 f3 4e bd bc e5 0b 3d 6a 0b 84 bd 82 22 68 3d
       -0.05052563 0.03415464 -0.064474896 0.056673534
000230 1a 65 7a 3d 19 f0 50 bd 30 4e 20 3c 32 db 53 3d
       0.061131574 -0.051010225 0.009784266 0.051722713
000240 f1 13 97 3d a8 d4 9a 3c a4 81 c1 3c 1e 4f 14 3d
       0.073768504 0.01890023 0.023621388 0.036208265
000250 eb f4 98 3d 6b a7 44 bd a0 b8 68 bb 20 fd bd bb
       0.074685894 -0.048011225 -0.0035510436 -0.005797997
000260 ea d4 2c 3d 18 24 53 bd 6e 9f 52 3d 5a 89 56 3d
       0.04219524 -0.051548094 0.051421575 0.052377082
000270 e8 d8 a7 3c aa 43 59 3d 5c eb 02 bd f3 1c 9a 3d
       0.020489171 0.053043045 -0.031962737 0.07525053
000280 ba d7 7a 3d c2 66 18 3d ea 7a 71 3d 50 f1 b8 3c
       0.06124089 0.037207372 0.05895511 0.022576004
000290 9c 07 b7 bc 61 44 74 bd 2f 30 af 3d 17 8c 99 3d
       -0.022342496 -0.059635524 0.08554112 0.07497423
0002a0 8a c3 db bc a6 a6 a0 bd 0f e4 97 3d 40 99 f0 3b
       -0.026826639 -0.07844286 0.074165456 0.0073424876
0002b0 59 fd 86 bd 8a 3c 58 bd 06 fe 8d bd 96 d0 39 bd
       -0.06591291 -0.05279211 -0.06933217 -0.04536494
0002c0 29 ae 3b bd 38 de 42 bc f4 b7 36 bd ee bc b3 bd
       -0.04582039 -0.011893801 -0.044609025 -0.0877627
0002d0 90 cd a4 bd 1f b5 8f 3d 3c 64 9d bd f5 54 aa 3d
       -0.080470204 0.07016968 -0.07685134 0.083169855
0002e0 de 2c 16 3d cd d2 b3 3d 10 33 62 3c e8 6f eb 3c
       0.036663882 0.087804414 0.01380612 0.028739884
0002f0 f0 22 92 bd 0f c8 17 bd cb 05 90 3d 66 e5 2a 3d
       -0.0713557 -0.037056025 0.07032355 0.041722678
000300 00 c5 a9 3a a5 d4 41 bd ea da 19 3d a9 9f 8c 3d
       0.0012952387 -0.047321934 0.03756229 0.0686639
000310 21 57 b0 3d d0 5b 6c bd 64 51 86 bc 73 58 8b 3d
       0.086103685 -0.057704747 -0.016396232 0.0680398
000320 81 c9 8e bd 8c ba f9 3c 90 41 a9 3b f0 d1 27 bc
       -0.069720276 0.03048446 0.0051652864 -0.010242924
000330 c0 d4 9b bb 00 39 a6 3c 0b 59 56 bd 24 f2 df bc
       -0.0047555864 0.020290852 -0.05233101 -0.027337141
000340 b3 65 ab 3d bb ea 21 bd 94 43 ac 3c 02 18 2f bd
       0.08369007 -0.039530497 0.021028318 -0.042747505
000350 48 68 4b 3c 06 35 00 bd 3d d0 8b 3d 98 33 e5 3c
       0.012414999 -0.031300567 0.06826828 0.027978703
000360 7a b8 3f 3d 50 61 72 bd 4c e1 87 3c 99 0c 56 bd
       0.04680679 -0.059174836 0.016586922 -0.052258108
000370 e4 12 ae bc b8 0b 24 3c 30 1f b8 bb 10 c2 f0 3b
       -0.021249242 0.01001256 -0.005618952 0.007347353
000380 3d 76 a7 bd 48 48 ad bd 8c ff 01 3d 26 e3 27 3d
       -0.08176849 -0.08461052 0.03173785 0.04098811
000390 52 03 4a 3d c0 6e 7f bd d6 c8 37 3d 07 fb b1 3d
       0.049319573 -0.06236148 0.044869266 0.08690458
0003a0 60 60 83 bb d3 c1 89 bd 6a 59 ac bd e4 86 91 bd
       -0.0040092915 -0.06726422 -0.08415492 -0.071058065
0003b0 8d 34 32 bd 1d a1 43 bd ae 86 58 3d be a3 3e 3d
       -0.043507148 -0.04776107 0.052862816 0.046542875
0003c0 b5 9e 89 3d 15 1f 97 bd 40 f6 3b bd 4c 37 88 3c
       0.06719724 -0.07378975 -0.04588914 0.01662793
0003d0 94 3b b9 bc 7b d2 90 3d 24 4f 9f bc 90 49 9b bd
       -0.022611417 0.07071396 -0.019446917 -0.0758239
0003e0 f8 dd 48 bc 64 99 69 bd 2e f1 17 bd cd e0 97 3d
       -0.012259953 -0.05703105 -0.03709524 0.07415924
0003f0 0e 8f 6e bd a3 9e b1 3d b6 f7 e2 bc b0 1f 20 bc
       -0.058241896 0.08672836 -0.027706008 -0.00977318

fc2.bias f4 [128]
000000 e7 b6 48 bd f8 a2 a2 bc cc 97 6a 3d 84 8a ff bc
       -0.049002554 -0.0198531 0.05727367 -0.03119398
000010 80 07 57 3c 2a ee 17 3d 24 e9 17 bd dc ef 01 3d
       0.013124347 0.037092365 -0.037087575 0.03172289
000020 e0 80 6d bd 2c ec 2b 3d dc 46 46 bc e2 3f 69 3d
       -0.057984233 0.041973278 -0.012101855 0.05694569
000030 b0 0b f2 3b a2 39 73 bd 3d 3a 5c bd 4c 29 3f bc
       0.007386647 -0.059381135 -0.053766478 -0.011667561
000040 08 47 e1 bb 98 2c 17 3d d4 35 75 3d 16 50 59 bd
       -0.0068749227 0.036907762 0.059865788 -0.05305489
000050 fc d4 db bc b4 00 22 3d 17 fa 6d bd 10 52 f0 3c
       -0.026834957 0.03955145 -0.058099832 0.029336005
000060 9e cd 35 3d 92 00 1b 3d f6 32 2a 3d 4c b5 af 3c
       0.044385545 0.03784234 0.041552506 0.021448754
000070 00 31 f9 bb e8 1f c7 3c 8c 15 2c bc d8 90 27 3c
       -0.007604718 0.024307206 -0.010503184 0.010227405
000080 58 a0 62 bc 5e 8d 39 bd c0 64 3b bd 04 ef d3 3c
       -0.013832174 -0.045300834 -0.04575038 0.025870807
000090 c0 c4 f6 bc b4 93 50 bc 48 7a b7 3c c0 7d 99 bc
       -0.030123115 -0.012730528 0.022397175 -0.01873672
0000a0 40 c4 1a 3b 98 46 0b 3c b5 d6 00 bd 90 03 1c 3c
       0.002361551 0.008500718 -0.03145476 0.009522334
0000b0 80 cd a5 3b 88 9c 3d 3c 5c 24 f3 3c a0 ea c1 3b
       0.005059898 0.0115729645 0.029680423 0.005917862
0000c0 18 ae 34 3d 9e b0 8b bc 75 ad fb bc e4 27 c4 bc
       0.04411134 -0.017051991 -0.03072236 -0.023944803
0000d0 4c c9 ac bc f5 a8 fa bc fe 40 56 bd 48 5a 9a bc
       -0.02109208 -0.030598143 -0.052308075 -0.018841878
0000e0 b4 60 27 bc 94 6b eb bc 1e 80 a4 bc 16 eb 96 bc
       -0.010215927 -0.02873782 -0.020080622 -0.018422645
0000f0 00 2a 7c b9 a8 06 d1 bb ca af 6f 3d 90 18 e7 bb
       -0.00024048239 -0.0063789673 0.058517255 -0.0070524886
000100 88 0a 59 3c f6 32 0c bd e4 95 11 bd d0 13 0e bc
       0.01324714 -0.034228288 -0.035543337 -0.008671716
000110 e0 2c ee 3c 40 59 65 3c 4e 63 31 3d 4e 55 45 bd
       0.029074132 0.01399833 0.043307595 -0.048177056
000120 80 de d1 3c 60 91 c2 3a 12 db 41 3d 00 e6 d3 b9
       0.025618792 0.001484435 0.047328062 -0.0004041642
000130 ae a2 df bc c0 ec 63 3c 96 34 49 bd c8 d9 ea bb
       -0.027299251 0.013911426 -0.049122415 -0.007167075
000140 1a 63 07 bd 00 fc 5a 3b d2 b3 da bc e0 17 b8 3a
       -0.033053495 0.0033414364 -0.026697073 0.0014045201
000150 2c d1 8c 3c 70 0c 3d bb 28 b9 e7 bb 40 ad 77 ba
       0.017189585 -0.0028846525 -0.007071633 -0.00094481185
000160 5e 0b 0a bd aa e4 30 bd d1 98 4b bd 00 3a 1d 3d
       -0.033702247 -0.04318682 -0.049706284 0.03838539
000170 08 4e 93 bb 30 da 2e bd 4a a0 6d bd a4 cb 08 bd
       -0.004495386 -0.04268855 -0.05801419 -0.03339733
000180 60 66 4d 3b 2c 41 cd 3c 8e c7 40 bd 60 ef 67 3b
       0.0031341538 0.02505549 -0.04706531 0.0035390481
000190 bc 90 62 bc 32 35 62 3d d2 32 d5 bc e0 ee 31 3d
       -0.013828453 0.055226512 -0.02602521 0.0434407
0001a0 34 32 26 3d ad 40 53 bd 61 dd ed bc e2 49 a0 bc
       0.04057522 -0.05157535 -0.029036226 -0.01956648
0001b0 10 f0 09 bd e7 4c f5 bc c2 3c a3 bc c0 c4 80 3b
       -0.033676207 -0.029943896 -0.019926433 0.0039297044
0001c0 fd 49 50 bd 58 04 a2 3c 66 be 31 3d 10 f0 0a 3c
       -0.05085181 0.019777462 0.04339447 0.008480087
0001d0 d6 99 0f 3d 68 12 b4 3c e0 e5 0a 3c 7c 86 f9 3c
       0.03505882 0.021981433 0.008477658 0.030459635
0001e0 36 8e f1 bc 74 56 71 3d 8b 2e 62 bd 28 9b c0 bc
       -0.029486757 0.05892034 -0.055220168 -0.023511484
0001f0 a4 b7 27 bc 80 ef 19 3d 64 23 4e 3d ae e9 17 bd
       -0.010236654 0.03758192 0.05032672 -0.03708809

fc3.weight f4 [1, 128]
000000 b8 52 44 bb c0 28 81 b8 d4 30 38 3b 30 1f 76 3a
       -0.002995653 -6.1587896e-05 0.0028105276 0.00093888026
000010 14 85 a3 ba 18 bb 02 ba 20 23 f2 3a 91 08 03 bb
       -0.0012475573 -0.00049869856 0.0018473603 -0.001999412
000020 c8 cd 29 3b 94 ce d2 3a 06 f3 1a 3b 8c 47 0a 3b
       0.0025910009 0.0016083294 0.0023643388 0.0021099774
000030 de 7f 09 3b f8 8a 1f bb 00 dc 5d b8 41 df f2 ba
       0.0020980756 -0.0024344306 -5.2895397e-05 -0.001852967
000040 7a eb 9c ba 80 48 1c b9 de 25 05 bb 60 34 86 ba
       -0.0011972033 -0.00014904328 -0.002031676 -0.0010238998
000050 06 da 2b 3b c4 dd 43 3b 98 1b d2 b9 ca 13 41 3b
       0.0026222481 0.0029886821 -0.0004007488 0.0029461258
000060 c0 bf 75 3a 04 1b 89 ba 68 ac 2f 3a bd 7a a8 ba
       0.0009374581 -0.0010460322 0.0006701411 -0.0012853962
000070 d2 cc f5 ba e0 71 b3 3a 60 ac 41 3b ff da bb ba
       -0.0018753058 0.0013690554 0.0029552206 -0.0014332234
000080 03 df 1a bb 00 b2 01 3b e8 e6 bc b9 70 3c 0e 3b
       -0.002363146 0.0019789934 -0.00036030193 0.0021703504
000090 34 09 9c ba 30 60 12 39 64 6c a7 3a 08 a0 ea 3a
       -0.0011904598 0.00013959478 0.0012773392 0.0017900476
0000a0 10 eb 91 3a a0 0b e8 b8 00 7b 0c bb 1c 1a 48 ba
       0.0011132676 -0.000110647874 -0.0021435618 -0.0007633285
0000b0 20 39 cc 3a 08 55 e6 b9 ca 35 00 3b 29 29 ea ba
       0.001558099 -0.00043932372 0.001956331 -0.001786505
0000c0 70 d4 e9 3a 90 09 fd ba c0 25 c1 b8 18 8c 01 3a
       0.00178398 -0.0019305218 -9.209989e-05 0.0004941835
0000d0 f0 ff f0 ba 61 15 01 bb ca 90 08 bb 38 c5 c3 39
       -0.0018386822 -0.001969658 -0.0020838254 0.00037340238
0000e0 b4 28 37 ba a0 8c 6a b9 cc 28 57 ba c0 4a 93 ba
       -0.0006986961 -0.00022368366 -0.00082076783 -0.0011237487
0000f0 80 34 c2 37 41 23 24 bb 40 e8 07 bb 18 d7 fe b9
       2.315105e-05 -0.0025045427 -0.0020737797 -0.00048606913
000100 3e 81 1a bb 60 cb 9f b8 01 30 3e bb b0 6c 95 b9
       -0.002357557 -7.619592e-05 -0.0029020312 -0.00028500473
000110 10 aa 0f 3b 8c 46 59 ba 14 91 d3 3a f5 c5 d1 ba
       0.0021921434 -0.00082884054 0.0016141259 -0.001600443
000120 5b f2 2c bb 60 ec 02 3b 5e 76 38 3b d8 4a 8b 3a
       -0.0026389572 0.0019977316 0.0028146724 0.0010627164
000130 90 8e f9 3a bc 68 1f 3b e4 73 69 ba 8c ae 48 3a
       0.0019039679 0.00243239 -0.00089055137 0.0007655404
000140 00 9d ad 3a c4 70 87 ba 88 d7 b9 3a a0 15 84 3a
       0.0013245642 -0.0010333289 0.0014178613 0.0010077246
000150 40 09 c9 b8 a8 c4 77 3a 18 c3 a0 ba a0 cf c2 39
       -9.58615e-05 0.00094516063 -0.0012265174 0.00037157256
000160 90 5a ab 39 40 7a e1 b8 d0 4f 4e ba 52 a1 14 bb
       0.00032683136 -0.00010751607 -0.00078701694 -0.0022679162
000170 80 1a 80 b9 14 88 57 ba 4c 92 04 3b 64 8d e1 3a
       -0.00024433807 -0.00082218763 0.0020228801 0.0017208275
000180 e8 90 f3 39 1d 66 e9 ba 3f fa dc ba 48 f7 a4 3a
       0.00046456535 -0.0017806921 -0.0016859247 0.0012585903
000190 e0 17 03 ba d0 66 a6 b9 0c c5 08 ba 30 57 3d 3b
       -0.0005000811 -0.0003173859 -0.00052173506 0.002889108
0001a0 80 02 40 39 4e 78 1b 3b 0b 7d 1a bb 20 09 1a b9
       0.00018311478 0.002372283 -0.0023573067 -0.00014689984
0001b0 a0 92 a3 b8 d6 09 33 3b 20 5a a5 3a 5c 98 ee ba
       -7.799757e-05 0.0027319095 0.001261536 -0.0018203366
0001c0 78 88 72 3a 04 f6 e0 3a 12 ec 00 bb 5d 91 1a bb
       0.0009251903 0.0017163162 -0.001967196 -0.0023585178
0001d0 30 23 aa 39 30 74 36 3b 40 3d 79 ba 98 ef 88 39
       0.00032451143 0.002784025 -0.0009507723 0.00026118453
0001e0 28 04 2f 3a 98 37 af ba c8 77 94 ba c2 67 23 3b
       0.00066763395 -0.0013368009 -0.0011327202 0.002493367
0001f0 02 3b 2b 3b 24 95 49 ba 80 c9 9a b9 a0 2a 17 ba
       0.00261277 -0.0007689765 -0.00029523298 -0.00057665445
