models/checkpoint_actor_local_15.pth (torch_old, 152633 bytes, 5 tensors)

fc1.weight f4 [256, 18]
000000 40 80 6e 3b e0 ea e2 bc ce 64 39 bd 88 de 20 bc
       0.003639236 -0.027699888 -0.04526215 -0.009818681
000010 5c 35 cf 3c 98 0a af bc c0 91 ed bb 60 c3 6b bd
       0.025293998 -0.021367356 -0.007250041 -0.05755937
000020 f6 23 4e bd 40 18 8e bb 1a 7e 27 3d 4e d6 11 bd
       -0.050327264 -0.004336387 0.040891744 -0.035604768
000030 e0 fd 9f 3b 60 05 30 3c 04 f9 20 3d 20 16 8c bb
       0.004882559 0.010743469 0.03929998 -0.0042750984
000040 80 ed 5b 3a e8 c5 9a 3c 60 4d 1f 3c d0 3d 59 3d
       0.0008389577 0.018893197 0.0097230375 0.053037465
000050 a6 b3 4b bd 18 86 39 3d ae ef 1a 3d 8c 1c 79 bd
       -0.049731873 0.045293897 0.037826233 -0.06081824
000060 1c 61 d2 3c 50 a2 86 bb 0c 00 2f bd f0 13 fd bc
       0.025681071 -0.0041087046 -0.042724654 -0.030893296
000070 e6 91 3d bd 00 c9 52 3c b0 dc 31 bc 26 7f 51 3d
       -0.046281718 0.012865305 -0.010855839 0.05114665
000080 dc 00 9f 3c e4 9e 71 3d dc ed 84 bc f0 51 60 bc
       0.01940959 0.05898942 -0.016226701 -0.01369141
000090 10 6c f9 3c 34 20 73 3d 4e 3a 05 bd ca 06 18 bd
       0.030447036 0.059356883 -0.032526307 -0.03711585
0000a0 c6 8b 1e 3d 78 e2 c2 bc 98 84 53 3d d8 d2 91 bc
       0.038707517 -0.02378963 0.051640123 -0.017800733
0000b0 c0 fa ac bc 60 d3 23 bc 98 42 97 bc 3c ce 14 bd
       -0.02111566 -0.009999126 -0.018464372 -0.036329493
0000c0 4c 01 9a 3c ec e5 c7 bc 5c 02 d5 3c d8 b7 53 bd
       0.018799447 -0.024401627 0.026002102 -0.051689
0000d0 46 f7 09 bd 78 ed 07 3d f4 6d 48 bd d8 87 47 3c
       -0.033683084 0.033185452 -0.048932984 0.012178384
0000e0 c6 df 56 bd 32 58 12 3d 4c 1a 47 bd d4 0b 6c bd
       -0.0524595 0.03572864 -0.048609063 -0.057628468
0000f0 b8 de 5d bc a6 e4 59 bd 60 28 2e 3d d4 f8 3b 3d
       -0.01354187 -0.05319657 0.042518973 0.045891598
000100 36 34 4d bd 34 68 48 bd 08 ad 3e bd bc d6 94 3c
       -0.05009862 -0.0489275 -0.046551734 0.0181688
000110 7c 75 8f bc c4 a0 05 3d 96 fc 72 bd b0 dd ad bb
       -0.017512076 0.03262402 -0.059322916 -0.005305968
000120 d4 d6 6e 3d a2 b5 63 bd 08 f6 50 bc 80 e0 8b bb
       0.058310345 -0.05559314 -0.012753971 -0.004268706
000130 74 35 9a bc c6 3b 70 3d bc ee 78 bd 48 a9 62 3d
       -0.018824317 0.058650754 -0.06077455 0.05533722
000140 d4 a1 c5 bc 6a db 37 3d 20 00 15 bd ac d5 81 bc
       -0.024125017 0.044886984 -0.036377072 -0.015848957
000150 80 51 d9 bc 58 30 63 bc 40 56 60 3c b0 5f 51 bd
       -0.02652812 -0.0138665065 0.013692439 -0.051116645
000160 34 61 d4 bc fa 5e 05 bd 10 3f da 3b 44 5a e8 bc
       -0.025925256 -0.03256128 0.0066603497 -0.028363355
000170 7c 0c 9a 3c dc 4b 8f bc 38 3d 4a bd ea 29 03 3d
       0.018804781 -0.017492227 -0.04937479 0.032022394
000180 36 c6 5d bd 90 91 0b 3d d8 35 5d 3d f0 70 4c bd
       -0.054144107 0.034074366 0.054006428 -0.049912393
000190 18 8d 35 3c 24 f3 d7 3c bc e4 14 bd 60 63 53 3c
       0.011081003 0.026361056 -0.03635095 0.012902111
0001a0 c4 50 c7 bc 60 1d 14 3b 00 0d af bc 08 35 85 3c
       -0.024330504 0.0022600517 -0.021368504 0.016260639
0001b0 ec b2 a0 bc 34 a2 bb bc 76 a9 21 3d 10 e7 18 bd
       -0.019616567 -0.022904493 0.03946825 -0.037329733
0001c0 a4 94 51 bd 06 48 3e bd a0 25 4a 3d 68 36 5b 3d
       -0.051167145 -0.046455406 0.04935229 0.053518683
0001d0 e0 84 f9 3c 4c 6a 78 bd 1c 3e b6 3c 08 52 68 bd
       0.030458868 -0.060648248 0.022246413 -0.056718856
0001e0 00 07 77 bb 76 d4 50 3d b4 8b cd 3c 7a cc 59 bd
       -0.0037693381 0.05098387 0.02509103 -0.05317352
0001f0 d8 fd 1c bc 9c e3 6d 3d 78 51 67 bc b0 f7 ed bc
       -0.009582005 0.058078393 -0.014118545 -0.02904877
000200 00 c5 68 bc 38 4b 11 bd 3c 7e 0b 3d 84 09 82 3c
       -0.014207125 -0.035472125 0.034055933 0.015873678
000210 44 d6 00 3d a4 10 7d 3d cc 71 6f 3d 90 91 db 3b
       0.03145434 0.061783448 0.058458135 0.006700702
000220 f0 22 72 3d 6c e5 eb 3c 10 73 78 bd 9c 3e a5 3c
       0.05911535 0.02879592 -0.060656607 0.020171456
000230 00 f8 61 b8 38 39 00 3c c0 66 21 3d b6 23 5f 3d
       -5.387515e-05 0.007826142 0.03940463 0.054477416
000240 70 f9 6f 3c 40 eb 5f 3b e8 0c 59 3d 38 1d b0 bc
       0.014646873 0.003416732 0.052990824 -0.021498308
000250 b8 3d e4 bc 54 78 90 3c 88 49 90 3c 3a d7 78 3d
       -0.027861461 0.017635502 0.017613187 0.06075213
000260 98 48 77 bd 64 e0 75 3d 02 ec 42 bd 96 cb 42 3d
       -0.060371965 0.06002845 -0.047588356 0.047557436
000270 f8 09 80 bc d0 b3 ca 3c 90 e0 0b 3c 74 6b ad bc
       -0.015629753 0.024743944 0.008537427 -0.021169402
000280 ec 3e b9 3c a0 4a 6d 3c b0 2b 9c 3b 50 18 b4 3b
       0.022613011 0.014483124 0.00476595 0.0054960623
000290 0e b8 74 bd 7a d4 6e bd bc 3a d7 3c 70 d1 2c 3d
       -0.05974584 -0.058308102 0.026273124 0.042191923
0002a0 08 07 de bc 26 43 56 3d e0 1c 2f 3d 00 27 82 ba
       -0.027102962 0.05231013 0.042752147 -0.0009929836
0002b0 90 f8 65 bc c0 c2 2d bd 3a 94 01 3d 14 7e cc bc
       -0.014036313 -0.042422056 0.0316355 -0.024962462
0002c0 78 a6 7a 3d 90 90 f1 bb 90 79 3a 3c 54 78 c7 bc
       0.061193913 -0.0073719695 0.011381522 -0.02434937
0002d0 a0 13 23 bc 9a e2 26 bd 5c d1 59 bd 40 5e b4 bc
       -0.009953409 -0.040743448 -0.053178176 -0.022017598
0002e0 aa f4 10 3d 2e c6 5f bd 4c eb 3f 3d 1c e8 1c 3d
       0.03538958 -0.05463236 0.046855256 0.038307294
0002f0 60 45 42 bd 58 41 94 bc 38 73 b6 bc 7c 2d 79 bd
       -0.047429442 -0.018097565 -0.022271737 -0.060834393
000300 d0 e0 c2 bb d4 17 44 bd 80 e3 70 3d 26 20 6f 3d
       -0.00594721 -0.047874287 0.05881071 0.05838027
000310 8c 60 82 3c 3c 93 c7 3c 02 69 6f 3d a0 09 b5 3c
       0.015915178 0.024362199 0.058449753 0.022099316
000320 40 6c 38 3c 7a 24 2d bd 44 f7 01 bd 98 47 68 bd
       0.011256278 -0.042271115 -0.03172995 -0.056708902
000330 f6 30 4d 3d e0 87 a6 bc 06 2a 6d 3d 08 ed da bc
       0.05009552 -0.020328462 0.057901405 -0.026724353
000340 d0 ba a1 bb 98 16 6d bd d8 1c 79 bd 80 30 a1 bb
       -0.0049356 -0.057882875 -0.060818523 -0.0049191117
000350 82 59 2d 3d a0 3a de bb 6c ef ba 3c 30 4f f6 3c
       0.04232169 -0.006781891 0.022819243 0.030067056
000360 26 d8 1a bd e6 07 38 3d 14 5f 3a 3d 90 b3 e9 bb
       -0.03780379 0.044929408 0.04550083 -0.007132001
000370 84 71 0c bd 4a 35 25 bd 60 1a 4a 3b 46 8d 34 bd
       -0.034287944 -0.040334024 0.0030838475 -0.04408004
000380 ec 61 d1 3c 0e 56 2c 3d d2 9b 6d 3d 64 ae 3d bd
       0.025559388 0.042074256 0.05800993 -0.04630889
000390 20 c9 15 bb 90 75 49 3d 0a fa 22 3d c0 6c 49 bb
       -0.0022855476 0.049184382 0.039789237 -0.0030734986
0003a0 3e 0f 7c bd e0 23 58 3d 4c 71 63 3d 64 44 db 3c
       -0.061537974 0.052768588 0.05552797 0.02676601
0003b0 e0 c6 5f bb b0 bb 10 3c 3a 73 1a 3d b0 83 3d 3c
       -0.0034145638 0.008833811 0.037707545 0.011567041
0003c0 48 9d d2 3c b4 d1 28 3d 20 79 04 bc 4c 61 4c bd
       0.025709763 0.041215613 -0.008085519 -0.049897477
0003d0 94 87 54 3d 48 34 5e 3d 9c 82 09 bd ba d7 7d bd
       0.05188711 0.054249078 -0.033571824 -0.06197331
0003e0 90 32 78 bd bc c8 9d 3c 78 93 0f bc 70 c5 45 bc
       -0.060595095 0.019260757 -0.008763187 -0.012070999
0003f0 a6 4c 7f 3d ac 43 d0 3c 48 18 26 bc a8 0e a9 bc
       0.062328957 0.025422893 -0.010137625 -0.020636871

fc1.bias f4 [256]
000000 6b 80 51 3e 1e a6 42 be 07 28 6d be c9 b8 58 3e
       0.20459144 -0.19008681 -0.231598 0.2116424
000010 ab 32 0f 3e 6b f0 4a be 9a c7 54 be 4a 51 ea 3d
       0.13984172 -0.19818275 -0.20779267 0.11441286
000020 25 fd 2b 3e 71 2c 27 3e 9a a7 01 be c5 7f 44 3e
       0.16795786 0.16325547 -0.12661591 0.19189365
000030 80 89 50 bc 46 ec 40 be 70 0f 68 3c a6 ef d4 3d
       -0.012728095 -0.18840131 0.014163837 0.10397272
000040 97 82 08 3e d4 80 38 3d 01 da 4b be d8 c2 bd 3c
       0.13331066 0.045044735 -0.1990738 0.023164198
000050 64 47 67 3d 6f bf 2a be 2c 48 37 be 20 5b 15 bc
       0.056464568 -0.16674589 -0.17898625 -0.009115964
000060 26 c0 0b be 1b a1 62 3e f6 f0 31 be d4 f0 03 be
       -0.13647518 0.2213177 -0.17377076 -0.12884837
000070 22 54 ad bd 49 e5 53 be 29 12 5c 3e 48 34 87 3c
       -0.08463313 -0.20692934 0.21491303 0.016504422
000080 86 8a 95 bd 66 28 60 be 7a fd f1 bd f8 7d d9 3c
       -0.07301812 -0.21890411 -0.11815925 0.026549324
000090 26 eb e1 3d f2 b8 26 be ac e5 c6 bd 15 3e 4b be
       0.11031179 -0.16281489 -0.09711775 -0.19847901
0000a0 9f 0a 3e 3e 11 02 67 be 4a 51 f6 3d be 8b d0 bd
       0.18558739 -0.22559382 0.120272234 -0.10182904
0000b0 92 a4 a8 bd 7c a1 33 bd 06 f5 e3 bd f2 0a 96 3d
       -0.08234514 -0.043855175 -0.11130719 0.073263064
0000c0 30 40 72 bd 56 1c 97 3d d9 3a 38 3e 6e 04 ba bd
       -0.059143245 0.073784515 0.17991199 -0.09082876
0000d0 fd 13 f3 bd 9c 06 4e 3d 35 ab 0a 3e 7b 12 3f 3e
       -0.11869047 0.050299272 0.13541873 0.18659393
0000e0 aa 07 a8 3d b7 2a 3c be 40 a2 bc 3b 80 00 5c 3b
       0.08204587 -0.1837567 0.0057566464 0.0033569634
0000f0 e3 7c 5a 3e 38 04 d1 3c c0 a2 9f bd ed 46 09 3e
       0.21336703 0.025514707 -0.07794714 0.13405962
000100 25 95 36 be 16 89 b2 3d eb 43 62 be e0 84 6f be
       -0.17830332 0.08717553 -0.22096221 -0.23390532
000110 34 43 2a 3d d8 63 30 be 54 15 41 bd 78 ce 8d 3c
       0.041567996 -0.17225587 -0.04713948 0.017310366
000120 c0 54 73 bb 0a 49 8b 3d c4 2e 0e be 50 8d 48 bd
       -0.0037129372 0.068010405 -0.13885027 -0.04896289
000130 4d 5d 24 3e 9d 7d 60 3e 3c aa 05 3d 5a 22 c8 bd
       0.16051216 0.21922918 0.03263305 -0.09772177
000140 24 58 26 be 27 dc 67 3e e6 4d 15 be 93 bd 24 3e
       -0.1624456 0.22642575 -0.14580497 0.16087942
000150 91 91 0c 3e 96 dd f3 3d 01 53 3f 3e b8 89 fa 3c
       0.13727404 0.119074985 0.18684007 0.030583248
000160 f3 8c 19 3e aa 53 9c bd fa 14 8e 3d 34 33 0b bd
       0.14995174 -0.07633145 0.06937595 -0.033984378
000170 50 5c 3c 3c 54 c5 b5 bd 25 a4 63 3e 7a 4e d8 bd
       0.011496618 -0.08875528 0.22230585 -0.10561843
000180 6b 5b 6c 3e 82 24 dc 3d 28 f9 34 be e6 14 84 3d
       0.23081748 0.10749151 -0.1767317 0.064492986
000190 00 83 66 be f2 a1 a9 bd 78 6d 53 be 0b 22 49 be
       -0.2251091 -0.08282842 -0.20647228 -0.19641893
0001a0 96 fd a5 3d bc d9 20 3d 30 9c 1a 3c a1 b9 3b 3e
       0.08105008 0.039270148 0.009436652 0.1833253
0001b0 59 f3 30 3e 78 d5 32 be b1 a2 46 3e 52 56 d9 3d
       0.1728033 -0.17464244 0.19398 0.106121674
0001c0 58 78 b7 bc fa a5 06 be 40 44 73 bd b7 38 f9 bd
       -0.022396252 -0.13149253 -0.05939126 -0.121690206
0001d0 1c ab 8e bd 68 8b 3a be 20 93 86 bb 7e d2 d6 3d
       -0.0696623 -0.18217242 -0.004106894 0.10489367
0001e0 38 32 f8 3c e4 ba 7f bd af 68 07 3e 3d 9b 4c be
       0.030297384 -0.062434092 0.13223527 -0.19981094
0001f0 f2 9e ee 3d ac d8 3f 3d 04 8e 43 3d 59 26 26 3e
       0.1165141 0.046837494 0.04774286 0.16225566
000200 1b ed 59 3e b0 10 0a be 03 1a 12 3e 1b 8e 4b 3e
       0.21281855 -0.13482928 0.14267735 0.19878428
000210 bc 01 7d 3d b1 1a eb bd fb aa 4d be ce e5 56 be
       0.061769232 -0.114797 -0.20084755 -0.20986101
000220 34 59 a2 bd ee 39 3b be 1a 3c e1 3d d9 f8 39 3e
       -0.079271704 -0.18283817 0.109977916 0.18161334
000230 da 19 d9 3d 66 13 ca 3d 3a a3 eb 3d 49 26 6c be
       0.10600634 0.09866981 0.11505742 -0.2306148
000240 65 27 6e 3e 54 03 63 3d 49 bf 35 3e 08 6e b2 bc
       0.23257215 0.055423096 0.17748751 -0.021780983
000250 2b e7 00 3e 20 61 b6 bb 79 a0 16 3e 00 31 1d bc
       0.12588184 -0.0055657774 0.14709653 -0.009594202
000260 8e d7 dd 3d 0f e2 2d 3e c8 d8 19 be 84 57 de bd
       0.108321294 0.16980766 -0.15024102 -0.10856536
000270 95 d7 09 be 08 6e d0 bc 24 45 fe bd b4 f5 4f 3d
       -0.13461144 -0.025443092 -0.12415531 0.05077143
000280 aa 14 44 be 2b 61 23 3e 48 3a ee 3c 7a ed ab bd
       -0.19148508 0.15955035 0.029080525 -0.083949044
000290 34 26 4d bd 21 4a 18 3e 7c f1 b0 bd 44 f0 1f be
       -0.05008526 0.14872028 -0.086398095 -0.15618998
0002a0 4e da eb 3d 38 37 f2 3c 80 41 6a bc d0 df 68 3c
       0.11516248 0.029567346 -0.014297843 0.014213517
0002b0 7a 81 bb 3d 4e 06 c9 3d a9 70 35 3e a2 32 ac 3d
       0.09155555 0.09815656 0.17718758 0.08408095
0002c0 e6 a0 20 be 50 e9 50 bd de 78 e8 3d e2 59 f3 3d
       -0.15686378 -0.051003754 0.113511786 0.11882378
0002d0 20 d7 a8 bc 97 f1 64 3e c6 b8 81 3d d8 e6 5f bd
       -0.020610392 0.22357784 0.06334071 -0.05466351
0002e0 03 96 05 be 1a 30 d1 3d 6e 76 1f be a7 11 53 be
       -0.13045506 0.10214253 -0.15572521 -0.20612203
0002f0 1a a2 a9 3d 10 71 1e bd d4 6b 55 3d 27 da 41 be
       0.082828715 -0.038682044 0.052104786 -0.18930875
000300 f0 b8 d2 bc 9e 0a 82 3d 40 33 9f bd 78 94 c6 bd
       -0.02572295 0.06349681 -0.07773447 -0.09696287
000310 74 61 0b 3d 6e ef a5 3d c5 c5 05 3e fe 14 e0 3d
       0.034028485 0.08102308 0.13063724 0.10941504
000320 9c 82 4e 3d 2b d5 1e 3e ba 91 10 be 5c 6b 2c 3d
       0.050417528 0.15511005 -0.1411809 0.042094573
000330 b8 3d d2 3c d9 dd 69 be 05 27 60 be 68 42 cd bc
       0.025664195 -0.22838534 -0.21889885 -0.025056079
000340 00 f0 02 b9 66 4f 9e bd 76 9f e3 bd 8f 79 64 be
       -0.00012487173 -0.07729988 -0.11114399 -0.22311996
000350 20 bc 64 bc 6b 21 f6 bd 08 a2 21 be 4f 5d 22 3e
       -0.013960868 -0.12018093 -0.15784466 0.15855907
000360 bd aa 5a 3e 73 7d 2c 3e 2f 14 68 3e 6a 4d d6 3d
       0.21354194 0.1684473 0.2266395 0.10463984
000370 2b d9 f3 bd 56 42 89 3d 6d 1f 0d be cc f3 11 be
       -0.11906656 0.06702106 -0.13781519 -0.14253157
000380 80 e5 16 be 1c 98 51 be 73 02 46 3e 90 e3 09 bd
       -0.14735985 -0.20468181 0.19336872 -0.033664286
000390 f1 94 1a 3e 90 eb c9 bc b4 19 16 3d e8 79 11 bd
       0.15095879 -0.024648458 0.036645606 -0.03551665
0003a0 b1 74 67 3e 33 97 3b 3e 90 da 6d be 87 4f 2a 3e
       0.22603108 0.18319397 -0.23227906 0.166319
0003b0 60 69 23 bc 2f d8 00 3e 52 2a a6 bd 06 4e fe bd
       -0.009973854 0.12582467 -0.08113541 -0.124172255
0003c0 a3 11 4b be e4 82 34 3d e8 33 47 be a3 67 15 3e
       -0.19830947 0.04407014 -0.19453394 0.14590316
0003d0 35 6c 3a be 65 c9 4e 3e 50 0d 58 3c 90 1b c5 bc
       -0.1820534 0.20194013 0.013186768 -0.024060994
0003e0 06 c2 df 3d 00 c8 b1 bd 10 75 06 be 0a 3f a0 bd
       0.10925679 -0.08680725 -0.13130593 -0.07824524
0003f0 e0 ba 81 3b 4e 26 37 be 69 99 18 3e 5e f4 8c 3d
       0.003959045 -0.17885706 0.14902271 0.06882547

fc2.weight f4 [128, 256]
000000 10 8d 9e bc 60 37 f0 bb 69 7e b2 3d b0 88 d7 bc
       -0.019354373 -0.00733082 0.08715517 -0.026310295
000010 e8 a3 99 3c 16 7d 56 3d 66 19 07 bd ff c5 14 bd
       0.018754914 0.052365385 -0.032983206 -0.036321636
000020 65 36 52 bd bc 74 9e 3c 71 e8 56 bd 58 8b 4a bd
       -0.051321406 0.019342773 -0.052467767 -0.049449295
000030 40 2a 6c bd 0c af 94 3c fa c9 5f 3d a0 bf 9c bd
       -0.05765748 0.018149875 0.05463598 -0.07653737
000040 c0 5f 34 bd d2 11 2e 3d ec cd 93 bc 01 7b 24 bd
       -0.044036627 0.042497464 -0.018042527 -0.04015637
000050 f4 36 a2 bd 39 b1 60 bd fc 20 8a bd 48 6f d3 bc
       -0.07920638 -0.054856513 -0.067445725 -0.025809899
000060 3b 6d b2 bd b9 01 44 bd 1f 05 92 3d 02 c1 11 bd
       -0.0871224 -0.047853205 0.07129883 -0.035584457
000070 e5 13 b4 3d 5a 72 8c bd 22 c8 73 3d 6b ba 9a 3d
       0.08792857 -0.06857748 0.059517033 0.07555088
000080 9a 6b 9d bd 38 ec 6e 3c dc 6c 8e bc 29 d5 a1 bd
       -0.07686539 0.014582686 -0.017385893 -0.07901985
000090 73 0a 91 3d d0 68 a8 3c 9c 6f 1c bd b2 ed 18 bd
       0.07082071 0.020557791 -0.038192376 -0.03733606
0000a0 fe 63 12 3d fe 51 08 3d d0 d1 d2 3b 20 6f 83 3b
       0.03573989 0.03328132 0.006433703 0.00401105
0000b0 c6 78 61 3d 60 c4 fd 3b 9a 5b 6c 3d 50 a4 12 bc
       0.05504682 0.007744357 0.057704546 -0.008950308
0000c0 8b 00 50 bd b7 77 82 3d c8 29 9b bc e0 e3 78 bd
       -0.050781768 0.0637049 -0.018940821 -0.060764194
0000d0 4c ed 90 3c c7 15 5f bd 7c fa 9d bc 30 b7 dd 3b
       0.017691277 -0.054464128 -0.01928448 0.0067662224
0000e0 0e 2a 53 3d 29 16 a9 bd 8a ad 6a 3d 20 1a fc 3c
       0.05155378 -0.0825618 0.057294406 0.030774176
0000f0 8d 13 95 bd c0 d3 dd 3a 1b ff 49 bd 40 b6 5a bc
       -0.0727912 0.0016924068 -0.049315553 -0.013349116
000100 c9 1e 36 bd d8 5e 8a bc de ff 5c 3d ef 4d 86 3d
       -0.044462953 -0.016890928 0.05395495 0.065578334
000110 54 02 89 3c cc d3 a3 bd bb b1 6f bd ee 51 3a 3d
       0.016724743 -0.079993814 -0.058519106 0.04548829
000120 9e f9 6e 3d 80 0e 9d bd d6 69 04 bd 80 68 c1 bc
       0.058343522 -0.07668781 -0.032327496 -0.0236094
000130 c0 fb 87 bc 40 d9 6c 3c 55 05 ac bd ee da 58 bd
       -0.016599536 0.014456093 -0.083994545 -0.052943163
000140 20 a5 b1 3b 2c 54 8d 3c 7e 20 1f 3d f4 5a 13 3d
       0.0054212958 0.01725205 0.038849346 0.03597541
000150 94 23 ee 3c da 45 2f 3d c8 c6 69 bc 0e 75 5d 3d
       0.0290697 0.042791225 -0.014268585 0.05406671
000160 00 b8 2a b9 60 a8 b5 3b d1 54 ac 3d 5a 76 2a 3d
       -0.00016281009 0.0055437535 0.08414615 0.041616775
000170 bd a0 10 bd 7c 98 db 3c 00 03 23 bc 2f 6a 8b 3d
       -0.035309542 0.026806109 -0.009949446 0.06807362
000180 fa 36 32 3d 52 91 1a 3d 82 45 08 3d cd fb 91 3d
       0.04350946 0.037736244 0.033269413 0.07128105
000190 8a b8 7e 3d f1 f9 b1 3d ee db 07 3d c0 4b f2 ba
       0.06218771 0.08690251 0.033168726 -0.001848571
0001a0 71 a6 3c bd 90 fe 15 bc 8d 8e 86 3d 03 13 aa 3d
       -0.04605717 -0.009154931 0.06570158 0.083044074
0001b0 a3 8d 71 bd 94 8b a3 3c 64 81 dd 3c ac ee 19 bd
       -0.058972966 0.019964017 0.027039237 -0.03758113
0001c0 44 81 c3 3c 26 4c 34 3d c2 b4 26 3d 69 66 9f 3d
       0.02386535 0.044017933 0.040699728 0.07783205
0001d0 b6 92 7b 3d 09 40 8f 3d 52 c5 04 3d 49 34 8b 3d
       0.06141921 0.069946356 0.03241474 0.06797082
0001e0 50 38 b1 bb dc 32 af 3c 12 38 7c 3d 20 fd 61 3b
       -0.0054083243 0.021386556 0.06157691 0.003448315
0001f0 ae 84 30 3d 68 cd 0a bc 00 1d 6f 3b 83 0b 90 bd
       0.043095283 -0.008471824 0.0036485791 -0.07033446
000200 d7 e1 87 3d b0 0e 5e bd d8 e0 7e bc 3c c3 aa 3c
       0.066348724 -0.054213226 -0.015556537 0.020845048
000210 d5 3d 49 bd f8 8e e0 3c 50 ee 9d bb 6d 0e 9f 3d
       -0.049131233 0.027411923 -0.004819669 0.077664234
000220 ef 81 5c bd a0 e1 e5 bc de 42 69 bd c0 f1 ab bd
       -0.05383485 -0.028061688 -0.056948535 -0.083957195
000230 e0 18 3f bb 90 9e 42 3c 20 75 e9 bc 22 b0 50 3d
       -0.0029159114 0.011878625 -0.028498232 0.050949223
000240 35 87 8d 3d 5f 1f 9b 3d 4e 2c 34 3d 80 c3 86 3a
       0.06910554 0.07574343 0.043987565 0.0010281652
000250 a6 f8 2a 3d d5 75 ac 3d ff fe ad 3d 26 95 3d 3d
       0.041741036 0.08420912 0.08495902 0.046284817
000260 1a 0a 75 3d ba be 4a 3d 54 31 a3 3c 30 10 13 3c
       0.059824087 0.049498297 0.019920982 0.008976027
000270 df b0 ab bd 67 b7 8e 3d 32 d9 64 3d f2 ed 78 3d
       -0.08383345 0.06968575 0.055871196 0.060773797
000280 7a 73 58 3d 22 48 3e bd 20 ec 2a bc 86 92 1a 3d
       0.052844502 -0.04645551 -0.010432273 0.037737392
000290 88 4e 7c 3c 32 bd 29 3d ff 32 88 3d 56 45 1f bd
       0.015399583 0.041440196 0.06650352 -0.038884483
0002a0 90 d4 08 bc 2d 64 b3 3d df af b3 3d 54 d1 f3 bc
       -0.00835146 0.087593414 0.08773779 -0.029762901
0002b0 28 63 04 bc 54 03 8c bd 16 81 8f bd 33 d4 88 3d
       -0.008080281 -0.06836572 -0.07007043 0.06681099
0002c0 a8 3f 13 3c 82 85 31 bd 82 91 8c bd 5c 5b 85 3c
       0.008987345 -0.043340214 -0.06863691 0.016278915
0002d0 1e cc 4a 3d 3a eb 7a 3d e9 a5 8c bd b0 89 36 bc
       0.049511068 0.061259486 -0.06867582 -0.011141226
0002e0 b7 a6 87 3d 0e f5 0b 3d e3 9b 2c bd 2b 31 2e bd
       0.06623595 0.03416925 -0.042140853 -0.04252736
0002f0 56 68 b4 bd 2f f8 15 bd b8 bf 3b bc c4 f3 af bc
       -0.08808963 -0.03661364 -0.0114592835 -0.021478541
000300 50 6f b7 3b db bb 8e 3d ed f0 b3 3d aa 55 12 3d
       0.0055979863 0.06969424 0.08786187 0.035726227
000310 90 9d 39 3c a6 f8 0b bd bd b0 ae 3d 5f 66 81 3d
       0.01132907 -0.034172677 0.08529804 0.06318354
000320 9c 1e 88 bd 0a 1e 9a bd a4 9a 06 3d e0 9d 1b 3c
       -0.06646463 -0.07525261 0.03286232 0.00949809
000330 88 fa 57 3c 96 19 1f 3d f6 d6 19 3d 08 20 fb 3c
       0.01318229 0.03884276 0.03755852 0.030654922
000340 a3 75 b3 bd 8e cc ef bc f8 43 5c 3c dc 0f 77 bd
       -0.08762672 -0.029272344 0.013443939 -0.06031786
000350 fa b9 25 3d 96 cc 38 3d cd 5c 9b 3d 66 26 76 3d
       0.040460564 0.045116983 0.0758606 0.060095213
000360 b4 c3 be 3c ac e0 7d bd b2 be 93 bd b8 66 09 bd
       0.023286678 -0.061981842 -0.072141066 -0.033545226
000370 ce 33 6a 3d 3a f1 f1 bc 2f 11 89 3d f4 e9 81 3c
       0.05717831 -0.029533971 0.06692731 0.015858628
000380 3c 41 8e 3c cf de a2 bd a8 e6 95 bd a2 f3 53 3d
       0.01736509 -0.079526536 -0.07319385 0.05174602
000390 ae e6 a9 bd 00 17 a0 bc 09 0b 16 bd 18 3a 1d bc
       -0.08295952 -0.019542217 -0.036631618 -0.00959637
0003a0 d2 5f 7b bd 50 b5 b2 bd e5 d3 99 3d c0 fc 78 3b
       -0.06137068 -0.08725989 0.07511119 0.0037992448
0003b0 36 9b 1a 3d f1 02 8a 3d 1e ab 5a 3d 59 d0 90 bd
       0.037745677 0.06738842 0.053385846 -0.07070989
0003c0 0c f7 cd 3c 4f 50 18 bd c8 db 14 bc 20 a5 f1 3b
       0.025142215 -0.037185963 -0.009085603 0.0073744208
0003d0 1a a6 3a 3d 90 e2 99 bd da 04 69 3d a8 92 01 3d
       0.045568563 -0.075139165 0.056889392 0.031634003
0003e0 2e c5 a4 bd a0 43 a2 bb 40 bd b8 3c d8 0e 7e 3c
       -0.080454215 -0.004951909 0.022551179 0.015506469
0003f0 f0 d7 da 3c 6c 4e c2 3c 48 ca 0a 3d f6 6c 9e bd
       0.026714295 0.023719035 0.033884317 -0.077356264

fc2.bias f4 [128]
000000 ae b3 5b 3d 86 76 70 3d 08 cb 52 3c fa 14 34 3d
       0.053638153 0.058706783 0.012865789 0.043965317
000010 48 ed dd bc 74 ce 5f 3d 80 81 c5 3c 84 2a 19 3d
       -0.027090684 0.05464025 0.024109602 0.03739406
000020 00 bc e7 3c be 78 7f 3d b6 eb 4d 3d 40 cf 6f bd
       0.028287888 0.062371008 0.05027362 -0.05854726
000030 06 7f 45 bd 06 b9 4d 3d 7a d2 46 3d 58 d3 2b 3d
       -0.048216842 0.05022528 0.04854057 0.0419496
000040 18 24 50 3c 78 0c 31 bd 34 71 4b bd 1c 64 3c bd
       0.012703918 -0.04322478 -0.049668506 -0.04599391
000050 4e 3b 1c bd 70 7d 0e 3d 64 a2 ff bc 60 ea 73 bc
       -0.038142495 0.034787595 -0.031205364 -0.014887422
000060 62 ec 22 bd d0 17 b0 bb 4c c0 b4 3c 5c 70 44 bd
       -0.039776213 -0.0053739324 0.02206435 -0.047958717
000070 74 93 bf bc 04 eb 1c 3d 84 69 aa bc f2 a8 41 3d
       -0.02338574 0.038310066 -0.020802267 0.04728026
000080 10 f0 77 3c 80 b4 aa 3c fc 9c c4 bc 54 95 8f bc
       0.015132919 0.020838022 -0.024000637 -0.01752726
000090 be 2e 76 3d 5c 2b ed 3c 80 7e 30 ba 78 79 ad bc
       0.06010317 0.02895134 -0.0006732717 -0.021176085
0000a0 7a 9e 53 bd 66 19 18 3d c4 8a 9c bc 48 46 99 3c
       -0.051664807 0.037133597 -0.019109137 0.01871027
0000b0 40 fe 09 bd 92 19 78 bd 96 1e 5b 3d fc bf 5b bd
       -0.033689737 -0.06057126 0.053495966 -0.053649887
0000c0 88 88 5e 3c b4 61 c6 3c 40 13 30 3c e0 6b 1a bd
       0.013582356 0.02421651 0.010746777 -0.037700534
0000d0 90 fe 62 3c 90 a4 9e bb ac f0 31 bd bc ef c0 bc
       0.013854638 -0.0048413947 -0.043442413 -0.023551814
0000e0 78 d1 4f 3d 42 e7 0d bd cc 1c ef bc 80 a6 00 bc
       0.050736874 -0.034644373 -0.029188536 -0.007852197
0000f0 58 5b 3b 3c 80 55 0e 3c 30 47 0b 3c b0 b8 11 bd
       0.011435352 0.008687377 0.008500859 -0.035576522
000100 c0 20 97 3b f4 64 2b 3d 62 60 5a bd f6 86 53 bd
       0.0046120584 0.041844323 -0.053314574 -0.05164238
000110 0a e8 5e 3d 90 b7 eb 3b 88 59 39 bc cc 93 47 bd
       0.05442051 0.007193513 -0.01131285 -0.048724934
000120 8c 4f 90 3c be ba 0f bd b0 85 02 bd 38 92 2c bd
       0.017616056 -0.0350902 -0.031865776 -0.042131633
000130 e0 d4 30 3b d2 1a 17 bd 60 92 62 bc 20 c8 5a 3c
       0.0026982352 -0.036890812 -0.013828844 0.013353378
000140 a8 db 0f bc 00 f6 91 3a 98 7f c8 bc bc 08 d9 bc
       -0.0087803975 0.0011135936 -0.024474904 -0.026493423
000150 c8 4c 7e bc 84 1d f5 bc 00 a0 5f bd d0 21 1c bd
       -0.015521236 -0.0299213 -0.054595947 -0.038118184
000160 d2 c2 50 3d b0 f0 29 3c b0 bd 8e 3b 48 9d 70 3d
       0.050967045 0.010372326 0.0043561086 0.058743745
000170 5c cb 1b 3d 90 2c d6 3c 18 f7 19 3d 90 be de 3c
       0.038035735 0.026144296 0.037589163 0.027190477
000180 a4 fe 7e 3d 88 67 75 3d ec c1 8b bc 6e 34 54 bd
       0.062254563 0.05991319 -0.017060243 -0.051807813
000190 34 28 ee bc d8 d2 5c bc a0 84 a2 bb 08 71 4b 3c
       -0.029071905 -0.013478003 -0.004959658 0.0124170855
0001a0 50 d9 86 bc 68 ea 47 bc 78 19 33 bd 08 98 bd 3c
       -0.016461045 -0.012201883 -0.04372546 0.023143783
0001b0 20 73 f6 bc c0 b9 4c 3d 76 34 40 bd 90 7c fa 3c
       -0.030084193 0.049981833 -0.04692503 0.030576974
0001c0 74 52 74 bd 18 5f 35 3c b0 e1 a9 bc 4a ad 0c bd
       -0.059648946 0.011070035 -0.020737499 -0.03434495
0001d0 ac 24 af bc d0 b2 bc bb 88 75 16 3c 66 96 1c 3d
       -0.021379791 -0.005758621 0.009183295 0.03822937
0001e0 26 56 79 3d 34 44 0a bd e0 f4 fd 3b 50 0b 1f 3c
       0.060873173 -0.03375645 0.0077501386 0.009707287
0001f0 fc 3e ce bc 7c f1 93 bc c4 2e e8 bc 22 eb 47 bd
       -0.025176518 -0.018059485 -0.028342612 -0.048808224

fc3.weight f4 [1, 128]
000000 a6 9b 44 bb a6 9b 44 bb a6 9b 44 bb a6 9b 44 bb
       -0.003 -0.003 -0.003 -0.003
000010 a6 9b 44 bb a6 9b 44 bb a6 9b 44 bb a6 9b 44 bb
       -0.003 -0.003 -0.003 -0.003
000020 a6 9b 44 bb a6 9b 44 bb a6 9b 44 bb a6 9b 44 bb
       -0.003 -0.003 -0.003 -0.003
000030 a6 9b 44 bb a6 9b 44 bb a6 9b 44 bb a6 9b 44 bb
       -0.003 -0.003 -0.003 -0.003
000040 a6 9b 44 bb a6 9b 44 bb a6 9b 44 bb a6 9b 44 bb
       -0.003 -0.003 -0.003 -0.003
000050 a6 9b 44 bb a6 9b 44 bb a6 9b 44 bb a6 9b 44 bb
       -0.003 -0.003 -0.003 -0.003
000060 a6 9b 44 bb a6 9b 44 bb a6 9b 44 bb a6 9b 44 bb
       -0.003 -0.003 -0.003 -0.003
000070 a6 9b 44 bb a6 9b 44 bb a6 9b 44 bb a6 9b 44 bb
       -0.003 -0.003 -0.003 -0.003
000080 a6 9b 44 bb a6 9b 44 bb a6 9b 44 bb a6 9b 44 bb
       -0.003 -0.003 -0.003 -0.003
000090 a6 9b 44 bb a6 9b 44 bb a6 9b 44 bb a6 9b 44 bb
       -0.003 -0.003 -0.003 -0.003
0000a0 a6 9b 44 bb a6 9b 44 bb a6 9b 44 bb a6 9b 44 bb
       -0.003 -0.003 -0.003 -0.003
0000b0 a6 9b 44 bb a6 9b 44 bb a6 9b 44 bb a6 9b 44 bb
       -0.003 -0.003 -0.003 -0.003
0000c0 a6 9b 44 bb a6 9b 44 bb a6 9b 44 bb a6 9b 44 bb
       -0.003 -0.003 -0.003 -0.003
0000d0 a6 9b 44 bb a6 9b 44 bb a6 9b 44 bb a6 9b 44 bb
       -0.003 -0.003 -0.003 -0.003
0000e0 a6 9b 44 bb a6 9b 44 bb a6 9b 44 bb a6 9b 44 bb
       -0.003 -0.003 -0.003 -0.003
0000f0 a6 9b 44 bb a6 9b 44 bb a6 9b 44 bb a6 9b 44 bb
       -0.003 -0.003 -0.003 -0.003
000100 a6 9b 44 bb a6 9b 44 bb a6 9b 44 bb a6 9b 44 bb
       -0.003 -0.003 -0.003 -0.003
000110 a6 9b 44 bb a6 9b 44 bb a6 9b 44 bb a6 9b 44 bb
       -0.003 -0.003 -0.003 -0.003
000120 a6 9b 44 bb a6 9b 44 bb a6 9b 44 bb a6 9b 44 bb
       -0.003 -0.003 -0.003 -0.003
000130 a6 9b 44 bb a6 9b 44 bb a6 9b 44 bb a6 9b 44 bb
       -0.003 -0.003 -0.003 -0.003
000140 a6 9b 44 bb a6 9b 44 bb a6 9b 44 bb a6 9b 44 bb
       -0.003 -0.003 -0.003 -0.003
000150 a6 9b 44 bb a6 9b 44 bb a6 9b 44 bb a6 9b 44 bb
       -0.003 -0.003 -0.003 -0.003
000160 a6 9b 44 bb a6 9b 44 bb a6 9b 44 bb a6 9b 44 bb
       -0.003 -0.003 -0.003 -0.003
000170 a6 9b 44 bb a6 9b 44 bb a6 9b 44 bb a6 9b 44 bb
       -0.003 -0.003 -0.003 -0.003
000180 a6 9b 44 bb a6 9b 44 bb a6 9b 44 bb a6 9b 44 bb
       -0.003 -0.003 -0.003 -0.003
000190 a6 9b 44 bb a6 9b 44 bb a6 9b 44 bb a6 9b 44 bb
       -0.003 -0.003 -0.003 -0.003
0001a0 a6 9b 44 bb a6 9b 44 bb a6 9b 44 bb a6 9b 44 bb
       -0.003 -0.003 -0.003 -0.003
0001b0 a6 9b 44 bb a6 9b 44 bb a6 9b 44 bb a6 9b 44 bb
       -0.003 -0.003 -0.003 -0.003
0001c0 a6 9b 44 bb a6 9b 44 bb a6 9b 44 bb a6 9b 44 bb
       -0.003 -0.003 -0.003 -0.003
0001d0 a6 9b 44 bb a6 9b 44 bb a6 9b 44 bb a6 9b 44 bb
       -0.003 -0.003 -0.003 -0.003
0001e0 a6 9b 44 bb a6 9b 44 bb a6 9b 44 bb a6 9b 44 bb
       -0.003 -0.003 -0.003 -0.003
0001f0 a6 9b 44 bb a6 9b 44 bb a6 9b 44 bb a6 9b 44 bb
       -0.003 -0.003 -0.003 -0.003
