models/checkpoint_actor_local_9.pth (torch_old, 152633 bytes, 5 tensors)

fc1.weight f4 [256, 18]
000000 78 e9 12 3d b0 24 4d bd e4 cc e4 3c 60 ee 79 bd
       0.035867184 -0.050083816 0.02792973 -0.061018348
000010 74 a6 ad bc 80 ad ed 3a fe 98 7a 3d c8 23 7a 3d
       -0.021197535 0.0018133372 0.06118106 0.06106928
000020 24 e5 d5 3c 98 25 0d bc d0 fb d5 bb 82 c2 50 3d
       0.02611024 -0.00861492 -0.0065302625 0.050966747
000030 ac da c9 3c 80 4c d8 3b 58 9c 2b bc c2 14 51 3d
       0.024640404 0.0066009164 -0.010474287 0.051045187
000040 00 8d 7b bd 82 12 38 3d a8 62 5f bc 08 11 f6 bc
       -0.061413765 0.044939525 -0.013634361 -0.030037418
000050 5c 64 56 3d 60 11 ac 3c 82 5d 25 bd a4 1f 53 bd
       0.052341804 0.021004379 -0.04037238 -0.051543847
000060 30 60 ce 3b c8 a2 a0 3c 6a 4d 2c 3d 30 64 f9 bb
       0.0062980875 0.01960887 0.042066015 -0.0076108202
000070 58 3f 69 3c ec 21 12 3d 52 3e 73 3d e6 60 35 3d
       0.014236294 0.03567688 0.059385605 0.044281863
000080 38 d9 76 3d 9a f8 25 3d b8 69 7a 3d d8 0c 08 3c
       0.06026575 0.040520288 0.061135978 0.008303843
000090 36 83 05 3d 5e 00 2e bd 24 19 a4 3c d8 17 e5 3c
       0.032595836 -0.04248082 0.02003152 0.027965471
0000a0 00 c2 c1 3b 3a a8 21 bd 20 7d 21 3d 30 53 cc bc
       0.005913019 -0.039467074 0.03942597 -0.02494201
0000b0 00 b9 4c 3b 5e 32 33 bd 10 32 f9 bc 80 e6 5e 3a
       0.0031238198 -0.043749206 -0.03041938 0.0008502975
0000c0 1e dc 20 bd e0 6f 39 3d 78 a3 36 3d a0 7b 61 bc
       -0.03927242 0.045272708 0.04458949 -0.013762385
0000d0 bc 66 bd bc 90 be 2a bc 80 b4 24 bd 54 83 30 bd
       -0.023120277 -0.01042141 -0.0402112 -0.043093994
0000e0 80 6b b0 bc 00 da c6 3b 30 1f 84 3c 86 1e 15 bd
       -0.021535635 0.006068468 0.016128153 -0.036406063
0000f0 3e 07 79 3d f0 83 a3 bc 2a 3b 18 3d 68 e3 fe 3c
       0.060797922 -0.019960374 0.0371658 0.031114295
000100 94 ec c0 3c 10 1f 74 bc 7a 1c 75 bd 98 13 79 bc
       0.02355031 -0.014899984 -0.05984161 -0.015202425
000110 3c 6f b8 bc b0 8f 1d 3c e4 9e 8d bc 30 85 f4 3b
       -0.022513978 0.009616777 -0.017287679 0.0074621662
000120 a0 3f 95 bc 50 f0 60 bc 9c dc 7b bd 10 4d cc 3b
       -0.018218815 -0.01372917 -0.061489686 0.0062347725
000130 20 2a 7d bc b0 56 88 bc 92 81 61 3d 00 00 54 bb
       -0.015451938 -0.016642898 0.05505521 -0.0032348633
000140 fa 2e 43 bd 32 72 76 bd 84 bc 5f bd 94 ef 86 3c
       -0.047652222 -0.0601675 -0.054623142 0.016471662
000150 08 01 45 bd 1e 9e 02 3d 8c 7a 10 3d 50 e6 34 bc
       -0.048096687 0.031889074 0.03527312 -0.011041239
000160 74 65 7b bd c8 b0 63 bd 20 0e 77 bd a4 9a a7 bc
       -0.06137605 -0.055588514 -0.060316205 -0.02045948
000170 70 72 81 bb 68 fa b4 bc 72 e0 10 bd 08 19 5b bd
       -0.0039504096 -0.02209206 -0.035370298 -0.05349067
000180 3e 5d 4e 3d fc 48 3c bd 60 cb 20 3b 2c 17 26 bd
       0.05038189 -0.04596804 0.0024535283 -0.040549442
000190 94 60 e1 3c e2 33 27 bd bc f3 1c bd 54 be 88 3c
       0.027511872 -0.040820964 -0.03831838 0.016692318
0001a0 34 07 40 bd 78 08 60 3c fa 4f 56 3d ca 82 4f bd
       -0.04688187 0.013673894 0.052322365 -0.05066184
0001b0 80 ac 68 bb 00 6f 52 3a 30 e8 b5 bb cc 74 c3 bc
       -0.0035503209 0.00080274045 -0.0055513605 -0.023859404
0001c0 80 b4 e8 ba 2c 5d b5 3c a0 17 44 3d 4e 4d 69 bd
       -0.0017753989 0.022139154 0.047874093 -0.05695849
0001d0 64 a7 69 3d 70 09 fe bc c8 b3 5f bc 80 02 ba bc
       0.0570444 -0.03101036 -0.013653703 -0.02270627
0001e0 08 b6 b3 bc f4 ee ac bc 8e 36 51 3d a8 24 5a 3d
       -0.021937385 -0.021110035 0.051077418 0.053257614
0001f0 ec ba d2 3c 00 00 45 39 dc 4d e8 3c 68 90 24 3c
       0.025723897 0.00018787384 0.028357439 0.010044195
000200 04 40 d0 3c d0 f8 c7 bb c6 c2 59 3d 28 4a 2d 3c
       0.02542115 -0.006102659 0.053164266 0.010576762
000210 e0 f6 05 bd c0 44 4c bb 5c b7 8a 3c 38 46 34 bc
       -0.03270614 -0.0031168908 0.016933136 -0.01100307
000220 38 f7 72 bc 48 cd 37 3c 88 1a eb bc 00 24 fd b9
       -0.014829449 0.011218376 -0.028699175 -0.00048282743
000230 7a a9 43 bd 50 b5 2b bc bc 9b 7b 3d 7c ca 9f 3c
       -0.047769047 -0.01048024 0.061427817 0.019505732
000240 e8 76 67 bd 30 f0 84 3c d4 e6 49 3d 5e df 2f bd
       -0.056509882 0.016227812 0.0492924 -0.04293763
000250 30 17 04 3d fa c6 2c 3d f4 04 b5 3c cc b0 01 3d
       0.032248676 0.042181946 0.022097088 0.031662747
000260 c8 f5 7a 3c e0 32 31 bc 18 4a 00 3c 70 3e 33 bd
       0.015317388 -0.010815352 0.007830165 -0.043760717
000270 32 9c 5b 3d 60 eb cd 3c 9e cc 5a 3d 5c d0 72 bd
       0.053615756 0.02513665 0.053417794 -0.05928074
000280 be 34 1e 3d c6 24 23 3d c0 f6 31 3b 14 44 49 bd
       0.038624518 0.03982999 0.002715513 -0.04913719
000290 c4 52 55 bd 58 4d e5 3c 24 8e 76 bd 84 f3 d9 3c
       -0.052080885 0.027990982 -0.06019415 0.026605375
0002a0 18 49 54 bc 3a ca 28 3d fc 03 2c 3d 90 d8 95 3b
       -0.01295688 0.041208483 0.041995987 0.0045729354
0002b0 ca 98 34 bd 36 dd 0c 3d ce cc 74 3d 9c d0 de 3c
       -0.044091024 0.03439065 0.05976563 0.027199082
0002c0 90 a6 7f 3d e0 8a e3 3b b4 3b 52 bd c0 3f bb 3b
       0.062414706 0.0069440454 -0.05132647 0.0057143867
0002d0 fe 4a 71 bd 74 ea a1 bc 10 62 50 3d 30 ca 61 bc
       -0.05890941 -0.019765116 0.05087477 -0.013781115
0002e0 0e 51 1a bd f0 3e e9 3c ba df 3c 3d cc 1f 3f bd
       -0.037674956 0.028472394 0.0461118 -0.046661183
0002f0 48 dc 40 bc 74 e0 33 3d ec 8e 3e bd e4 6d 6a bd
       -0.011771269 0.043915227 -0.04652302 -0.057233706
000300 52 7c 1a bd a8 b2 05 3d 2a af 62 bd f4 b5 dc bc
       -0.037716217 0.032641083 -0.05534283 -0.02694223
000310 ac a3 a8 bc aa 1e 25 3d f8 05 4e bd f0 64 b4 3b
       -0.020585857 0.040312447 -0.05029866 0.0055051968
000320 70 c3 1c bd 6c a9 08 bd 80 7e 1d 3d a8 6f 25 bd
       -0.03827232 -0.0333647 0.038450718 -0.040389687
000330 50 ad 87 bb 00 50 74 3c e8 a2 a4 3c ae 84 48 bd
       -0.0041405335 0.014911652 0.020097211 -0.04895466
000340 24 c1 3b bd 38 79 62 bd 08 31 6a bd 40 0e 4b bb
       -0.04583849 -0.055291384 -0.057175666 -0.0030983835
000350 98 13 0e 3d aa 29 56 3d 30 32 00 bd 0a e3 74 3d
       0.034686655 0.052285828 -0.031297863 0.059786834
000360 06 f6 0c 3d e8 46 78 bc 20 23 f2 3c 76 8a 24 bd
       0.034414314 -0.015153624 0.029557765 -0.04017111
000370 5a 49 35 bd ec 42 a4 bc e0 20 6e bb 80 72 df bb
       -0.044259407 -0.020051442 -0.0036335513 -0.0068190694
000380 e0 35 43 bd 72 06 55 bd 82 01 63 bd 20 81 c4 bc
       -0.0476588 -0.0520081 -0.05542136 -0.023987353
000390 d0 b3 37 bd f8 9e 1d 3d 20 1e e8 3c 8c 24 fe bc
       -0.044849217 0.038481683 0.028334677 -0.031023286
0003a0 9c 97 6c bd 1c 33 2b 3d 6c c8 50 3d a0 71 38 3c
       -0.057761773 0.04179679 0.050972387 0.011257559
0003b0 d0 84 7f 3d e4 e9 7d bd 80 69 60 3b f0 44 e1 bb
       0.06238252 -0.061990634 0.003424257 -0.006874673
0003c0 30 9d 7b 3d a0 78 71 3d 3c fa 24 3d 44 4c 11 3d
       0.061429203 0.058952928 0.040277705 0.035473123
0003d0 c4 01 32 bd 78 42 e5 bc 54 35 44 bd aa 80 41 3d
       -0.043458715 -0.027985796 -0.04790242 0.047241844
0003e0 f4 5b 19 3d f8 48 74 bc a0 50 26 bb e4 c6 c3 bc
       0.03744121 -0.014909975 -0.0025377646 -0.02389855
0003f0 00 d3 60 3d 80 7b 7f bb dc 9c 88 bc f4 c2 f0 bc
       0.054888725 -0.0038983524 -0.016676359 -0.029389836

fc1.bias f4 [256]
000000 17 8d 1f 3e 0b 0c 1d 3e 17 05 6c be c8 47 41 be
       0.15581165 0.15336625 -0.23048817 -0.18875039
000010 27 00 50 be 04 99 08 bd 85 ff 36 3e de 6e b1 3d
       -0.20312558 -0.033349052 0.1787091 0.08663724
000020 9b 7b 13 be b8 0c a6 bc 5d d4 eb bd 14 59 c1 bd
       -0.1440262 -0.020269737 -0.115151145 -0.094408184
000030 07 a4 3e 3e b2 12 ad 3d a6 5a 9b bd 0e 11 eb 3d
       0.18617259 0.084508315 -0.07585649 0.11477862
000040 f4 92 11 be ba 25 47 be e5 6a 43 3e 51 78 25 3e
       -0.14216214 -0.19447985 0.19083746 0.16159178
000050 17 ff 20 3e 05 e5 17 3e 06 af 1c be 82 96 0e be
       0.15722309 0.14833458 -0.15301141 -0.13924602
000060 42 08 d5 bd 82 87 ab 3d 6c 32 24 be 7c 4b 28 bd
       -0.10401966 0.083754554 -0.1603486 -0.041087613
000070 ab c7 29 3e b0 38 ad bd 4d 26 38 be c0 38 49 3c
       0.16580074 -0.08458078 -0.1798336 0.012281597
000080 67 11 62 3e 26 89 8b 3d ac 45 94 bd 56 c8 ba 3d
       0.22076951 0.06813268 -0.07239851 0.09120242
000090 0d be 30 3e 58 8e 87 bd a8 0b 9f 3c 80 17 78 bb
       0.17259999 -0.06618947 0.019414738 -0.0037855804
0000a0 dc 31 5d 3d ed 96 5d 3e 50 b0 22 be 73 a8 6c 3e
       0.054002628 0.21639605 -0.1588757 0.23111133
0000b0 1d 57 1b 3e df 3d 22 3e b6 aa ba 3d d6 79 e4 3d
       0.1516995 0.15843914 0.09114592 0.11156051
0000c0 06 ff dd 3d 9b e1 0a 3e 3e 83 db 3d ef b0 45 3e
       0.108396575 0.13562624 0.10718392 0.19305776
0000d0 4a 1d 98 3d 04 ad 05 bd 3c 92 09 3d 00 6e 45 3b
       0.074274614 -0.032635704 0.033586726 0.003012538
0000e0 af 92 4f be 5e 1e 99 3d b7 25 3b 3e b4 ed 53 bd
       -0.20270799 0.07476495 0.18276106 -0.051740363
0000f0 00 3d c5 3a b6 78 a0 bd a6 f2 f5 3d 7e 19 8f 3d
       0.0015048087 -0.07835524 0.12009172 0.06987284
000100 99 0f 06 3e 1e b3 34 be da 79 86 3d c9 b1 19 be
       0.13091888 -0.17646453 0.0656621 -0.15009226
000110 b9 3f 18 3e 5a 18 94 bd d2 3b bb bd 16 fa a8 3d
       0.14868058 -0.07231207 -0.09142269 0.08250825
000120 52 bf 59 be 3b 03 65 3e 04 91 49 3d 50 79 63 bd
       -0.21264389 0.22364514 0.049210563 -0.055535614
000130 d8 d3 97 bc e3 cc 09 be db 75 27 3e 49 ea 0c 3e
       -0.018533632 -0.13457064 0.16353552 0.13761248
000140 12 90 98 3d e8 d3 81 3c 62 20 c4 bd 14 19 48 bd
       0.07449354 0.015848115 -0.09576489 -0.04885204
000150 7f f1 52 be 46 99 f8 bd 40 37 fd 3b da 08 bc bd
       -0.20599936 -0.121386096 0.0077275336 -0.09181376
000160 bd d6 60 3e 40 be 21 bb 74 5a 7f 3d 5c 38 98 bd
       0.21956916 -0.0024680048 0.062342122 -0.07432625
000170 19 aa 5d 3e b8 5f fd 3c 81 be 6f be ee 14 ce bd
       0.21646918 0.030929431 -0.23412515 -0.10062586
000180 ae 79 4a be a2 b2 91 3d 5d 75 5b be ea ed e3 3d
       -0.1977298 0.0711415 -0.2143149 0.11129363
000190 a5 ca 0a 3e 06 aa c5 3d 2e 15 9d bd 06 80 ad 3d
       0.13553865 0.0965157 -0.07670055 0.08471684
0001a0 ce 64 ed 3d b6 99 cb bd 99 9c 6b 3e ba 41 cd bd
       0.115914926 -0.099414274 0.23008956 -0.10022302
0001b0 9c 99 39 3d bc 33 2f be e2 6c e6 3d 40 b7 1b be
       0.04531251 -0.17109579 0.112512365 -0.15206623
0001c0 cc 51 b8 bd 6e d4 e1 3d 9b 80 12 be 99 97 6f 3e
       -0.089999765 0.11026846 -0.14306872 0.23397674
0001d0 13 49 06 3e ae 7e c3 3d 28 1b bb 3c e8 d5 a6 bc
       0.13113813 0.095456466 0.022840098 -0.02036567
0001e0 a6 91 a0 bd ca 46 3f be 32 e1 9b 3d 88 2a 80 3c
       -0.0784028 -0.18679348 0.07611312 0.01564528
0001f0 0c e1 0b 3d 55 20 18 3e a0 91 84 bb dc 04 3f 3d
       0.03415017 0.14856084 -0.00404568 0.046635494
000200 08 8e 9f bc a3 e9 6f 3e 20 f7 cd 3b 36 c9 d6 3d
       -0.019476905 0.23428969 0.006285563 0.10487597
000210 0b aa 1f be 96 10 c4 3d ca aa bb 3d 48 e0 83 3c
       -0.1559221 0.09573476 0.09163435 0.016098157
000220 8b 29 35 be 08 06 f9 3c e6 1d d8 3d 4d b4 52 3e
       -0.17691629 0.030398384 0.10552578 0.20576592
000230 68 fb 50 bd 13 e2 4a 3e 0f 98 70 3e 65 f4 14 3e
       -0.05102101 0.19812803 0.23495506 0.14546354
000240 89 2a 0c 3e d5 a8 64 be ba 99 fe 3d 32 54 80 3d
       0.13688101 -0.2233003 0.12431665 0.06266059
000250 37 28 0a be d4 51 18 3d 9a 38 45 be cc 6b 81 bd
       -0.13491903 0.037187412 -0.19259873 -0.06319389
000260 86 9d ea 3d 7b 39 03 be bc f3 06 bd 54 5d 05 bd
       0.114558265 -0.12814896 -0.032947287 -0.032559708
000270 00 d0 f4 3b b0 44 2d bd b2 68 aa 3d 30 67 74 bd
       0.0074710846 -0.042301834 0.0832075 -0.05966872
000280 b9 dd 25 3e 20 7f ba 3b 9e 72 b6 3d 58 96 69 bd
       0.16197862 0.005691424 0.0890858 -0.057028145
000290 51 ce 58 3e 0d b8 0d be c8 5c bc 3c 68 6f a7 bc
       0.21172453 -0.13839741 0.02299346 -0.020438865
0002a0 25 39 43 be 1c bd 3d bd bf d5 6b 3e c4 19 3f bd
       -0.19064768 -0.046322927 0.23030756 -0.04665543
0002b0 b7 32 12 3e ce 21 ef 3d 34 6e 3f be a7 00 65 3e
       0.14277159 0.116763696 -0.18694383 0.2236353
0002c0 5e a6 f1 3d d5 97 20 3e c4 98 52 bd c0 1c 42 3c
       0.1179931 0.1568292 -0.05141522 0.011847675
0002d0 3a c2 09 be c8 93 de bc 3e 20 8b 3d 40 d5 16 bd
       -0.13452998 -0.027170077 0.06793259 -0.036824465
0002e0 58 3f 8a 3c 48 9d 69 be 3f 09 6f 3e 50 c8 40 3c
       0.016875908 -0.22813904 0.23343371 0.011766508
0002f0 5d 8b 28 3e 4a 60 68 be 69 41 33 be 40 42 55 bb
       0.16459413 -0.22692981 -0.1750542 -0.0032540709
000300 36 18 70 be de 23 8f bd 82 d0 bc bd 4d 4f 0f be
       -0.23446736 -0.06989263 -0.09219457 -0.13995095
000310 ea 05 89 bd 2f 17 71 be bc af 74 3d 00 16 e2 b9
       -0.06690581 -0.23544 0.059737906 -0.0004312247
000320 0c 65 12 bd 25 53 4b 3e 5e 97 a8 3d 99 e5 3c 3e
       -0.035740897 0.19855936 0.08231996 0.1844696
000330 84 e1 6b 3d 10 fe 70 3c 56 18 ca 3d 80 06 76 bd
       0.057588115 0.014709011 0.09867923 -0.060064793
000340 8d 7b 6a 3e 18 85 44 bd d0 fc b9 bd 4a 55 0b be
       0.22898693 -0.04797849 -0.09081423 -0.13606754
000350 16 e9 c4 bd 6c 22 12 3d 0e 0b dc bd 50 8f 55 bd
       -0.0961477 0.03567736 -0.10744296 -0.052138627
000360 26 68 c0 bd 8a 71 8f 3d db 68 49 be 66 63 d7 3d
       -0.09394865 0.07004078 -0.19668905 0.105170056
000370 33 0d 5e be 8a 8b 9a 3d 68 cb d5 bd f6 64 e0 3d
       -0.21684723 0.07546146 -0.10439187 0.10956757
000380 98 23 4f bd 58 24 e3 3c 80 97 d1 bd 80 a5 20 be
       -0.050571054 0.027727291 -0.102339745 -0.15688133
000390 4a 4b cd 3d 7c 91 31 be ba 8f 2b be df a0 10 3e
       0.10024126 -0.17340654 -0.16754046 0.14123867
0003a0 87 0f 6c be d2 82 9e 3d 5e d3 2e be d1 55 18 be
       -0.23052798 0.07739796 -0.17072818 -0.14876486
0003b0 f3 bd 08 3e 6d 0f 5f be e3 fb 32 be 79 d3 21 3e
       0.1335371 -0.21783228 -0.174789 0.15803327
0003c0 e5 62 4b 3e dc 72 b5 bd 20 78 30 3c de 68 f7 bd
       0.19861944 -0.08859798 0.0107708275 -0.12080549
0003d0 48 b4 18 bd fc 3a 6c 3d 79 ae 57 3e 84 d1 c0 bd
       -0.037281305 0.05767344 0.2106265 -0.09414962
0003e0 ff 6e 51 3e b5 fd 70 3e 33 9b 70 3e 46 99 09 be
       0.20452498 0.23534282 0.23496704 -0.13437375
0003f0 b2 a4 f2 3d 99 bc 5d 3e cf 69 38 be 52 fb d4 3d
       0.118478194 0.21653976 -0.18009113 0.10399498

fc2.weight f4 [128, 256]
000000 2d 19 91 bd af 3c 97 3d 90 01 60 3c 24 80 cd 3c
       -0.0708488 0.07384621 0.0136722475 0.025085516
000010 ba 8b 7d 3d 22 d2 ea bc cc 0b f4 3c 00 12 6a 3c
       0.06190083 -0.028664652 0.029790781 0.014286518
000020 5d 44 68 bd dd 11 92 3d f8 16 9e bc 30 5d 34 3c
       -0.05670582 0.071323134 -0.019298062 0.011008546
000030 eb a4 a0 3d 19 44 a1 bd cf eb 98 3d 90 3a 2d 3c
       0.078439556 -0.07874317 0.07466852 0.010573044
000040 30 cc 74 3c 00 1a b9 b9 39 10 83 bd cd 3d 8e bd
       0.01494126 -0.0003530532 -0.063995786 -0.06945381
000050 e8 3c 71 bd 09 db b4 3d 13 78 1a bd 97 75 76 bd
       -0.058895975 0.0883084 -0.037712168 -0.060170736
000060 8b 9a 91 3d 00 6c e6 ba fe 4e 59 3d a4 ac 94 bd
       0.07109555 -0.0017579794 0.05305385 -0.07259491
000070 cd 03 65 bd 74 94 96 3c c6 e0 24 bd 20 1e ef 3c
       -0.055911828 0.018381335 -0.040253423 0.02918917
000080 d2 02 30 bd 1c a0 75 bd 52 45 ac bd a3 63 b0 3d
       -0.04297144 -0.059967145 -0.08411659 0.08612754
000090 b6 2b 63 3d 8f ee 96 3d f0 c3 80 bd 90 f0 8b 3b
       0.055461608 0.0736972 -0.06287372 0.0042706206
0000a0 fb 08 5f bd 3c 90 a4 3c 5a 65 8c bd 44 bf cc bc
       -0.054451924 0.020088308 -0.06855269 -0.024993546
0000b0 c0 71 25 bd 80 19 90 bc ba 9b 8c bd 0e 60 29 3d
       -0.040391684 -0.017590284 -0.0686564 0.04135137
0000c0 0e a0 3b 3d 1a ff 94 bd ae 9d 8c bd 70 f7 0b bc
       0.045806937 -0.07275219 -0.068660125 -0.00854288
0000d0 4f 8e 93 3d 80 30 a7 3a 8c cf bc 3c fe e1 35 3d
       0.072048776 0.0012755543 0.023048185 0.044404976
0000e0 28 07 0a 3d b8 3d 54 3c 51 ca 25 bd 93 42 8e 3d
       0.03369823 0.012954168 -0.040476147 0.06946292
0000f0 60 00 04 3d 76 4d 64 3d fa 08 72 3d 30 9a 3c 3c
       0.03222692 0.055737935 0.059090592 0.011511371
000100 43 5a 9d 3d c2 b3 2d bd 54 27 ba bc 58 a3 8f bd
       0.07683232 -0.04240776 -0.022723831 -0.07013577
000110 90 3a 7c bc 0b c1 9e 3d 58 d2 2a bd 10 dd 87 bc
       -0.015394822 0.07751664 -0.041704506 -0.016584903
000120 2e e5 45 3d d4 d1 ff 3c 60 94 17 3b 48 a3 17 bc
       0.048314266 0.031227984 0.002312921 -0.009255238
000130 28 ad 58 bd c4 0f 0d bd ad 61 ab bd 03 31 a7 bd
       -0.05289951 -0.034438863 -0.083682396 -0.08163645
000140 26 7b 28 3d b8 75 1a bc aa 62 38 3d 20 18 2f 3c
       0.04113307 -0.00942748 0.04501597 0.010686904
000150 a9 ee 20 bd aa 31 3f 3d 35 fe 04 bd 80 7e 25 bd
       -0.039290104 0.046678223 -0.032468993 -0.040403843
000160 0c 18 b8 bc f8 b4 6c bc a2 25 67 3d ae e0 5d 3d
       -0.022472404 -0.014447443 0.056432374 0.05416935
000170 60 62 52 3c 02 ef a9 bd 30 2e b0 bb 1a c4 36 3d
       0.012840837 -0.0829754 -0.0053765997 0.04462061
000180 f0 d2 f8 bb 0e 95 f7 bc 74 36 47 bd e2 7a a7 bd
       -0.007593505 -0.030222442 -0.048635915 -0.08177735
000190 f7 16 21 bd 84 45 9e bd 34 ba d0 3c 90 2c 15 bd
       -0.03932854 -0.07728103 0.025479414 -0.03641945
0001a0 39 9a 8d 3d 50 ff 0d bc 08 d6 b2 bc 50 d7 f8 3c
       0.06914181 -0.008666828 -0.021830574 0.030376107
0001b0 2e df 02 3d 8e 93 49 3d e8 f9 37 bd 6e 0c 15 3d
       0.031951122 0.049212985 -0.044916064 0.036388807
0001c0 ae db 95 bd f6 80 17 bd 20 dd aa bb d1 ed 3c bd
       -0.07317291 -0.03698822 -0.0052143484 -0.046125237
0001d0 10 d0 f0 3c 26 ca 72 3d 1d 65 96 3d 51 cb 89 3d
       0.029396087 0.059274815 0.073435046 0.06728233
0001e0 96 8c 36 bd 90 7d a0 bc 92 42 6b 3d 40 04 35 bb
       -0.044567667 -0.019591123 0.057436533 -0.0027620941
0001f0 46 05 2e bd b3 10 90 bd de 64 7a 3d 86 15 e3 bc
       -0.042485498 -0.07034435 0.06113135 -0.027720224
000200 6a 8a 55 3d 03 2e af 3d a8 fd 76 bc f0 36 60 3c
       0.052133955 0.08553698 -0.015075125 0.013684973
000210 54 b8 fd bc e0 eb 85 3c e8 05 61 bc 30 9f 42 bc
       -0.030971684 0.016347826 -0.013734318 -0.011878774
000220 12 40 5f bd f4 da 0a 3d bc 88 81 bd 9d ca 60 bd
       -0.05450446 0.033900216 -0.06324908 -0.054880727
000230 8c e5 9b bc c2 36 16 3d 00 04 af b9 42 be 1a 3d
       -0.019030355 0.036673315 -0.0003338158 0.0377791
000240 30 48 43 3c fa 8d 1c 3d 23 ef 8b 3d 73 25 a6 bd
       0.011919066 0.038221337 0.06832721 -0.081126116
000250 ed de 74 bd b2 7a 00 3d 88 1f 5b 3c dc 7b 8f bd
       -0.05978291 0.03136701 0.013374217 -0.07006046
000260 22 fe 18 3d c1 bc 9e 3d bf 3f 23 bd cc 26 f0 3c
       0.037351735 0.07750846 -0.039855715 0.029315375
000270 a6 28 41 bd aa 0a 84 bd 64 40 a3 bc 89 28 a1 bd
       -0.047157906 -0.064473465 -0.019928165 -0.078690596
000280 dd 62 80 3d cb 0a 8b bd f2 92 5d 3d a6 e6 45 3d
       0.06268857 -0.06789168 0.054095216 0.048315667
000290 d8 18 1c bc 80 4b a8 3b 76 e9 6d bd 78 3b 80 3c
       -0.009527408 0.0051359534 -0.058083974 0.015653357
0002a0 c6 70 8b bd 90 8f 94 3b ed 45 b1 bd 7a 1a 42 3d
       -0.06808619 0.0045337155 -0.086559154 0.04738853
0002b0 78 51 a1 3c 69 34 b1 3d 48 f3 a1 3c ac 9e 06 bd
       0.019692168 0.086525746 0.019769326 -0.032866165
0002c0 c0 e7 f2 3c 2a ca 45 3d cc 16 80 bc 02 b6 6c 3d
       0.029651523 0.0482885 -0.01563587 0.057790764
0002d0 72 b8 5a 3d 18 3f 9a bd da d8 f2 bc 74 f0 0c bd
       0.053398557 -0.075315654 -0.029644419 -0.034409
0002e0 32 0d 7a 3d e0 0b 83 3b 1d 5f 7d bd 7c 1b 8b bd
       0.06104774 0.0039992183 -0.061858285 -0.067923516
0002f0 68 af fd 3c 4d 91 a7 3d 8b cc ae 3d 50 70 b5 3c
       0.03096743 0.08182011 0.08535107 0.022148281
000300 f0 aa 12 3c 9c e5 b5 3c 1f 36 32 bd 8e b2 09 3d
       0.0089518875 0.022204213 -0.043508645 0.03361755
000310 44 70 17 bd 8a 54 e0 bc f4 2c af bc a9 38 8b bd
       -0.0369723 -0.027384061 -0.02138374 -0.067979164
000320 78 1b 44 bc 75 91 ae 3d ef 89 00 bd f1 2f 37 bd
       -0.01196944 0.085238375 -0.031381544 -0.044723455
000330 9e dc 95 bd 9c b2 9f bd fe db 0e 3d 09 27 76 bd
       -0.0731747 -0.07797739 0.03487777 -0.06009582
000340 06 31 71 3d 77 2b 0d bd 20 ef 9d 3b d2 f7 37 bd
       0.058884643 -0.03446528 0.0048197657 -0.044914074
000350 ff bd 29 bd b8 0f 18 bc 65 1e ae 3d 88 69 a6 3c
       -0.04144096 -0.009281091 0.08501891 0.020313993
000360 cd f3 af bd 32 57 a2 bd b5 df af 3d a8 98 42 bc
       -0.08591423 -0.079267874 0.085875906 -0.011877216
000370 ca 2c a2 bd 8b 3d 26 bd 80 a9 1b ba 46 75 1a 3d
       -0.07918699 -0.040586036 -0.0005938038 0.037709497
000380 37 82 89 3d 90 a4 32 3c 1c 9e da 3c 16 a5 79 3d
       0.0671429 0.010903493 0.02668672 0.060948454
000390 11 f0 1d bd 70 88 5a 3c c0 b2 06 3d 5e e9 55 3d
       -0.038559023 0.013338193 0.032885313 0.05222451
0003a0 fb d0 94 3d 8e f8 20 3d cc 69 f0 3c ec 88 8d bd
       0.07266422 0.03929954 0.029347323 -0.069108814
0003b0 26 d1 58 3d 0f 9d 8a bd 58 e1 93 bd e0 14 76 3b
       0.052933834 -0.06768238 -0.07220715 0.0037549064
0003c0 75 d0 88 bd 0c 08 99 bd e0 b6 51 bc c0 c0 a5 3a
       -0.06680385 -0.07472238 -0.012799948 0.0012645945
0003d0 14 d2 8d bd b0 26 30 bc 1f 54 80 bd df 8c 83 bd
       -0.06924835 -0.010751411 -0.06266045 -0.064233534
0003e0 17 d1 a5 bd e2 db 49 bd c9 da 9a bd 10 2b cc 3b
       -0.08096521 -0.049281962 -0.07561261 0.0062307194
0003f0 50 b3 82 3b 4a 63 01 bd 00 ee 73 bd 28 36 4f bd
       0.003988661 -0.03158883 -0.059553146 -0.050588757

fc2.bias f4 [128]
000000 06 e5 09 3d f8 14 be 3c 80 91 22 ba 1c 64 20 3d
       0.03366568 0.023203358 -0.0006201491 0.03915797
000010 d8 10 f5 3c a0 91 5c bd f4 b8 c1 bc 78 8d fe bc
       0.029915258 -0.053849816 -0.023647763 -0.031073317
000020 cc 69 05 bd ec 8a 93 bc 52 ea 54 bd 72 d1 6a 3d
       -0.0325716 -0.018010579 -0.051981278 0.05732865
000030 0a ac 7c bd 50 aa 1c bd 48 e0 83 bc 3c d0 3c 3d
       -0.061687507 -0.03824836 -0.016098157 0.046097025
000040 e2 37 7c bd 22 d5 71 3d 10 88 9f bb 18 b5 5e bd
       -0.06157673 0.05904115 -0.004868515 -0.054371923
000050 18 08 77 3d 22 b8 0d bd 18 43 c5 bc 52 34 1f bd
       0.060310453 -0.03459943 -0.024079844 -0.038868256
000060 ee a4 19 3d 68 b0 0e bd 00 06 8b 39 e8 33 54 3d
       0.037510805 -0.034836203 0.00026516616 0.051807314
000070 58 d0 2e bc d0 29 13 bc 00 56 ab 3a f8 91 70 bd
       -0.01066979 -0.008982137 0.0013071895 -0.058732957
000080 14 9b f1 3c a0 08 33 3d ec 5d 59 3d 48 1b fd 3c
       0.029492892 0.043709397 0.053068087 0.030896798
000090 1e 8a 50 bd 0c 76 67 bd 88 df 89 3c f8 a0 e2 3c
       -0.05091297 -0.056509063 0.01683022 0.027664647
0000a0 9e b7 17 bd f8 02 2d 3d 30 e6 c9 bc 9e bb 61 bd
       -0.037040345 0.04223916 -0.024645895 -0.055110566
0000b0 ce 34 23 bd d6 d5 5a bd e0 5d 04 3c 30 5b ae 3b
       -0.03984528 -0.053426586 0.008079022 0.005320929
0000c0 d4 6b 8d bc e0 ba f4 3b e0 93 ef bb 4a e6 36 3d
       -0.01726333 0.0074685663 -0.0073113292 0.044653215
0000d0 00 99 a6 39 44 81 34 bd 2e ac 2c bd 92 14 0f 3d
       0.0003177598 -0.04406859 -0.04215639 0.034931727
0000e0 ce 64 36 3d 40 50 67 bb ee e1 61 3d 80 45 4b 3d
       0.04452973 -0.0035295635 0.055147104 0.049626827
0000f0 b0 18 48 3c 60 f3 5e bc 90 3e 1b bd 20 05 b2 bc
       0.012212917 -0.01360783 -0.03790146 -0.02173096
000100 60 8b 88 bb bc 81 82 bc d0 b9 6d bc 40 1b 54 bd
       -0.0041670054 -0.015931003 -0.014509633 -0.0517838
000110 50 f7 b4 3b ec 46 14 bd d8 9b 09 bc a8 f7 61 3d
       0.005522646 -0.03620045 -0.008398972 0.055167824
000120 20 c8 06 bc 04 ac 0c bd c4 81 e1 3c a0 a7 d3 bb
       -0.008226424 -0.034343734 0.027527697 -0.0064591914
000130 c8 00 be bc 0c da 1f 3d 78 71 aa bc 2e 98 73 3d
       -0.023193732 0.039026305 -0.02080606 0.0594713
000140 12 83 4a 3d 20 9d aa bb 72 23 1f 3d 3e 67 66 3d
       0.049441405 -0.005206719 0.038852163 0.056250803
000150 94 e6 a4 3c 4e 32 23 bd 48 97 6b bd e2 a9 48 3d
       0.02012948 -0.039842896 -0.05751732 0.048990138
000160 86 98 29 3d 98 19 8b 3c 4c 89 2e 3d 80 0f 43 3a
       0.041405223 0.016979977 0.042611405 0.00074409693
000170 00 4a 06 b9 52 b2 6a 3d de 84 79 bd 8c 34 97 3c
       -0.00012806803 0.057298966 -0.060917728 0.018457673
000180 f0 c8 88 3b 40 d6 81 3a 6a 8a 2d 3d f0 3f 25 bd
       0.0041743442 0.000990577 0.04236833 -0.04034418
000190 3e 67 59 bd 1c a3 ac bc 26 58 01 3d 4c b0 6f 3d
       -0.053076975 -0.02107387 0.031578206 0.05851774
0001a0 b8 59 3a 3d a0 b7 35 bc 8e 06 50 3d 14 58 07 bd
       0.04549572 -0.011091143 0.0507875 -0.033042982
0001b0 20 ed 40 3b b8 7f d7 3c a6 a2 30 3d 7c b8 6a bd
       0.0029438213 0.026306018 0.043123864 -0.057304844
0001c0 38 5f 4c 3d 48 51 3f bc f2 bf 3e 3d 8c 9d 61 bd
       0.049895495 -0.011677094 0.046569772 -0.05508189
0001d0 50 26 9f bb c0 94 65 3d d0 aa f2 bb b8 65 b5 3c
       -0.004856862 0.056050062 -0.0074056163 0.02214323
0001e0 c0 45 04 3d d6 d5 78 3d f4 0d db 3c d0 0c 73 3c
       0.03229308 0.060750805 0.026740052 0.014834598
0001f0 cc d1 a5 3c 8a c9 54 3d 74 33 33 3d d0 27 18 bc
       0.02024164 0.051950015 0.04375024 -0.009286836

fc3.weight f4 [1, 128]
000000 a6 9b 44 bb a6 9b 44 bb a6 9b 44 bb a6 9b 44 bb
       -0.003 -0.003 -0.003 -0.003
000010 a6 9b 44 bb a6 9b 44 bb a6 9b 44 bb a6 9b 44 bb
       -0.003 -0.003 -0.003 -0.003
000020 a6 9b 44 bb a6 9b 44 bb a6 9b 44 bb a6 9b 44 bb
       -0.003 -0.003 -0.003 -0.003
000030 a6 9b 44 bb a6 9b 44 bb a6 9b 44 bb a6 9b 44 bb
       -0.003 -0.003 -0.003 -0.003
000040 a6 9b 44 bb a6 9b 44 bb a6 9b 44 bb a6 9b 44 bb
       -0.003 -0.003 -0.003 -0.003
000050 a6 9b 44 bb a6 9b 44 bb a6 9b 44 bb a6 9b 44 bb
       -0.003 -0.003 -0.003 -0.003
000060 a6 9b 44 bb a6 9b 44 bb a6 9b 44 bb a6 9b 44 bb
       -0.003 -0.003 -0.003 -0.003
000070 a6 9b 44 bb a6 9b 44 bb a6 9b 44 bb a6 9b 44 bb
       -0.003 -0.003 -0.003 -0.003
000080 a6 9b 44 bb a6 9b 44 bb a6 9b 44 bb a6 9b 44 bb
       -0.003 -0.003 -0.003 -0.003
000090 a6 9b 44 bb a6 9b 44 bb a6 9b 44 bb a6 9b 44 bb
       -0.003 -0.003 -0.003 -0.003
0000a0 a6 9b 44 bb a6 9b 44 bb a6 9b 44 bb a6 9b 44 bb
       -0.003 -0.003 -0.003 -0.003
0000b0 a6 9b 44 bb a6 9b 44 bb a6 9b 44 bb a6 9b 44 bb
       -0.003 -0.003 -0.003 -0.003
0000c0 a6 9b 44 bb a6 9b 44 bb a6 9b 44 bb a6 9b 44 bb
       -0.003 -0.003 -0.003 -0.003
0000d0 a6 9b 44 bb a6 9b 44 bb a6 9b 44 bb a6 9b 44 bb
       -0.003 -0.003 -0.003 -0.003
0000e0 a6 9b 44 bb a6 9b 44 bb a6 9b 44 bb a6 9b 44 bb
       -0.003 -0.003 -0.003 -0.003
0000f0 a6 9b 44 bb a6 9b 44 bb a6 9b 44 bb a6 9b 44 bb
       -0.003 -0.003 -0.003 -0.003
000100 a6 9b 44 bb a6 9b 44 bb a6 9b 44 bb a6 9b 44 bb
       -0.003 -0.003 -0.003 -0.003
000110 a6 9b 44 bb a6 9b 44 bb a6 9b 44 bb a6 9b 44 bb
       -0.003 -0.003 -0.003 -0.003
000120 a6 9b 44 bb a6 9b 44 bb a6 9b 44 bb a6 9b 44 bb
       -0.003 -0.003 -0.003 -0.003
000130 a6 9b 44 bb a6 9b 44 bb a6 9b 44 bb a6 9b 44 bb
       -0.003 -0.003 -0.003 -0.003
000140 a6 9b 44 bb a6 9b 44 bb a6 9b 44 bb a6 9b 44 bb
       -0.003 -0.003 -0.003 -0.003
000150 a6 9b 44 bb a6 9b 44 bb a6 9b 44 bb a6 9b 44 bb
       -0.003 -0.003 -0.003 -0.003
000160 a6 9b 44 bb a6 9b 44 bb a6 9b 44 bb a6 9b 44 bb
       -0.003 -0.003 -0.003 -0.003
000170 a6 9b 44 bb a6 9b 44 bb a6 9b 44 bb a6 9b 44 bb
       -0.003 -0.003 -0.003 -0.003
000180 a6 9b 44 bb a6 9b 44 bb a6 9b 44 bb a6 9b 44 bb
       -0.003 -0.003 -0.003 -0.003
000190 a6 9b 44 bb a6 9b 44 bb a6 9b 44 bb a6 9b 44 bb
       -0.003 -0.003 -0.003 -0.003
0001a0 a6 9b 44 bb a6 9b 44 bb a6 9b 44 bb a6 9b 44 bb
       -0.003 -0.003 -0.003 -0.003
0001b0 a6 9b 44 bb a6 9b 44 bb a6 9b 44 bb a6 9b 44 bb
       -0.003 -0.003 -0.003 -0.003
0001c0 a6 9b 44 bb a6 9b 44 bb a6 9b 44 bb a6 9b 44 bb
       -0.003 -0.003 -0.003 -0.003
0001d0 a6 9b 44 bb a6 9b 44 bb a6 9b 44 bb a6 9b 44 bb
       -0.003 -0.003 -0.003 -0.003
0001e0 a6 9b 44 bb a6 9b 44 bb a6 9b 44 bb a6 9b 44 bb
       -0.003 -0.003 -0.003 -0.003
0001f0 a6 9b 44 bb a6 9b 44 bb a6 9b 44 bb a6 9b 44 bb
       -0.003 -0.003 -0.003 -0.003
