models/checkpoint_critic_local_11.pth (torch_old, 349244 bytes, 5 tensors)

fcs1.weight f4 [256, 200]
00000000: 06f2 083d 44b8 8dbc 2070 a33b 642d 3cbd
00000010: 80dc b8ba 9afb 69bd 4034 d8bb f04d f93b
00000020: f874 ddbc eca1 a9bc 064a 6c3d acaa ea3c
00000030: 204d 7a3b 88a4 003d 787d edbc 266c 403d
00000040: 6606 003d 84cf 83bc e863 2f3d 3ed3 17bd
00000050: 4082 3d3c 2cca f03c 0894 1f3d a489 a8bc
00000060: 846d 97bc 1ee1 2d3d c0c7 b1ba c873 3b3c
00000070: 78da 793d 5cce f03c e87f 51bd b4ec ea3c
00000080: c018 3b3b a2b2 4dbd 38e3 fbbc f4dc 74bd
00000090: 7417 b93c 2075 54bc c497 d4bc 32e0 45bd
000000a0: 8c6b 56bd b884 5fbc e4f9 cb3c 4e5a 3dbd
000000b0: 6e64 6fbd f8d0 fd3c 189f 353d 58f5 0d3c
000000c0: 16b0 6d3d ce92 473d 9802 dcbc 6876 2fbc
000000d0: 20d1 af3b 50a3 6e3d 5406 ae3c 48c7 0d3c
000000e0: dc29 2a3d 54d5 8bbc f41d 68bd 3e4d 443d
000000f0: d206 50bd 16e6 32bd 844c 00bd 401b 633d
00000100: 26ec 2c3d d096 fbbb 4a5d 793d 5e54 2a3d
00000110: a47f 2a3d fca4 263d e8ed 6abd f0c0 a5bb
00000120: 4e1d 46bd 4070 12bd 5ef3 43bd 5887 c1bc
00000130: c0f7 8eba c095 f9bb 4036 04bb aaea 77bd
00000140: 107b 6fbd 8a3e 0ebd 4c4e 03bd 94ad ba3c
00000150: 7045 48bd e496 9ebc d2a2 583d 5edd 05bd
00000160: fe88 073d 60d4 413d 4478 d0bc 64e5 fb3c
00000170: 1ad8 5b3d 7cec 323d b616 17bd 74c4 0fbd
00000180: defe 65bd 0864 733c d8c2 1d3d 10cc 3cbd
00000190: 908d 56bd 96bb 1b3d 406d f83a 500b f7bc
000001a0: 5ce3 3bbd 0085 1a3a 1caa 5dbd 50fe afbc
000001b0: 106a 4a3c 6c23 843c 76cf 7d3d a06f aa3b
000001c0: 76c3 58bd 6e40 5d3d f0b8 95bb d86c 70bd
000001d0: d8d8 f33c 289b e4bc 4440 753d 4cf7 7b3d
000001e0: f61f 34bd e0ef c8bb 3852 69bc ba61 2abd
000001f0: e894 dfbc 7895 df3c 1071 c3bc 640c e8bc
00000200: 8cd1 f53c 809c 37bb 10a6 053c 1492 e93c
00000210: 6450 fe3c e846 6a3c 4862 1f3c 0081 70bc
00000220: 0adf 08bd 2421 2ebd d0a7 4d3d a801 48bd
00000230: dc69 a4bc 5a03 703d 7655 23bd ec55 dabc
00000240: c6ff 5bbd 6420 ebbc 10b9 993b e058 debb
00000250: 80f5 073d bab2 2e3d 908b 3abc 48ef 65bd
00000260: 02b0 253d 10bf af3b d431 de3c c8a5 e83c
00000270: 9c5c fb3c fc60 06bd d02b 383d 84a3 e8bc
00000280: 8420 56bd d89c 16bd aedd 55bd dafe 353d
00000290: 246a a2bc 7060 db3b 4478 c0bc 784e 31bc
000002a0: d0ce 103d c8dd 113d 50ba 9ebc fa90 39bd
000002b0: daa2 00bd da99 7b3d 088f 5dbc da47 3ebd
000002c0: b47c 863c 9828 57bc dc4d 50bd eeb2 67bd
000002d0: c8a8 bdbc 2292 57bd 7607 0e3d 28e6 e63c
000002e0: 2278 143d a827 1f3c 3080 90bb 8043 65bc
000002f0: 504f 883c b86e 07bc 644f 7fbd 4c3a 1a3d
00000300: 0899 f1bc 842e 343d 1058 c8bc de90 36bd
00000310: 6241 08bd 9c5d 3cbd 9ec5 753d f20e 1b3d
00000320: 9067 0dbd f023 e63c 4e3e 5a3d c047 77bb
00000330: 989a 3e3d 688e 6b3d e04e bfbc f453 01bd
00000340: c052 dbba 7008 6abd 9412 7abd 289f 15bd
00000350: 1c3c 853c 5874 7a3c e40f 7d3d 1006 96bb
00000360: 009b d339 80bb 19ba 4822 11bd 407e cbbc
00000370: 9cb7 603d 7820 503d a493 15bd 8c75 353d
00000380: 4ac6 453d 4eb6 573d 606a e03b 6c9a 053d
00000390: d656 6c3d c006 453d 3ae1 34bd 3063 d6bc
000003a0: 80bd 073b 1213 433d 50ec bfbb b040 dfbc
000003b0: c0b2 86bc 34dd 60bd c80f 03bc 341e b23c
000003c0: 54f6 e53c 985c 623c 9081 7fbd 2849 343d
000003d0: 28ae 4b3c 98a7 40bd aede 6b3d 3ce3 c93c
000003e0: a49f c63c d807 62bd 96ef 7b3d 5085 c3bc
000003f0: cc8c 0f3d 205c 32bb d2b8 133d 9ca8 4a3d
0.033433937 -0.017299779 0.0049877316 -0.045941725 -0.00141038 -0.05712471 -0.0065980256 0.007608168
-0.027033314 -0.020707093 0.05768778 0.028645836 0.0038192943 0.03140691 -0.028990492 0.04697814
0.031256102 -0.016090162 0.042819887 -0.03706669 0.011566699 0.029393278 0.038959533 -0.020573445
-0.018484838 0.042451017 -0.0013563558 0.011441179 0.060999364 0.029395275 -0.05114737 0.028677322
0.0028548688 -0.050219186 -0.030747995 -0.05978103 0.022594191 -0.012967378 -0.025951274 -0.048309512
-0.05234866 -0.013642482 0.02489943 -0.0462287 -0.058445387 0.030983433 0.044341177 0.008664452
0.058029257 0.04872399 -0.026856706 -0.010709383 0.005365506 0.058261216 0.021243252 0.008653469
0.041543826 -0.017069496 -0.05666919 0.047925226 -0.050787754 -0.04367646 -0.03132297 0.05544591
0.042217396 -0.0076778904 0.060879983 0.041584365 0.041625634 0.040684685 -0.05735579 -0.0050584003
-0.04836779 -0.03575158 -0.047839515 -0.023624107 -0.0010907575 -0.0076167285 -0.0020173937 -0.060526527
-0.05846697 -0.03472761 -0.03205709 0.022787847 -0.048894346 -0.01935906 0.052889653 -0.032681815
0.03308963 0.047321677 -0.025447972 0.03074903 0.053672887 0.04368256 -0.036886893 -0.03509946
-0.056151263 0.014855392 0.038515896 -0.046093047 -0.0523811 0.038020693 0.0018953457 -0.030156761
-0.045871124 0.00058944523 -0.054117307 -0.02148357 0.012354389 0.016130172 0.06196543 0.005201295
-0.05292078 0.054016523 -0.0045691654 -0.05869755 0.029766485 -0.027906016 0.05987574 0.061515138
-0.043975793 -0.006132111 -0.014240794 -0.041597106 -0.027292684 0.027292952 -0.023857623 -0.02832622
0.030007146 -0.0028016865 0.008157268 0.028512038 0.031044193 0.014299132 0.009728022 -0.0146791935
-0.03341583 -0.042512074 0.050208867 -0.048829705 -0.020070009 0.058596946 -0.039876424 -0.026652299
-0.05371072 -0.028701968 0.0046912506 -0.006785497 0.03319311 0.042650916 -0.011385813 -0.0561364
0.040451057 0.0053633526 0.02712337 0.028399363 0.030683808 -0.032807335 0.044963658 -0.028398283
-0.052277103 -0.03677067 -0.052213363 0.0444325 -0.019826002 0.006694846 -0.023494847 -0.010821931
0.03535348 0.035611898 -0.01937595 -0.045304276 -0.031405307 0.06142602 -0.013522871 -0.04645524
0.016416885 -0.013132237 -0.050855502 -0.056567125 -0.02315177 -0.052629597 0.034675084 0.028185919
0.03624738 0.009714045 -0.0044098124 -0.013993144 0.016639382 -0.0082661435 -0.062331572 0.037653252
-0.029491916 0.043989673 -0.024456054 -0.04457175 -0.03326548 -0.04598771 0.060002916 0.03785605
-0.034522593 0.028093308 0.053282075 -0.0037731975 0.04653415 0.057508856 -0.02335304 -0.031574205
-0.0016733035 -0.057136953 -0.061052874 -0.036528736 0.016264014 0.015286528 0.061782733 -0.0045783594
0.0004036054 -0.00058644265 -0.035433084 -0.024840474 0.054862604 0.050812215 -0.036517754 0.044301555
0.048284806 0.052664094 0.0068486184 0.03261797 0.0577 0.04810214 -0.044160105 -0.026170343
0.0020712316 0.04762561 -0.005857028 -0.027252525 -0.016442657 -0.054898456 -0.007999368 0.021742918
0.02807156 0.013816021 -0.06237942 0.04401508 0.012431659 -0.04703483 0.05758541 0.024644487
0.024246044 -0.05518326 0.061507784 -0.02386728 0.035046384 -0.0027215555 0.03606493 0.049477205

fcs1.bias f4 [256]
00000000: d0f4 6bbc cec4 3cbd 36f7 45bd 5a2c 3dbd
00000010: 1018 84bb ea70 7d3d 209c 10bb 9027 25bd
00000020: 4aa0 693d 7051 883c b1e0 813d 2cf5 303d
00000030: a090 76bc 1f96 823d 1516 1dbd 82b2 563d
00000040: 424d 133d cbf8 68bd b881 233d 5041 fc3b
00000050: d094 533c 90a1 d73c d07b 0b3c 6e28 433d
00000060: 5857 8fbc 7040 9f3b 046c b73c c67d 3abd
00000070: 00b8 71b8 3a5f 86bc d8f0 143d 22fa 343d
00000080: 00b0 d53c a0b5 7fbb e429 ac3c 109d bfbc
00000090: b23e 7f3d 906b a8bb 9797 1cbd 312f 893d
000000a0: a0c8 113c 7e6e 7cbd 2ef6 653d a220 113d
000000b0: f4c5 e83c 11e3 12bd 633e 20bd c42c 3ebc
000000c0: 500e f83b 90cf 4e3c 9d63 58bd 14b4 7cbc
000000d0: dcd7 053d 106f b0bb 4e08 e0bc c112 813d
000000e0: 3717 893d fd70 8e3d dcaa 3bbc b099 e23c
000000f0: 4005 b33b ba2e 94bc 32d5 2a3d e0bb 4fbd
00000100: 57d8 8bbd 8e4d 673d 707b 12bc 8ad8 87bd
00000110: 20bc 813b 8c66 313d b0a1 b5bb 22d6 55bd
00000120: 4cc8 61bd fa09 46bd 2876 fb3c fa27 ddbc
00000130: bc88 0abc 4953 8c3d 3006 f63c 496c 0ebd
00000140: 0016 e6ba 9411 efbc 43e6 8e3d 92c2 63bd
00000150: 7748 843d 72b4 3b3d f8fb af3c 1b6a 853d
00000160: 2c82 83bc b8ed 3c3d 347b ad3c bc30 f63c
00000170: 50ee 7bbd 4096 e13a be2b 693d c475 923c
00000180: 0c3e b43c 6aca 463d f8ad 2b3d de25 713d
00000190: 66a8 713d 1092 b63c e0b9 01bb 3808 ea3c
000001a0: 77d7 8cbd a343 36bd 71f6 7cbd be53 653d
000001b0: 8867 a03c 5007 b93c 1c5e 0b3d 1c32 15bd
000001c0: 34a9 53bc c8ee 1a3d 5c4f 33bd 3c6b 923c
000001d0: e4be 78bd e89e 8bbc 1e8c 6c3d ecf9 11bd
000001e0: 209d b3bb a9f1 853d 2eac 723d e360 8cbd
000001f0: 4ead ccbc 3034 583c b891 62bd 003b 7b3c
00000200: 2c1b 36bd 5c99 1f3d 4aff 673d 1a00 733d
00000210: efc2 61bd b08c 133c b8f1 58bd e6d4 92bc
00000220: e48e 583d 3a66 403d 4c29 1ebd 08b6 df3c
00000230: cc20 6abd 1633 323d 6c96 8e3c 4c50 68bd
00000240: 1330 88bd 6826 24bc 503d b93b 80a0 13ba
00000250: 78cb 3abd a087 2ebd 6b2f 04bd 7403 e63c
00000260: 0461 bb3c 6068 83bc 6015 1d3d 3191 903d
00000270: f276 abbc 5820 513c b052 ff3c e0aa 92bc
00000280: 6074 793b 2404 a43c b5ae 30bd 984a 48bd
00000290: 48b1 81bc 224d cbbc 382f c63c d611 70bd
000002a0: 1ac0 bdbc a042 8b3b aaf4 65bd cc6f 1f3d
000002b0: 7053 bb3c 0c29 47bd 2ef7 b6bc 9289 69bd
000002c0: ca07 013d 38aa 053d 74d1 f63c 9246 89bd
000002d0: 8b76 8dbd 812a 71bd 8c8f 243d e2bf 4b3d
000002e0: 8640 37bd 8c1a c73c ec84 553d 66ed 723d
000002f0: 4af7 eebc 8cab ce3c 6ab6 5ebd fb7c 81bd
00000300: 4481 58bd 7e71 2dbd f8d3 123c 5c67 483d
00000310: ca27 73bd 701b 9b3c 6419 403d ee55 7f3d
00000320: e5c6 4bbd 901a fe3c f216 6cbd 2cd3 4abd
00000330: 8a43 56bd 00ac d5bc 4eaf 4bbd 8fc3 803d
00000340: 1268 4abd 5c3c 863c c017 f23b d881 293d
00000350: 0080 8e38 0c4c 8fbd 8056 083c c64c 613d
00000360: fb5c 11bd 7933 69bd 48ae da3c a631 343d
00000370: 3c9f 77bc 301d 793c f0b5 a43b f8dd 1bbc
00000380: d555 46bd 5293 0d3d 80f1 caba e0da 52bc
00000390: 0276 653d afa7 36bd 483e 173c 5edb 5e3d
000003a0: 08d2 183c d367 54bd 83a7 8b3d 40ae 9cba
000003b0: 2c7c a63c 7c15 873c bc01 9a3c a037 193d
000003c0: 87a3 42bd 7c75 933c 1c9f a4bc bcec ac3c
000003d0: 3eb3 66bd 3975 0abd 78f5 123c 4c1c ad3c
000003e0: b05e 96bb 988a bd3c 8e93 7c3d 5ef1 d5bc
000003f0: e6f5 a8bc 4522 8d3d b098 bd3b 0c49 09bc
-0.01440163 -0.046086125 -0.04833146 -0.046184875 -0.004031189 0.06187526 -0.0022065714 -0.040320933
0.05703763 0.016640395 0.063416846 0.043202564 -0.01504913 0.063762896 -0.038351137 0.052416332
0.03596235 -0.056877892 0.03991863 0.0076982155 0.012913898 0.026322156 0.008513406 0.04764598
-0.017497703 0.0048599765 0.022390373 -0.045530103 -5.763024e-05 -0.01640283 0.0363625 0.044183858
0.0260849 -0.003901817 0.021016069 -0.023390323 0.06231565 -0.0051397756 -0.038230505 0.06698454
0.00889793 -0.06162881 0.05614298 0.03543151 0.028414704 -0.03586108 -0.039121997 -0.011607353
0.0075700656 0.012622729 -0.052829374 -0.015423793 0.032676563 -0.0053843334 -0.02734771 0.06302405
0.06693881 0.069551446 -0.01145431 0.027661175 0.0054632723 -0.018088687 0.041707225 -0.05071628
-0.06828373 0.056470446 -0.008940563 -0.066330984 0.003959194 0.043310687 -0.0055429563 -0.052206166
-0.05512266 -0.04834936 0.03069599 -0.026996601 -0.008455452 0.06851823 0.030032247 -0.034771238
-0.0017554164 -0.029183187 0.06977513 -0.05560548 0.06459134 0.045826383 0.021482453 0.06514379
-0.016053282 0.046125144 0.021176912 0.030052535 -0.06150657 0.0017210916 0.05692648 0.01787842
0.022002243 0.04853288 0.041913956 0.058874004 0.058998488 0.022286445 -0.0019794628 0.028568372
-0.06877034 -0.044498097 -0.061758462 0.055988066 0.019580618 0.022586495 0.034025297 -0.03642474
-0.012918759 0.037825376 -0.043776855 0.017873399 -0.060728922 -0.017043546 0.057750814 -0.035638735
-0.0054813772 0.06540234 0.059246235 -0.06854417 -0.024984982 0.013196036 -0.05531475 0.015333891
-0.044459507 0.038964614 0.056639947 0.05932627 -0.055117544 0.0090057105 -0.052964896 -0.017923784
0.052870646 0.04697249 -0.038613603 0.027308479 -0.057160184 0.04350575 0.017405711 -0.056717202
-0.066497944 -0.010018922 0.005653061 -0.00056315213 -0.0456042 -0.04260981 -0.032271784 0.028077818
0.02287341 -0.01604098 0.038350463 0.07058943 -0.020930741 0.012764059 0.031167358 -0.017903745
0.003806375 0.020021506 -0.043135364 -0.048899263 -0.015831605 -0.024817053 0.024192438 -0.05861076
-0.02316289 0.0042498857 -0.056141533 0.038924977 0.022866935 -0.04862313 -0.022334661 -0.057015963
0.03150157 0.032633036 0.030129172 -0.06702913 -0.06907376 -0.058878426 0.04017596 0.04974354
-0.04473927 0.02430465 0.052128717 0.059308432 -0.029170651 0.025228284 -0.054373182 -0.06322666
-0.052857652 -0.042344563 0.00896167 0.048926696 -0.059364118 0.018933982 0.046899214 0.06233781
-0.049750227 0.031018525 -0.05763907 -0.049517795 -0.052310504 -0.026082993 -0.04972773 0.062873
-0.049415655 0.016386203 0.007388085 0.041383594 6.7949295e-05 -0.06996927 0.008321404 0.055004857
-0.035489064 -0.056933854 0.026694432 0.04399266 -0.015113648 0.015204713 0.0050265715 -0.009513371
-0.0484217 0.034564324 -0.001548335 -0.012869567 0.056020744 -0.04459351 0.009231158 0.054408424
0.009327419 -0.051856827 0.0681906 -0.0011953786 0.020322882 0.016489737 0.018799655 0.037406564
-0.047519233 0.018000357 -0.0200954 0.021108977 -0.056323282 -0.0338032 0.008969657 0.021131657
-0.0045889243 0.023137376 0.061664157 -0.02611607 -0.020625066 0.06891302 0.005786024 -0.008379232

fc2.weight f4 [128, 276]
00000000: 9490 8fbc 106a 0a3c 1241 3f3d bc31 d53c
00000010: 1052 bd3b a709 2dbd 08e5 78bc 44e2 0c3d
00000020: bd79 953d 4ae7 42bd 81a5 53bd c072 93bd
00000030: 357d 9ebd 2dfa 883d 232f ae3d c5f7 9fbd
00000040: fa43 203d 3aed 97bd 0876 babc aeaa fcbc
00000050: 6d8f 88bd b88d 0bbd 1660 3b3d a180 b43d
00000060: 1bc8 1bbd e5cd 8bbd a52a b23d 6972 b33d
00000070: 718f 55bd 600b 843c e84b 8f3c 8036 2b3b
00000080: 2011 073b 7f57 843d d90b 9cbd ef05 ae3d
00000090: 5485 c3bc 9662 663d f763 16bd e8f4 c0bc
000000a0: 91b2 9c3d 9773 9b3d 349c b2bd 9d35 1dbd
000000b0: 5e61 9dbd 78bc 30bd d443 f13c 20ad fe3b
000000c0: 8016 503a 1d24 903d 8e1d 253d d4a4 b2bd
000000d0: 68fa 6cbc 7acf 3f3d 6296 41bd c232 353d
000000e0: 099c 8a3d 9a65 4a3d 3a73 ddbc f8c2 893c
000000f0: 3ed3 423d 0918 9fbd 696b 3abd 7e5a 1f3d
00000100: 006c a93b b210 723d 80dc 08bd 8f80 a93d
00000110: 55c2 1abd bc07 dabc 0073 61bb 223c 283d
00000120: 7db7 a2bd 60fc 9cbd a66a 4fbd 9035 923b
00000130: 6d5e 89bd 269a 273d 8c44 94bd b46b 903c
00000140: 254b b13d 0daf 1ebd b90f 8e3d 0387 963d
00000150: 1824 0b3c 279c 54bd 6cc5 12bd 1dfb 863d
00000160: adeb ac3d 0174 25bd 9c0d f53c a0ce 2e3c
00000170: 342f 15bd b1ed 08bd aedb 2c3d c07c 4abd
00000180: acbc de3c dcbb f63c e878 b13c 8b6e abbd
00000190: b0d4 823c cc2d 093d dcdc 74bd 8987 b13d
000001a0: deb8 b1bd 7a53 103d 7678 723d 4009 40bc
000001b0: bf3c 04bd cae9 45bd db8e 9abd d889 04bd
000001c0: 40bb d3bb 71e1 953d 000c 2fba e000 44bc
000001d0: 686b db3c f1db a83d c039 b0ba 1783 a83d
000001e0: 33ab 13bd 753f 853d 22f0 613d 1e64 38bd
000001f0: 8e71 683d 9d72 29bd abf3 8abd ae08 66bd
00000200: 3095 9f3b ad42 b03d 8d3c 34bd 78e2 1f3c
00000210: 28b1 f33c 60fe a8bb 3d40 7cbd 74a1 babc
00000220: 4a6c 443d ec1b bebc 6def 86bd 00d1 90bb
00000230: 698e 823d 716a 8cbd 70c4 083c aa29 513d
00000240: ac31 95bd e8a5 cd3c 588d 383c d5be 893d
00000250: 8718 883d c8ed 01bc b44e 0abd 89e4 8a3d
00000260: 70db 7cbc 2a0d 58bd 88c2 1cbd 3312 82bd
00000270: 7624 94bd e8a0 6abd 24f6 94bd 123b 6c3d
00000280: 63bf 913d c8e5 2c3c a6f6 d7bc a7c0 99bd
00000290: fdce 0abd 009e c7ba 7661 86bd 58c2 083c
000002a0: 30b0 9dbb b0fa cbbb 5dc0 87bd d061 993c
000002b0: e003 80bd dfc0 ab3d 30b8 4c3c b4af 863c
000002c0: 3e15 0a3d 6a4f 363d 7cfa 833c 99f1 5dbd
000002d0: 69ce 35bd 00bb 9439 f68b 4c3d b979 9f3d
000002e0: 9029 cebb 964e 83bd aa69 313d e2f8 54bd
000002f0: 5e97 3b3d 50bc bdbc 8440 8ebd b836 b0bc
00000300: 646e b1bc 62ca 7e3d f592 b13d 6219 003d
00000310: 8c19 d53c b8e0 70bc 06d7 703d 8857 88bd
00000320: 1825 8bbc 7fc2 9b3d a492 ab3c 8906 b2bd
00000330: b154 843d 860d 543d f9a5 69bd b018 f23c
00000340: c600 343d d526 943d c8f0 a1bd de94 283d
00000350: 475c 9c3d a15e a33d bf5d 57bd 00c2 acbc
00000360: 9833 b53c 3ed7 183d e70d 923d d158 9e3d
00000370: 00ae 9a3b 8ee2 743d 8867 ef3c e2e1 adbd
00000380: 9645 1bbd 76e2 0b3d 381f a83c e9ea 97bd
00000390: de82 27bd e49a 96bc 4d9d a63d be2f 213d
000003a0: 0033 a1ba 1001 cbbc a57d ad3d 88c6 a5bc
000003b0: 10cf a2bc f459 ed3c 048f c13c 2255 e5bc
000003c0: a04a 49bb c2ac 183d 4816 93bc 76da 7fbd
000003d0: 88a6 863c e1ce b2bd bd64 953d f8d7 0ebc
000003e0: 7ce4 0d3d f253 2f3d b034 16bc 050b 8e3d
000003f0: 2237 b4bd 3183 ae3d 10d0 403c 10ae a63b
-0.017524995 0.008448139 0.046692915 0.026024692 0.005777605 -0.042245533 -0.015191324 0.03439547
0.0729861 -0.047583856 -0.05167151 -0.07199621 -0.07738725 0.06688342 0.08505084 -0.0781093
0.039127328 -0.07418294 -0.02276136 -0.030843105 -0.06667981 -0.0340707 0.04574593 0.088135965
-0.038032632 -0.06826381 0.0869954 0.087620564 -0.05213875 0.016118705 0.01749225 0.0026125014
0.0020609573 0.06462001 -0.07619447 0.084972255 -0.023867287 0.056246363 -0.036716428 -0.02355428
0.07651246 0.075904064 -0.087212 -0.038381208 -0.07684587 -0.043148488 0.029451288 0.007772103
0.0007937923 0.07038138 0.04031139 -0.08722845 -0.014463998 0.046828724 -0.047262557 0.04423786
0.067680426 0.0494133 -0.027032483 0.016816601 0.047564737 -0.07768256 -0.04551259 0.03890466
0.0051703453 0.059097953 -0.03341341 0.08276474 -0.037782986 -0.026615016 -0.003440082 0.041072972
-0.07945154 -0.07665324 -0.050638817 0.0044619516 -0.067074634 0.04091849 -0.07239637 0.017629482
0.08656911 -0.03874116 0.069365926 0.0734997 0.008492492 -0.05190673 -0.035832807 0.06590865
0.08443389 -0.040393833 0.029913716 0.01066938 -0.03642197 -0.033429805 0.04220169 -0.049435377
0.027189575 0.030118875 0.021664098 -0.08370694 0.015970558 0.03349094 -0.05978094 0.086684294
-0.08677839 0.03523586 0.05919691 -0.011720955 -0.032284494 -0.04831866 -0.07546779 -0.03235802
-0.006461531 0.0731839 -0.00066775084 -0.011963099 0.026784614 0.082450755 -0.0013444945 0.082281284
-0.03605194 0.06506244 0.05516065 -0.045017354 0.05674892 -0.04136907 -0.06784757 -0.05616062
0.0048700795 0.086064674 -0.04400306 0.009758584 0.02974756 -0.005157277 -0.0615847 -0.022782065
0.047954835 -0.023206674 -0.065886356 -0.004419446 0.06374819 -0.068562396 0.008347616 0.051065125
-0.07284865 0.025103524 0.011264168 0.067258514 0.06645303 -0.007930227 -0.033766463 0.06781871
-0.015433177 -0.05274693 -0.038271457 -0.063511275 -0.07233517 -0.05728236 -0.0727351 0.05767352
0.07116582 0.010552831 -0.026362728 -0.07507449 -0.033888806 -0.0015229583 -0.06561558 0.008347116
-0.004812263 -0.0062249526 -0.06628487 0.018723398 -0.06250739 0.083863966 0.012495086 0.016441204
0.033711664 0.04450933 0.016110651 -0.054185484 -0.0443863 0.00028368086 0.049938165 0.07786889
-0.0062915757 -0.064114735 0.04331366 -0.051995166 0.045798652 -0.023161083 -0.06945899 -0.021510467
-0.021659084 0.062204726 0.08670608 0.031274207 0.026013158 -0.014702015 0.058798812 -0.0665732
-0.016985461 0.076054566 0.020943947 -0.08692653 0.06461466 0.05177071 -0.05704305 0.029552788
0.04394605 0.07233969 -0.079072535 0.041157596 0.07634788 0.079770334 -0.052579638 -0.0210886
0.022119328 0.037314646 0.07131558 0.07731784 0.0047204494 0.059786372 0.029224172 -0.08490349
-0.03790816 0.034151517 0.020522699 -0.074178524 -0.04089629 -0.018384404 0.081354715 0.03935217
-0.0012298524 -0.02478078 0.084712304 -0.020236269 -0.019874126 0.028973557 0.023627765 -0.027994696
-0.0030714646 0.03727413 -0.01795496 -0.0624642 0.01643683 -0.08730865 0.07294605 -0.008718483
0.034641728 0.042804666 -0.009167835 0.069356956 -0.08799578 0.085211165 0.011768356 0.005086668

fc2.bias f4 [128]
00000000: 947f cebc c450 fa3c f828 46bd dcda 993c
00000010: 4aa8 423d b838 913c 08b7 acbb fb85 0fbd
00000020: 50da 4abc 2c69 e03c 2070 9c3c 3a75 443d
00000030: 0674 c7bc f767 37bd d267 23bd d8c3 ff3c
00000040: 18a4 3a3d 8027 da3c 1043 863b 4e14 07bd
00000050: a050 bebb ae22 8abc 640c 1bbd 0070 3fb8
00000060: b069 d4bb 60e7 573c 540b 06bd 700f 2fbc
00000070: e23a 11bd 0650 2f3d 7e1e 6b3d 061f 1b3d
00000080: 1505 5ebd 84f3 d1bc feee 34bd 1a4f 333d
00000090: acc7 ef3c 4af7 99bc 2a65 4bbd 26e4 adbc
000000a0: 50ac bfbc b6d6 2a3d 54a2 96bc 0c37 323d
000000b0: 5951 43bd e226 abbc ba08 5e3d 2498 963c
000000c0: 9e9f 6e3d 4069 01bb 70ed 273c 3c57 0ebc
000000d0: 4879 9f3c 7fea 2bbd 5c64 843c 0c61 323d
000000e0: ebfc 06bd c431 7fbc cce1 213d 0813 11bc
000000f0: 24ba 353d f87d 4b3c d0f4 2e3d 6673 673d
00000100: 78b7 663c 26e8 75bd e80a 273c b85e 6fbc
00000110: a393 6fbd 82cb e1bc 000f bc3a 5a28 013d
00000120: 8835 7d3c 1681 473d 283b 063d 6048 843c
00000130: ee5c 87bc d049 6ebb 23ce 57bd e017 23bb
00000140: e0d1 37bd 8877 a53c a010 91bc c277 573d
00000150: b029 27bc c832 4b3d 4070 ccbb 285d 4c3c
00000160: e866 f93c 6e2c 97bc ca13 753d a2bf 10bd
00000170: 1c9b 5c3d 2686 67bd 8c83 5b3d ecac 31bd
00000180: c03c 283d fbfc 64bd cfc0 24bd d88b 1d3d
00000190: 786a 1d3d 8029 70bd 90f2 c73c 64e1 263d
000001a0: 8454 2dbd 42d7 21bd ae52 2cbd 1c56 953c
000001b0: 6896 c23c 4e5f 183d 342f c43c 02f8 62bd
000001c0: aeb9 453d f873 09bc a0f9 063c 0c3d 21bd
000001d0: e004 57bc 0e64 55bd c663 373d cd85 63bd
000001e0: 5434 c03c 00e5 98b9 d2ec 49bd d52a 36bd
000001f0: e034 cb3b 2067 35bd cafa 233d f078 dd3c
-0.025207318 0.03055609 -0.048378915 0.018781118 0.047523774 0.01772724 -0.0052708425 -0.035039883
-0.012381151 0.0273939 0.019096434 0.04796336 -0.024347316 -0.044776883 -0.039893933 0.031221315
0.04556665 0.026630163 0.00409735 -0.03297835 -0.005807951 -0.01686224 -0.037853613 -4.5642257e-05
-0.0064823255 0.013177723 -0.032725647 -0.010684833 -0.035456546 0.042800926 0.057402126 0.037871383
-0.054204065 -0.025628813 -0.044173233 0.04377661 0.029270016 -0.018794674 -0.049657024 -0.021226954
-0.023397595 0.04170867 -0.018387951 0.043509528 -0.047685 -0.020892564 0.05420754 0.018383093
0.05825769 -0.0019746572 0.010249481 -0.0086877905 0.019467011 -0.04197168 0.016161136 0.043549582
-0.032956045 -0.01557583 0.039521977 -0.008854635 0.04436697 0.01242017 0.04271394 0.056506537
0.014081828 -0.060035847 0.010195471 -0.014609985 -0.058490407 -0.02756286 0.0014347732 0.031532623
0.015454657 0.04870709 0.03277126 0.016147792 -0.016523805 -0.0036359914 -0.05268682 -0.0024886057
-0.044877887 0.020198599 -0.017708123 0.052604444 -0.01020281 0.049608976 -0.006238967 0.012473382
0.030444577 -0.018453803 0.059833325 -0.035339005 0.05385886 -0.05652442 0.05359225 -0.0433778
0.04107356 -0.055905323 -0.04022294 0.038463444 0.038431615 -0.058633327 0.024407655 0.040742293
-0.04231693 -0.039511926 -0.042071037 0.018229537 0.02375336 0.037200265 0.02394829 -0.0554123
0.04827278 -0.0083894655 0.008238226 -0.03936486 -0.013123721 -0.052097373 0.044772886 -0.055547524
0.023462452 -0.00029162318 -0.049298115 -0.04447444 0.0062013716 -0.0442878 0.040034093 0.027035207

fc3.weight f4 [1, 128]
00000000: ca49 423b 1ed4 223b f5d6 13bb 588a 9c3a
00000010: d670 053b 0da8 b9ba b64f 223b 9ce9 27ba
00000020: 580c 3bbb c8d2 dbba 6817 843a b4ac e13a
00000030: e4c3 2abb 8c59 b93a 087f 04bb 34f9 45ba
00000040: 1868 d23a 843d 833a bec3 84ba c467 683a
00000050: 5348 deba b867 c13a 4f1d ceba 073c efba
00000060: 2e86 d0ba a9ac fbba d093 05bb 04d5 a43a
00000070: aa96 063b d81e 223b cfdf 17bb 58f8 783a
00000080: 406b 01bb 3871 803a c74b 2abb 8472 293a
00000090: 0016 dab9 24ba 26bb 0cdd e43a 9012 5339
000000a0: 28ff d43a 0cc1 a73a 0063 fdb9 f4f9 a73a
000000b0: 2481 b63a 24e7 1cbb 00b1 0c3b f85b d53a
000000c0: acc3 15bb f6b4 08bb bdae ddba 84d1 d83a
000000d0: f801 02ba 005f 173a 38eb dfb9 ae11 313b
000000e0: eef5 3f3b eaf0 193b 2833 d03a c8c4 b43a
000000f0: e85c bc3a b846 93b9 7450 31bb 5488 f93a
00000100: f036 8239 1433 40bb 403d 1a3a 1816 2d3a
00000110: 38ce 9039 d74c 03bb 785c 0dba 8032 d838
00000120: 1885 05ba 9756 bbba 229d 343b 4895 99ba
00000130: 6024 e7b9 aaaf b8ba 48af cc3a 7c91 39ba
00000140: 9040 4139 7a2f 00bb 77d6 eaba 24ea 61ba
00000150: e0a8 1039 007b af38 08a6 a93a 74d9 e7ba
00000160: 0094 d238 64f9 d33a 9cfa e03a fc25 3a3b
00000170: 1ecb 143b d847 8db9 2ce9 5f3a 0cc5 b8ba
00000180: 3815 7cba 5cea e43a 48ab 1d3b 20e1 f63a
00000190: 70ec f13a de48 20bb 8157 93ba 708a 9eb9
000001a0: 922d 343b a6e4 26bb f479 c1ba b06a e2ba
000001b0: ea17 26bb 34d9 23bb 30d8 463a cc12 25ba
000001c0: 408f bdb8 d7fb a6ba c43d ad3a f45e 21bb
000001d0: 6032 beb9 08c0 c239 68f5 163b 888e dd3a
000001e0: d40d 5eba dea5 3fbb 6c1a 9aba e0e1 3e3a
000001f0: ccdc 88ba b83c ef3a e0fe 9db9 487c a53a
0.0029646032 0.002484567 -0.0022558544 0.0011943085 0.0020361445 -0.0014164463 0.002476675 -0.0006405355
-0.0028541293 -0.0016771192 0.0010077776 0.0017217607 -0.0026056701 0.0014141067 -0.0020217318 -0.0007552088
0.0016052751 0.001001284 -0.0010129136 0.000886556 -0.001695881 0.0014755642 -0.0015725287 -0.0018252142
-0.0015909129 -0.0019201237 -0.0020382293 0.0012575691 0.002053658 0.0024737623 -0.0023174172 0.00094974553
-0.0019747764 0.0009799367 -0.0025985108 0.00064639025 -0.00041596591 -0.0025440538 0.0017460897 0.00020129443
0.0016250359 0.0012798621 -0.0004832968 0.0012815581 0.0013923985 -0.0023941481 0.0021467805 0.0016278019
-0.0022852225 -0.0020859814 -0.0016913038 0.0016541933 -0.00049594 0.0005774349 -0.00042709126 0.0027018595
0.0029290873 0.0023489543 0.0015884386 0.0013791556 0.001437095 -0.00028090714 -0.002705601 0.0019037821
0.00024836464 -0.002932732 0.0005883761 0.00066027185 0.00027619465 -0.0020034814 -0.0005392502 0.00010309089
-0.000509338 -0.0014292774 0.0027559479 -0.0011717463 -0.00044086855 -0.0014090438 0.0015616203 -0.0007078869
0.00018429966 -0.0019559548 -0.0017916699 -0.00086179585 0.00013795821 8.367561e-05 0.0012943158 -0.0017688707
0.000100411475 0.0016172347 0.0017164531 0.0028403988 0.0022704075 -0.00026947143 0.000854152 -0.001409681
-0.0009616199 0.0017464864 0.002405839 0.0018835403 0.0018457305 -0.0024457495 -0.0011241288 -0.00030239252
0.0027492982 -0.0025465875 -0.0014761076 -0.0017274227 -0.0025343844 -0.002500129 0.0007585315 -0.00062970514
-9.038905e-05 -0.0012739849 0.001321726 -0.0024623247 -0.00036277156 0.00037145638 0.0023034457 0.001690344
-0.00084706885 -0.0029243152 -0.0011757142 0.0007281583 -0.0010441779 0.0018252349 -0.0003013527 0.001262554
