models/checkpoint_actor_local_12.pth (torch_old, 152633 bytes, 5 tensors)

fc1.weight f4 [256, 18]
00000000: 54a4 3bbd 00fa 443a 10e5 0e3d 9049 2cbd
00000010: 2caa 26bd 76a1 223d 768b 063d a880 8abc
00000020: 8ae9 24bd daaa 683d 401c b33a b830 82bc
00000030: e89e 7c3c 38cb 2fbd 0a66 5dbd de6f 033d
00000040: 4018 8a3a 40c1 1ebd 900e 5cbc c024 ecbb
00000050: 9003 3ebd 0c41 5e3d 188f 85bc c6a0 02bd
00000060: b681 073d 40e2 503b 3e84 2d3d f2ba 7fbd
00000070: eeae 01bd 048a 6a3d 50e3 fe3c 68a6 76bd
00000080: 1a6f 693d ba6c 493d 2c92 ffbc fa73 6ebd
00000090: 48dd 19bc e0b5 21bb 58b6 00bc 80fe feba
000000a0: 7a86 123d 9440 54bd b460 c1bc 0c9d abbc
000000b0: f839 4abd 4029 e33a eebc 223d c464 92bc
000000c0: ee1f 03bd 4026 45bc 2497 a6bc 3cec e3bc
000000d0: 64e7 24bd 005e 3bbc 70bb 88bc 8c62 e83c
000000e0: 489b bebc e071 06bc 8074 15bc 90ac 18bc
000000f0: fe09 00bd e8e1 393d 68e8 793d 60eb b2bc
00000100: d0cb 5cbc b873 cc3c 9eda 203d ca6f 5f3d
00000110: 5809 6e3c a0c1 d63b 8836 4abc ee62 69bd
00000120: c4ec 0cbd aeb3 6d3d 00df 16bd ea6d 41bd
00000130: 94c8 323d cec2 643d a459 20bd 80fe 453a
00000140: 9856 03bd 1860 d2bc e850 1c3d 0c47 4d3d
00000150: 0219 3dbd 44dd db3c 222e 2dbd 56f9 6dbd
00000160: 305e 77bd 14e1 87bc c21a 2d3d 7a0e 203d
00000170: 2caa 97bc 90e9 acbb f4b5 563d f0f5 943c
00000180: c8c1 59bc 8053 d43a b046 7e3d f27b 5bbd
00000190: 2cbd 343d f033 713d c0ad 933a d463 f53c
000001a0: 24da 8f3c 60e7 e7bb e877 2abc 2897 49bc
000001b0: fa8e 1d3d 1c46 bebc 6095 183b 642d 993c
000001c0: a4aa 333d a831 59bd 86a6 7cbd 9048 7a3c
000001d0: 485c d0bc 22ed 1abd 0469 8cbc fa88 503d
000001e0: c01b b8bb 4075 65bd 6248 5abd b067 96bb
000001f0: 00cb 57bd f0bc 553c 507f ff3c d415 593d
00000200: 82c6 073d 0031 9cbc 2032 5c3c 685e 6abd
00000210: b26f 613d 00a8 cf38 80c8 55bc 4043 c6bc
00000220: 2c3b ef3c 2454 54bd a85d 393c aac5 183d
00000230: 7e19 40bd 4818 24bc 8466 ecbc c67d 63bd
00000240: 88c3 65bd 107b 54bd 2c39 1c3d 5c2e 003d
00000250: 2806 7cbd 8847 96bc 74a5 d63c ec1e 36bd
00000260: a8a8 3fbd 00a0 0638 3c30 503d b03c 5a3c
00000270: 8e27 163d 487d 24bc be98 55bd 8031 d53c
00000280: 30e7 1a3c 5420 86bc 4c7e ffbc 9af3 0abd
00000290: 88ef 633c 4889 bbbc aa9f 48bd a4e6 94bc
000002a0: 0cfa 7e3d 4077 14bc 50c3 2f3c 2069 68bc
000002b0: 800d 773b a664 78bd 00ea cc3a fc41 40bd
000002c0: 504a 12bd e88b 9e3c fe22 593d 02cc 213d
000002d0: a096 07bb 76d7 3dbd 545d 673d 6886 0d3c
000002e0: 0c5f 8b3c d011 213d dcae e0bc 2478 08bd
000002f0: 0629 42bd 2094 79bb 7035 8bbc 445a 213d
00000300: 10f7 233c ea1b 1abd 0eaf 213d fccc cd3c
00000310: 349a ec3c cc7c 18bd e6ea 4d3d a4f2 793d
00000320: 6677 2cbd 4039 30bd b88f 1b3d 7c74 c53c
00000330: 8039 c7bb 04ef 1d3d ec1d 713d a4e1 1e3d
00000340: 542f e03c 6cac ac3c bef6 403d f01f d4bc
00000350: 121a 4fbd dc97 ab3c f42c 41bd 7ed0 7f3d
00000360: d0a7 53bd 1800 4d3d 9e9f 2f3d b00f df3b
00000370: e25f 623d e068 413d 682e dbbc 563b 3abd
00000380: 005c deb9 d4d6 cfbc 2087 523c d253 79bd
00000390: aa94 0bbd 9224 3abd 581c d23c 705b 423c
000003a0: 6254 56bd c88e 65bc ec17 413d 3443 383d
000003b0: f41f 9dbc 6458 a8bc 0259 563d 2041 d6bb
000003c0: c077 2a3b 686e 3cbd 5633 4bbd 34b8 903c
000003d0: 207f 973b d071 de3b e4e2 0a3d 0cc8 9d3c
000003e0: 381f a93c d8b5 b9bc c4c5 0e3d 2e81 75bd
000003f0: 9499 e53c 487d debc f04c 123c 4c51 fc3c
-0.045811012 0.00075140595 0.03488642 -0.042062342 -0.040689632 0.039704762 0.032847844 -0.016907051
-0.040261783 0.05680356 0.0013665035 -0.015892372 0.015418746 -0.042918414 -0.05405239 0.032089107
0.0010535792 -0.038758516 -0.013431206 -0.0072065294 -0.046390116 0.054261252 -0.016303584 -0.031891607
0.033082686 0.0031873137 0.042362444 -0.062434144 -0.031660967 0.05726053 0.03111425 -0.06021729
0.05699072 0.049175955 -0.03119763 -0.058216073 -0.0093911365 -0.0024675056 -0.007855974 -0.0019454509
0.035772778 -0.0518194 -0.023605682 -0.02094891 -0.04937169 0.0017331019 0.03973096 -0.017870314
-0.032012872 -0.012033045 -0.020335741 -0.027822606 -0.040259734 -0.011435986 -0.01669094 0.028367303
-0.023267403 -0.008205861 -0.009122014 -0.009318486 -0.03125953 0.045381457 0.061012655 -0.021840751
-0.013476327 0.024957523 0.03927099 0.05454997 0.014528595 0.0065538436 -0.012342103 -0.056979112
-0.034405485 0.058032684 -0.036833763 -0.047223963 0.043648317 0.055849843 -0.039147988 0.0007552877
-0.032065004 -0.025680587 0.038163096 0.050116584 -0.046166427 0.026838906 -0.042280324 -0.058099113
-0.06039256 -0.016586818 0.042261846 0.039076306 -0.018513761 -0.0052768663 0.052419618 0.018183678
-0.01329083 0.0016199201 0.06207913 -0.053585 0.04412572 0.058887422 0.0011266991 0.029954828
0.017560072 -0.0070771426 -0.010404564 -0.012304105 0.03846643 -0.02322679 0.0023282394 0.018698402
0.043863907 -0.05302587 -0.061682247 0.015276089 -0.025434628 -0.037823804 -0.01713992 0.05091188
-0.0056185424 -0.05602002 -0.053291686 -0.004589997 -0.05268383 0.0130455345 0.031188637 0.052999333
0.033148296 -0.019066334 0.013439685 -0.05721894 0.05503816 9.9018216e-05 -0.013048291 -0.02420199
0.02920302 -0.051838055 0.011313833 0.037297882 -0.04689931 -0.010015555 -0.028857477 -0.05553987
-0.056094676 -0.051875174 0.03814046 0.03129421 -0.06152931 -0.018344656 0.026201941 -0.044463083
-0.046791703 3.20971e-05 0.05082725 0.013320133 0.036658816 -0.010039635 -0.05214762 0.02602458
0.009454533 -0.016372837 -0.031188153 -0.033923723 0.013912089 -0.02289261 -0.048980393 -0.018176384
0.062250182 -0.009061635 0.0107277185 -0.01418522 0.0037697256 -0.06064286 0.0015633702 -0.046937928
-0.0357154 0.019353822 0.053011887 0.039501198 -0.0020689145 -0.046348058 0.05648549 0.008638002
0.017013095 0.039323628 -0.02742713 -0.0333177 -0.047402404 -0.0038082674 -0.016993254 0.039392725
0.010007635 -0.037624277 0.039473586 0.025122158 0.028882124 -0.03722839 0.050272845 0.061022416
-0.042106055 -0.043023348 0.037978858 0.024103396 -0.0060798526 0.03855802 0.058866426 0.038789406
0.027366318 0.02107831 0.04711031 -0.025894135 -0.050561972 0.020946436 -0.04716201 0.062454693
-0.05167371 0.050048918 0.042876832 0.00680729 0.055267222 0.047219157 -0.026755527 -0.045466743
-0.00042411685 -0.025370993 0.012849599 -0.060870953 -0.034077324 -0.045445032 0.025648281 0.011862621
-0.052326567 -0.0140110925 0.047141954 0.044985965 -0.019180275 -0.02054996 0.05233098 -0.006538525
0.0026011318 -0.04600373 -0.049609505 0.01766596 0.004623309 0.00678847 0.033907786 0.019260429
0.02064477 -0.022669718 0.034856573 -0.05993765 0.028027333 -0.027159348 0.008929476 0.030800484

fc1.bias f4 [256]
00000000: ccd2 73bd cc6b 04bd 3440 52bd b52e 053e
00000010: 80f1 c3bc e721 443e 8a4b ac3d 984f 9abd
00000020: 7cd2 33be ab0e 153e cd1e 243e b87a d2bd
00000030: 7415 0fbd 35c5 4c3e f9c2 41be 5ca8 0f3d
00000040: afbc 41be 1af2 bebd edbb 5c3e 5031 7a3c
00000050: 806c 36bc a464 623d 286c 9cbc 8ccb bfbd
00000060: d879 993c 805a 93bd 6d39 4a3e 6a50 ac3d
00000070: 0cd3 28bd 93fa 283e 3c54 1bbd 609a d1bc
00000080: 8ee5 eabd fb72 6b3e 1aa4 cfbd e6f8 9ebd
00000090: be51 4fbe a6f9 19be 10ac 70be ae19 f63d
000000a0: d100 3d3e 7d51 2bbe bc8e 353d bfaa 293e
000000b0: 209a ccbd adfe 51be 9023 d8bc c01d e3bc
000000c0: a684 cb3d 66eb c73d 5ef3 843d c3e5 043e
000000d0: 5238 69be 5c24 583d f6f2 babd 04b8 243d
000000e0: 26ea 00be 64be 19be c2bd fc3d 0626 d53d
000000f0: 3b06 35be 26de 93bd 4b9e 3b3e 27de fbbd
00000100: 20a1 9ebb de28 6abe f0e0 08bc d6c1 8b3d
00000110: f2d8 2bbe 1c6c 6f3d 6871 ae3c 0cdd 7e3d
00000120: 4a8f e53d ae42 963d c4e5 053d f159 1cbe
00000130: 280c 9bbc 1d0c 683e f89e 05be 5122 1a3e
00000140: d740 573e 3b26 503e df54 383e 7519 593e
00000150: a0c7 bd3b 8069 13be 029d bd3d 6910 3c3e
00000160: edf2 333e 090f 2c3e 2e06 45be e0af bbbd
00000170: 6178 043e da8b fc3d 5155 493e 6c01 353d
00000180: f9e4 10be 9045 aebc 28db 91bd ba51 3bbe
00000190: 300c 6ebe 7054 003c 45d7 5e3e 50a5 f3bc
000001a0: 14a9 0e3d 4f58 66be 2927 123e 8ac0 e53d
000001b0: 2a1b 99bd ad79 313e 7c68 9dbd a4fc 79bd
000001c0: 80eb 44bb c024 183c dbbd 18be bcab 6bbe
000001d0: 482a ff3c 78c6 5fbe 23a2 2a3e 962c cb3d
000001e0: 3caf 4e3d f09b 4e3c 7d45 46be d4d6 603d
000001f0: aa01 5bbe bb09 5bbe b8ee d13c 8a3c e63d
00000200: 320c 38be 8cda 34bd e7b0 31be 5c54 55be
00000210: 7338 4f3e 69d3 6f3e af68 213e c147 3b3e
00000220: 605b 623c 92be dd3d 317e 6abe 808e dd3a
00000230: d068 753c 6462 c1bd 9854 d6bc 343d 1bbd
00000240: 6587 113e 281f e7bc e238 a73d 1dce 54be
00000250: 870c 5a3e 909f 533c 17f5 4e3e 45e6 f4bd
00000260: 3385 0f3e f476 45bd 01bc 0a3e 6b66 413e
00000270: c0d3 483c 04e8 033d 7068 19be 7cc7 2c3d
00000280: 91f2 603e 95f6 65be b3fa 313e 9acb bb3d
00000290: 276d 383e 50f1 55bc 45e9 153e 2414 1e3d
000002a0: a379 23be 985b 79bd 8fbf 253e fecc b73d
000002b0: 74bd 573d f41c 93bd 5eff 54be bcd1 15bd
000002c0: 5781 3fbe 8d1d 0f3e e425 d7bd 1751 5bbe
000002d0: a1f8 4e3e 1757 013e cd9c 263e fcbd 183d
000002e0: 20c5 883b c91a f5bd c046 a4bc b854 a2bc
000002f0: 4551 64be 82b6 f13d 3016 7b3c 5e1d b33d
00000300: babb ea3d 7234 3fbe 2fad 493e 0dc9 443e
00000310: b250 44be 5315 563e 880a 3cbd ca85 b13d
00000320: 4a58 e0bd 2457 623d 8a21 a43d 9307 453e
00000330: 945e 4e3d 1af0 a63d c112 3a3e a6b6 3abe
00000340: dffc 2ebe ca24 9cbd 787e b9bc 80b2 02bc
00000350: 6f58 43be 7cf3 153d 7010 91bd e075 41bc
00000360: 0208 d93d 59a2 0fbe c884 87bd 906e 26be
00000370: 9a18 d43d 6783 1c3e 885a e83c 20c8 60bc
00000380: 7654 eb3d 3167 023e acd5 d5bd 3283 973d
00000390: 6428 28be 03f7 1a3e bc53 203d 0ae0 d73d
000003a0: d653 803d 631c 0bbe aa2a 8a3d 2f8a 183e
000003b0: c51c 363e 62c8 f63d 842f 9dbd 4c0f 7b3d
000003c0: 9ce5 5a3d ba3c 813d 3678 2fbe 7c02 89bd
000003d0: 42b6 e43d d4a6 98bd c89f 8dbd a72e 5e3e
000003e0: 7225 09be 6081 fa3b a129 6a3e 98bc afbc
000003f0: f0ee e5bc a844 42be 104d 09bd ca63 b33d
-0.059527203 -0.032329366 -0.05133076 0.13006099 -0.023918867 0.19153558 0.084128454 -0.075347126
-0.17560762 0.14556377 0.16027375 -0.10277313 -0.03493257 0.19997104 -0.18922032 0.03507267
-0.18919633 -0.09323521 0.21556063 0.015270546 -0.011134267 0.05527176 -0.019094542 -0.09364995
0.018734857 -0.07194996 0.19748469 0.08413775 -0.041216895 0.16501836 -0.03792213 -0.025586307
-0.11469565 0.2299308 -0.10138722 -0.07762317 -0.20246026 -0.1503664 -0.23503137 0.12016617
0.18457343 -0.16730304 0.044325575 0.1656904 -0.099903345 -0.20507307 -0.026384145 -0.027724147
0.0993741 0.097616956 0.06491731 0.12978272 -0.2277539 0.05276905 -0.09128372 0.040214553
-0.1258932 -0.15014035 0.12340881 0.10407643 -0.17678158 -0.07220106 0.18322103 -0.122982316
-0.004840985 -0.22867152 -0.0083544105 0.06824081 -0.16781977 0.05845271 0.02129431 0.062222525
0.11208971 0.07336937 0.032689825 -0.15268685 -0.018926695 0.22660871 -0.13048923 0.15052153
0.21020828 0.20327084 0.18001126 0.21201117 0.0057916194 -0.14395714 0.092584625 0.18365635
0.17573138 0.1680261 -0.19240639 -0.09164405 0.12936546 0.12331362 0.19661452 0.04419081
-0.14149846 -0.021273404 -0.07121879 -0.18292895 -0.23246837 0.0078326315 0.21761806 -0.029741913
0.034829214 -0.22494625 0.14272751 0.112183645 -0.07475884 0.17331572 -0.076859444 -0.061031953
-0.0030047596 0.009286106 -0.14916174 -0.2301473 0.031148091 -0.21853054 0.16663413 0.099206135
0.050460085 0.012610421 -0.19362445 0.054892376 -0.21387354 -0.2139043 0.025626525 0.11242016
-0.17973402 -0.044153735 -0.17352639 -0.20832962 0.20236377 0.2342049 0.1576259 0.1828909
0.013815731 0.10827364 -0.228997 0.001690343 0.0149786025 -0.09442595 -0.026163384 -0.037900165
0.14211805 -0.028213099 0.081651464 -0.20781751 0.21293841 0.012916461 0.20210682 -0.11957983
0.14015655 -0.048209146 0.1354828 0.18886726 0.012257516 0.03220369 -0.14981246 0.04218243
0.21967532 -0.22457345 0.1738079 0.09169693 0.18010388 -0.013058022 0.14639767 0.038593426
-0.1596437 -0.060878366 0.16186355 0.08974646 0.05267091 -0.07183257 -0.2080054 -0.03657697
-0.18701683 0.13976116 -0.10505274 -0.21417652 0.20212032 0.12630878 0.16270752 0.03729056
0.0041738898 -0.119679995 -0.020053267 -0.019815788 -0.22296627 0.11802389 0.015325114 0.08745836
0.11461587 -0.1867235 0.1969497 0.1921732 -0.19171408 0.20906572 -0.04590848 0.08668096
-0.1095434 0.055258885 0.080142096 0.1924117 0.050383165 0.081512645 0.18171217 -0.18233737
-0.1708865 -0.076242045 -0.022643313 -0.007977128 -0.19076703 0.036609158 -0.07083213 -0.011807889
0.105972305 -0.14026774 -0.06617123 -0.16253114 0.10356255 0.15284501 0.028363481 -0.0137195885
0.11490719 0.12734677 -0.10441145 0.073980704 -0.16421658 0.1513329 0.039142355 0.10540779
0.062659904 -0.13585047 0.06746419 0.14896463 0.17784412 0.12049939 -0.076750785 0.061293885
0.05344163 0.06310411 -0.171357 -0.06689927 0.111675754 -0.07453695 -0.069152415 0.21697484
-0.1339319 0.0076448172 0.22867443 -0.021452233 -0.028068036 -0.18971503 -0.03352076 0.08759268

fc2.weight f4 [128, 256]
00000000: d0b7 a33b 5830 05bc ed35 a0bd d360 36bd
00000010: a017 b03c 1897 23bc 7892 80bc f43d a1bd
00000020: df68 aebd dfa7 5dbd 1ee7 333d 1a42 5dbd
00000030: 93a7 b23d 0ad7 183d 42fd 5c3d e8d8 ad3c
00000040: a3f9 38bd c858 843c 2608 0c3d 52ac adbd
00000050: 1e22 413d 80bc ed3b d03f bc3b 5fba ab3d
00000060: aabb acbd 5014 e2bb 6d78 2bbd 24f7 103d
00000070: c0f5 693c 9b75 b3bd ef9f 3ebd 841b 8a3c
00000080: 4c33 abbc c2e2 323d ee87 eebc 76dc aabd
00000090: 8baa 8c3d b85f 893c d4c5 c43c 70bf 20bd
000000a0: c03b 01bb 5c1f e73c 8d9e 853d 4bbf 953d
000000b0: e0b0 cf3c 1a82 08bd 010f 5bbd 84d4 9f3c
000000c0: f015 173c 0008 913a 3058 9bbc 6ebe 3d3d
000000d0: fefd 733d c36b 47bd ba28 203d 1aed a4bd
000000e0: 4015 a13b dc64 b0bc 840a 93bd 74b2 dbbc
000000f0: 3f17 963d 0e35 89bd 39ed ab3d 848f d43c
00000100: f262 64bd 0e95 353d b320 0cbd 8090 e73c
00000110: 7e83 3c3d 10dc cabc e813 2fbd fb46 a73d
00000120: be77 8abd 5627 683d 0144 8c3d eca6 c63c
00000130: f4ce 67bd b829 84bc f0c3 00bd 8ce1 b4bc
00000140: b624 72bd 840b d3bc dab1 7f3d 0a30 d7bc
00000150: f603 6d3d 2038 c8bb e6be 593d 6001 06bd
00000160: 20b8 63bb 7f1f a7bd 163e a3bd f566 9a3d
00000170: 8a19 a1bd ca86 353d 1890 c33c 7006 0d3d
00000180: dc8e 9f3c 2423 b73c 82d2 28bd 7d7a 973d
00000190: eea0 3d3d 8850 c43c 5912 1abd 1172 a03d
000001a0: 00bd 29ba d00c c7bc 3065 9ebd ae3d 483d
000001b0: e022 04bc c69f 98bd e0bc a23b f61e 4a3d
000001c0: 0feb 65bd 4e0f 773d 60aa ef3c e7ec a73d
000001d0: 349b b2bd e08a ef3b 4d9f b33d 0054 4dba
000001e0: ec49 e53c 8859 27bd 9a59 233d c383 66bd
000001f0: 3370 9f3d 2290 373d ae4d 533d e84d 893c
00000200: 5800 bbbc 7432 a3bc 4f29 84bd d0a2 94bb
00000210: 981d dabc 715b a23d 4df1 b3bd 30e1 1ebc
00000220: 42ab 91bd c11b 9a3d 11ab 933d b13a 8e3d
00000230: 4877 a6bd 7965 b3bd 5aba 1e3d 5039 60bd
00000240: 845d a73c fbb8 8b3d 6812 f83c 20f8 9ebd
00000250: 27df 963d 233d 803d 2f09 963d f6c7 8dbd
00000260: 56e6 a3bd 5ced ae3c fafe 403d 93cf 9d3d
00000270: 1887 5e3c 0aa0 3a3d c80d 94bc de1b 7e3d
00000280: 00aa 5a39 44be c4bc 6ea1 693d 88e6 073c
00000290: 92e6 323d 2a05 0c3d c42e 803c ec9f ce3c
000002a0: 34fa 843c 55a9 9b3d 00ba 0e39 ee38 7e3d
000002b0: 00d7 d63a 3a71 253d eeac 94bd 2e06 7a3d
000002c0: f96f a93d 08e8 91bd 7715 95bd eaa3 53bd
000002d0: a039 c1bc 3bda 9cbd 6612 2b3d 30dc 563c
000002e0: e2f8 783d fcad 103d 9251 473d 0619 8abd
000002f0: 45f0 4fbd eda5 40bd f107 51bd ec0e 103d
00000300: 808b a5bb 4c20 8c3c c9cb 8ebd e2fc 103d
00000310: 01c5 813d 6be6 a5bd 7000 02bc 63be 903d
00000320: 42ae 5dbd 80a1 b3bd 6b4a b13d 16ad 293d
00000330: 6b1c 893d 7f73 a4bd 7c41 fbbc 7e87 78bd
00000340: a635 a6bd 9804 4abc d0e4 aebc fef3 f9bc
00000350: 3770 9d3d a6b5 9fbd 95f5 983d 5ed3 01bd
00000360: 8ed4 50bd 9e12 37bd 3e27 1b3d d5b0 b3bd
00000370: 90e1 873b fa92 183d 7e7e 03bd 3085 033d
00000380: f4c2 8d3c 50dc 8ebc 50b1 ebbb 9cf2 a5bd
00000390: 3418 f2bc c212 663d 0266 183d 9cec 84bc
000003a0: 003a 71ba d879 9f3c 19c9 8a3d ff72 7ebd
000003b0: 6e1f 3e3d 3581 51bd 5317 22bd 862f 17bd
000003c0: 0c5d f03c c0af 633b 9e30 b4bd 91a2 ab3d
000003d0: c6e3 3d3d 3880 0d3d f629 2e3d 25cd 92bd
000003e0: f075 ef3b f563 a1bd 14ba 9dbd 124f 4c3d
000003f0: b4be b93c c094 4bbb 001e 1fbb 3627 353d
0.0049962774 -0.008129202 -0.078227855 -0.044525933 0.02149564 -0.009984754 -0.015694842 -0.07873145
-0.08516096 -0.054115172 0.043921582 -0.054018117 0.087233685 0.037314452 0.053952463 0.021221593
-0.045159947 0.016155615 0.03418746 -0.08480133 0.047151677 0.007255137 0.0057449117 0.08385157
-0.084342316 -0.006899394 -0.041862894 0.03539194 0.014279783 -0.08762666 -0.046539243 0.016858824
-0.020898484 0.043673284 -0.02911755 -0.08342831 0.06868466 0.016769275 0.024020113 -0.03924507
-0.0019719452 0.028213196 0.06524382 0.07311877 0.025352895 -0.0333272 -0.053481106 0.019510515
0.009221539 0.0011065006 -0.01896295 0.046324186 0.059568398 -0.048686754 0.03910134 -0.08053036
0.0049158633 -0.021532468 -0.0717974 -0.026818492 0.073286526 -0.066995725 0.08394856 0.02594734
-0.055758424 0.044331603 -0.034210872 0.028267145 0.04602384 -0.024763137 -0.042743593 0.08167835
-0.0676112 0.05667814 0.06848908 0.024249516 -0.05659385 -0.016133174 -0.03143686 -0.022080205
-0.05911704 -0.025762327 0.06242547 -0.026268024 0.057865106 -0.0061102062 0.05316057 -0.032716155
-0.0034747198 -0.08160304 -0.07970826 0.07539169 -0.07866199 0.044317998 0.02387242 0.034429967
0.0194773 0.022355624 -0.04121638 0.0739641 0.046296053 0.023964182 -0.037615154 0.078342564
-0.00064750016 -0.024298102 -0.07734144 0.048886947 -0.0080649555 -0.07452349 0.0049663633 0.049345933
-0.056132372 0.06031733 0.029256046 0.081994824 -0.08721009 0.0073102564 0.087706186 -0.00078326464
0.02798935 -0.040856868 0.039880373 -0.056278 0.07785072 0.04481519 0.051587753 0.016760781
-0.022827312 -0.019921519 -0.064531915 -0.0045360103 -0.02662544 0.07927597 -0.08786259 -0.009697244
-0.07112743 0.07524825 0.07210363 0.06944788 -0.0812822 -0.08759589 0.038751937 -0.054742157
0.020430334 0.068223916 0.030282214 -0.0776217 0.07366782 0.06261661 0.073259704 -0.06922905
-0.080029175 0.021353416 0.047118165 0.07705607 0.013582014 0.04556278 -0.018072978 0.062038295
0.0002085343 -0.024016507 0.057038717 0.008294709 0.04367692 0.034184612 0.0156473 0.025222741
0.016232587 0.07600657 0.00013611466 0.06206601 0.0016390979 0.040391184 -0.07259546 0.06104105
0.0827331 -0.071243346 -0.07279485 -0.051669993 -0.023587048 -0.07658812 0.041765593 0.01311402
0.06078423 0.035322174 0.048661776 -0.06743054 -0.05076625 -0.04703324 -0.051032964 0.03517048
-0.00505203 0.017105244 -0.06972463 0.035397418 0.06336404 -0.08100589 -0.007934675 0.070675634
-0.054121263 -0.08771038 0.08656772 0.041424833 0.066948734 -0.08029842 -0.030670874 -0.06067609
-0.081157014 -0.012330197 -0.02134934 -0.030511852 0.07687419 -0.077983186 0.07468716 -0.031695716
-0.050983958 -0.04469549 0.03787922 -0.087739624 0.004146762 0.037249543 -0.032103054 0.03210944
0.017304875 -0.017439038 -0.007192768 -0.08102915 -0.029552557 0.056170233 0.037206657 -0.016226105
-0.0009202063 0.01946728 0.067766376 -0.062121388 0.046416692 -0.051148612 -0.039573025 -0.036910556
0.029341243 0.0034742206 -0.087983355 0.083806165 0.0463598 0.034546107 0.042520486 -0.071680345
0.0073077604 -0.078803934 -0.07701507 0.049880095 0.022673942 -0.0031064004 -0.0024279356 0.044226848

fc2.bias f4 [128]
00000000: 50f4 c03c 42e7 5dbd 24d3 b43c 8cb5 42bd
00000010: 002d 83bc f07a 693c f054 773c e0ef 473d
00000020: e4d6 9bbc 02aa 0bbd 9249 52bd ccf8 a03c
00000030: 5e9f 593d eca4 2fbd e4eb 1e3d b692 00bd
00000040: 7412 5e3d 0407 2bbd aea5 39bd 6065 46bb
00000050: 6453 90bc 3444 15bd 287f eabc 62fa 2b3d
00000060: 0078 d638 e2e8 003d 5834 2abd 18a5 aebc
00000070: ac2f dabc 9e9d 79bd d0ee a83c 6857 1e3d
00000080: dc45 433d c4b6 6a3d 4cb7 b03c 4438 59bd
00000090: 587d 28bc a420 d43c 6873 5b3d d67a 5abd
000000a0: d4e5 323d 5ed3 773d 226b 22bd 40c5 753b
000000b0: 0cd3 903c b040 b83b 941a 29bd 3885 8a3c
000000c0: caf9 4b3d 8096 413a 007c 17ba 62fe 5a3d
000000d0: 3862 7e3c f81b 143c fcfc 893c 90d5 5a3d
000000e0: f4c8 b9bc a874 64bc 3223 3ebd 1815 f53c
000000f0: 10b5 b33c 1084 703c 180c edbc aa93 1dbd
00000100: a818 ccbc ba20 773d 1a68 06bd 3075 de3b
00000110: 3093 273c 9077 773c e4d1 143d c8a8 2dbd
00000120: b4da f7bc 8c2d 9f3c 823a 46bd dc83 803c
00000130: 6053 92bc 58fb 0ebc 14ef d13c 8078 40bc
00000140: e2d6 213d 90a7 2d3c 24dd c13c 6824 dcbc
00000150: 30b0 9a3c 608e 1f3d 0a88 5abd 041d dfbc
00000160: 0098 9eba f2e4 06bd 049c b8bc 423d 443d
00000170: 00ce 97ba 18be 203d e052 5cbc f8bb 37bd
00000180: 343a dfbc 60f7 27bd 30da b5bc 1261 0c3d
00000190: 7009 3a3c 182b da3c 6a7d 1c3d a030 663d
000001a0: d0dd ab3b 7ca7 163d 004b 7abb b204 773d
000001b0: 00b2 5639 c08d 823b f0ad e23c d098 113c
000001c0: 2849 053c 8054 703b a029 4fbb 18c5 9bbc
000001d0: 885f 9f3c 9c65 cd3c 70fa 1b3d 54c3 5f3d
000001e0: a480 bc3c d253 03bd 625b 78bd 9ada 12bd
000001f0: 9afb 693d 5005 6cbc 42cc 4e3d f8b4 d4bc
0.023553997 -0.054175623 0.022073336 -0.047536418 -0.016012669 0.014250502 0.015095934 0.048812747
-0.019023366 -0.03409768 -0.051339693 0.019649886 0.0531305 -0.04288189 0.03879918 -0.031389914
0.054216817 -0.041754737 -0.04532402 -0.0030272827 -0.017617889 -0.036441997 -0.028625086 0.04198683
0.00010226667 0.031472094 -0.041553825 -0.021318957 -0.02663406 -0.06094133 0.020621687 0.038657576
0.047674045 0.057303205 0.021571778 -0.053032175 -0.0102837905 0.02589447 0.053576857 -0.0533398
0.043676212 0.06050431 -0.03965295 0.0037501603 0.01767876 0.0056229457 -0.041285113 0.016909227
0.049798764 0.0007384792 -0.00057786703 0.053465255 0.015526347 0.009039871 0.016844265 0.053426325
-0.02267883 -0.013943829 -0.046420284 0.029917285 0.021936923 0.014679924 -0.02893643 -0.0384709
-0.0249141 0.060333945 -0.032814123 0.006788872 0.010227963 0.0151041895 0.03633298 -0.04239729
-0.030255653 0.019430898 -0.04839564 0.015687875 -0.017862022 -0.008726917 0.025626697 -0.011747479
0.03951157 0.010599032 0.023665018 -0.026872829 0.01888284 0.03895414 -0.053352393 -0.027235515
-0.0012099743 -0.032933183 -0.022535332 0.047909983 -0.0011581779 0.039243788 -0.013447493 -0.044856995
-0.027249433 -0.0410074 -0.022198766 0.03427226 0.011354789 0.026631877 0.03820554 0.056198716
0.005244948 0.03678082 -0.0038191676 0.060307212 0.0002047494 0.003984183 0.02767083 0.008886531
0.008135118 0.003667146 -0.0031610504 -0.01901488 0.019454733 0.025072865 0.038080633 0.05462964
0.02301056 -0.03206236 -0.060634024 -0.035853006 0.05712471 -0.0144055635 0.050487764 -0.025965199

fc3.weight f4 [1, 128]
00000000: a69b 44bb a69b 44bb a69b 44bb a69b 44bb
00000010: a69b 44bb a69b 44bb a69b 44bb a69b 44bb
00000020: a69b 44bb a69b 44bb a69b 44bb a69b 44bb
00000030: a69b 44bb a69b 44bb a69b 44bb a69b 44bb
00000040: a69b 44bb a69b 44bb a69b 44bb a69b 44bb
00000050: a69b 44bb a69b 44bb a69b 44bb a69b 44bb
00000060: a69b 44bb a69b 44bb a69b 44bb a69b 44bb
00000070: a69b 44bb a69b 44bb a69b 44bb a69b 44bb
00000080: a69b 44bb a69b 44bb a69b 44bb a69b 44bb
00000090: a69b 44bb a69b 44bb a69b 44bb a69b 44bb
000000a0: a69b 44bb a69b 44bb a69b 44bb a69b 44bb
000000b0: a69b 44bb a69b 44bb a69b 44bb a69b 44bb
000000c0: a69b 44bb a69b 44bb a69b 44bb a69b 44bb
000000d0: a69b 44bb a69b 44bb a69b 44bb a69b 44bb
000000e0: a69b 44bb a69b 44bb a69b 44bb a69b 44bb
000000f0: a69b 44bb a69b 44bb a69b 44bb a69b 44bb
00000100: a69b 44bb a69b 44bb a69b 44bb a69b 44bb
00000110: a69b 44bb a69b 44bb a69b 44bb a69b 44bb
00000120: a69b 44bb a69b 44bb a69b 44bb a69b 44bb
00000130: a69b 44bb a69b 44bb a69b 44bb a69b 44bb
00000140: a69b 44bb a69b 44bb a69b 44bb a69b 44bb
00000150: a69b 44bb a69b 44bb a69b 44bb a69b 44bb
00000160: a69b 44bb a69b 44bb a69b 44bb a69b 44bb
00000170: a69b 44bb a69b 44bb a69b 44bb a69b 44bb
00000180: a69b 44bb a69b 44bb a69b 44bb a69b 44bb
00000190: a69b 44bb a69b 44bb a69b 44bb a69b 44bb
000001a0: a69b 44bb a69b 44bb a69b 44bb a69b 44bb
000001b0: a69b 44bb a69b 44bb a69b 44bb a69b 44bb
000001c0: a69b 44bb a69b 44bb a69b 44bb a69b 44bb
000001d0: a69b 44bb a69b 44bb a69b 44bb a69b 44bb
000001e0: a69b 44bb a69b 44bb a69b 44bb a69b 44bb
000001f0: a69b 44bb a69b 44bb a69b 44bb a69b 44bb
-0.003 -0.003 -0.003 -0.003 -0.003 -0.003 -0.003 -0.003
-0.003 -0.003 -0.003 -0.003 -0.003 -0.003 -0.003 -0.003
-0.003 -0.003 -0.003 -0.003 -0.003 -0.003 -0.003 -0.003
-0.003 -0.003 -0.003 -0.003 -0.003 -0.003 -0.003 -0.003
-0.003 -0.003 -0.003 -0.003 -0.003 -0.003 -0.003 -0.003
-0.003 -0.003 -0.003 -0.003 -0.003 -0.003 -0.003 -0.003
-0.003 -0.003 -0.003 -0.003 -0.003 -0.003 -0.003 -0.003
-0.003 -0.003 -0.003 -0.003 -0.003 -0.003 -0.003 -0.003
-0.003 -0.003 -0.003 -0.003 -0.003 -0.003 -0.003 -0.003
-0.003 -0.003 -0.003 -0.003 -0.003 -0.003 -0.003 -0.003
-0.003 -0.003 -0.003 -0.003 -0.003 -0.003 -0.003 -0.003
-0.003 -0.003 -0.003 -0.003 -0.003 -0.003 -0.003 -0.003
-0.003 -0.003 -0.003 -0.003 -0.003 -0.003 -0.003 -0.003
-0.003 -0.003 -0.003 -0.003 -0.003 -0.003 -0.003 -0.003
-0.003 -0.003 -0.003 -0.003 -0.003 -0.003 -0.003 -0.003
-0.003 -0.003 -0.003 -0.003 -0.003 -0.003 -0.003 -0.003
