models/checkpoint_actor_local_7.pth (torch_old, 152633 bytes, 5 tensors)

fc1.weight f4 [256, 18]
00000000: 7cdb 633d e6db 0a3d 1624 1dbd c057 0c3b
00000010: cc55 a9bc 146d b5bc a693 3bbd 9cc3 f7bc
00000020: acfe 09bd d898 283c 0ecc 08bd 6070 b5bb
00000030: 305d fdbb dc7b 563d 4035 473c f8ae da3c
00000040: 52c1 1fbd 5c91 af3c d4fc 1ebd 4868 363d
00000050: 4cc5 113d 30ea 03bc c8d7 1f3d 4473 cebc
00000060: 58a0 13bc c6fd 31bd 8438 383d a269 593d
00000070: 4038 b6bb d0ed 1ebd c89e 4b3d 5c3c ce3c
00000080: 6a51 7cbd 301c 743c b88a 5abd e044 6dbd
00000090: b4cb 0bbd 6ca3 1cbd c2d6 6c3d 1a65 603d
000000a0: d80f 54bd e0a7 3c3c 86fb 363d 203b d03b
000000b0: 7898 12bc a4c8 b9bc 2a3f 0cbd fedb 65bd
000000c0: 3803 693d b887 69bd dc2e 07bd 720c 313d
000000d0: 201d bbbb 40e2 9bba 1cba b6bc 2075 9dbb
000000e0: aa9b 403d 0063 f3b9 7c89 c0bc 0437 693d
000000f0: c411 acbc 889a 26bd 30e7 5dbd bcc7 e3bc
00000100: 9c36 6dbd 746f 0c3d 5012 9f3c 74f6 f33c
00000110: d009 ec3b 40e2 abbb 5092 d13c aed9 72bd
00000120: 28ff 3e3c 2066 d13c 1068 0ebc f86f c2bc
00000130: 2cf2 dbbc 347b 8dbc f072 f23c 1a8b 02bd
00000140: a2cc 6cbd 4cf8 003d 92bc 7ebd 8036 e43b
00000150: ce73 21bd 940f 743d e2ef 5b3d 2080 b9bb
00000160: dc07 27bd c8de 243d d625 273d 36f0 64bd
00000170: 7881 30bc 40d2 c13a 34d1 e6bc d091 cd3b
00000180: 2229 51bd 8051 923b bc66 f6bc cc8e 15bd
00000190: 9095 393d 009f 18bb 0041 e73a 8285 5abd
000001a0: 3c03 edbc 18b2 7ebd ee1e 61bd 1440 153d
000001b0: 7e49 593d 9a85 44bd 7ac6 3ebd a0da 1a3b
000001c0: 8077 3e3a 4831 e03c 8c0c e03c 2414 b73c
000001d0: 8019 54bb ace7 9b3c e81c 0c3d 004b d1bc
000001e0: a847 febc 8c4c a5bc b0c1 afbc f053 b7bc
000001f0: 28dc 78bd 000d cab9 507e 5bbd ac94 683d
00000200: 2019 aabb fa70 153d 3cab 5fbd 044d 6abd
00000210: 3a94 7abd 6c9e c2bc c862 6fbd 4022 76bb
00000220: 140f 0d3d b28e 623d 4e60 6fbd 827c 153d
00000230: aa55 4c3d 221d 093d 6873 8ebc cce2 92bc
00000240: b667 47bd 00df a2bb 6e62 33bd 58a2 39bc
00000250: 40d9 593d 321a 62bd ae1f 0dbd a420 12bd
00000260: 002b c3ba 70d6 21bd 3807 043d 8c57 6b3d
00000270: 14bd 4f3d 84d0 50bd c04e df3b 24df 163d
00000280: 801d 25bb 88eb 463c 2808 653c 0841 013c
00000290: f2ba 3d3d f49c 733d b013 60bd e057 f6bc
000002a0: 28d8 6e3d 2c66 4ebd d0d4 3ebd b2d3 773d
000002b0: 68e9 f1bc 8040 c63a b8c2 64bc 40dd f53a
000002c0: 7047 0c3d d8bf 3abd c013 f43c b884 37bd
000002d0: 5a83 503d c8d1 e33c d4fa 0d3d b8d5 a8bc
000002e0: 9892 393c 9484 3abd 4ab2 343d 54c5 0fbd
000002f0: 2092 24bb be2b 1d3d 786d c63c 7619 313d
00000300: 4007 76bd 141d 493d bcd9 19bd 76a8 3f3d
00000310: f42e 6dbd 48cb eabc d010 04bd f4e6 20bd
00000320: e883 443d 3c08 fc3c 08fc aebc 7ca3 79bd
00000330: ecdd e8bc 5615 07bd 460b 683d 6056 423c
00000340: 44d4 843c 7e19 643d c0c4 f5bc a800 683d
00000350: 804d 0e3a c68a 23bd 9622 3c3d 0077 073b
00000360: 5aea 06bd 3ef2 2f3d a08f 0abd 60db 32bb
00000370: 0672 29bd c2ae 36bd d016 6a3d ae40 2e3d
00000380: 48fc 2fbd 1c98 aa3c 888c debc 9033 443d
00000390: c097 223d 4c6b 083d 5eed 78bd 94ed c6bc
000003a0: e06a f63b d423 2fbd 3097 313c 50a8 5d3d
000003b0: c03f c93b 005d efbb e07b 2dbc 10a3 443d
000003c0: 2009 08bb 98c8 d23c 0011 6d3d 5ac0 6e3d
000003d0: 3a4d 543d f2a4 2a3d ecd6 47bd 0aba 0abd
000003e0: a23d 2abd 885a 253c ca63 46bd d2c8 3f3d
000003f0: 8e33 433d 203b 75bb 98df 7bbc 40b1 5e3b
0.05562924 0.033901118 -0.038364492 0.0021414608 -0.020670794 -0.022146739 -0.045795105 -0.030244641
-0.03369014 0.010290347 -0.033397727 -0.005537078 -0.007732056 0.052364215 0.012158692 0.02669476
-0.039002724 0.021431617 -0.038815334 0.044533044 0.035588548 -0.00805144 0.039024144 -0.025201447
-0.009010397 -0.043454908 0.044975773 0.053079255 -0.0055609047 -0.038801014 0.049711972 0.025175266
-0.06160108 0.014899299 -0.05335495 -0.057927012 -0.034129813 -0.03824179 0.057821997 0.054783918
-0.051772922 0.011514634 0.044673465 0.0063547045 -0.008947484 -0.02267868 -0.034239925 -0.056118004
0.056887835 -0.057014197 -0.033003673 0.04322476 -0.005710259 -0.0011892989 -0.02230554 -0.004805222
0.047023453 -0.00046422333 -0.023503058 0.056937233 -0.021004565 -0.040674716 -0.054175556 -0.027805202
-0.057913408 0.034285977 0.019417912 0.029780604 0.007203318 -0.005245477 0.025582463 -0.059289627
0.011657514 0.025561392 -0.008691803 -0.023735031 -0.026848875 -0.017270662 0.029595822 -0.03187094
-0.05781234 0.031486794 -0.062191553 0.0069645047 -0.03941708 0.05958517 0.053695567 -0.0056610256
-0.04077898 0.040251523 0.040807568 -0.055893146 -0.010773055 0.0014787391 -0.028175928 0.0062734857
-0.051064618 0.004465282 -0.030078284 -0.036513135 0.04530865 -0.002328813 0.0017643273 -0.05334998
-0.028932206 -0.062181562 -0.054961137 0.036438063 0.053048603 -0.047978975 -0.046576 0.0023628846
0.00072657317 0.02736725 0.027349733 0.022348471 -0.0032363832 0.019031368 0.034207255 -0.025548458
-0.031040028 -0.020178102 -0.021454662 -0.022378892 -0.060756832 -0.00038538128 -0.053587258 0.05678241
-0.0051909834 0.036484696 -0.05460666 -0.057202354 -0.061176516 -0.023757182 -0.058443815 -0.0037557036
0.034438208 0.055311866 -0.058441453 0.036495693 0.049886383 0.03347505 -0.017389014 -0.01793041
-0.04868289 -0.0049704313 -0.04379504 -0.01133021 0.0531857 -0.055200763 -0.03445404 -0.03567566
-0.0014890134 -0.039511144 0.032233447 0.057456538 0.05071743 -0.050980106 0.0068148077 0.036833897
-0.0025194585 0.012141116 0.013978995 0.00788904 0.046320863 0.059475854 -0.054706275 -0.030071199
0.05831161 -0.050390407 -0.046589673 0.060504623 -0.029530242 0.0015125424 -0.01396244 0.0018757954
0.034247816 -0.045593113 0.029794574 -0.044804305 0.050906517 0.027809992 0.034663036 -0.020609722
0.011326455 -0.045536593 0.044115342 -0.035100296 -0.0025111511 0.038371794 0.02422212 0.043237172
-0.060065508 0.049099997 -0.037561163 0.046791516 -0.057906106 -0.028661385 -0.032242596 -0.039282754
0.047977358 0.030765645 -0.021360412 -0.060946926 -0.028426133 -0.032979332 0.056651376 0.011861414
0.016214497 0.055688374 -0.030001044 0.05664125 0.00054284185 -0.039927267 0.04593142 0.0020670295
-0.03293834 0.04295563 -0.033828378 -0.0027291402 -0.041368507 -0.044600256 0.057150662 0.042542152
-0.042965204 0.020824485 -0.02716662 0.047900736 0.0396955 0.03330545 -0.060773246 -0.024283208
0.0075200647 -0.042758778 0.010839269 0.054115593 0.006141633 -0.0073047876 -0.010588616 0.04800707
-0.0020757392 0.025730416 0.05787754 0.05828891 0.05183146 0.04166121 -0.04878895 -0.033868827
-0.041562684 0.010092385 -0.04843501 0.046822377 0.04765659 -0.0037419274 -0.015373133 0.003398016

fc1.bias f4 [256]
00000000: 0853 7fbd ad46 4c3e aeed f53d 07b9 303e
00000010: 4e51 71be 6710 5e3e 43a9 483e 4242 ce3d
00000020: 7c33 193d bcc5 643d c1f2 203e 96c3 61be
00000030: fae1 803d 501a 1ebc cf35 0b3e a863 dd3c
00000040: c31c 633e b0f5 a9bc 8075 05bc a090 1abe
00000050: 28a5 2bbe e686 c3bd 67aa 6b3e 572f 2d3e
00000060: 7872 bf3c 6e17 903d cc64 10be 9775 45be
00000070: 14a3 463d 88b5 13be fa5e 923d f302 083e
00000080: d0c1 05be 34cb 27be 10bc cabd 5701 023e
00000090: 42df 85bd c766 133e af45 563e 098d eabd
000000a0: 9889 4ebe 886c 8ebd e028 20bc 8050 47be
000000b0: 5e18 dc3d 3645 6dbe bb88 05be ccee 2bbe
000000c0: 6f23 60be be97 9b3d c4b1 0e3d 1864 62bd
000000d0: 768a c03d 9739 713e 2e7f 0ebe 29ee 523e
000000e0: 1f6d 163e 4a2c 0ebe 661f c6bd 0f0f 3c3e
000000f0: 0eb2 40be 99d6 293e ed71 3cbe 36de 94bd
00000100: 2679 ddbd 92db 43be 7830 aebd ee72 ddbd
00000110: f2c1 62be 3024 773c 7639 69be 1c26 7c3d
00000120: 6cf6 acbd 7fdc 503e 83a7 453e 1e27 80bd
00000130: 1a01 9f3d 3dee 6ebe 282f a23c 52a0 dc3d
00000140: c260 e73d f37e 44be 9373 62be 1cbd d2bd
00000150: 4c81 cfbd 0667 fdbd 2708 403e ac3c 6dbe
00000160: bca9 043d d4fa 82bd 11b7 523e 067c cd3d
00000170: 9989 0c3e 7028 87bc 98b8 f2bc 00b8 f93a
00000180: f8d3 22be d840 45be 56de a13d 5086 213c
00000190: 88f6 1fbd 10da 55bd 3f46 453e 759d 3b3e
000001a0: 093d 103e 66f8 27be 598c 463e 7029 efbc
000001b0: 2c3e 5a3d f293 d13d b1e9 0bbe cdb5 2bbe
000001c0: 80c3 cb3a eae9 e13d d846 94bc b685 a03d
000001d0: 353a 2c3e 7559 253e 707c 1cbe 4483 48be
000001e0: e8a0 e43c 9c89 84bd 00fd 94bc df67 573e
000001f0: 9533 5e3e ecf0 29be 749f a6bd 74f1 cebd
00000200: ce8a c4bd 7868 acbd 20dd 8bbc 2755 57be
00000210: b4c0 8cbd fc19 8abd 0e4d b3bd be76 2ebe
00000220: 57df 1e3e f5ca 0e3e 9752 07be 7f10 353e
00000230: 4cbf 2fbe de6f e33d 4830 8ebc c0a8 d0bd
00000240: 7ce4 4a3d b4ed 1cbe 8a8a 0abe fc93 0fbe
00000250: 9290 9ebd 2128 1c3e 0858 c13c da4d e73d
00000260: 1490 663d 383a 8abc bd2e 5e3e ea90 b43d
00000270: 2571 6b3e 4c73 21be 6dc2 5b3e 70cd 6cbe
00000280: deb1 46be f537 6a3e ec05 083d e4bc 523d
00000290: 6ba1 283e 622c eb3d 54f4 003d ba9d debd
000002a0: 8ca5 203d 28df 54bd 4266 883d ce88 83bd
000002b0: 0419 6abd 2931 63be 739c 663e 8c4b 2abe
000002c0: 44ca 9abd e809 00be e08a a2bb e41b 1bbe
000002d0: 081a e23c f6a4 fabd 0191 0e3e dd1a 253e
000002e0: a865 f1bc c47b 723d 868b af3d d008 5cbc
000002f0: 4aff f7bd 6bce 1f3e 9701 1f3e 2a98 f13d
00000300: 0a89 dcbd 64b2 7e3d 00b8 e8bc aeb4 0fbe
00000310: c899 f23c 0b4c 363e 8326 5dbe 2827 cf3c
00000320: 4603 843d 1170 353e c01e 93bd a101 083e
00000330: d9d0 6dbe ad31 613e 4379 703e 546d 5ebe
00000340: c8fd a4bc f01f 28bd 1021 5ebe bad5 e23d
00000350: 96f7 d33d 88fe b6bd becb d83d 6c81 7abd
00000360: 206c c8bd 3747 253e e8a6 dfbc 8d14 443e
00000370: 6e72 47be 9673 64be efbf 5a3e 9e69 a4bd
00000380: 48c6 3fbd 285b f63c 18b4 1fbe 62cb 9f3d
00000390: 4b9a 393e 64c1 99bd b0b3 cdbd c82b 853c
000003a0: 569a babd 9227 24be efc9 523e 49ea 553e
000003b0: 9eb4 64be 5afc b7bd 9895 d6bd b287 b8bd
000003c0: 18fe 72bd 2af2 8ebd e672 a23d 4891 16be
000003d0: d5cf 5c3e 70fe d6bd 1e75 f13d 36e0 a53d
000003e0: 3cea 63bd 3e7a 9f3d 0294 e03d 00eb 93ba
000003f0: d44c 5a3d 7f0a 553e a392 533e b400 47be
-0.062335044 0.19948836 0.120082244 0.17258082 -0.23566172 0.21685944 0.19595818 0.100712314
0.037402615 0.055852637 0.15717603 -0.22047266 0.062931016 -0.009649828 0.13594745 0.027025059
0.2217894 -0.020747036 -0.00814569 -0.15094233 -0.16762221 -0.09547214 0.23014222 0.1691259
0.023370013 0.07035719 -0.14100951 -0.19283138 0.048495367 -0.14424717 0.071470216 0.13282375
-0.13062215 -0.1638611 -0.09899151 0.12695824 -0.06536724 0.14394675 0.2092502 -0.114526816
-0.20169675 -0.069542944 -0.00977537 -0.19464302 0.10746835 -0.23170933 -0.1304044 -0.16790313
-0.21888517 0.07597302 0.0348375 -0.055271238 0.09401409 0.23557125 -0.13915703 0.20598663
0.14690064 -0.13884082 -0.096739575 0.1836512 -0.18817922 0.16585769 -0.18402834 -0.07268946
-0.10814123 -0.19126728 -0.085053384 -0.10812937 -0.22144297 0.015084311 -0.22775826 0.06155978
-0.08445439 0.20396613 0.19302182 -0.06257461 0.07763882 -0.23333068 0.019797876 0.10772766
0.11297752 -0.19189052 -0.221144 -0.10289976 -0.10132083 -0.12373166 0.1875311 -0.23167676
0.032388434 -0.06395498 0.20577647 0.10033421 0.13724364 -0.016498774 -0.029629037 0.0019052029
-0.15901172 -0.19263017 0.07903735 0.009858683 -0.03905347 -0.052209914 0.19265078 0.18321784
0.14085783 -0.1640335 0.19389476 -0.029194564 0.053281948 0.102332965 -0.13663365 -0.1676857
0.0015545934 0.11030944 -0.018100187 0.07838003 0.16819079 0.16147406 -0.15281844 -0.19581324
0.027908757 -0.064715594 -0.018187046 0.21035717 0.21699364 -0.1659581 -0.08135882 -0.10104647
-0.095967874 -0.08418363 -0.017073214 -0.21028577 -0.06872693 -0.067432374 -0.087549314 -0.17037484
0.15514885 0.1394461 -0.132151 0.17682074 -0.17162818 0.11105321 -0.017357007 -0.101884365
0.049534306 -0.15325052 -0.13529411 -0.14021295 -0.07742418 0.15249683 0.023601547 0.11294146
0.056289747 -0.016873464 0.21697517 0.08816703 0.2299238 -0.15766639 0.21460886 -0.23125243
-0.19403788 0.22872908 0.033208773 0.05144967 0.16467826 0.11483075 0.03148301 -0.10869928
0.039220378 -0.05197063 0.06660129 -0.06422578 -0.057152763 -0.22186722 0.22520618 -0.16630381
-0.0755811 -0.12503779 -0.004960403 -0.15147358 0.027600303 -0.12238495 0.13922502 0.16123529
-0.029467419 0.059200063 0.08571534 -0.013429835 -0.121092394 0.15606086 0.1552795 0.11796601
-0.107683256 0.062181845 -0.02840805 -0.14033768 0.029614344 0.17802446 -0.21596722 0.025287226
0.06445937 0.17718531 -0.071835995 0.13281871 -0.232242 0.21991606 0.23483758 -0.21721393
-0.020140544 -0.041046083 -0.216923 0.11075921 0.10349958 -0.08935267 0.10585736 -0.061158583
-0.09786248 0.16140448 -0.027301267 0.19148465 -0.19477245 -0.22309718 0.2136228 -0.080279574
-0.046819955 0.030072764 -0.15596044 0.07802464 0.18125264 -0.075075895 -0.10044038 0.016256228
-0.091114685 -0.1603072 0.20584844 0.20890154 -0.22334525 -0.08983679 -0.104777515 -0.09010257
-0.059324354 -0.06979783 0.079320714 -0.14703858 0.21563657 -0.10497749 0.117899165 0.080994055
-0.055643305 0.07786988 0.1096573 -0.0011285245 0.053295925 0.20804785 0.20661406 -0.19433862

fc2.weight f4 [128, 256]
00000000: 0469 89bc e8bd 653c 6577 803d 52e8 5e3d
00000010: 9897 a4bc 6c32 01bd 01a2 9fbd 280f ad3c
00000020: f88c 91bd ec04 0c3d 6406 8fbd 0ee1 783d
00000030: 0024 52bb f2f6 313d 1d40 a0bd 0061 63ba
00000040: f0ff 40bc 497a 8ebd e854 20bd 5d55 87bd
00000050: 7115 7dbd c830 493c 0208 afbd cc03 f1bc
00000060: 86b8 58bd d041 b9bb c01c dfbc 2f77 3fbd
00000070: dd64 94bd 5e07 343d 2a0b 633d 6abc 49bd
00000080: e482 eb3c eeda 9cbd d959 67bd 50d8 8dbd
00000090: 3051 e7bc e4ea 113d b883 2f3c 0282 193d
000000a0: ac89 b83c 8b1a 30bd 59c3 9fbd ec03 ccbc
000000b0: b68f 7b3d 7cbf a13c 4115 62bd 78e9 44bc
000000c0: 70e6 0d3d 835d 9abd a33e 85bd f241 283d
000000d0: 00f0 b73c 0962 81bd 1a54 7c3d ef14 893d
000000e0: 0918 8dbd 6c38 0b3d 609b e8bb 5320 97bd
000000f0: 9f7c 8abd c424 94bc 8472 a23c 1d47 b23d
00000100: 9486 60bd dc78 bc3c 00ec 75bb 40b2 55bb
00000110: 109c 583c 4671 4bbd 0053 ad39 68ef 11bc
00000120: fa8c 523d 329d 4a3d bc82 12bd 4837 84bc
00000130: ee06 8abd a013 b53c f85c 16bd c014 f9ba
00000140: 8c7f 6fbd e62a 03bd 43b7 823d 6e09 9ebd
00000150: 45f1 9e3d 40d6 013b 7096 0c3c e1eb 843d
00000160: c8cc 9fbc 0085 d6bb 90f7 613c b99c 46bd
00000170: 586d ffbc fb02 9cbd 565a 5e3d 7021 7bbd
00000180: 98e0 4ebd 2556 a3bd 20a0 6b3b b4f1 143d
00000190: acbf f8bc 5ec7 acbd 4beb b33d 08d9 2d3c
000001a0: 607a 193c 30e2 5f3c 7235 2b3d 20ae 04bc
000001b0: f3ea aebd 3fea 803d cceb 82bc f53b 923d
000001c0: d9e4 11bd 2784 3bbd 2243 043d 0a69 76bd
000001d0: 80e6 5b3c a156 85bd d753 87bd 8e00 3c3d
000001e0: 245d a2bd 4679 5cbd b0da 6dbd a266 203d
000001f0: 57bc 64bd d8e8 d83c 9029 83bd c0ef 15bb
00000200: bbeb 48bd 6ca4 c2bc d078 733c c06f 99bb
00000210: 3023 ce3b 42d0 2b3d 9c47 c23c b6ac 1f3d
00000220: 00ad 04bd c0c0 893b a00f 4fbc d0e3 02bc
00000230: f516 b2bd e0ba a6bd f9b7 923d 36d6 7cbd
00000240: 0cf3 90bd d323 833d ef45 85bd c20c eabc
00000250: 3442 a4bc 3cde 103d fa3f 66bd f086 013c
00000260: 00d8 d4b8 993c a43d 778e 8dbd 3165 2fbd
00000270: 20e1 96bc 8077 93bc 52c1 2d3d cbec 8cbd
00000280: 29dd b33d d88e 55bd 043a ff3c 11f4 1fbd
00000290: fcc0 35bd 72f3 663d 3fc0 8b3d 3119 8d3d
000002a0: 4069 8bbc e3fd 86bd e4b1 103d 0447 d2bc
000002b0: 3c71 44bd c0c5 ad3b 1d16 a3bd 38c6 5bbd
000002c0: 71c8 803d 800c 8fbb 4fa0 b3bd a50d 973d
000002d0: d4ff e43c 2257 243d 266e dcbc 80af 113a
000002e0: 8084 8ebc b874 603c 5b39 7ebd a12c 913d
000002f0: c23a aebd 00f0 1a38 d82b a0bc 3040 c5bb
00000300: 60d8 42bc 5e92 363d 38cd 4c3c 0310 3dbd
00000310: 8037 e83c 6929 883d fea7 663d 3ed0 6ebd
00000320: 31a2 4ebd 37bb 31bd fd30 843d 4c52 adbd
00000330: b610 713d f6c3 abbd a8ff 783c d32a a83d
00000340: e727 a7bd 4b77 9d3d ddea 943d 6e16 4f3d
00000350: 991f a1bd 5636 213d 6cb1 d1bc 40e5 e0ba
00000360: 89b6 9f3d 6a8c 1b3d d881 abbd 1a08 56bd
00000370: 4cee e33c d216 9ebd a3f8 923d bb01 b33d
00000380: 515d 883d 108c 5a3c d646 5cbd 6044 86bc
00000390: dd16 9cbd e96d 5dbd b0a1 0cbd fef1 3ebd
000003a0: e02d 583c 70b7 28bc 6821 7c3c 205e 34bc
000003b0: ab64 8a3d 5a2f 673d d4c5 dc3c 69ff 5dbd
000003c0: 38b5 553c d095 893b 6bb7 b33d f56c aabd
000003d0: 9031 033d 1410 8b3c 0602 373d e06b 58bb
000003e0: a9fb 83bd 084e 9e3c baa6 2f3d 803e 18bc
000003f0: b577 9b3d 16d4 2e3d c086 92bb 5258 733d
-0.016773708 0.014022328 0.06272773 0.054420777 -0.020091817 -0.031542227 -0.07794572 0.021125391
-0.07106966 0.03418438 -0.06983641 0.060761504 -0.0032064915 0.043448396 -0.07824729 -0.0008673817
-0.01177977 -0.06956918 -0.039143473 -0.06608079 -0.061788026 0.012279697 -0.08546449 -0.029420756
-0.05291035 -0.0056535974 -0.027235389 -0.04674452 -0.07245801 0.04395234 0.05543057 -0.04925195
0.028748937 -0.07658945 -0.05648217 -0.06926024 -0.028236955 0.0356244 0.010712557 0.0374775
0.022526585 -0.042994063 -0.078009315 -0.024904214 0.06141635 0.019744627 -0.05519605 -0.012018554
0.03464359 -0.07537367 -0.06506088 0.041078515 0.022453308 -0.06317527 0.061603643 0.06693446
-0.0688935 0.033989355 -0.0070986003 -0.07379212 -0.06762051 -0.018083937 0.019829996 0.0870497
-0.054815844 0.023006849 -0.00375247 -0.0032607466 0.013220802 -0.049668573 0.0003305897 -0.008907177
0.051403977 0.04946632 -0.03576921 -0.016139641 -0.06739603 0.022104084 -0.036709756 -0.0019003376
-0.058471248 -0.032023333 0.06382611 -0.07716642 0.07760862 0.001981154 0.008580789 0.06490303
-0.019506827 -0.0065466166 0.013791934 -0.048489306 -0.031180069 -0.07617756 0.05428537 -0.061311185
-0.050507158 -0.07975415 0.0035953596 0.03636332 -0.030364834 -0.08436464 0.08785113 0.010610826
0.009367555 0.013664767 0.041799016 -0.008098155 -0.08540907 0.06294679 -0.015981577 0.07140342
-0.035618637 -0.045780327 0.032290585 -0.060158767 0.013421655 -0.06510664 -0.06607788 0.045898966
-0.079279214 -0.053826593 -0.058069885 0.03916038 -0.055843677 0.026478216 -0.06404412 -0.0022878498
-0.049052935 -0.023760043 0.014860347 -0.004682511 0.006290816 0.041946657 0.023715787 0.03898307
-0.03239155 0.004203886 -0.012638003 -0.007988885 -0.08695785 -0.08141112 0.07163996 -0.061727725
-0.070776075 0.06403317 -0.065074794 -0.028570537 -0.0200511 0.03536819 -0.056213357 0.007905707
-0.00010149181 0.080193706 -0.06911939 -0.042821113 -0.018417895 -0.018001318 0.042420693 -0.06881102
0.08782417 -0.05213818 0.031155594 -0.03905112 -0.044373497 0.05638451 0.068237774 0.068895705
-0.01701796 -0.06591394 0.0353259 -0.025668629 -0.04795955 0.0053031147 -0.07963202 -0.053655833
0.06288231 -0.004365504 -0.08770811 0.07375649 0.02795402 0.04012216 -0.026907992 0.00055574626
-0.017397165 0.013699703 -0.062066417 0.070885904 -0.08507301 3.693998e-05 -0.019552156 -0.0060196146
-0.011892408 0.04457318 0.0125001 -0.046157848 0.028346777 0.06648523 0.056312554 -0.058304064
-0.050447647 -0.043391433 0.06454656 -0.084629625 0.058853827 -0.08386986 0.015197672 0.08211293
-0.08161908 0.07688769 0.07271359 0.0505585 -0.07867355 0.03935846 -0.025597297 -0.0017158166
0.07798488 0.037975706 -0.08374375 -0.05225382 0.02782359 -0.077191964 0.0717633 0.087405644
0.06658424 0.013339058 -0.053778492 -0.016390026 -0.07621548 -0.054059897 -0.034333885 -0.0466175
0.013194531 -0.010297641 0.015388824 -0.011008769 0.06757482 0.056441642 0.0269498 -0.054198656
0.013043694 0.0041987672 0.087752186 -0.08321563 0.03202969 0.01697544 0.044679664 -0.0033023283
-0.06444485 0.019324318 0.042883612 -0.009292245 0.07591192 0.04268273 -0.00447163 0.0594104

fc2.bias f4 [128]
00000000: 1280 553d d025 2a3c 60c1 a43b 9864 e33c
00000010: f418 86bc caa8 2dbd 2652 793d 5c7a 9dbc
00000020: 1054 f8bc 34f0 4cbd a0ed d53b 30d5 c1bc
00000030: 3634 63bd 503d bf3b 6471 7e3d 20d9 a23c
00000040: 987c 823c 70ef 2cbc a2b5 31bd 842f 9b3c
00000050: c252 613d 16e9 193d 7024 f93c 8084 8fba
00000060: f898 7bbd 0c5a 6a3d 08af 693d 6e95 7ebd
00000070: b812 21bc 2eb8 643d 0021 7c3c 2843 76bc
00000080: ee1f 733d 4e3a 273d a4d2 2f3d 3c64 2e3d
00000090: 20d6 43bd b005 aebc 1c15 713d d81e de3c
000000a0: a04b 19bd 4238 383d 0eb8 143d c4b2 b6bc
000000b0: 9042 23bd 00f9 61bb 2e68 613d d00e b9bb
000000c0: 48a7 bc3c b8e9 393d ccfe 0fbd c2d0 623d
000000d0: a866 743d 0088 13b9 0a2d 00bd 104e 47bd
000000e0: a64c 30bd 0208 7abd ea60 723d 8c5f 113d
000000f0: 28e7 00bd 1033 743c f4ea 7c3d 103f b4bc
00000100: 8e2e 6b3d e873 d23c d4da af3c 3eea 5b3d
00000110: 80d2 4a3a 0a8f 14bd b2cf 37bd b43a 72bd
00000120: f4bf dabc 9001 d1bb 987a 45bd c091 67bd
00000130: a28a 67bd a820 513c 8e44 443d 70a2 783d
00000140: 365f 49bd b64c 363d 0a4d 77bd 2698 463d
00000150: 482a d03c fabb 2d3d 9841 893c 8849 99bc
00000160: 103e c43c 00b4 a23a 8039 1e3b b664 52bd
00000170: 2028 f03b d495 ee3c 10ff f53c 1492 b53c
00000180: c4f4 583d 4083 f73a 90b6 6e3d f855 cc3c
00000190: 1045 89bc 6c41 0bbd 12e8 6a3d 9c93 443d
000001a0: 8094 423c b052 ff3b e81b c7bc 7c7c 883c
000001b0: e093 153d 2e7b 15bd 3053 51bc b8dd fc3c
000001c0: 94ef 31bd 8e17 163d c0f2 10bd 24a4 4e3d
000001d0: 48d9 18bc 987e 0fbc 723a 4dbd 3459 e6bc
000001e0: ec5c 62bd 4034 043c 0433 6d3d aa9c 16bd
000001f0: ee4b 76bd 8c6e fa3c 5c93 6bbd 16e8 42bd
0.05212409 0.010384992 0.005027935 0.027757928 -0.01636932 -0.042397298 0.06086936 -0.019223385
-0.030313522 -0.050033763 0.0065285712 -0.023661226 -0.055469714 0.0058361664 0.062119856 0.019878924
0.015928552 -0.010555133 -0.04338611 0.018943556 0.055010565 0.037575804 0.030412883 -0.0010949522
-0.06142518 0.05721478 0.05705169 -0.062154226 -0.009831123 0.05583971 0.015388727 -0.01503066
0.059356622 0.040827088 0.042925492 0.04257606 -0.047811627 -0.021242946 0.058858022 0.027114317
-0.037425637 0.044975527 0.03630834 -0.022302039 -0.0398584 -0.003448069 0.055030994 -0.0056475177
0.023028985 0.045388907 -0.035155103 0.05537487 0.059668213 -0.00014069676 -0.031292953 -0.04865843
-0.043041848 -0.061042793 0.059174456 0.03549151 -0.031470448 0.014904752 0.061747506 -0.022002727
0.057417445 0.025690034 0.02146665 0.053690188 0.00077370554 -0.036269225 -0.044875808 -0.059138015
-0.026702859 -0.00637836 -0.048212618 -0.056535482 -0.056528695 0.0127641335 0.04791694 0.060701787
-0.049163066 0.04450675 -0.060376205 0.048484944 0.025410786 0.042415597 0.01675491 -0.01871182
0.023955375 0.0012413263 0.002414316 -0.051365577 0.007329002 0.029124178 0.03002885 0.022164382
0.0529678 0.001888372 0.058279574 0.024943337 -0.016756564 -0.033997938 0.057350226 0.047992334
0.0118762255 0.0077918395 -0.024305299 0.016660921 0.036517978 -0.036494426 -0.012776181 0.030867442
-0.04344137 0.036643557 -0.035387754 0.050449505 -0.009329148 -0.00875821 -0.050104566 -0.028118707
-0.0552644 0.008069098 0.05790998 -0.0367705 -0.060131006 0.030570291 -0.05751358 -0.047584616

fc3.weight f4 [1, 128]
00000000: a69b 44bb a69b 44bb a69b 44bb a69b 44bb
00000010: a69b 44bb a69b 44bb a69b 44bb a69b 44bb
00000020: a69b 44bb a69b 44bb a69b 44bb a69b 44bb
00000030: a69b 44bb a69b 44bb a69b 44bb a69b 44bb
00000040: a69b 44bb a69b 44bb a69b 44bb a69b 44bb
00000050: a69b 44bb a69b 44bb a69b 44bb a69b 44bb
00000060: a69b 44bb a69b 44bb a69b 44bb a69b 44bb
00000070: a69b 44bb a69b 44bb a69b 44bb a69b 44bb
00000080: a69b 44bb a69b 44bb a69b 44bb a69b 44bb
00000090: a69b 44bb a69b 44bb a69b 44bb a69b 44bb
000000a0: a69b 44bb a69b 44bb a69b 44bb a69b 44bb
000000b0: a69b 44bb a69b 44bb a69b 44bb a69b 44bb
000000c0: a69b 44bb a69b 44bb a69b 44bb a69b 44bb
000000d0: a69b 44bb a69b 44bb a69b 44bb a69b 44bb
000000e0: a69b 44bb a69b 44bb a69b 44bb a69b 44bb
000000f0: a69b 44bb a69b 44bb a69b 44bb a69b 44bb
00000100: a69b 44bb a69b 44bb a69b 44bb a69b 44bb
00000110: a69b 44bb a69b 44bb a69b 44bb a69b 44bb
00000120: a69b 44bb a69b 44bb a69b 44bb a69b 44bb
00000130: a69b 44bb a69b 44bb a69b 44bb a69b 44bb
00000140: a69b 44bb a69b 44bb a69b 44bb a69b 44bb
00000150: a69b 44bb a69b 44bb a69b 44bb a69b 44bb
00000160: a69b 44bb a69b 44bb a69b 44bb a69b 44bb
00000170: a69b 44bb a69b 44bb a69b 44bb a69b 44bb
00000180: a69b 44bb a69b 44bb a69b 44bb a69b 44bb
00000190: a69b 44bb a69b 44bb a69b 44bb a69b 44bb
000001a0: a69b 44bb a69b 44bb a69b 44bb a69b 44bb
000001b0: a69b 44bb a69b 44bb a69b 44bb a69b 44bb
000001c0: a69b 44bb a69b 44bb a69b 44bb a69b 44bb
000001d0: a69b 44bb a69b 44bb a69b 44bb a69b 44bb
000001e0: a69b 44bb a69b 44bb a69b 44bb a69b 44bb
000001f0: a69b 44bb a69b 44bb a69b 44bb a69b 44bb
-0.003 -0.003 -0.003 -0.003 -0.003 -0.003 -0.003 -0.003
-0.003 -0.003 -0.003 -0.003 -0.003 -0.003 -0.003 -0.003
-0.003 -0.003 -0.003 -0.003 -0.003 -0.003 -0.003 -0.003
-0.003 -0.003 -0.003 -0.003 -0.003 -0.003 -0.003 -0.003
-0.003 -0.003 -0.003 -0.003 -0.003 -0.003 -0.003 -0.003
-0.003 -0.003 -0.003 -0.003 -0.003 -0.003 -0.003 -0.003
-0.003 -0.003 -0.003 -0.003 -0.003 -0.003 -0.003 -0.003
-0.003 -0.003 -0.003 -0.003 -0.003 -0.003 -0.003 -0.003
-0.003 -0.003 -0.003 -0.003 -0.003 -0.003 -0.003 -0.003
-0.003 -0.003 -0.003 -0.003 -0.003 -0.003 -0.003 -0.003
-0.003 -0.003 -0.003 -0.003 -0.003 -0.003 -0.003 -0.003
-0.003 -0.003 -0.003 -0.003 -0.003 -0.003 -0.003 -0.003
-0.003 -0.003 -0.003 -0.003 -0.003 -0.003 -0.003 -0.003
-0.003 -0.003 -0.003 -0.003 -0.003 -0.003 -0.003 -0.003
-0.003 -0.003 -0.003 -0.003 -0.003 -0.003 -0.003 -0.003
-0.003 -0.003 -0.003 -0.003 -0.003 -0.003 -0.003 -0.003
