models/checkpoint_actor_local_14.pth (torch_old, 152633 bytes, 5 tensors)

fc1.weight f4 [256, 18]
0.018665425 0.027628459 0.02437774 -0.0050940216 0.025201641 -0.0020840615 0.012466364 0.05287037
-0.05980643 0.04688926 -0.013540022 0.060350776 0.045206226 -0.056218863 0.054647505 0.03966216
0.051688 0.0040489137 -0.035114124 0.008735158 -0.018966705 -0.044260167 0.030712418 0.0366055
-0.022301093 0.013595745 -0.021545283 0.026452504 -0.03794325 -0.03153708 0.03577429 0.022664137
0.011244997 0.0035996735 -0.03338471 0.022621542 0.0038443431 0.050264284 -0.05978471 0.010229357
-0.01758606 -0.054296114 -0.02483797 0.04097081 0.03972377 -0.048320197 -0.03115359 0.02481664
-0.037340865 0.044007182 0.051046282 0.04282614 -0.041972935 -0.028320685 -0.05993826 -0.03264185
0.032691218 0.03341332 0.045761935 0.0439187 0.02067227 -0.03304383 -0.006204441 -0.014010288
-0.04496433 0.015140906 -0.0013745874 0.044431284 0.034442775 -0.042915843 0.016133018 -0.059634194
-0.042482585 0.04994762 -0.05342602 0.0006164983 0.032747872 -0.04871452 -0.0020993352 -0.044359155
-0.0017727092 -0.040930405 -0.010378778 -0.028170072 0.026064076 0.014206447 -0.02292987 0.0064516664
-0.05818755 -0.010958962 0.025625005 0.013320357 0.0032340437 -0.03392943 -0.04649481 0.048913382
-0.05867578 -0.050024673 -0.04315929 0.014231168 -0.017053396 0.046649374 0.06112098 -0.02840957
-0.030973285 -0.04999096 0.032632105 0.04825259 0.06093733 -0.032487325 0.026975535 0.03019201
0.002480045 0.04566185 0.014058337 0.036464803 -0.050441638 -0.041034266 0.03845031 0.041284643
0.01306811 -0.033688605 0.00522545 0.04634756 0.03525155 -0.034018353 0.006332159 -0.020040222
-0.047998376 0.060302705 -0.050655827 -0.050309055 -0.042824894 -0.0025762245 0.043980345 -0.04840567
0.0401313 0.017832167 0.010136448 -0.06196899 0.015600957 -0.06145861 -0.05550348 0.0323871
0.031053498 -0.05082058 -0.023506053 -0.030475833 -0.04601592 0.014066584 0.017782241 0.003179893
0.053656116 0.04810722 0.043730296 0.021865226 0.0034718812 0.035200745 0.046575785 -0.05813337
0.034074113 -0.03690304 -0.053687423 -0.0560422 0.022591054 -0.0020537525 0.05602487 -0.0001463741
-0.057162218 -0.045530297 0.020159774 0.048253134 -0.021721713 0.039166898 0.03925874 -0.037085466
-0.031735756 -0.0023403913 0.022786647 -0.060268015 0.0045264214 0.02609323 -0.04868999 0.03997857
-0.0003567189 -0.035253868 0.041655906 0.015673295 -0.025759116 0.018689789 0.012205027 0.010112666
-0.005963914 0.028928973 -0.01900722 0.04387892 0.04451125 -0.001894094 0.040746965 0.033090524
-0.029236011 -0.03990309 0.024283707 -0.04285305 -0.044245474 -0.028000094 -0.013177484 -0.028140612
-0.000786528 -0.0033553168 0.043427907 0.062239073 0.04064215 -0.061520807 -0.0061345547 -0.0132962465
-0.056743577 -0.03701564 0.0037815124 -0.05766818 -0.049742922 0.009379983 0.05235456 -0.061168514
0.030434728 -0.0030045062 -0.00044357777 -0.0049088895 0.007211454 -0.056410022 -0.024980076 0.023543604
-0.022451758 0.026360303 -0.002978079 0.0392609 -0.03957729 0.057512224 0.057210065 -0.019927628
-0.05522918 0.044743128 0.0076436326 0.03728929 0.039192855 0.0018901378 0.04665366 -0.06147179
-0.03477736 -0.010292165 -0.035566404 -0.031461477 6.9364905e-06 0.03268908 0.061912663 0.028910488
00000000: 3ce8 983c 1455 e23c d4b3 c73c c0eb a6bb
00000010: ac73 ce3c c094 08bb b83f 4c3c 9a8e 583d
00000020: 96f7 74bd f40e 403d f8d6 5dbc 6032 773d
00000030: 2a2a 393d c045 66bd 10d6 5f3d ca74 223d
00000040: ccb6 533d c0ac 843b d4d3 0fbd e81d 0f3c
00000050: 1060 9bbc 264a 35bd 9c98 fb3c a6ef 153d
00000060: c8b0 b6bc b0c0 5e3c bc7f b0bc ecb2 d83c
00000070: 626a 1bbd 062d 01bd 1088 123d 24aa b93c
00000080: f03c 383c 80e8 6b3b 68be 08bd d050 b93c
00000090: 60f1 7b3b ece1 4d3d d0e0 74bd 0899 273c
000000a0: a410 90bc 9a65 5ebd 0079 cbbc 02d1 273d
000000b0: 64b5 223d 66eb 45bd d035 ffbc 444c cb3c
000000c0: bcf2 18bd e040 343d e815 513d 766a 2f3d
000000d0: d0eb 2bbd c800 e8bc d281 75bd 76b3 05bd
000000e0: 3ae7 053d 68dc 083d de70 3b3d 18e4 333d
000000f0: e458 a93c f858 07bd a04e cbbb 688b 65bc
00000100: 842c 38bd 9011 783c 802b b4ba 94fd 353d
00000110: de13 0d3d 86c8 2fbd 6429 843c fc42 74bd
00000120: 3802 2ebd e095 4c3d 3ed5 5abd 809c 213a
00000130: a222 063d e088 47bd 0095 09bb f2b1 35bd
00000140: 405a e8ba a4a6 27bd c00b 2abc ecc4 e6bc
00000150: 5484 d53c 28c2 683c 6cd7 bbbc 8068 d33b
00000160: 1256 6ebd 388d 33bc 88eb d13c a03d 5a3c
00000170: 40f2 533b 96f9 0abd 5871 3ebd 6659 483d
00000180: 0456 70bd ace6 4cbd ccc7 30bd d829 693c
00000190: 90b3 8bbc 6a13 3f3d fe59 7a3d 30bb e8bc
000001a0: b0bb fdbc 52c3 4cbd 3ea9 053d 82a4 453d
000001b0: 6c99 793d 6e11 05bd ccfb dc3c 3c55 f73c
000001c0: 4088 223b ec07 3b3d f054 663c 1e5c 153d
000001d0: e49b 4ebd 8c13 28bd 127e 1d3d 161a 293d
000001e0: a01b 563c 10fd 09bd 403a ab3b f0d6 3d3d
000001f0: ee63 103d d456 0bbd 007e cf3b 642b a4bc
00000200: f299 44bd f8ff 763d 7c7c 4fbd de10 4ebd
00000210: 2869 2fbd e0d5 28bb bc24 343d 0645 46bd
00000220: b860 243d c414 923c 5813 263c 32d3 7dbd
00000230: 289b 7f3c 06bc 7bbd 9e57 63bd 56a8 043d
00000240: e863 fe3c 3e29 50bd c48f c0bc 74a8 f9bc
00000250: 307b 3cbd 8877 663c 10ac 913c c065 503b
00000260: 84c6 5b3d 140c 453d 8a1e 333d b41e b33c
00000270: 8088 633b a82e 103d 40c6 3e3d 421d 6ebd
00000280: 4c91 0b3d a427 17bd 58e7 5bbd 828c 65bd
00000290: e010 b93c 4098 06bb 567a 653d 007c 19b9
000002a0: ee22 6abd fa7d 3abd 1c26 a53c 14a5 453d
000002b0: bcf1 b1bc 786d 203d c6cd 203d eee6 17bd
000002c0: 5afd 01bd 4061 19bb 10ab ba3c 98db 76bd
000002d0: 6052 943b 78c1 d53c 286f 47bd 92c0 233d
000002e0: 0006 bbb9 5c66 10bd 629f 2a3d 4865 803c
000002f0: c804 d3bc 541b 993c 98f7 473c 98af 253c
00000300: f06c c3bb 74fc ec3c 08b5 9bbc 62ba 333d
00000310: 6e51 363d 4043 f8ba 4ae6 263d ee89 073d
00000320: 5c80 efbc 6c71 23bd a0ee c63c ae86 2fbd
00000330: be3a 35bd 7460 e5bc 60e6 57bc 2487 e6bc
00000340: 002f 4eba e0e4 5bbb 76e1 313d 66ee 7e3d
00000350: 6278 263d 3efd 7bbd 6004 c9bb 80d8 59bc
00000360: f46b 68bd b69d 17bd 40d3 773b 7835 6cbd
00000370: 3cbf 4bbd 80ae 193c bc71 563d d68b 7abd
00000380: 4052 f93c 40e7 44bb 0090 e8b9 c0da a0bb
00000390: 104e ec3b 320e 67bd 04a3 ccbc 84de c03c
000003a0: c0ec b7bc 90f1 d73c e02b 43bb 0ad0 203d
000003b0: cc1b 22bd f091 6b3d 1a55 6a3d 443f a3bc
000003c0: fe37 62bd 9244 373d 7077 fa3b a8bc 183d
000003d0: b088 203d 80be f73a e817 3f3d d8c9 7bbd
000003e0: b472 0ebd 78a0 28bc 14ae 11bd c0dd 00bd
000003f0: 00c0 e836 fce4 053d 2298 7d3d b0d5 ec3c

fc1.bias f4 [256]
-0.1413135 -0.00990653 0.07255565 -0.21763057 -0.1886428 -0.21299051 0.12075509 -0.034588575
0.19117163 0.030541524 -0.051995948 -0.19605207 -0.12504283 0.16408004 0.063608065 0.075183764
0.11051656 0.048396036 -0.17669645 -0.03169188 -0.07147926 0.16291104 0.09151439 0.08180185
0.16369258 -0.053167745 0.16485356 -0.09023224 -0.12657423 -0.15268323 -0.19090022 -0.21899188
-0.05499211 0.077318355 -0.17336443 0.019559637 -0.06121312 0.21383937 -0.095022395 -0.038533255
0.07050164 -0.1678541 -0.123412095 0.06463142 -0.105119854 0.093859985 0.13600288 0.12314145
0.09689127 0.11351423 0.056950882 0.18154337 -0.07799204 0.020941779 -0.11785498 0.16533004
-0.048460692 0.03763096 0.21862401 0.2322401 0.16416161 -0.23272787 0.12478717 0.18458991
-0.13610065 0.04716344 -0.2264546 0.18286256 -0.21963878 0.18608032 -0.20358153 0.08724029
-0.009620383 0.19795729 -0.1529215 -0.19396612 0.22222628 -0.22783673 0.17927624 0.21714072
-0.06706698 0.2225865 0.20773886 0.10858415 0.12475075 0.08219196 0.043608204 -0.18093611
-0.077306286 -0.010179892 -0.14751855 -0.14759272 -0.019162565 -0.10181071 0.043481305 -0.21770483
0.0005865693 -0.026917174 0.055091605 0.16075562 0.059572324 -0.19096756 -0.12447364 -0.04126753
0.048388675 -0.0635321 -0.22334562 0.1450253 -0.14944291 -0.004937947 -0.1326707 -0.10743454
-0.097391784 -0.20579152 0.16223632 -0.0629475 0.15944411 -0.08354896 0.16983254 0.22899552
0.11780508 0.16229714 0.106655195 -0.09864919 -0.16100633 0.18597753 0.19182499 -0.20614251
0.07386346 -0.11914372 -0.11258028 0.1482092 -0.063497156 -0.22301221 0.19870253 0.05974494
-0.09918003 0.081855014 0.052822635 0.069658235 0.06869732 -0.16416506 0.013506517 -0.097405106
0.0042140335 0.029148534 -0.22449325 0.12130912 0.18576647 -0.13992399 0.13952993 -0.056948826
0.23316155 0.18643819 -0.08718014 0.037738934 0.13750966 -0.060677856 0.111067995 -0.12065966
0.0971622 0.15586455 -0.003203243 0.09207539 0.06844328 -0.010358155 0.07310073 0.114047244
0.19971617 -0.1937275 0.010273382 0.1251391 0.17395921 -0.15177156 0.17910622 -0.11852509
-0.17367263 -0.13445322 0.16052128 0.0771016 -0.23297632 0.018558547 0.0025931 0.027019992
-0.077421844 -0.012559429 -0.114240184 0.029561326 0.23535533 0.18836115 0.054088965 0.099002644
-0.14185292 -0.07795535 0.14818381 0.088482395 -0.042430744 -0.008199304 0.0019295365 0.08900295
-0.22778323 0.10774906 -0.019461453 -0.110333055 -0.076421484 -0.12951237 -0.04794924 0.218078
-0.062431052 0.22167002 0.060853943 -0.23564775 0.038954183 0.02115865 -0.14969589 -0.1609009
0.007456109 -0.023390234 0.052982256 0.21061711 0.028865382 0.10738598 0.19646485 -0.2256549
-0.07396297 0.09618904 -0.08969186 -0.02972792 -0.025592238 -0.21822006 -0.01927106 0.0197431
0.16493227 -0.06313065 -0.023403496 -0.15648122 0.13806571 -0.051368296 -0.22933345 -0.20125191
0.19718151 -0.16448522 0.22603284 0.19419761 -0.1611096 -0.15527758 0.06694265 -0.1092532
0.11694126 -0.10437293 0.21832635 0.18128075 -0.11862604 -0.23002258 -0.05833456 0.073520586
00000000: 7cb4 10be 004f 22bc 0e98 943d 8cda 5ebe
00000010: 942b 41be 2f1a 5abe 724e f73d c0ac 0dbd
00000020: 7fc2 433e 3832 fa3c b4f9 54bd e0c1 48be
00000030: 3a0b 00be 9904 283e f244 823d f2f9 993d
00000040: 8256 e23d ec3a 463d eaef 34be 58cf 01bd
00000050: b863 92bd 27d2 263e e66b bb3d ba87 a73d
00000060: 079f 273e 6cc6 59bd 5fcf 283e aecb b8bd
00000070: ad9c 01be fe58 1cbe 597b 43be 683f 60be
00000080: 683f 61bd 1659 9e3d 7286 31be 883b a03c
00000090: 9cba 7abd b5f8 5a3e 1a9b c2bd 0cd5 1dbd
000000a0: 2a63 903d f2e1 2bbe 7bbf fcbd 7a5d 843d
000000b0: 1449 d7bd aa39 c03d 5744 0b3e 9631 fc3d
000000c0: ee6e c63d 267a e83d 5445 693d 81e6 393e
000000d0: 4aba 9fbd 188e ab3c f45d f1bd 474c 293e
000000e0: b87e 46bd ec22 1a3d f9de 5f3e 59d0 6d3e
000000f0: fb19 283e 3750 6ebe 6a90 ff3d 2305 3d3e
00000100: f85d 0bbe 742e 413d b7e3 67be 5340 3b3e
00000110: fde8 60be d78b 3e3e ad77 50be 0aab b23d
00000120: d09e 1dbc 51b5 4a3e 7497 1cbe 0e9f 46be
00000130: 498f 633e 084e 69be 3194 373e 235a 5e3e
00000140: 6a5a 89bd b7ed 633e 7fb9 543e 5e61 de3d
00000150: 527d ff3d 4254 a83d 849e 323d 5147 39be
00000160: c252 9ebd 90c9 26bc 1a0f 17be 8c22 17be
00000170: d0fa 9cbc 2282 d0bd 7419 323d 04ee 5ebe
00000180: 00c4 193a 6881 dcbc bca7 613d 1f9d 243e
00000190: 1c02 743d 008d 43be 09ec febd 2408 29bd
000001a0: 3433 463d 1e1d 82bd b7b4 64be 8381 143e
000001b0: 9007 19be 80ce a1bb d4da 07be a406 dcbd
000001c0: 5875 c7bd 03bb 52be 4721 263e 9eea 80bd
000001d0: 5145 233e b81b abbd 95e8 2d3e cd7d 6a3e
000001e0: ca43 f13d 3931 263e 0a6e da3d 9608 cabd
000001f0: d8de 24be e570 3e3e c56d 443e 0617 53be
00000200: ba45 973d 9f01 f4bd 7d90 e6bd 27c4 173e
00000210: cc0a 82bd 505d 64be ad78 4b3e 1cb7 743d
00000220: e61e cbbd 9aa3 a73d 8c5c 583d faa8 8e3d
00000230: 2eb1 8c3d e31a 28be 704a 5d3c 547c c7bd
00000240: e015 8a3b e8c8 ee3c 8fe1 65be ea70 f83d
00000250: 9139 3e3e 3c48 0fbe efe0 0e3e 2c43 69bd
00000260: e7c1 6e3e a7e9 3e3e 808b b2bd 2494 1a3d
00000270: 55cf 0c3e 5889 78bd 9e77 e33d 691c f7bd
00000280: fafc c63d f59a 1f3e 80ed 51bb 0692 bc3d
00000290: fe2b 8c3d 40b5 29bc d6b5 953d 9a91 e93d
000002a0: 6582 4c3e 8060 46be b051 283c 7724 003e
000002b0: 5d22 323e 016a 1bbe 9f67 373e 48bd f2bd
000002c0: 3dd7 31be 1bae 09be b15f 243e 72e7 9d3d
000002d0: 5891 6ebe 1808 983c 00f1 293b 0859 dd3c
000002e0: 588f 9ebd 10c6 4dbc c2f6 e9bd 982a f23c
000002f0: fd00 713e bfe1 403e 648c 5d3d e6c1 ca3d
00000300: e441 11be 0ea7 9fbd 7fbd 173e 4236 b53d
00000310: dccb 2dbd 6056 06bc 80e8 fc3a 2e47 b63d
00000320: 0240 69be 8aab dc3d a06d 9fbc 4cf6 e1bd
00000330: de82 9cbd e49e 04be 6c66 44bd d74f 5f3e
00000340: b4b7 7fbd 77fd 623e fc41 793d a54d 71be
00000350: 6c8e 1f3d e854 ad3c e149 19be 35c3 24be
00000360: 6052 f43b e09c bfbc ec03 593d 03ac 573e
00000370: 1877 ec3c 2eed db3d 152e 493e 1412 67be
00000380: e679 97bd c2fe c43d 5eb0 b7bd f887 f3bc
00000390: d0a6 d1bc 1475 5fbe 58de 9dbc 48bc a13c
000003a0: 01e4 283e a44a 81bd b0b8 bfbc 9d3c 20be
000003b0: 1961 0d3e 9067 52bd 63d6 6abe fb14 4ebe
000003c0: f3e9 493e d06e 28be 2775 673e bddb 463e
000003d0: eaf9 24be 1601 1fbe 3a19 893d 24c0 dfbd
000003e0: e67e ef3d 7ac1 d5bd f190 5f3e a9a1 393e
000003f0: 36f2 f2bd 0a8b 6bbe 38f0 6ebd f691 963d

fc2.weight f4 [128, 256]
-0.014043622 0.082966916 -0.06056142 -0.0029426068 0.03804276 -0.016778536 -0.06886859 0.01800879
0.06640824 -0.0125564635 0.032203376 0.072204955 0.04825925 -0.077130586 -0.027920812 -0.05554551
-0.05235045 0.06235879 0.05181145 0.07789148 0.047528975 -0.07289325 -0.04786865 0.012302317
0.06521178 0.06115993 0.049160965 -0.041116506 -0.066960014 -0.08095928 -0.04780644 -0.03839875
-0.062649466 0.017824464 0.054315366 0.0512119 0.07891881 -0.078701034 0.033868723 0.034081392
0.029389463 0.08629965 -0.06839816 0.05661241 -0.024277173 -0.08357189 0.015962936 -0.050293192
0.085570656 -0.06325876 -0.06145691 0.060065992 -0.08516059 -0.037134334 0.06286486 -0.024509698
-0.03491797 0.08726526 0.025005333 -0.07246531 0.02454412 0.007198155 -0.07506885 0.06423014
-0.03643103 -0.06716761 0.061756916 -0.08427857 0.045503907 -0.03169837 0.042543583 -0.061671004
0.06944541 -0.0812724 0.019143023 0.07099687 -0.009018213 -0.081629045 -0.018698841 -0.060372017
-0.078931175 -0.053565662 0.06959728 -0.03482254 0.0051407367 0.04639221 -0.017588869 -0.017927095
0.05622845 -0.009827584 0.029279985 0.039375626 0.038024284 -0.024368547 -0.08426477 -0.053806983
0.020141944 0.07960401 0.0506273 -0.065448776 -0.014073253 0.04203447 0.070417814 -0.027432784
0.0365728 0.07598079 -0.080559075 0.039278455 -0.08619234 -0.046611276 0.068027474 0.015701175
-0.04750383 -0.05930072 -0.06379086 0.078593336 -0.06324127 0.0681353 0.05929763 0.048332937
-0.035187285 -0.08096654 0.050203882 0.020237818 0.07898662 -0.05470196 0.01363828 -0.08290602
-0.0060563684 -0.039041456 0.078332804 -0.048880365 0.021521263 0.008735068 -0.05626893 0.07809935
0.05025258 -0.03739436 0.061495967 -0.038920052 0.0576042 0.035662808 -0.021010064 -0.02588886
-0.030454207 0.005105898 0.07627731 -0.007747717 0.08558171 0.07675158 0.0025938451 0.0073045567
-0.071947396 -0.06545447 -0.044226807 0.08292591 -0.04692338 0.048961736 -0.05868815 0.018105611
-0.04405825 -0.010981411 -0.03621881 -0.03902345 -0.05651728 -0.006273873 -0.031717747 0.068037294
0.024307348 -0.038359437 -0.047985524 0.043335862 -0.06121659 0.085802905 0.06782264 0.009272128
0.0076317713 -0.016346946 0.035799123 0.03656023 -0.033981275 0.07499424 -0.015191622 0.028680667
-0.039602473 0.021471553 -0.04639603 -0.08699972 -0.058897976 -0.00024966896 -0.081291646 -0.029474776
-0.08097637 -0.07238303 -0.009533182 0.081988566 -0.048000075 0.08531039 -0.055733845 -0.042101856
-0.06778545 -0.0472057 0.002245225 0.07377038 -0.030733187 -0.035258874 0.029376186 0.0006486997
-0.052759025 0.010343678 0.033101037 -0.012709394 -0.076611 0.066346444 -0.07838549 -0.084783435
0.012181863 -0.051233478 -0.022599585 0.0070028976 -0.020386398 -0.085181795 0.065870084 -0.038075946
0.048314102 -0.020300485 0.0698662 -0.08608185 -0.05535289 0.032847956 -0.020774826 -0.052282922
-0.06193023 0.022572786 -0.029551126 -0.051581524 -0.025985427 -0.07000409 -0.02582375 0.013510898
0.041006707 0.07395733 -0.06848471 0.032164156 -0.079861134 0.044726916 0.08234031 0.07154115
0.08510368 -0.06387649 -0.077637225 -0.02081532 0.06406625 0.03184604 -0.007676892 -0.005334072
00000000: 3817 66bc 8fea a93d 400f 78bd c0d8 40bb
00000010: bad2 1b3d 2473 89bc fa0a 8dbd 2c87 933c
00000020: 0b01 883d a0b9 4dbc b0e7 033d 31e0 933d
00000030: 7eab 453d a4f6 9dbd 30ba e4bc b083 63bd
00000040: 6d6d 56bd ee6b 7f3d 3e38 543d 9185 9f3d
00000050: bead 423d 0e49 95bd eb11 44bd a88f 493c
00000060: c18d 853d d682 7a3d 025d 493d c869 28bd
00000070: 5522 89bd fbcd a5bd b0d0 43bd 0248 1dbd
00000080: 5d4e 80bd 9c04 923c ca79 5e3d 92c3 513d
00000090: 2fa0 a13d 022e a1bd eeb9 0a3d ee98 0b3d
000000a0: 2cc2 f03c dfbd b03d 5614 8cbd 6ae2 673d
000000b0: ece0 c6bc bd27 abbd b4c4 823c 3c00 4ebd
000000c0: ab3f af3d cf8d 81bd 3eba 7bbd c207 763d
000000d0: ad68 aebd 2c1a 18bd 4bbf 803d 90c8 c8bc
000000e0: 2506 0fbd 21b8 b23d fcd7 cc3c b168 94bd
000000f0: c010 c93c 80de eb3b b2bd 99bd 178b 833d
00000100: b438 15bd 2c8f 89bd d2f4 7c3d 3e9a acbd
00000110: 4e62 3a3d 26d6 01bd 2e42 2e3d bc9a 7cbd
00000120: 6539 8e3d 2572 a6bd d4d1 9c3c cf66 913d
00000130: 20c1 13bc 212d a7bd 502e 99bc a648 77bd
00000140: aba6 a1bd ab67 5bbd 0589 8e3d 14a2 0ebd
00000150: a073 a83b c205 3e3d 8816 90bc d8db 92bc
00000160: ce4f 663d e003 21bc 94dc ef3c 5648 213d
00000170: 5abf 1b3d 8ca0 c7bc 0293 acbd b664 5cbd
00000180: b800 a53c 6d07 a33d 925e 4f3d 020a 86bd
00000190: 8093 66bc 562c 2c3d 3737 903d b8ba e0bc
000001a0: 5ccd 153d d19b 9b3d 28fc a4bd 72e2 203d
000001b0: 9c85 b0bd 77eb 3ebd fd51 8b3d c09f 803c
000001c0: 6093 42bd 50e5 72bd c8a4 82bd 8bf5 a03d
000001d0: a484 81bd 858a 8b3d 12e2 723d c2f8 453d
000001e0: 8b20 10bd c9d1 a5bd 96a2 4d3d c8c9 a53c
000001f0: bdc3 a13d 2a0f 60bd 1873 5f3c a2ca a9bd
00000200: 8074 c6bb efe9 1fbd f36c a03d c736 48bd
00000210: 5c4d b03c 881d 0f3c 407a 66bd 8df2 9f3d
00000220: a6d5 4d3d d42a 19bd 32e3 7b3d a26a 1fbd
00000230: 62f2 6b3d 2a13 123d 4c1d acbc e014 d4bc
00000240: 1a7b f9bc 604f a73b 4737 9c3d 90e0 fdbb
00000250: 7745 af3d ef2f 9d3d 80fd 293b 105b ef3b
00000260: 2859 93bd fe0c 86bd 2b27 35bd 0fd5 a93d
00000270: bb32 40bd 1a8c 483d fc62 70bd 3852 943c
00000280: 6c76 34bd 60eb 33bc 2d5a 14bd 0ed7 1fbd
00000290: aa7e 67bd 1095 cdbb 78ea 01bd 2357 8b3d
000002a0: 3420 c73c c91e 1dbd 788c 44bd f280 313d
000002b0: 3fbe 7abd 6fb9 af3d 99e6 8a3d 20ea 173c
000002c0: f013 fa3b 08ea 85bc 1aa2 123d 2ec0 153d
000002d0: f32f 0bbd 9596 993d 48e6 78bc b8f3 ea3c
000002e0: 3436 22bd 1ce5 af3c c309 3ebd e92c b2bd
000002f0: 013f 71bd 00e6 82b9 3c7c a6bd 1675 f1bc
00000300: f0d6 a5bd 8e3d 94bd 1031 1cbc 9fe9 a73d
00000310: ba9b 44bd 37b7 ae3d 2c49 64bd ff72 2cbd
00000320: 19d3 8abd c45a 41bd a024 133b ed14 973d
00000330: 2ac4 fbbc 9c6b 10bd 54a6 f03c 800d 2a3a
00000340: d919 58bd 8878 293c f494 073d 103b 50bc
00000350: 3ae6 9cbd a5e0 873d 9288 a0bd f0a2 adbd
00000360: 7096 473c 32da 51bd c422 b9bc 9078 e53b
00000370: 6001 a7bc cb73 aebd e5e6 863d 86f5 1bbd
00000380: 02e5 453d 344d a6bc 0316 8f3d ae4b b0bd
00000390: b6b9 62bd 948b 063d f82f aabc 9e26 56bd
000003a0: 8eaa 7dbd 90ea b83c 3415 f2bc 2647 53bd
000003b0: 64df d4bc 4e5e 8fbd 548c d3bc d05c 5d3c
000003c0: a6f6 273d f176 973d b641 8cbd 90be 033d
000003d0: 3c8e a3bd 9233 373d 09a2 a83d 2b84 923d
000003e0: d74a ae3d add1 82bd 4400 9fbd e484 aabc
000003f0: 2b35 833d fe70 023d 708e fbbb 70c9 aebb

fc2.bias f4 [128]
-0.057800487 0.029111579 0.05031831 -0.05767837 0.0023510829 0.034389555 0.056078956 0.05472532
0.045433246 0.016743734 -0.0061457604 -0.009755187 -0.04115484 -0.05198115 -0.058571756 0.05407513
-0.04895571 0.051935658 0.03692712 0.042347185 -0.0014293417 -0.045025848 0.052824266 -0.04669895
-0.02327267 -0.022256047 0.04997182 0.017299876 -0.025549628 0.03417424 -0.029144384 -0.034439392
0.029711895 -0.04253596 0.020934403 0.0074333325 -0.05740367 -0.034425177 -0.010119848 -0.012315318
-0.020885415 -0.015805647 0.0010360032 -0.03843879 0.040145732 -0.014875904 0.040279716 -0.040399693
0.001122497 -0.04222574 -0.010895602 -0.02051913 0.035013095 0.041229784 -0.0057603642 0.056295693
-0.037763767 -0.008883119 0.035065226 0.053077698 -0.055224806 0.057741016 0.054383606 -0.0019386262
-0.02542705 -0.0028497279 -0.02733916 0.036572866 0.031442545 -0.022365823 -0.030390501 -0.03233222
-0.061364412 0.025677934 0.049585097 -0.05606536 0.008878812 -0.057609677 -0.039194614 0.015615046
-0.006714456 -0.03388375 0.025125973 0.0028807968 -0.0006264448 0.04258848 0.0377059 0.05158458
-0.03626138 0.023558795 0.008377723 0.010891698 -0.04356195 0.01703693 -0.0021576062 -0.011663988
0.04571449 -0.050378084 0.024035893 0.051275976 0.009034194 -0.052829042 0.03255921 -0.044723384
-0.024419978 -0.040074445 -0.015215732 -0.028961286 -0.013035521 0.04269605 0.052346252 0.055985592
-0.058298238 -0.033734903 0.011815883 -0.061177164 0.015927881 -0.008471824 -0.031637296 -0.007251106
0.040198244 -0.05474627 0.047877587 0.061058998 0.052848674 -0.022789143 -0.0161822 -0.043368198
00000000: 34c0 6cbd 687b ee3c 921a 4e3d 2840 6cbd
00000010: a014 1a3b 10dc 0c3d 0cb3 653d a827 603d
00000020: 3618 3a3d 282a 893c 6062 c9bb 38d4 1fbc
00000030: fa91 28bd 30ea 54bd f0e8 6fbd e27d 5d3d
00000040: c885 48bd 7cba 543d e440 173d 3e74 2d3d
00000050: c058 bbba 066d 38bd 425e 583d 6647 3fbd
00000060: 54a6 bebc 5052 b6bc 40af 4c3d 78b8 8d3c
00000070: 744d d1bc 4afa 0b3d 34c0 eebc 5210 0dbd
00000080: 5c66 f33c 303a 2ebd a07e ab3c 5093 f33b
00000090: 1c20 6bbd 6a01 0dbd b8cd 25bc 30c6 49bc
000000a0: e417 abbc d87a 81bc 80ca 873a fe71 1dbd
000000b0: da6f 243d 10ba 73bc 58fc 243d 267a 25bd
000000c0: c020 933a e6f4 2cbd 7883 32bc bc17 a8bc
000000d0: e469 0f3d 90e0 283d 70c1 bcbb 5096 663d
000000e0: 2eae 1abd 808a 11bc 8ea0 0f3d 0068 593d
000000f0: 6833 62bd d881 6c3d 58c1 5e3d 8019 feba
00000100: 644c d0bc 80c2 3abb 60f6 dfbc 6ecd 153d
00000110: e6c9 003d 8838 b7bc 80f5 f8bc ca6e 04bd
00000120: 4059 7bbd 885a d23c be19 4b3d caa4 65bd
00000130: 7078 113c 20f8 6bbd 888a 20bd 40d6 7f3c
00000140: f004 dcbb b0c9 0abd fcd4 cd3c c0cb 3c3b
00000150: 0038 24ba 4271 2e3d 8071 1a3d 5a4a 533d
00000160: d086 14bd 60fe c03c b842 093c 1873 323c
00000170: 046e 32bd 0891 8b3c a066 0dbb 501a 3fbc
00000180: 1e3f 3b3d 4059 4ebd ece6 c43c c206 523d
00000190: 2804 143c 4463 58bd ce5c 053d de2f 37bd
000001a0: 680c c8bc 1a25 24bd 684b 79bc 3840 edbc
000001b0: f092 55bc 0ee2 2e3d 0669 563d 2651 653d
000001c0: 22ca 6ebd 9c2d 0abd 6897 413c e894 7abd
000001d0: 307b 823c 68cd 0abc 1c96 01bd b09a edbb
000001e0: eaa6 243d a03d 60bd 4a1b 443d 0019 7a3d
000001f0: da77 583d 4cb0 babc 8890 84bc daa2 31bd

fc3.weight f4 [1, 128]
-0.003 -0.003 -0.003 -0.003 -0.003 -0.003 -0.003 -0.003
-0.003 -0.003 -0.003 -0.003 -0.003 -0.003 -0.003 -0.003
-0.003 -0.003 -0.003 -0.003 -0.003 -0.003 -0.003 -0.003
-0.003 -0.003 -0.003 -0.003 -0.003 -0.003 -0.003 -0.003
-0.003 -0.003 -0.003 -0.003 -0.003 -0.003 -0.003 -0.003
-0.003 -0.003 -0.003 -0.003 -0.003 -0.003 -0.003 -0.003
-0.003 -0.003 -0.003 -0.003 -0.003 -0.003 -0.003 -0.003
-0.003 -0.003 -0.003 -0.003 -0.003 -0.003 -0.003 -0.003
-0.003 -0.003 -0.003 -0.003 -0.003 -0.003 -0.003 -0.003
-0.003 -0.003 -0.003 -0.003 -0.003 -0.003 -0.003 -0.003
-0.003 -0.003 -0.003 -0.003 -0.003 -0.003 -0.003 -0.003
-0.003 -0.003 -0.003 -0.003 -0.003 -0.003 -0.003 -0.003
-0.003 -0.003 -0.003 -0.003 -0.003 -0.003 -0.003 -0.003
-0.003 -0.003 -0.003 -0.003 -0.003 -0.003 -0.003 -0.003
-0.003 -0.003 -0.003 -0.003 -0.003 -0.003 -0.003 -0.003
-0.003 -0.003 -0.003 -0.003 -0.003 -0.003 -0.003 -0.003
00000000: a69b 44bb a69b 44bb a69b 44bb a69b 44bb
00000010: a69b 44bb a69b 44bb a69b 44bb a69b 44bb
00000020: a69b 44bb a69b 44bb a69b 44bb a69b 44bb
00000030: a69b 44bb a69b 44bb a69b 44bb a69b 44bb
00000040: a69b 44bb a69b 44bb a69b 44bb a69b 44bb
00000050: a69b 44bb a69b 44bb a69b 44bb a69b 44bb
00000060: a69b 44bb a69b 44bb a69b 44bb a69b 44bb
00000070: a69b 44bb a69b 44bb a69b 44bb a69b 44bb
00000080: a69b 44bb a69b 44bb a69b 44bb a69b 44bb
00000090: a69b 44bb a69b 44bb a69b 44bb a69b 44bb
000000a0: a69b 44bb a69b 44bb a69b 44bb a69b 44bb
000000b0: a69b 44bb a69b 44bb a69b 44bb a69b 44bb
000000c0: a69b 44bb a69b 44bb a69b 44bb a69b 44bb
000000d0: a69b 44bb a69b 44bb a69b 44bb a69b 44bb
000000e0: a69b 44bb a69b 44bb a69b 44bb a69b 44bb
000000f0: a69b 44bb a69b 44bb a69b 44bb a69b 44bb
00000100: a69b 44bb a69b 44bb a69b 44bb a69b 44bb
00000110: a69b 44bb a69b 44bb a69b 44bb a69b 44bb
00000120: a69b 44bb a69b 44bb a69b 44bb a69b 44bb
00000130: a69b 44bb a69b 44bb a69b 44bb a69b 44bb
00000140: a69b 44bb a69b 44bb a69b 44bb a69b 44bb
00000150: a69b 44bb a69b 44bb a69b 44bb a69b 44bb
00000160: a69b 44bb a69b 44bb a69b 44bb a69b 44bb
00000170: a69b 44bb a69b 44bb a69b 44bb a69b 44bb
00000180: a69b 44bb a69b 44bb a69b 44bb a69b 44bb
00000190: a69b 44bb a69b 44bb a69b 44bb a69b 44bb
000001a0: a69b 44bb a69b 44bb a69b 44bb a69b 44bb
000001b0: a69b 44bb a69b 44bb a69b 44bb a69b 44bb
000001c0: a69b 44bb a69b 44bb a69b 44bb a69b 44bb
000001d0: a69b 44bb a69b 44bb a69b 44bb a69b 44bb
000001e0: a69b 44bb a69b 44bb a69b 44bb a69b 44bb
000001f0: a69b 44bb a69b 44bb a69b 44bb a69b 44bb
