models/checkpoint_actor_local_11.pth (torch_old, 152633 bytes, 5 tensors)

fc1.weight f4 [256, 18]
0	0xbc89e6cc	-0.016833685
1	0xbd5ecc62	-0.054394133
2	0x3c5a7f48	0.01333601
3	0xbd4f06bc	-0.05054353
4	0x3b9a3960	0.0047065467
5	0x3cf8e548	0.030382767
6	0x3d56f0ae	0.052475624
7	0x3d21313e	0.0393536
8	0x3c4b93d0	0.012425378
9	0xbceb68a8	-0.028736427
10	0xbd278520	-0.040898442
11	0xbc653118	-0.013988756
12	0xbcffce38	-0.031226262
13	0xbd30b11e	-0.043137662
14	0x3c8d8964	0.017277427
15	0x3d1f0f0c	0.03883271
16	0x3d4747c0	0.04865241
17	0x3c189080	0.009311795
18	0x3d355530	0.044270694
19	0x3c5cdc00	0.013480186
20	0xbd45a500	-0.04825306
21	0xbd50b41a	-0.05095301
22	0xbd2f6eb6	-0.04283019
23	0xb9ff9600	-0.0004874915
24	0x3ca32bd0	0.019918352
25	0x3d237554	0.039906815
26	0xbd034ffe	-0.03205871
27	0xbc20d7f0	-0.0098171085
28	0x3b1a9480	0.0023587048
29	0xbd18871a	-0.037238218
30	0xbd2d5cfa	-0.042324997
31	0x3d04b870	0.032402456
32	0x3c92ad40	0.017904878
33	0x3d6b3a3c	0.057428584
34	0x3c66cbc0	0.014086664
35	0x3ac560c0	0.0015058741
36	0x3d556492	0.052097864
37	0xbccd1db4	-0.025038578
38	0xbd4ed7c6	-0.050498746
39	0x3d610eb8	0.054945678
40	0x3ac918c0	0.0015342459
41	0xbd4be020	-0.04977429
42	0x3c67fa38	0.014158778
43	0x3c858cd4	0.016302504
44	0x3bddbac0	0.006766647
45	0xbd447d62	-0.047971137
46	0x3d6235ca	0.05522708
47	0x3d6cc778	0.057807416
48	0xbd24c500	-0.040226936
49	0x3d647cbc	0.05578302
50	0xbb415200	-0.0029498339
51	0x39f37400	0.00046434999
52	0xbd79135e	-0.060809486
53	0x3be9c590	0.007134147
54	0x3d69030a	0.056887664
55	0xbc8a0814	-0.016849555
56	0x3cb58e08	0.022162452
57	0x3c74ec50	0.014948919
58	0xbc7a9be8	-0.01529596
59	0xbd248848	-0.04016903
60	0xbc4380b0	-0.011932537
61	0xbd248ca2	-0.04017318
62	0x3c64db88	0.013968356
63	0x3d69482e	0.0569536
64	0x3b0b94e0	0.0021298453
65	0xbb8d4150	-0.0043107644
66	0x3d26ad74	0.04069276
67	0xbb346000	-0.002752304
68	0xbcbb6aac	-0.022878014
69	0x3d0c6aba	0.03428147
70	0x3d26f904	0.040764824
71	0xbb8af3f0	-0.0042405054
72	0xbd5ab24c	-0.053392693
73	0xbd5cfd62	-0.053952582
74	0xbba5bca0	-0.0050578862
75	0xbcf2aabc	-0.029622428
76	0xbc1bc4d8	-0.00950738
77	0xbc737770	-0.014860019
78	0xbd59500e	-0.05305486
79	0xbceb2fb0	-0.028709263
80	0x3d2bacd0	0.041912854
81	0x3d3ac998	0.04560241
82	0x3ccff458	0.025385067
83	0x3cf47460	0.029840648
84	0x3d751dc6	0.059842847
85	0x3c0cc3c8	0.0085916
86	0xbd7a226e	-0.06106799
87	0xbcd6c3d0	-0.026216418
88	0xbd0513aa	-0.032489456
89	0xbc606560	-0.013696045
90	0xbb67a500	-0.003534615
91	0x3baea000	0.005329132
92	0x3d70d886	0.058800243
93	0x3b8069f0	0.0039188787
94	0x3d63aa5e	0.055582397
95	0x3c4d1cb8	0.012519054
96	0xbb48c3e0	-0.0030634329
97	0x3cc73a94	0.024319924
98	0xbc9d65e4	-0.019213624
99	0xbccd03a0	-0.025026143
100	0xbc19b2b0	-0.009380981
101	0x3d32f3f8	0.043689698
102	0xbbe05a90	-0.0068467334
103	0xbd7eaaea	-0.062174715
104	0x3d2aeb88	0.041728526
105	0x3d7e031e	0.06201469
106	0x3c491b98	0.012274645
107	0x3cbe35dc	0.023219042
108	0x3b8c4d50	0.0042816773
109	0xbc991e7c	-0.018691294
110	0xbd4932d0	-0.049120724
111	0x3d32dd0c	0.043667838
112	0x3ba276a0	0.004957989
113	0x3d5dbba4	0.054134026
114	0x3d650786	0.055915378
115	0x3ca29378	0.01984571
116	0x3d103bf2	0.03521342
117	0xbd18901a	-0.0372468
118	0x3d1b7096	0.037949167
119	0xbd5be7a4	-0.053687707
120	0xbd17e606	-0.0370846
121	0x3ba3b8b0	0.0049963817
122	0xbd79ab68	-0.06095448
123	0x3bd0b770	0.0063695237
124	0x3d526ea0	0.05137503
125	0xbcb56560	-0.022143066
126	0x3c3fbb88	0.011702426
127	0x3d2ae0ae	0.041718177
128	0x3c624000	0.013809204
129	0xbd49bb42	-0.04925085
130	0x3c364048	0.011123724
131	0x3d20e244	0.039278284
132	0x3d47a5f6	0.048742257
133	0x3c315788	0.010824092
134	0xbc607848	-0.013700552
135	0xbcbd0b30	-0.023076624
136	0xbc39a380	-0.011330485
137	0xbd0f4c8a	-0.034985103
138	0xbcb0af70	-0.02156803
139	0xbc95bf98	-0.018279836
140	0xbd0ae3de	-0.033908717
141	0x3bd973e0	0.006636128
142	0xbd0735e8	-0.033010393
143	0x3cf9df1c	0.030501895
144	0x3ca09410	0.019601852
145	0x3d13c974	0.036080793
146	0xbd6f478e	-0.05841785
147	0xbd308d14	-0.043103293
148	0x3d5fdb14	0.05465229
149	0x3d0ca49c	0.03433667
150	0xbd2f9934	-0.042870715
151	0xbd69e0b6	-0.057099067
152	0x3baddb90	0.005305715
153	0xbc822ec8	-0.015891448
154	0xbbe42c10	-0.0069632605
155	0x3b8346b0	0.0040062293
156	0x3ca7ed8c	0.020499013
157	0x3d237046	0.039901994
158	0xbd69d9be	-0.05709242
159	0xbbf07e70	-0.0073392913
160	0xbd383158	-0.044968933
161	0x3d580b9e	0.052745454
162	0xbbcaef10	-0.0061930493
163	0x3d396c9e	0.0452696
164	0x3d4b2d5a	0.049603797
165	0x3cfe380c	0.031032585
166	0xbd20c620	-0.039251447
167	0x3d7333ce	0.059375577
168	0xbc8c5e1c	-0.017134719
169	0xbd676530	-0.056492984
170	0x3ce6e698	0.028186128
171	0xbc8811a4	-0.016609974
172	0xbcba91fc	-0.022774689
173	0xbd7f1cdc	-0.06228338
174	0xbd6f844c	-0.058475778
175	0x3d344798	0.04401359
176	0xbd283b22	-0.04107202
177	0xbc094b48	-0.008379765
178	0xbd392720	-0.045203328
179	0xbc48ea58	-0.012262903
180	0x3d6ff756	0.058585487
181	0xbd7a85e8	-0.06116286
182	0xbd310b6a	-0.043223776
183	0x3d5d0bbe	0.053966276
184	0x3d45772a	0.048209347
185	0xbd028716	-0.03186711
186	0x3cb766b0	0.022387832
187	0x3d354da6	0.044263504
188	0xbc0d35b8	-0.008618765
189	0xbbb825a0	-0.0056197196
190	0xbd0a091e	-0.0337001
191	0xbcce6dd0	-0.025198847
192	0x3cb80f88	0.022468343
193	0xbc97ea7c	-0.018544428
194	0xbb2fd900	-0.0026832223
195	0xbd58571c	-0.05281745
196	0xba4e1080	-0.0007860735
197	0x3cbe2b3c	0.023213975
198	0xbbdcd070	-0.006738715
199	0x3caa5048	0.020790234
200	0xbd5f7324	-0.054553166
201	0x3d1fa52e	0.038975887
202	0xbd023722	-0.03179086
203	0x3c9c6d10	0.019094974
204	0x3d35acf8	0.04435441
205	0xbcb10a84	-0.02161146
206	0xbd7a74b6	-0.06114646
207	0x3d1e489a	0.038643457
208	0xbb5c3600	-0.0033601522
209	0xbd676eee	-0.056502275
210	0xbd19ad4a	-0.037518777
211	0xbce5b138	-0.028038606
212	0xbd38fc36	-0.045162402
213	0xbd797638	-0.060903758
214	0xbd40fd86	-0.04711678
215	0xbca82b50	-0.020528466
216	0x3d68bf20	0.056822896
217	0xbcdba23c	-0.026810758
218	0xbcee28e8	-0.02907224
219	0x3d1e185e	0.038597457
220	0xbce375a0	-0.027766049
221	0x3cc2c5b8	0.02377592
222	0xbd1b4290	-0.037905276
223	0xbbcc5b30	-0.0062364563
224	0x3ae43340	0.0017410293
225	0x3d7d02ae	0.061770134
226	0xbcf0f7a8	-0.029414967
227	0xbd30b10e	-0.043137603
228	0xbcbbf52c	-0.022944055
229	0x3d22b880	0.039726734
230	0xbccd91cc	-0.025093935
231	0xbd17c1ae	-0.03704994
232	0xbc7b6e18	-0.015346073
233	0xbd634d0a	-0.055493392
234	0xbd330e1c	-0.043714628
235	0xbc593968	-0.013258316
236	0x3c78c7f8	0.015184395
237	0x3c392870	0.011301145
238	0x3a217f80	0.00061606616
239	0xbce6be4c	-0.028166912
240	0xbcb1338c	-0.021631025
241	0xbd6e4532	-0.05817146
242	0xbd1fd7a4	-0.03902401
243	0xbbef2230	-0.0072977766
244	0xbacd9000	-0.0015683174
245	0x3d679ca2	0.05654586
246	0xb9ec4100	-0.00045061857
247	0xbcc2c5bc	-0.023775928
248	0xbc9295f4	-0.017893769
249	0xbd38ac26	-0.04508605
250	0x3d0488dc	0.03235708
251	0xbceeabbc	-0.029134624
252	0x3d3ba8e0	0.04581535
253	0xbd75d81e	-0.06002056
254	0xbd1f5472	-0.038898893
255	0x3c58c850	0.013231352

fc1.bias f4 [256]
0	0xbdca8d5c	-0.098902434
1	0xbe34eac0	-0.17667675
2	0x3d8a347e	0.06748293
3	0x3db84b52	0.08998741
4	0x3dae99de	0.085254416
5	0x3c30e2c0	0.010796249
6	0xbdab1fa4	-0.08355644
7	0x3d75e3c4	0.060031667
8	0xbdd24944	-0.102678806
9	0xbe25b170	-0.16180968
10	0xbe5dd31d	-0.21662565
11	0xbe0c0740	-0.1367464
12	0xbd4867d0	-0.04892713
13	0xbe486c58	-0.1957258
14	0xbdaf13ec	-0.08548722
15	0xbd371e1c	-0.04470645
16	0x3d204064	0.039123908
17	0x3e54ba25	0.20774134
18	0xbe0c49a0	-0.1369996
19	0xbd3ef480	-0.046619892
20	0x3d2dfdec	0.042478487
21	0xbdf33f76	-0.118773386
22	0xbda46b08	-0.08028227
23	0xbd23a25c	-0.03994976
24	0xbda16252	-0.07880081
25	0xbd97d2ec	-0.07413277
26	0xbe6b9e9c	-0.23009723
27	0xbd7f3220	-0.062303662
28	0x3daf435a	0.08557768
29	0x3e0c4d23	0.137013
30	0xbe590dd4	-0.21196681
31	0xbe597977	-0.21237741
32	0x3e1856c3	0.14876847
33	0xbe01016c	-0.12598199
34	0x3bfa3760	0.0076359957
35	0xbde1cf3c	-0.11025855
36	0xbd8d0f14	-0.068876415
37	0xbe5d583d	-0.21615691
38	0xbd97de7c	-0.074154824
39	0xbd7d6600	-0.061864853
40	0x3d8d52fa	0.06900592
41	0xbd931f80	-0.071837425
42	0x3e1965ed	0.14980288
43	0x3da3abd6	0.079917595
44	0xbd8086dc	-0.062757224
45	0xbdf04eb4	-0.117337614
46	0x3d896fb2	0.06710757
47	0x3e1d2359	0.15345515
48	0xbddfdb2c	-0.109304756
49	0xbc188d10	-0.009310976
50	0xbe53d6d9	-0.20687427
51	0x3e3d6d2b	0.18498676
52	0x3de1cd9a	0.110255435
53	0xbe221026	-0.15826473
54	0xbd055d88	-0.0325599
55	0xbde86e23	-0.11349132
56	0x3de3a4c6	0.111154124
57	0x3dd00772	0.1015767
58	0xbd060c20	-0.032726407
59	0x3e3c460d	0.18386097
60	0x3e1cf5b5	0.15328105
61	0xbc5fb090	-0.013652936
62	0x3dcc7e4a	0.09985025
63	0x3e629917	0.22128712
64	0x3db92ba2	0.090415254
65	0xbe4e417a	-0.20142165
66	0xbe0d6ae4	-0.13810307
67	0xbe69462a	-0.22780672
68	0xbe2ee8d0	-0.17080998
69	0x3d24c9dc	0.04023157
70	0x3cb7d1a8	0.02243884
71	0xbe04f98b	-0.12985818
72	0xbc768f30	-0.015048787
73	0x3d758c14	0.059948042
74	0x3e07c6cd	0.1325943
75	0xbe1a73aa	-0.15083185
76	0x3cb01a28	0.021496847
77	0xbe0e752e	-0.13911888
78	0xbe58ddca	-0.21178356
79	0x3d982382	0.074286476
80	0xbe6ad5ae	-0.22933075
81	0x3cde1278	0.027108416
82	0xbdf2f9ea	-0.118640736
83	0x3e03ffe9	0.1289059
84	0x3e4fe569	0.20302357
85	0xbe4c94c0	-0.19978619
86	0x3d7632ec	0.060107157
87	0x3d57fe44	0.05273272
88	0xbd067da4	-0.032834664
89	0x3c906518	0.01762633
90	0xbe171ddd	-0.14757486
91	0x3df9b1b2	0.12192096
92	0x3d7085cc	0.05872135
93	0xbe40ab58	-0.18815362
94	0xbdb597c4	-0.088668376
95	0x3b60f9c0	0.003432855
96	0xbde0682c	-0.10957369
97	0x3da55546	0.08072905
98	0xbe296c2c	-0.1654517
99	0x3b9fa200	0.004871607
100	0xbdc59c8e	-0.09649001
101	0x3e2b30bf	0.16717814
102	0x3c21cd60	0.009875625
103	0x3c82a998	0.01595001
104	0x3c180200	0.009277821
105	0xbc4bd6b0	-0.012441322
106	0xbe6426e3	-0.22280459
107	0x3d489e6c	0.048979208
108	0xbdd37b06	-0.10326199
109	0xbd94dc84	-0.072686225
110	0xbd2e7e1c	-0.042600736
111	0x3dc02e6a	0.09383853
112	0xbaf4f800	-0.0018689632
113	0x3e46b467	0.19404756
114	0xbcd816d8	-0.02637808
115	0xbe0a7b20	-0.13523531
116	0xbdde4708	-0.10853392
117	0x3d711c7c	0.058865055
118	0x3d379e94	0.044828966
119	0xbe3fe264	-0.18738705
120	0x3d5e171c	0.054221258
121	0x3da4bf92	0.08044352
122	0xbd85e618	-0.065380275
123	0x3e22dd4b	0.15904729
124	0x3e1e29d9	0.15445651
125	0xbe46d201	-0.19416048
126	0x3e578ced	0.21049853
127	0xbd94e130	-0.072695136
128	0x3e62ccb3	0.22148399
129	0x3e3723af	0.17884706
130	0x3df3950e	0.11893664
131	0xbda9d514	-0.082925946
132	0x3d3a31cc	0.045457646
133	0x3e3924bf	0.18080424
134	0x3bc6cf40	0.0060671866
135	0xbd18e0bc	-0.0373237
136	0xbdd11324	-0.10208729
137	0x3dc3deb2	0.0956396
138	0xbd318884	-0.043343082
139	0x3e053f1d	0.13012357
140	0xbdc3ff58	-0.09570187
141	0xbdd72786	-0.10505585
142	0xbd7c5ca4	-0.061611786
143	0x3e5b4483	0.21412854
144	0xbe4a7388	-0.19770634
145	0xbe4282d8	-0.18995225
146	0x3d83c592	0.06434168
147	0x3df1092e	0.11769329
148	0xbe2960a6	-0.16540775
149	0x3d1a576c	0.03768103
150	0x3e5dbe8f	0.21654724
151	0xbcf2fc10	-0.029661208
152	0x3e6d0c45	0.23149212
153	0x3da820ea	0.08209403
154	0x3e054389	0.13014044
155	0xbdb3d54e	-0.08780919
156	0x3e445885	0.19174393
157	0x3d68a374	0.056796506
158	0xbda1b752	-0.07896294
159	0x3c93e8a8	0.018055275
160	0xbe2f9524	-0.17146736
161	0xbe1d9d1c	-0.15391964
162	0xbe3c4508	-0.18385708
163	0x3d99999e	0.07500003
164	0xbe157cbc	-0.14598364
165	0x3da2524a	0.07925852
166	0x3e080dff	0.13286589
167	0xbe35eb63	-0.17765574
168	0xbdb1c9fa	-0.08681102
169	0x3e4aa53b	0.19789593
170	0x3dff563a	0.12467618
171	0x3e239447	0.15974532
172	0x3e4b5a97	0.19858776
173	0x3e4c58d9	0.19955768
174	0xbe28779a	-0.16451874
175	0xbe30f69c	-0.17281574
176	0xbe312103	-0.17297749
177	0x3d5ecb14	0.05439289
178	0xba9fa100	-0.0012178719
179	0x3d987272	0.07443704
180	0x3df28496	0.11841695
181	0x3d70dde4	0.05880536
182	0x3a3ac600	0.0007124841
183	0x3e4a6a49	0.19767107
184	0xbddf40d2	-0.10901035
185	0xbe30c305	-0.17261894
186	0x3cfa07e8	0.030521348
187	0x3e230fc9	0.1592399
188	0xbd7a7c04	-0.061153427
189	0x3e12eb0d	0.14347477
190	0x3e0feb53	0.14054613
191	0xbe575ecc	-0.21032256
192	0x3db67c66	0.08910446
193	0xbd417580	-0.047231197
194	0xbd93c5c6	-0.07215457
195	0xbe0c054c	-0.13673896
196	0x3de636a2	0.11240889
197	0x3d59c59c	0.05316697
198	0xbd7effd4	-0.062255695
199	0x3dacb042	0.08432056
200	0x3e0cc319	0.13746299
201	0x3c583ad0	0.013197616
202	0xbd80c826	-0.06288175
203	0xbc897510	-0.016779453
204	0x3e245dbb	0.1605138
205	0x3e1af871	0.15133835
206	0xbd17988c	-0.037010714
207	0x3dc526e2	0.09626557
208	0xbe0a4988	-0.13504612
209	0xbdd3b11c	-0.10336515
210	0x3e15c251	0.14624907
211	0xbda80502	-0.0820408
212	0x3e45f9ad	0.19333525
213	0xbd528f1c	-0.05140601
214	0x3c8b0b78	0.016973242
215	0x3c9ace98	0.01889734
216	0xbe064887	-0.13113604
217	0x3ca66be8	0.020315126
218	0x3d780a2c	0.060556576
219	0xbdace552	-0.08442177
220	0xbdac045c	-0.08399269
221	0x3e266663	0.16249995
222	0x3e6f1661	0.2334838
223	0x3e35eb21	0.17765476
224	0x3cb27358	0.021783516
225	0x3e3fd87d	0.18734927
226	0x3e1da6b9	0.15395631
227	0x3d9e93ea	0.07743056
228	0x3dd1ad6a	0.10238154
229	0xbdbea5a2	-0.09308936
230	0xbd85bb1a	-0.065298274
231	0xbe5d01ba	-0.2158269
232	0xbda342a2	-0.079716936
233	0x3e224ded	0.15850039
234	0x3e683b35	0.22678836
235	0x3dd89dfa	0.10577007
236	0x3dae6e56	0.08517139
237	0xbe300c9c	-0.1719231
238	0xbbc21fc0	-0.005924195
239	0x3d99361a	0.07481022
240	0x3e6a7591	0.2289641
241	0x3dbaca72	0.09120645
242	0xbe064bbf	-0.13114832
243	0x3e163261	0.14667656
244	0x3d0c99bc	0.0343263
245	0xbce01a98	-0.02735643
246	0x3d666494	0.056248263
247	0x3e706995	0.23477776
248	0xbe348ad2	-0.17631081
249	0xbd8ad160	-0.06778216
250	0xbe62e01c	-0.22155803
251	0x3c88d718	0.016704127
252	0x3c414c80	0.011798024
253	0xbdf0ab8a	-0.117514685
254	0x3ce7dff8	0.028305039
255	0xbe249e06	-0.16075906

fc2.weight f4 [128, 256]
0	0x3cb6f834	0.02233515
1	0xbce5b076	-0.028038245
2	0x3c638698	0.01388707
3	0xbcb9e18c	-0.022690557
4	0x3da31bc9	0.07964284
5	0x3d92f351	0.07175315
6	0xbbe6fe20	-0.007049337
7	0xbd4be5e2	-0.04977978
8	0xbabcbfc0	-0.0014400408
9	0xbd547f83	-0.051879417
10	0xbd99687a	-0.074906304
11	0x3d870341	0.065924175
12	0x3d842eef	0.064542644
13	0xbd34ec66	-0.04417076
14	0x3d1db466	0.03850212
15	0xbc9a5378	-0.01883863
16	0xbd20afce	-0.03923016
17	0xbd9e6be0	-0.07735419
18	0x3d77f6ba	0.06053803
19	0xbb33e200	-0.002744794
20	0xbd7161b0	-0.058931053
21	0x3dad5e0d	0.084652044
22	0xbd9f0496	-0.077645466
23	0xbbee3180	-0.0072690845
24	0x3d978c95	0.07399861
25	0xbd911e83	-0.07085898
26	0x3d34e9b2	0.04416818
27	0x3b7d8140	0.0038681775
28	0x3d43f82e	0.047844104
29	0x3d7f646a	0.06235162
30	0xbcf02f7c	-0.029319517
31	0xbd257029	-0.040390167
32	0x3da434d5	0.080178894
33	0x3d794f96	0.060866915
34	0xbda3e30c	-0.0800229
35	0x3cd802ac	0.026368462
36	0xbd34c3d4	-0.04413207
37	0x3d865ecd	0.065610506
38	0xbca63c1c	-0.020292334
39	0x3d15cf6a	0.03657476
40	0x3d8b3937	0.06798022
41	0x3da6bd67	0.081415944
42	0x3d2667ce	0.04062634
43	0x3d188d6e	0.037244253
44	0x3d760bf2	0.060069986
45	0x3da4c4cf	0.08045351
46	0xbd9d0afe	-0.07668112
47	0xbd62dc2c	-0.055385754
48	0x3d4ba8ca	0.049721517
49	0xbd61eef8	-0.05515954
50	0x3c317df0	0.0108332485
51	0x3d0c65ba	0.0342767
52	0x3c8d4ca4	0.01724846
53	0xbcaa16c4	-0.020762809
54	0xbbb48ee0	-0.005510196
55	0x3d199e7a	0.03750465
56	0x3b808880	0.003922522
57	0xbd6d4a26	-0.05793204
58	0xbd400681	-0.046881203
59	0x3d42619a	0.04745636
60	0x3d0ebda4	0.034848824
61	0x3d49425a	0.049135543
62	0xbd394dac	-0.04524009
63	0x3d98d6c9	0.07462842
64	0x3d09ea4e	0.033670716
65	0xbdaced79	-0.08443732
66	0xbd984a55	-0.07436053
67	0x3db2020d	0.086917974
68	0xbd980014	-0.0742189
69	0xbcac8c2c	-0.021062933
70	0x3d988ee1	0.07449127
71	0x3c189c18	0.009314559
72	0xbce7892e	-0.028263655
73	0xbc0cc320	-0.008591443
74	0x3d637c86	0.055538677
75	0xbc724110	-0.01478602
76	0x3d2d4276	0.04229971
77	0x3d63337e	0.05546903
78	0x3d7ec016	0.062194906
79	0x3da852a7	0.0821889
80	0x3d2ead56	0.042645775
81	0x3da4dd2d	0.080499984
82	0x3d17dc42	0.03707529
83	0xbdb4ab90	-0.088217854
84	0x3d8d521f	0.06900429
85	0xbc52ebb0	-0.012873575
86	0x3d993677	0.074810915
87	0xbd1612fd	-0.036639202
88	0x3d883379	0.06650443
89	0xbd61b461	-0.055103663
90	0xbd2c4df3	-0.042066526
91	0xbd861068	-0.06546098
92	0xbd765afc	-0.060145363
93	0xbdad7585	-0.08469681
94	0xbcaf8338	-0.021424875
95	0xbd801e20	-0.06255746
96	0xbc6d89f0	-0.014498219
97	0x3c0c7cc8	0.008574672
98	0x3bb6d550	0.005579628
99	0xbd0a8776	-0.033820592
100	0xbd1d201f	-0.03836071
101	0x3b8ced60	0.0043007582
102	0xbd47b484	-0.048756137
103	0xbd17ed37	-0.03709146
104	0xbd628bf2	-0.055309244
105	0xbda726f8	-0.081617296
106	0xbdaab594	-0.083354145
107	0x3c38eba8	0.011286654
108	0xbc2439e0	-0.010023564
109	0xbc3a86e8	-0.011384703
110	0xbdac17c0	-0.084029675
111	0xbd0385d7	-0.03211006
112	0xbd11f0bd	-0.035629977
113	0x3b31e760	0.0027145967
114	0x3d93a943	0.072100185
115	0xbcedd158	-0.029030487
116	0xbc2cafd8	-0.010539971
117	0xbda912ab	-0.08255514
118	0xbcec3366	-0.028833102
119	0x3d028c16	0.031871878
120	0xbd8b8800	-0.06813049
121	0xbdb2d6d2	-0.0873238
122	0x3d45b6e6	0.04827013
123	0xbca0abf0	-0.019613236
124	0x3d49421a	0.049135305
125	0xbd88e4e6	-0.06684284
126	0x3d476d3a	0.04868815
127	0xbc635248	-0.013874598
128	0xbcc0ca64	-0.023534007
129	0x3d28480e	0.04108434
130	0x3d44fcba	0.04809258
131	0x3d1e7642	0.038687
132	0xbd03661c	-0.0320798
133	0xbb86a3a0	-0.004108861
134	0xbdb2d286	-0.087315604
135	0x3d93ba87	0.07213312
136	0x3d4efc32	0.05053348
137	0x3d994f39	0.07485814
138	0x3cb112cc	0.021615408
139	0x3d2a710e	0.041611724
140	0xbd4ad3f7	-0.04951855
141	0xbd2cd9a0	-0.04219973
142	0x3d98c67f	0.07459735
143	0x3d8006a5	0.06251267
144	0xbbfe4660	-0.007759854
145	0xbd601716	-0.054709516
146	0xbc5dbda8	-0.013533987
147	0xbd76c258	-0.060243934
148	0xbccb19a8	-0.024792507
149	0x3d961465	0.07328109
150	0x3d67e1aa	0.056611694
151	0x3d99eee3	0.07516267
152	0x3c94c8dc	0.018162183
153	0xbd22fde0	-0.039792895
154	0x3d7e2b52	0.062053032
155	0xbc826de8	-0.015921548
156	0xbc407b90	-0.01174821
157	0x3d91b94d	0.071154214
158	0xbd4ae4d3	-0.04953463
159	0xbdb03248	-0.086033404
160	0xbc90d828	-0.017681196
161	0xbbdfa270	-0.006824784
162	0x3d910761	0.070814855
163	0xbd5326f1	-0.05155081
164	0x3a2eb800	0.00066649914
165	0x3daa8205	0.083255805
166	0xbcca12a8	-0.0246671
167	0x3d88b3bf	0.06674909
168	0xbda98f79	-0.08279318
169	0x3d90c53b	0.07068869
170	0x3a306c80	0.0006730035
171	0x3cd897f8	0.026439652
172	0x3c8e6c88	0.017385736
173	0xbd7357ad	-0.059409786
174	0x3d217bd2	0.039424725
175	0xbd2e7674	-0.042593434
176	0xbd3f2d7d	-0.04667424
177	0xbd2932ee	-0.041308336
178	0x3d7f1bfe	0.062282555
179	0x3d57d7ae	0.052695923
180	0x3d70664a	0.0586913
181	0x3da71b6b	0.081595264
182	0x3d70d562	0.058797248
183	0x3d79eede	0.061018817
184	0x3d7d141a	0.06178675
185	0x3da0d99b	0.07854005
186	0xbb2cd0a0	-0.0026369467
187	0xbd074a00	-0.033029556
188	0xbc88ce98	-0.016700074
189	0x3be2af00	0.0069178343
190	0xbd807964	-0.062731534
191	0xbcc0180c	-0.023448966
192	0x3d8e2f91	0.06942666
193	0xbbce8cd0	-0.0063034073
194	0xbd000b07	-0.031260516
195	0x3c5e46d0	0.013566688
196	0xbb4c38e0	-0.003116183
197	0x3c661cf0	0.014044985
198	0x3d11d6e6	0.035605334
199	0xbdab558a	-0.08365925
200	0xbd9f7a81	-0.07787038
201	0xbc083950	-0.008314446
202	0x3b564b80	0.003269881
203	0xbd183979	-0.037164185
204	0x3db0eb17	0.0863859
205	0xbcbc3be0	-0.02297777
206	0x3c8823a4	0.016618557
207	0x3d95fb0d	0.07323275
208	0x3d924fb9	0.07144112
209	0xbd9673f2	-0.073463336
210	0xbd398465	-0.045292277
211	0xbdb44936	-0.088030264
212	0xbd13946d	-0.03603022
213	0xbc1ccb20	-0.009569913
214	0xbda3bd43	-0.07995083
215	0x3b107180	0.0022040308
216	0x3d8db007	0.0691834
217	0x3bb37d10	0.005477555
218	0x3d5c4866	0.053779982
219	0x3cf81648	0.030284062
220	0x3d8e3137	0.06942981
221	0x3c2579d8	0.010099851
222	0x3d48966a	0.04897157
223	0xbd480c05	-0.048839588
224	0x3d9fe047	0.078064494
225	0xbcd3cebc	-0.025855415
226	0xbcc078dc	-0.02349513
227	0x3d1546fe	0.036444657
228	0x3d6815ce	0.05666142
229	0x3d196a1e	0.037454717
230	0xbd7dbb84	-0.061946407
231	0xbd02e2bb	-0.03195451
232	0xbc8e4e4c	-0.01737132
233	0xbd36d1a7	-0.044633534
234	0xbced84b0	-0.028993934
235	0x3c89643c	0.016771428
236	0x3a953cc0	0.0011385903
237	0xbca9d5fc	-0.020731919
238	0xbd145c9e	-0.03622114
239	0xbd75d99c	-0.06002198
240	0xbda39c11	-0.07988752
241	0x3d60deb2	0.05489988
242	0x3d334a66	0.043772124
243	0xba361400	-0.0006945729
244	0x3d955dc7	0.07293277
245	0x3cb172f4	0.02166126
246	0x3c99daa0	0.018781006
247	0xbd4b5ea0	-0.04965079
248	0xbcf059c2	-0.029339675
249	0xbdb4ed9d	-0.08834384
250	0x3c372a60	0.011179537
251	0x3c35fe60	0.011108011
252	0xbc380178	-0.011230819
253	0x3d9fa3bf	0.07794904
254	0xbdaa5c8a	-0.08318432
255	0x3c079f10	0.00827767

fc2.bias f4 [128]
0	0xbce96afc	-0.028493397
1	0xbd694474	-0.056950048
2	0xb7286000	-1.0035932e-05
3	0xbd1ddb6c	-0.038539335
4	0x3d5e4832	0.05426807
5	0xbc369428	-0.011143722
6	0xbd0f62a2	-0.035006173
7	0x3d5def92	0.05418355
8	0x3c703d90	0.014663115
9	0xbca5cb8c	-0.02023866
10	0xbd0ce312	-0.03439624
11	0xbc11a8e8	-0.008890368
12	0xbc2dc160	-0.010605186
13	0xbc1ae748	-0.009454556
14	0xbd1affc4	-0.037841573
15	0xbd598b5e	-0.053111427
16	0x3cc23770	0.023708075
17	0xbd099c30	-0.033596218
18	0x3d476b8c	0.04868655
19	0xbcb0d38c	-0.021585248
20	0x3d3b2f86	0.04569962
21	0x3ca870d0	0.020561606
22	0xbcf619a4	-0.030041523
23	0xbb52c200	-0.003215909
24	0xbc18b800	-0.009321213
25	0xbd74b2c6	-0.059740804
26	0xbd156ec6	-0.036482595
27	0x3d0ae7d8	0.03391251
28	0xbd482e40	-0.048872232
29	0x3c94ac48	0.018148556
30	0x3d5da73e	0.054114573
31	0x3cdc3c10	0.026884109
32	0x3cc6b448	0.024255887
33	0x39e61400	0.0004388392
34	0xbd4bc1c4	-0.049745336
35	0x3ce4ed04	0.02794505
36	0x3bb53500	0.0055299997
37	0x3d06845e	0.03284108
38	0xbd4066ca	-0.046973027
39	0xbc08d430	-0.008351371
40	0x3d70eca2	0.05881942
41	0xbcdd8494	-0.027040757
42	0x3c9ebf8c	0.019378446
43	0x3c2781e0	0.010223836
44	0xbc98b52c	-0.018641077
45	0xbd54c066	-0.051941298
46	0x3c01a580	0.007912993
47	0xbd0da7a0	-0.034583688
48	0x3b6569a0	0.0035005584
49	0x3c68c9c8	0.014208265
50	0x3d54ef8c	0.051986262
51	0x3b922660	0.004460141
52	0xbc838bc0	-0.016057849
53	0x3cd278b0	0.025692314
54	0xbaceb680	-0.0015770942
55	0x3d57b5de	0.052663676
56	0xbcca3620	-0.024684012
57	0x3d15daae	0.036585502
58	0xbc332410	-0.010933891
59	0xbd7385bc	-0.05945371
60	0xbd149f06	-0.03628447
61	0x3d0a07ce	0.03369885
62	0x3cd9fafc	0.026608936
63	0x3d786608	0.06064418
64	0xbcf63b6c	-0.030057631
65	0x3b28db80	0.0025765598
66	0xbd412870	-0.047157705
67	0xbcb56f08	-0.02214767
68	0x3cf1ef20	0.029532969
69	0x3d0a1e26	0.033720158
70	0xbbf35440	-0.007425815
71	0x3c09e8f0	0.008417353
72	0xbcaaa79c	-0.020831876
73	0x3afb8bc0	0.0019191429
74	0xbd7a56d4	-0.061117962
75	0x3cb95930	0.022625536
76	0x3d2d1d9a	0.04226456
77	0x3d722e9a	0.059126474
78	0x3d09fddc	0.033689365
79	0x3d08fad2	0.033442326
80	0xbbde8b10	-0.00679148
81	0x3d6da0a8	0.058014542
82	0xbd41f9a8	-0.04735723
83	0xbd513b1c	-0.05108176
84	0x3cc1f154	0.023674645
85	0xbd4f3c4c	-0.050594613
86	0x3d0527dc	0.032508716
87	0xbcc3e5e0	-0.023913324
88	0xbceacbe0	-0.028661668
89	0x3c50c438	0.012742095
90	0x3d68e450	0.05685836
91	0xbc980274	-0.018555857
92	0xbd33532a	-0.043780483
93	0x3d004480	0.031315327
94	0x3c953f78	0.01821874
95	0xbd66bb16	-0.056330763
96	0xbc35ce38	-0.01109653
97	0xbd500c06	-0.050792716
98	0xbc319658	-0.010839067
99	0x3d051660	0.03249204
100	0xbd7c80a6	-0.061646126
101	0xbccd4e48	-0.025061741
102	0xbd0ae1a8	-0.03390661
103	0x3ac30a80	0.0014880449
104	0x3c809520	0.015696108
105	0x3d7651d0	0.060136616
106	0xbd60ff6c	-0.05493109
107	0xbd2ef550	-0.042714417
108	0xbc464d10	-0.012103334
109	0xbcedca0c	-0.029027008
110	0x3d17c2e2	0.03705109
111	0x3d3b75aa	0.04576651
112	0x3c3c2fe0	0.011486024
113	0xbc739438	-0.014866881
114	0x3d7ba782	0.061439045
115	0xbcb6284c	-0.022236012
116	0xbc7394b8	-0.014867
117	0xbcf83788	-0.030299917
118	0x3c7a0f68	0.015262462
119	0x3b89b540	0.004202515
120	0x3ce58428	0.028017119
121	0x3d7b296c	0.0613188
122	0xbb39e3a0	-0.0028364435
123	0xbc89a2f0	-0.016801327
124	0x3d41b2fe	0.04728984
125	0xbd0be082	-0.034149654
126	0xbc49d010	-0.012317672
127	0x3d63bd6c	0.05560057

fc3.weight f4 [1, 128]
0	0xbb449ba6	-0.003
1	0xbb449ba6	-0.003
2	0xbb449ba6	-0.003
3	0xbb449ba6	-0.003
4	0xbb449ba6	-0.003
5	0xbb449ba6	-0.003
6	0xbb449ba6	-0.003
7	0xbb449ba6	-0.003
8	0xbb449ba6	-0.003
9	0xbb449ba6	-0.003
10	0xbb449ba6	-0.003
11	0xbb449ba6	-0.003
12	0xbb449ba6	-0.003
13	0xbb449ba6	-0.003
14	0xbb449ba6	-0.003
15	0xbb449ba6	-0.003
16	0xbb449ba6	-0.003
17	0xbb449ba6	-0.003
18	0xbb449ba6	-0.003
19	0xbb449ba6	-0.003
20	0xbb449ba6	-0.003
21	0xbb449ba6	-0.003
22	0xbb449ba6	-0.003
23	0xbb449ba6	-0.003
24	0xbb449ba6	-0.003
25	0xbb449ba6	-0.003
26	0xbb449ba6	-0.003
27	0xbb449ba6	-0.003
28	0xbb449ba6	-0.003
29	0xbb449ba6	-0.003
30	0xbb449ba6	-0.003
31	0xbb449ba6	-0.003
32	0xbb449ba6	-0.003
33	0xbb449ba6	-0.003
34	0xbb449ba6	-0.003
35	0xbb449ba6	-0.003
36	0xbb449ba6	-0.003
37	0xbb449ba6	-0.003
38	0xbb449ba6	-0.003
39	0xbb449ba6	-0.003
40	0xbb449ba6	-0.003
41	0xbb449ba6	-0.003
42	0xbb449ba6	-0.003
43	0xbb449ba6	-0.003
44	0xbb449ba6	-0.003
45	0xbb449ba6	-0.003
46	0xbb449ba6	-0.003
47	0xbb449ba6	-0.003
48	0xbb449ba6	-0.003
49	0xbb449ba6	-0.003
50	0xbb449ba6	-0.003
51	0xbb449ba6	-0.003
52	0xbb449ba6	-0.003
53	0xbb449ba6	-0.003
54	0xbb449ba6	-0.003
55	0xbb449ba6	-0.003
56	0xbb449ba6	-0.003
57	0xbb449ba6	-0.003
58	0xbb449ba6	-0.003
59	0xbb449ba6	-0.003
60	0xbb449ba6	-0.003
61	0xbb449ba6	-0.003
62	0xbb449ba6	-0.003
63	0xbb449ba6	-0.003
64	0xbb449ba6	-0.003
65	0xbb449ba6	-0.003
66	0xbb449ba6	-0.003
67	0xbb449ba6	-0.003
68	0xbb449ba6	-0.003
69	0xbb449ba6	-0.003
70	0xbb449ba6	-0.003
71	0xbb449ba6	-0.003
72	0xbb449ba6	-0.003
73	0xbb449ba6	-0.003
74	0xbb449ba6	-0.003
75	0xbb449ba6	-0.003
76	0xbb449ba6	-0.003
77	0xbb449ba6	-0.003
78	0xbb449ba6	-0.003
79	0xbb449ba6	-0.003
80	0xbb449ba6	-0.003
81	0xbb449ba6	-0.003
82	0xbb449ba6	-0.003
83	0xbb449ba6	-0.003
84	0xbb449ba6	-0.003
85	0xbb449ba6	-0.003
86	0xbb449ba6	-0.003
87	0xbb449ba6	-0.003
88	0xbb449ba6	-0.003
89	0xbb449ba6	-0.003
90	0xbb449ba6	-0.003
91	0xbb449ba6	-0.003
92	0xbb449ba6	-0.003
93	0xbb449ba6	-0.003
94	0xbb449ba6	-0.003
95	0xbb449ba6	-0.003
96	0xbb449ba6	-0.003
97	0xbb449ba6	-0.003
98	0xbb449ba6	-0.003
99	0xbb449ba6	-0.003
100	0xbb449ba6	-0.003
101	0xbb449ba6	-0.003
102	0xbb449ba6	-0.003
103	0xbb449ba6	-0.003
104	0xbb449ba6	-0.003
105	0xbb449ba6	-0.003
106	0xbb449ba6	-0.003
107	0xbb449ba6	-0.003
108	0xbb449ba6	-0.003
109	0xbb449ba6	-0.003
110	0xbb449ba6	-0.003
111	0xbb449ba6	-0.003
112	0xbb449ba6	-0.003
113	0xbb449ba6	-0.003
114	0xbb449ba6	-0.003
115	0xbb449ba6	-0.003
116	0xbb449ba6	-0.003
117	0xbb449ba6	-0.003
118	0xbb449ba6	-0.003
119	0xbb449ba6	-0.003
120	0xbb449ba6	-0.003
121	0xbb449ba6	-0.003
122	0xbb449ba6	-0.003
123	0xbb449ba6	-0.003
124	0xbb449ba6	-0.003
125	0xbb449ba6	-0.003
126	0xbb449ba6	-0.003
127	0xbb449ba6	-0.003
