models/checkpoint_actor_local_17.pth (torch, 147743 bytes, 5 tensors)

fc1.weight f4 [256, 12]
0	0x3c445f98	0.011985682
1	0xbd585d80	-0.052823544
2	0x3d3aa9ba	0.04557202
3	0x3cff97e8	0.031200364
4	0x3bbb1b70	0.005710058
5	0x3d05fa2c	0.032709286
6	0x3d42cb1c	0.04755698
7	0xbd21be16	-0.03948792
8	0xbcadc830	-0.02121362
9	0xbd2d6ef2	-0.042342134
10	0xbb81d4f0	-0.0039621517
11	0xba262100	-0.0006337315
12	0xb9d38900	-0.0004034713
13	0xbc3fec60	-0.011714071
14	0x3d7f084a	0.062263764
15	0x3d3c6368	0.04599324
16	0xbcf45d28	-0.029829577
17	0xbd27bd60	-0.040952086
18	0x3d3f0d36	0.04664346
19	0x3d420438	0.047367305
20	0x3d466828	0.048439175
21	0x3d7da0fa	0.061921097
22	0x3d6a96e4	0.057272807
23	0x3d24b1e8	0.040208727
24	0xbaeb0680	-0.0017931014
25	0x3ae42580	0.0017406195
26	0xbd5a805e	-0.053345077
27	0x3c1f6630	0.009728953
28	0xbd4987ea	-0.049201883
29	0x3d14ce82	0.036329754
30	0x3cfba8b8	0.0307201
31	0xb9437800	-0.00018641353
32	0xbd2c6aee	-0.042094164
33	0x3b1f8040	0.0024337918
34	0x3b76ab60	0.0037638769
35	0x3c6d0e10	0.014468685
36	0x3c950574	0.018191077
37	0xbd27bba8	-0.040950447
38	0xbce54c30	-0.02799043
39	0xbb70f720	-0.0036768392
40	0x3cb2bc94	0.021818437
41	0x3d55a918	0.052163213
42	0xbad06d00	-0.0015901625
43	0x3d1e4306	0.038638137
44	0xbd78a690	-0.06070572
45	0xbcae1944	-0.021252282
46	0x3b896270	0.004192643
47	0xbd54cf3e	-0.051955454
48	0xbcca7ed0	-0.024718672
49	0x3cff9578	0.031199202
50	0xbd74cd5c	-0.05976616
51	0xbd2999fc	-0.041406617
52	0x3c685438	0.014180236
53	0x3d5c6564	0.05380763
54	0x3cabd858	0.020977184
55	0xbd77f096	-0.060532175
56	0x3d51cae6	0.05121889
57	0x3c66fca0	0.014098316
58	0xbc85c184	-0.016327627
59	0x3bfe4260	0.0077593774
60	0xbd36928a	-0.044573344
61	0xbcf10de4	-0.029425569
62	0x3cae5b94	0.021283902
63	0x3b06ec00	0.0020587444
64	0xbd587ee0	-0.052855372
65	0xbd7401e6	-0.059572123
66	0xbd732420	-0.059360623
67	0x3cf5e968	0.030018523
68	0xbc9e93c4	-0.01935757
69	0x3c9d45e0	0.019198358
70	0xbd489048	-0.048965722
71	0xbd42c050	-0.047546685
72	0xbc097b40	-0.0083912015
73	0x3bb6cc10	0.0055785254
74	0x3d5a0caa	0.053234734
75	0xbd2b0f6c	-0.041762754
76	0xbd52eb4c	-0.051493928
77	0xbc832350	-0.01600805
78	0xbc6db1c8	-0.014507718
79	0x3c6fe8d0	0.014642909
80	0x3af3e800	0.001860857
81	0x3d443642	0.047903307
82	0x3d4c1438	0.04982397
83	0xbbbac970	-0.0057002828
84	0xbd3889cc	-0.04505329
85	0x3a6ba800	0.00089895725
86	0xbd3047b8	-0.043037146
87	0x3ca92f00	0.020652294
88	0x3cea0d84	0.028570898
89	0x3d5b19b2	0.0534913
90	0x3c95a0c8	0.018265143
91	0x3c9e7d18	0.019346759
92	0x3d14518e	0.03621059
93	0xbd4b8f0c	-0.049696967
94	0x3d4e7136	0.050400935
95	0xbcbf2690	-0.023333818
96	0xbc4eec70	-0.012629613
97	0xb994a700	-0.00028353184
98	0x3c90dbe4	0.017682977
99	0xbd4e2462	-0.050327666
100	0x3d38a694	0.045080736
101	0x3b869cc0	0.0041080415
102	0x3cd49a94	0.025952615
103	0x3ce6759c	0.028132252
104	0xbd130afe	-0.035899155
105	0xbd6ec044	-0.058288828
106	0x3cba19fc	0.022717468
107	0x3b9b58b0	0.004740797
108	0x3d412550	0.047154725
109	0x3d1dd0d6	0.03852924
110	0xbd0c4d74	-0.034253553
111	0x3d5f134c	0.054461762
112	0xbd67aba6	-0.05656018
113	0xbcc89c80	-0.024488688
114	0x3cc7eec4	0.024405845
115	0xbc518f70	-0.012790546
116	0xbd5404e0	-0.05176246
117	0xbd50371c	-0.050833806
118	0xbd4802ca	-0.048830785
119	0x3d70ab64	0.0587572
120	0x3bd1f010	0.0064067915
121	0x3d144d1c	0.03620635
122	0xbc0848d0	-0.008318141
123	0x3c1eb530	0.009686753
124	0xbd4ffeba	-0.050780036
125	0xbccb7834	-0.02483759
126	0x3cca4904	0.02469302
127	0xbd72df0e	-0.059294753
128	0x3ca9a604	0.020709045
129	0xbd628dd0	-0.055311024
130	0x3d1d9872	0.03847546
131	0x3c2feee8	0.010738112
132	0xbcc776e4	-0.024348684
133	0xbc1a4930	-0.009416863
134	0xbd52b0fc	-0.051438317
135	0xbd7368ae	-0.059426002
136	0xbd21d418	-0.03950891
137	0xbc8d71b0	-0.017266124
138	0xbd04de18	-0.032438368
139	0x3d095216	0.03352555
140	0xbb999ec0	-0.004688114
141	0x3c90e800	0.017688751
142	0x3b9aabf0	0.0047202036
143	0x3b0c0180	0.0021363199
144	0x3d749d8c	0.05972056
145	0x3cc89564	0.024485298
146	0x3d3d3f20	0.04620278
147	0x3d59bf16	0.05316075
148	0x3c3bd0d0	0.011463359
149	0xbc821b1c	-0.015882067
150	0xbd132ba2	-0.035930283
151	0x3c4a8988	0.012361892
152	0xbccd1ab4	-0.025037147
153	0x3d1869a6	0.03721013
154	0x3c513500	0.012768984
155	0x3bd767b0	0.00657364
156	0x3c9cc9fc	0.019139282
157	0xbc6b4280	-0.014359117
158	0xbd38a486	-0.045078777
159	0x3c557a58	0.013029657
160	0xbd5763cc	-0.052585408
161	0xbd6306b8	-0.05542633
162	0x3d0adb88	0.033900768
163	0xbd1f10e0	-0.038834453
164	0x3d279602	0.040914543
165	0x3cd11fbc	0.025527827
166	0xbcf2f53c	-0.029657952
167	0xbc956ab8	-0.018239364
168	0x3cca4d50	0.024695069
169	0xbd3c38f2	-0.045952745
170	0xbd2a54b0	-0.04158467
171	0x3cd7b2ac	0.026330315
172	0x3d76c4cc	0.060246274
173	0x3cb644a8	0.022249535
174	0xbb87cd70	-0.004144363
175	0x3c152278	0.009102456
176	0x3d5724b2	0.05252523
177	0x3c304e80	0.010760903
178	0x3cc8466c	0.024447642
179	0xbc983e38	-0.018584356
180	0xbd109978	-0.03530261
181	0x3d02dc22	0.031948216
182	0xbd253a6e	-0.040338926
183	0x3d7db272	0.061937757
184	0x3d1848a6	0.037178658
185	0xbd2cc608	-0.042181045
186	0x3d4ceb24	0.050028935
187	0x3d48c1ec	0.049013063
188	0x3d3d7eac	0.04626338
189	0xbd6d0f70	-0.05787605
190	0x3bb762b0	0.0055964813
191	0x3d696c20	0.05698788
192	0x3d682cc6	0.056683324
193	0x3d68220a	0.056673087
194	0x3cd0bd78	0.02548097
195	0xbd720882	-0.059090145
196	0xbd46fb42	-0.048579462
197	0x3d765536	0.060139857
198	0xbce4bbd8	-0.027921602
199	0x3d23ae70	0.03996128
200	0xbc000b10	-0.0078151375
201	0x3cf852b4	0.030312873
202	0xbd36aec6	-0.04460027
203	0xbc64ae78	-0.013957612
204	0x3c9adac8	0.018903151
205	0x3d391438	0.045185298
206	0xbc10b430	-0.008832023
207	0x3d579c20	0.052639127
208	0xbd1ba5a0	-0.03799975
209	0xbc694bd8	-0.014239274
210	0xbc017878	-0.007902257
211	0x3d747b54	0.059687927
212	0x3ced8d24	0.028997965
213	0xbd4c4286	-0.04986813
214	0xbd54d212	-0.05195815
215	0xbd58b2de	-0.052904956
216	0xbd466a7e	-0.048441403
217	0xbb6b5fa0	-0.0035915151
218	0xbd2655ea	-0.040609278
219	0x3ceebd48	0.02914299
220	0xbd6bffae	-0.057616882
221	0x3d03c91e	0.032174222
222	0xbd275690	-0.040854037
223	0x3ce1b3a0	0.027551472
224	0xbc660b60	-0.014040798
225	0xbca8a5d8	-0.020586893
226	0xbd21d9f6	-0.039514504
227	0xbd33357a	-0.04375217
228	0xbd78f0d6	-0.060776554
229	0x3d787c42	0.060665376
230	0xbc8a7ad8	-0.01690428
231	0xbbc97630	-0.0061481223
232	0x3cffb1bc	0.03121268
233	0x3bee3d70	0.0072705075
234	0xbc2a6940	-0.01040107
235	0xbcddd8b0	-0.027080864
236	0xbc3dcd18	-0.011584543
237	0xbd73a87c	-0.05948685
238	0xbc611a38	-0.013739161
239	0xbd49a172	-0.049226232
240	0xbcd47ac0	-0.025937438
241	0xbd642bee	-0.055705957
242	0x3d20851a	0.039189436
243	0x3d760348	0.060061723
244	0x3c80b76c	0.015712462
245	0xbcf5ff98	-0.030029103
246	0xbd3855da	-0.04500375
247	0xbd21c1e0	-0.039491534
248	0x3c9d4258	0.019196674
249	0x3c31d5c0	0.010854185
250	0xbcffde30	-0.031233877
251	0x3c9d2908	0.019184604
252	0xbd22cc3a	-0.039745547
253	0xbd68ae3e	-0.056806795
254	0x3d0ba70e	0.034094863
255	0x3d4ecef8	0.05049035

fc1.bias f4 [256]
0	0xbd0b3c90	-0.033993304
1	0x3e3ed588	0.18636143
2	0x3e91c2e0	0.2846899
3	0xbdc6ebf4	-0.09712973
4	0xbceb7b50	-0.028745323
5	0x3e85ff36	0.26171273
6	0xbc6afd00	-0.014342546
7	0x3e54d10e	0.20782873
8	0xbda03238	-0.078220785
9	0x3de162c8	0.11005169
10	0xbe2a5ab8	-0.16636169
11	0xbe834aac	-0.25642908
12	0x3dd0b5c8	0.10190922
13	0x3e30e6e8	0.17275584
14	0x3e65b570	0.22432494
15	0x3e546720	0.20742464
16	0xbe75cb14	-0.2400325
17	0x3e7c0fbc	0.24615377
18	0xbe7a9746	-0.24471769
19	0xbe42fc22	-0.19041494
20	0x3e904796	0.28179616
21	0xbd907b42	-0.070547596
22	0x3ddfe070	0.1093148
23	0xbdc2c26a	-0.09509738
24	0x3e4ecfe2	0.20196488
25	0x3e50df5a	0.20397702
26	0xbe6d6282	-0.23182109
27	0x3d076ae0	0.03306091
28	0x3e04ab02	0.1295586
29	0x3e2e5d7a	0.17027846
30	0xbdd91fc0	-0.10601759
31	0x3dbe98a4	0.09306458
32	0x3e09cfba	0.13458148
33	0xbd9b4e66	-0.07583313
34	0xbd62a118	-0.055329412
35	0xbd97403a	-0.07385297
36	0xbd626204	-0.055269256
37	0x3e3fbfd8	0.18725526
38	0xbe28deec	-0.16491288
39	0xbe1aa86d	-0.15103312
40	0xbdc337fa	-0.09532161
41	0xbd884a52	-0.066548005
42	0x3e4dcbac	0.20097226
43	0x3e68fbb4	0.22752267
44	0x3e1345e2	0.14382127
45	0x3dd3983c	0.10331771
46	0xbdf35224	-0.118809015
47	0xbe46477d	-0.19363208
48	0x3e19224c	0.1495449
49	0xbd1c98c8	-0.03823164
50	0xbb6d5300	-0.0036212802
51	0x3e750fdc	0.23931831
52	0xbdc8b192	-0.09799494
53	0xbdc43902	-0.09581186
54	0xbd167630	-0.036733806
55	0xbe181c25	-0.14854486
56	0xbe6b9e66	-0.23009643
57	0x3e18f3d2	0.1493676
58	0x3e600794	0.21877891
59	0xbda07ec0	-0.07836676
60	0xbe65c650	-0.22438931
61	0xbe472bf0	-0.19450355
62	0xbe2919dc	-0.16513771
63	0x3e82ed98	0.25571895
64	0xbe21e3f4	-0.15809613
65	0x3e081f8a	0.13293281
66	0xbe4bbd00	-0.19896317
67	0xbe65b15e	-0.22430941
68	0x3db6dfb0	0.08929384
69	0x3e8a5c36	0.27023476
70	0xbdeb06f4	-0.114759356
71	0xbda9bb8a	-0.08287723
72	0x3e366052	0.17810181
73	0x3e402260	0.18763113
74	0xbe0e21a7	-0.13880025
75	0x3e903774	0.28167307
76	0xbe657d80	-0.22411156
77	0xbcf71940	-0.030163407
78	0xbe2aa990	-0.16666245
79	0xbdb8374a	-0.089949206
80	0x3c9208e0	0.017826498
81	0xbe7b2bbc	-0.24528402
82	0x3dd0baf8	0.101919115
83	0x3b3c8280	0.0028764307
84	0x3e58a6d8	0.21157396
85	0x3dd94f80	0.106108665
86	0xbe4b7ce4	-0.1987186
87	0xbe0c8416	-0.13722262
88	0xbbf4e180	-0.0074731708
89	0x3dfb0a84	0.12257865
90	0x3e587170	0.21137023
91	0x3d85384c	0.065048784
92	0x3d2110a8	0.039322525
93	0x3d8dd484	0.069253
94	0xbe1c8bd7	-0.1528772
95	0xbe610814	-0.21975738
96	0x3e0c0cca	0.13676754
97	0x3e829ae0	0.25508785
98	0x3e001332	0.12507322
99	0x3e279728	0.16366255
100	0xbe87ae40	-0.2650013
101	0x3e06f96e	0.13181087
102	0x3e34e232	0.17664412
103	0x3d21fd98	0.039548486
104	0x3de14fd4	0.11001554
105	0x3e56bedc	0.20971245
106	0xbd67eb3c	-0.05662082
107	0xbd0f3be0	-0.03496921
108	0x3dee1478	0.11624998
109	0x3e93af38	0.2884462
110	0xbd5584e4	-0.052128688
111	0xbe8c89c2	-0.2744885
112	0x3df83c4c	0.12120876
113	0xbc6e2d60	-0.014537185
114	0xbe12a92d	-0.14322348
115	0xbe2eebe6	-0.17082176
116	0x3e5edcbc	0.21763891
117	0xbda7205c	-0.08160469
118	0x3d8a7dcc	0.06762275
119	0x3e5c9a0c	0.21543139
120	0x3e033466	0.12812957
121	0xbd3432a4	-0.043993607
122	0xbe677a2a	-0.22605196
123	0x3e8eddb4	0.2790352
124	0x3e74b6b4	0.2389782
125	0x3dbf8088	0.09350687
126	0xbdd7b662	-0.10532834
127	0xbd3e14ec	-0.04640667
128	0x3e7af2fc	0.24506754
129	0xbdae8ed2	-0.085233346
130	0x3e1723e4	0.14759785
131	0x3e116894	0.1420005
132	0xbc45ede0	-0.01208064
133	0x3d462da8	0.048383385
134	0xbe7520a4	-0.23938233
135	0x3e681de0	0.22667646
136	0xbe47352b	-0.19453876
137	0xbe81e0e5	-0.25366893
138	0xbdb42b86	-0.08797364
139	0x3d2d1478	0.04225585
140	0x3e912f06	0.2835619
141	0x3d550c98	0.052013963
142	0xbd3f0420	-0.046634793
143	0xbe36a8b8	-0.17837799
144	0xbe8fc45a	-0.28079492
145	0x3d9a11ac	0.07522902
146	0x3e11ac98	0.14225996
147	0xbe454df2	-0.19268015
148	0xbcb14c90	-0.021642953
149	0xbcda8280	-0.026673555
150	0xbd091278	-0.03346488
151	0xbde028ae	-0.10945259
152	0x3d006418	0.031345457
153	0x3e39cdae	0.18144867
154	0x3d6498e0	0.055809855
155	0xbd874d08	-0.066064894
156	0x3e884bec	0.26620424
157	0xbc28b480	-0.010296941
158	0x3e243072	0.16034105
159	0x3e621328	0.2207762
160	0xbe611b4a	-0.21983066
161	0xbe79a3fc	-0.24378961
162	0xbe8480a0	-0.25879383
163	0x3db93ba8	0.09044582
164	0x3e05ce56	0.13066992
165	0xbcca2680	-0.024676561
166	0xbdebf688	-0.115216315
167	0x3e4803ce	0.19532701
168	0xbd74698c	-0.05967097
169	0x3e025d4c	0.12730902
170	0x3db2b8f8	0.08726686
171	0xbcb4d750	-0.022075325
172	0xbda18654	-0.07886949
173	0xbe49b42b	-0.19697635
174	0xbe93b0b0	-0.2884574
175	0xbe2786cc	-0.16360015
176	0x3e2a903c	0.16656584
177	0x3e1b9f40	0.15197468
178	0x3deb25bc	0.11481807
179	0x3c45f7a0	0.012082964
180	0x3e1e9a62	0.1548858
181	0x3e19255e	0.1495566
182	0x3a6d1400	0.0009043813
183	0xbdf8c692	-0.12147249
184	0x3e2534c4	0.1613341
185	0x3e7bc4fc	0.24586862
186	0xbe346760	-0.1761756
187	0x3e179554	0.14803058
188	0xbe8b6c20	-0.2723093
189	0xbb9cef00	-0.004789233
190	0xbe892785	-0.26787964
191	0x3e93abbc	0.2884196
192	0xbe183c30	-0.1486671
193	0x3e72d94c	0.23715705
194	0xbe6f2698	-0.23354566
195	0xbe54a40a	-0.20765701
196	0x3e6b13a4	0.22956711
197	0xbcc77240	-0.02434647
198	0x3e81cbc8	0.25350785
199	0x3e5f49e4	0.21805531
200	0xbd361db0	-0.044461906
201	0xbe83a11a	-0.25708848
202	0xbe39bcca	-0.18138424
203	0xbe33784c	-0.17526358
204	0xbd11c660	-0.035589576
205	0xbdb6e3e4	-0.089301854
206	0x3e111a96	0.14170298
207	0xbe0ec452	-0.13942078
208	0xbe5b5926	-0.21420726
209	0x3dbda6dc	0.092603415
210	0x3e7f5e04	0.24938208
211	0xbdc6f5b6	-0.097148344
212	0xbe3fc2d2	-0.18726662
213	0x3e5b39f0	0.2140882
214	0x3e889826	0.2667858
215	0xbd64b2ec	-0.055834696
216	0x3dbf4cc0	0.09340811
217	0xbdb11ddc	-0.08648273
218	0x3e04f666	0.12984619
219	0xbdf544c0	-0.11976004
220	0xbdd372dc	-0.10324642
221	0xbce1a930	-0.027546495
222	0xbe206b36	-0.15665898
223	0xbe12843c	-0.14308256
224	0x3e4da4da	0.20082417
225	0x3d061d60	0.032742858
226	0x3e392140	0.1807909
227	0xbdd7c900	-0.105363846
228	0xbe5f4b34	-0.21806031
229	0xbd77d3f8	-0.060504884
230	0x3e253b8a	0.16135994
231	0xbe85c27f	-0.2612495
232	0x3e0f6a1c	0.14005321
233	0xbe338acf	-0.1753342
234	0xbd1739c8	-0.03692034
235	0xbd9e403c	-0.077270955
236	0xbe6da8e2	-0.23208955
237	0x3e6be028	0.23034728
238	0xbdf3a030	-0.11895788
239	0xbd849d7e	-0.06475352
240	0xbe018d05	-0.12651451
241	0xbe6237d4	-0.22091609
242	0x3c82fbb0	0.015989155
243	0x3e7ed334	0.24885255
244	0xbe8b3418	-0.27188182
245	0xbc083de0	-0.008315533
246	0xbbe93080	-0.0071163774
247	0xbd3298d8	-0.043602794
248	0x3d2565f0	0.04038042
249	0x3c68b760	0.014203876
250	0xbe5c4d00	-0.21513748
251	0xbe92ea78	-0.2869451
252	0xbe2b15d2	-0.16707543
253	0x3e2ddeda	0.16979542
254	0x3d5b2a08	0.05350688
255	0x3d967c8c	0.07347974

fc2.weight f4 [128, 256]
0	0x3d40df1a	0.047087766
1	0xbc4b0500	-0.012391329
2	0x3d0daefc	0.034590706
3	0x3d8b8b43	0.068136714
4	0xbd59920d	-0.0531178
5	0xbd6f23d3	-0.058383774
6	0xbc9f104c	-0.01941695
7	0xbd06ad1a	-0.032879926
8	0x3d8bd8c5	0.06828455
9	0xbd9643e0	-0.07337165
10	0xbd624353	-0.055239987
11	0x3d7e7efa	0.062132813
12	0x3d5e0d6a	0.05421201
13	0xbd50e200	-0.05099678
14	0xbba197e0	-0.004931435
15	0xbd928a6f	-0.0715531
16	0x3d8d358b	0.06894978
17	0x3d3cda96	0.046106897
18	0xbd1cd96f	-0.0382933
19	0x3cf4779c	0.02984219
20	0xbda2bab3	-0.07945766
21	0x3c913a1c	0.017727904
22	0x3d50948e	0.050922923
23	0x3cf67bf8	0.03008841
24	0x3cc4d61c	0.024027877
25	0xbda98863	-0.08277967
26	0x3d49ee6e	0.04929965
27	0xbc392e08	-0.011302479
28	0x3da94bcb	0.082664095
29	0xbd5e4c8f	-0.05427223
30	0xbda7d8da	-0.08195658
31	0x3db4b4e5	0.088235654
32	0xbd85da9a	-0.065358356
33	0xbdb162b8	-0.08661407
34	0xbc028450	-0.007966116
35	0xbd0d9114	-0.034562185
36	0xbdb473ca	-0.088111475
37	0xbc4510f0	-0.012027964
38	0xbd17cca2	-0.037060387
39	0xbc2a2ec8	-0.01038713
40	0xbd1cb778	-0.038260907
41	0x3d7f284e	0.062294297
42	0xbd111742	-0.03542257
43	0x3d845691	0.06461824
44	0x3cd4f990	0.025997907
45	0x3ccf8834	0.025333501
46	0x3a84cfc0	0.0010132715
47	0x3d07b858	0.03313479
48	0x3d949e25	0.07256726
49	0xbd25b232	-0.040453143
50	0xbdb30648	-0.087414324
51	0x3d248f8a	0.040175952
52	0x3da46297	0.08026617
53	0xbd0d4869	-0.034492884
54	0x3c442a80	0.011973023
55	0x3d663aca	0.05620841
56	0x3d8ee9f5	0.069782175
57	0xbd273f34	-0.04083176
58	0xbc7dc600	-0.015489101
59	0x3d8552d5	0.065099396
60	0xba9443c0	-0.0011311695
61	0x3d95246d	0.07282338
62	0x3d2e65aa	0.042577423
63	0x3dade029	0.08490021
64	0x3d1405ca	0.036138333
65	0xbda61457	-0.08109348
66	0xbd1f4301	-0.03888226
67	0x3db08def	0.08620822
68	0x3d8848b7	0.06654494
69	0xbc891258	-0.01673238
70	0xb9a7d100	-0.0003200844
71	0x3d930315	0.07178322
72	0xbd956221	-0.07294107
73	0xbd50fd0f	-0.051022585
74	0x3d296e5e	0.04136502
75	0xbb96d2f0	-0.0046027824
76	0x3d1b7b92	0.037959643
77	0x3d4a6d5a	0.049420692
78	0xbb5e3c00	-0.0033910275
79	0xbda3ba65	-0.07994536
80	0x3d8fc4f3	0.07019987
81	0x3cbbdde4	0.022932954
82	0x3c9da1e4	0.019242235
83	0xbcd848e4	-0.026401944
84	0x3ce02748	0.02736248
85	0xbcb1e4cc	-0.021715544
86	0xbd2b7385	-0.041858215
87	0xbd2cfe0e	-0.042234473
88	0x3d857f49	0.06518418
89	0xbda5b951	-0.08091987
90	0xbd9e1a85	-0.07719902
91	0x3d284d32	0.041089244
92	0xbd9545f2	-0.07288732
93	0x3d0176ce	0.03160744
94	0xbd957589	-0.07297809
95	0xbd50b546	-0.050954126
96	0xbd8862b8	-0.06659454
97	0x3d934ead	0.071927406
98	0x3c3e04c8	0.01159782
99	0x3d9ea385	0.077460326
100	0x3cc5b86c	0.02413579
101	0xbd4f645c	-0.05063282
102	0xbd25d4c7	-0.040486123
103	0x3d604c86	0.05476048
104	0x3c305028	0.010761298
105	0xbc189950	-0.009313896
106	0xbda539b4	-0.080676466
107	0x3d83b389	0.06430728
108	0x3db091fd	0.08621595
109	0x3d509f56	0.050933205
110	0x3bf4f410	0.0074753836
111	0xbc44eee8	-0.01201985
112	0x3d88de9b	0.066830836
113	0xbd668629	-0.05628029
114	0xbd5f45f0	-0.054510057
115	0x3b333320	0.0027343705
116	0x3bf9a050	0.0076179877
117	0xbd315add	-0.043299545
118	0x3c99716c	0.018730842
119	0x3d8e4ab1	0.0694784
120	0x3d4b0ff2	0.049575754
121	0xbcea7548	-0.028620377
122	0x3d9a456b	0.07532772
123	0x3d9a8eb1	0.075467475
124	0xbd52dc85	-0.051479835
125	0xbda151f4	-0.078769594
126	0x3d4901c6	0.049073957
127	0x3cbbd0fc	0.0229268
128	0xbd091d1d	-0.03347503
129	0x3d98d73b	0.07462927
130	0xbcb05b64	-0.021527953
131	0xbb47dc80	-0.0030496418
132	0xbd185e21	-0.037199143
133	0xbd4b73d9	-0.049671028
134	0x3d6983ba	0.05701039
135	0x3d16b652	0.036794968
136	0x3d428532	0.047490306
137	0x3d4fec82	0.05076266
138	0xbd8feb66	-0.070273206
139	0xbc239000	-0.009983063
140	0xbd2ad327	-0.041705277
141	0x3db010bd	0.085969426
142	0x3d47dd32	0.048794933
143	0xbd3508f0	-0.044197977
144	0xbd471fde	-0.048614375
145	0xbd2f6942	-0.04282499
146	0xbcea2522	-0.02858216
147	0xbd02bb71	-0.03191704
148	0xbd312c59	-0.043255184
149	0xbd183e36	-0.037168704
150	0x3c94ec4c	0.018179081
151	0xbd01ecf2	-0.03172011
152	0xbcec86d6	-0.028872889
153	0x3d9eedc3	0.07760193
154	0x3d09e6ce	0.033667378
155	0x3d49c11e	0.049256437
156	0xbda1c67e	-0.078991875
157	0x3d5b8932	0.053597637
158	0x3d9be3b9	0.07611794
159	0x3d84df79	0.064879365
160	0x3d0d362e	0.034475498
161	0x3c94c700	0.018161297
162	0x3c49df40	0.012321293
163	0x3dabf9a5	0.08397225
164	0x3d6f480e	0.058418326
165	0xbd580927	-0.052743103
166	0xbc940340	-0.018067956
167	0x3daa7739	0.08323521
168	0x3d892f29	0.06698448
169	0x3d2d005a	0.042236663
170	0xbd80b050	-0.06283629
171	0xbc4659e0	-0.012106389
172	0xbc73ce78	-0.014880769
173	0x3cb6886c	0.022281848
174	0xbd2eb539	-0.042653296
175	0xbda00c34	-0.078148276
176	0xbc4fa968	-0.012674667
177	0xbd8048db	-0.06263896
178	0xb8586000	-5.158782e-05
179	0x3c362160	0.011116356
180	0xbdaae6b2	-0.08344783
181	0xbca4c69c	-0.020114236
182	0xbb9143d0	-0.0044331327
183	0x3da52663	0.08063962
184	0xbc905970	-0.017620772
185	0x3cb46d94	0.022024907
186	0xbc4f71f8	-0.01266145
187	0xbdb29588	-0.08719927
188	0xbd35a620	-0.044347882
189	0xb9fd6000	-0.00048327446
190	0x3cd0179c	0.025401883
191	0xbb281ee0	-0.0025653169
192	0xbd75f666	-0.060049437
193	0xbd6acda2	-0.057325013
194	0x3dae3c11	0.085075505
195	0x3d39a63a	0.04532454
196	0xbd125dcc	-0.035733983
197	0x3d707f8a	0.05871538
198	0xbc96bcd0	-0.01840058
199	0xbd4e2953	-0.05033238
200	0xbd69dc9c	-0.057095155
201	0x3bba3610	0.0056827143
202	0x3d2d35f2	0.042287774
203	0x3d23b946	0.039971612
204	0xbd64feff	-0.055907246
205	0xbd94f0e8	-0.07272512
206	0x3c1a9190	0.009434119
207	0x3cb1e6b8	0.02171646
208	0xbcc24260	-0.02371329
209	0xbdaa7ac0	-0.08324194
210	0x3db4aed1	0.08822406
211	0x3da2fde3	0.07958581
212	0x3d862267	0.065495305
213	0x3da542c1	0.08069373
214	0x3abed000	0.0014557838
215	0x3ccddc50	0.025129467
216	0xbd1b8e6b	-0.037977617
217	0xbd5213de	-0.051288478
218	0xbd7c2a13	-0.061563563
219	0xbd5527c0	-0.05203986
220	0x3c1a3e50	0.0094142705
221	0xbcc61a50	-0.024182469
222	0xbbfa7ad0	-0.007644035
223	0x3daa9743	0.08329632
224	0x3d974453	0.07386079
225	0x3d935ad1	0.07195056
226	0x3cf9d0f4	0.030495144
227	0xbcc23b10	-0.023709804
228	0xbce3fca4	-0.02783043
229	0xbdb3bde1	-0.08776451
230	0x3d565292	0.05232484
231	0xbc106750	-0.008813694
232	0x3db42c15	0.087974705
233	0xbd0ce612	-0.0343991
234	0xbd684052	-0.056701966
235	0xbc0bcce0	-0.008532733
236	0x3d85d55d	0.065348364
237	0x3d395116	0.045243345
238	0xbda856c8	-0.08219677
239	0x3d3f87be	0.046760313
240	0x3ccc56e0	0.024943769
241	0x3ccd7fa4	0.025085278
242	0x3c48d8d0	0.012258723
243	0x3b6d8140	0.003624037
244	0x3d4086ba	0.047003485
245	0xbd3f8490	-0.04675728
246	0xbca3cd5c	-0.019995384
247	0xbca5a0bc	-0.020218246
248	0x3d125cf0	0.035733163
249	0x3bc88720	0.006119624
250	0x3ce8622c	0.028367124
251	0xbda0000f	-0.07812511
252	0x3d83577d	0.064131714
253	0xbd849ffb	-0.06475826
254	0xbd8cc6ee	-0.0687388
255	0x3c5d2270	0.01349698

fc2.bias f4 [128]
0	0x3cbcef08	0.023063198
1	0x3d1cdf30	0.038298786
2	0x390dc600	0.00013520569
3	0xbd079134	-0.03309746
4	0xbd64146c	-0.05568354
5	0x3c673098	0.014110707
6	0xbc9b07a8	-0.01892455
7	0xbd4daa54	-0.050211266
8	0x3ce7a2a0	0.028275788
9	0x3d492f16	0.04911717
10	0x3d38331c	0.044970617
11	0xbce7cf1c	-0.028297
12	0x3d2bde60	0.04196012
13	0x3c911de0	0.01771444
14	0xbd3bee0a	-0.04588131
15	0x3b6b5ac0	0.0035912246
16	0xbc1401d8	-0.009033643
17	0x3d69737e	0.056994908
18	0xba0e2d00	-0.00054235756
19	0x3d560194	0.0522476
20	0x3d168550	0.03674823
21	0x3d429e26	0.047514103
22	0xbbe77bc0	-0.0070643127
23	0x3cf91098	0.03040342
24	0x3bfd2b20	0.007726088
25	0x3d5bc018	0.05364999
26	0x3d6d147a	0.057880856
27	0xbd0d289a	-0.03446255
28	0x3d626ea2	0.05528129
29	0x3d25427c	0.040346608
30	0x3d673bb4	0.05645342
31	0xbd51e34c	-0.051242158
32	0x3d513a5a	0.05108104
33	0xbd048a1a	-0.032358266
34	0x3d08452a	0.033269085
35	0x3ce59a9c	0.028027825
36	0xbcf17e94	-0.029479302
37	0xbcc075fc	-0.02349376
38	0xbc883b14	-0.016629733
39	0x3d43a60e	0.047765784
40	0x3d2e05bc	0.042485937
41	0x3c8d2924	0.017231531
42	0xbbf251c0	-0.0073949993
43	0x3c3ba098	0.011451863
44	0xbd4cbfaa	-0.049987473
45	0x3d20fb62	0.039302237
46	0xbd599052	-0.05311615
47	0xbd1dbf24	-0.038512364
48	0x3ce8048c	0.02832248
49	0xbcd5e5d4	-0.026110567
50	0xbd7e9158	-0.06215033
51	0x3ccb85bc	0.024844043
52	0xbc8656ec	-0.01639887
53	0xbd203f8c	-0.039123103
54	0xbc136ee8	-0.00899861
55	0xbc8d3b08	-0.017240062
56	0x3ca6e690	0.020373613
57	0x3d464c2a	0.04841248
58	0xbc5c1108	-0.013431795
59	0x3d473090	0.048630297
60	0xbd3b01b0	-0.045655906
61	0x3d3eead4	0.04661067
62	0x3d434296	0.047670923
63	0xbd0aada4	-0.033857003
64	0xbd02b4a0	-0.03191054
65	0x3b79c520	0.003811188
66	0x3d5a34a2	0.05327285
67	0xbd1ee1a2	-0.0387894
68	0xbcf3748c	-0.02971866
69	0xbd7f949e	-0.06239759
70	0x3c3bd520	0.011464387
71	0xbd6baf80	-0.057540417
72	0xbd3b7f42	-0.04577566
73	0x3d238b4a	0.03992776
74	0xbbf6d250	-0.0075323954
75	0xbd4b9b38	-0.049708575
76	0xbd4a34da	-0.04936681
77	0x3b3fb8a0	0.0029254332
78	0xbc8204bc	-0.015871398
79	0xbd66842e	-0.0562784
80	0xbd40a97c	-0.047036633
81	0xbd62d252	-0.05537636
82	0x3cc70efc	0.024299137
83	0xbc45bd18	-0.012069009
84	0x3d0ded96	0.034650408
85	0x3c626f58	0.013820492
86	0x3d549cfa	0.051907517
87	0x3cb0acf0	0.021566838
88	0x3cf6e26c	0.030137263
89	0xbc8c8704	-0.017154224
90	0x3c9953cc	0.018716715
91	0xbc3eeab0	-0.011652634
92	0xbd24692c	-0.040139362
93	0xbbb87c20	-0.005630031
94	0xbad8ec40	-0.00165499
95	0x3d3ca640	0.046056986
96	0x3d517680	0.0511384
97	0xbd497f4a	-0.049193658
98	0xbb09e500	-0.0021041036
99	0xbcae40ac	-0.021271072
100	0xbd745d96	-0.059659563
101	0x3c57c6e8	0.013169982
102	0x3d2c7f64	0.042113677
103	0x3d49ee2a	0.049299397
104	0x3c5bbcf8	0.013411753
105	0xbb1e6700	-0.002417028
106	0xbd761920	-0.060082555
107	0x3bad8760	0.005295679
108	0xbb3592c0	-0.0027705878
109	0xbc914428	-0.017732695
110	0xbc806e4c	-0.015677594
111	0xbcb0f574	-0.021601416
112	0x3d3bff62	0.04589785
113	0x3d4a4c54	0.0493892
114	0x3d2ede66	0.042692564
115	0xbd0657ba	-0.032798506
116	0x3cade800	0.02122879
117	0xbcc816e4	-0.024424978
118	0x3d3f4938	0.046700686
119	0x3cb6a3bc	0.022294872
120	0xbcdd0fb8	-0.026985034
121	0x3d1a26aa	0.03763453
122	0x3d1ee52c	0.038792774
123	0x3d7e6498	0.062107652
124	0xbc01b200	-0.007915974
125	0x3c7dba70	0.015486345
126	0x3d122306	0.035677932
127	0x3c408b60	0.01175198

fc3.weight f4 [1, 128]
0	0xbb449ba6	-0.003
1	0xbb449ba6	-0.003
2	0xbb449ba6	-0.003
3	0xbb449ba6	-0.003
4	0xbb449ba6	-0.003
5	0xbb449ba6	-0.003
6	0xbb449ba6	-0.003
7	0xbb449ba6	-0.003
8	0xbb449ba6	-0.003
9	0xbb449ba6	-0.003
10	0xbb449ba6	-0.003
11	0xbb449ba6	-0.003
12	0xbb449ba6	-0.003
13	0xbb449ba6	-0.003
14	0xbb449ba6	-0.003
15	0xbb449ba6	-0.003
16	0xbb449ba6	-0.003
17	0xbb449ba6	-0.003
18	0xbb449ba6	-0.003
19	0xbb449ba6	-0.003
20	0xbb449ba6	-0.003
21	0xbb449ba6	-0.003
22	0xbb449ba6	-0.003
23	0xbb449ba6	-0.003
24	0xbb449ba6	-0.003
25	0xbb449ba6	-0.003
26	0xbb449ba6	-0.003
27	0xbb449ba6	-0.003
28	0xbb449ba6	-0.003
29	0xbb449ba6	-0.003
30	0xbb449ba6	-0.003
31	0xbb449ba6	-0.003
32	0xbb449ba6	-0.003
33	0xbb449ba6	-0.003
34	0xbb449ba6	-0.003
35	0xbb449ba6	-0.003
36	0xbb449ba6	-0.003
37	0xbb449ba6	-0.003
38	0xbb449ba6	-0.003
39	0xbb449ba6	-0.003
40	0xbb449ba6	-0.003
41	0xbb449ba6	-0.003
42	0xbb449ba6	-0.003
43	0xbb449ba6	-0.003
44	0xbb449ba6	-0.003
45	0xbb449ba6	-0.003
46	0xbb449ba6	-0.003
47	0xbb449ba6	-0.003
48	0xbb449ba6	-0.003
49	0xbb449ba6	-0.003
50	0xbb449ba6	-0.003
51	0xbb449ba6	-0.003
52	0xbb449ba6	-0.003
53	0xbb449ba6	-0.003
54	0xbb449ba6	-0.003
55	0xbb449ba6	-0.003
56	0xbb449ba6	-0.003
57	0xbb449ba6	-0.003
58	0xbb449ba6	-0.003
59	0xbb449ba6	-0.003
60	0xbb449ba6	-0.003
61	0xbb449ba6	-0.003
62	0xbb449ba6	-0.003
63	0xbb449ba6	-0.003
64	0xbb449ba6	-0.003
65	0xbb449ba6	-0.003
66	0xbb449ba6	-0.003
67	0xbb449ba6	-0.003
68	0xbb449ba6	-0.003
69	0xbb449ba6	-0.003
70	0xbb449ba6	-0.003
71	0xbb449ba6	-0.003
72	0xbb449ba6	-0.003
73	0xbb449ba6	-0.003
74	0xbb449ba6	-0.003
75	0xbb449ba6	-0.003
76	0xbb449ba6	-0.003
77	0xbb449ba6	-0.003
78	0xbb449ba6	-0.003
79	0xbb449ba6	-0.003
80	0xbb449ba6	-0.003
81	0xbb449ba6	-0.003
82	0xbb449ba6	-0.003
83	0xbb449ba6	-0.003
84	0xbb449ba6	-0.003
85	0xbb449ba6	-0.003
86	0xbb449ba6	-0.003
87	0xbb449ba6	-0.003
88	0xbb449ba6	-0.003
89	0xbb449ba6	-0.003
90	0xbb449ba6	-0.003
91	0xbb449ba6	-0.003
92	0xbb449ba6	-0.003
93	0xbb449ba6	-0.003
94	0xbb449ba6	-0.003
95	0xbb449ba6	-0.003
96	0xbb449ba6	-0.003
97	0xbb449ba6	-0.003
98	0xbb449ba6	-0.003
99	0xbb449ba6	-0.003
100	0xbb449ba6	-0.003
101	0xbb449ba6	-0.003
102	0xbb449ba6	-0.003
103	0xbb449ba6	-0.003
104	0xbb449ba6	-0.003
105	0xbb449ba6	-0.003
106	0xbb449ba6	-0.003
107	0xbb449ba6	-0.003
108	0xbb449ba6	-0.003
109	0xbb449ba6	-0.003
110	0xbb449ba6	-0.003
111	0xbb449ba6	-0.003
112	0xbb449ba6	-0.003
113	0xbb449ba6	-0.003
114	0xbb449ba6	-0.003
115	0xbb449ba6	-0.003
116	0xbb449ba6	-0.003
117	0xbb449ba6	-0.003
118	0xbb449ba6	-0.003
119	0xbb449ba6	-0.003
120	0xbb449ba6	-0.003
121	0xbb449ba6	-0.003
122	0xbb449ba6	-0.003
123	0xbb449ba6	-0.003
124	0xbb449ba6	-0.003
125	0xbb449ba6	-0.003
126	0xbb449ba6	-0.003
127	0xbb449ba6	-0.003
