models/checkpoint_critic_local_1.pth (torch, 227615 bytes, 5 tensors)

fcs1.weight f4 [256, 80]
0	0x3d5aedce	0.053449444
1	0xbc34e1e0	-0.011040181
2	0x3d3a0d44	0.045422807
3	0x3d464060	0.048401237
4	0xbd650158	-0.055909485
5	0xbc97abe8	-0.018514588
6	0xbd1d7b2c	-0.038447544
7	0xbbd38990	-0.0064556077
8	0x3b9f8f10	0.0048693493
9	0x3d35ce64	0.044386283
10	0xbd4b6470	-0.04965633
11	0x3d3b8c60	0.04578817
12	0xbcfa3bfc	-0.03054618
13	0x3a857b40	0.0010183826
14	0x3d1df8e8	0.038567454
15	0x3d456d3a	0.04819987
16	0xbcee98cc	-0.029125594
17	0xbd5162c0	-0.051119566
18	0x3bf67830	0.0075216517
19	0xbd303570	-0.043019712
20	0x3d517fbe	0.051147215
21	0x3d7cb86e	0.061699323
22	0x3bbd2de0	0.005773291
23	0x3c918958	0.017765686
24	0xbd4d3cb4	-0.05010672
25	0xbd7d2ce2	-0.06181038
26	0x3cd14e04	0.025549896
27	0xbca8323c	-0.020531766
28	0x3d7d9ebc	0.06191896
29	0x3cbb8128	0.022888735
30	0x3d447a6e	0.04796832
31	0xbd4df58c	-0.050283
32	0x3d0e954a	0.034810342
33	0xbd1dd844	-0.038536325
34	0xbcb93030	-0.022605985
35	0x3d53b246	0.051683687
36	0xbd0c2ac0	-0.034220457
37	0x3cd14b88	0.025548711
38	0x3bf0e8c0	0.0073519647
39	0x3c80ce18	0.015723273
40	0x3c8349e8	0.016026452
41	0x3d2c541e	0.042072408
42	0xbd25acda	-0.040448047
43	0xbd14bf42	-0.03631521
44	0xbbe1d7b0	-0.006892167
45	0xbd59b89c	-0.053154573
46	0xbd1352c8	-0.03596762
47	0xbb1e8220	-0.0024186447
48	0xbd326602	-0.043554313
49	0x3d7b3ab6	0.061335288
50	0x3d214bc0	0.03937888
51	0x3d3150a8	0.04328981
52	0xbcf0de80	-0.029402971
53	0xbc4d1d30	-0.012519166
54	0x3d2c17c4	0.042014852
55	0x3b8875e0	0.0041644424
56	0x3d3e1934	0.046410754
57	0x3d02edd0	0.031965077
58	0xbd5c7ade	-0.053828113
59	0xbc742678	-0.01490175
60	0xbd7fbd72	-0.06243653
61	0x3bb61200	0.005556345
62	0x3c4c5c50	0.012473181
63	0x3cd42f14	0.025901355
64	0xbd073248	-0.033006936
65	0xbcfb7b44	-0.030698426
66	0x3d5bea14	0.05369003
67	0x3a67e980	0.0008846745
68	0x3bf0e060	0.0073509663
69	0xbca5f644	-0.02025903
70	0x3ca47108	0.020073429
71	0x3c81d7ac	0.01584991
72	0x3d5bfb02	0.053706177
73	0xbd3b68b0	-0.045754135
74	0x3ce0f678	0.027461275
75	0xbcf0a1d4	-0.02937404
76	0x3d2c994e	0.04213839
77	0x3d265378	0.040606946
78	0x3ce03354	0.027368225
79	0xbc3663e8	-0.011132218
80	0xbcec1a64	-0.028821178
81	0xbd7e4e3a	-0.06208632
82	0x3d74cb30	0.059764087
83	0x3ca7d42c	0.020486914
84	0xb9216400	-0.0001539141
85	0x3cd06574	0.025439002
86	0xbcd94878	-0.026523814
87	0x3d2a65de	0.041601054
88	0xbc2675f0	-0.010159954
89	0xbd7cf0fc	-0.061753258
90	0x3d1806ae	0.037115745
91	0x3c0fffa8	0.008788981
92	0x3b1be2c0	0.0023786277
93	0x3d043372	0.032275625
94	0x3d6b3e1a	0.05743227
95	0x3d320456	0.043461166
96	0x3d0a6758	0.033789963
97	0x3c908984	0.017643698
98	0xbd3a1334	-0.04542847
99	0xbcd1e244	-0.025620587
100	0x3c481eb8	0.012214355
101	0x3c855984	0.016278036
102	0x3d61e378	0.05514857
103	0xbd4a8e1e	-0.04945194
104	0x3d6721a8	0.05642858
105	0x3d13ee56	0.036115967
106	0xbbabf480	-0.0052476525
107	0x3d2cf91c	0.042229757
108	0xbcbb4fbc	-0.022865169
109	0x3cc8decc	0.0245203
110	0x3d3e93b8	0.046527594
111	0x3d7e29de	0.062051646
112	0xbbb1d6d0	-0.005427219
113	0x3be0fbb0	0.006865941
114	0x3c96b7bc	0.018398158
115	0xbd1d56f6	-0.03841301
116	0x3d2101f2	0.039308496
117	0xb7346000	-1.0751188e-05
118	0xbc0d88b0	-0.008638546
119	0xbc96fbe8	-0.018430665
120	0x3d10c7b2	0.035346694
121	0xbd52fd7a	-0.051511265
122	0x3d4ce42c	0.05002229
123	0xbd636f02	-0.055525787
124	0x3d723de0	0.05914104
125	0xbada6b40	-0.0016664043
126	0x3cf8b2fc	0.030358784
127	0x3d1c2b12	0.038127013
128	0xbd68ea30	-0.056863964
129	0xbaa36180	-0.001246497
130	0x3d04856a	0.032353796
131	0x3ce13d64	0.027495094
132	0xbd7688ac	-0.060188934
133	0xbd0f64d0	-0.03500825
134	0xbcef9264	-0.02924461
135	0xbd1ae6ce	-0.03781777
136	0xbd518eca	-0.051161565
137	0x3d3d64ea	0.046238817
138	0xbd47ebf6	-0.048809014
139	0x3c8727f0	0.016498536
140	0x3a45e680	0.0007549301
141	0x3d6a1a62	0.057154067
142	0xbd7d227e	-0.061800472
143	0xbd40a654	-0.047033623
144	0xbca560f0	-0.020187825
145	0x3d70ea4a	0.058817185
146	0x3ccdaf24	0.025107928
147	0x3cf557b4	0.029949047
148	0xbc466800	-0.0121097565
149	0x3ce56894	0.028003968
150	0xbd51623e	-0.05111908
151	0x3cb4b62c	0.022059523
152	0xbc41e640	-0.011834681
153	0x3b8ef980	0.004363239
154	0x3cf1ef50	0.029533058
155	0x3c00f450	0.007870749
156	0x3d223274	0.039598897
157	0x3d509fd6	0.05093368
158	0xbd046198	-0.032319635
159	0xbd22baba	-0.039728858
160	0x3d2da992	0.042398043
161	0x3cc3242c	0.023820959
162	0x3d68b1b2	0.05681009
163	0x3c56f568	0.013120033
164	0xbd24519e	-0.0401169
165	0xbcc197d8	-0.023631975
166	0xbcc0501c	-0.0234757
167	0xbd339e86	-0.04385235
168	0xbbe43d70	-0.0069653317
169	0x3c003688	0.007825501
170	0x3d1f846a	0.03894464
171	0xbd50379c	-0.050834283
172	0xbcee496c	-0.029087745
173	0x3d4a61ca	0.049409665
174	0x3cd47410	0.02593425
175	0xbad2a4c0	-0.0016070828
176	0x3b4ffca0	0.003173627
177	0xbabda640	-0.0014469102
178	0x3b3c3f20	0.002872415
179	0xbcf86fac	-0.030326687
180	0x3d7fe4e0	0.06247413
181	0x3cbe649c	0.023241334
182	0xbd2c1576	-0.042012654
183	0xbd7cfb58	-0.061763138
184	0xbcab325c	-0.020898037
185	0xbd1902d8	-0.037356228
186	0x3d2f50fa	0.042801835
187	0x3d4c2c06	0.04984667
188	0x3babb780	0.0052403808
189	0xbd4438e0	-0.047905803
190	0x3d166ec0	0.036726713
191	0x3cb25dc0	0.02177322
192	0xbada4780	-0.0016653389
193	0xbba28340	-0.004959494
194	0xbc45d6a0	-0.012075096
195	0x3d231c02	0.039821632
196	0xbcefd200	-0.02927494
197	0x3b1b9b20	0.0023743585
198	0xbb70ae60	-0.003672503
199	0x3d093d50	0.033505738
200	0xbd79a2d8	-0.060946316
201	0x3cd746a8	0.026278809
202	0x3d2ab8f6	0.0416803
203	0xbd657f00	-0.05602932
204	0xbd2b6eb0	-0.041853607
205	0x3d1fa21e	0.038972966
206	0x3d0d661c	0.034521207
207	0x3d196e14	0.037458494
208	0xbaa519c0	-0.0012596175
209	0xbd6459b8	-0.055749625
210	0xbd5f521e	-0.054521672
211	0xbd5acce8	-0.05341807
212	0xbd7805b4	-0.060552314
213	0x3d0d6814	0.034523085
214	0x3d4b2a90	0.049601138
215	0xbba8ef40	-0.005155474
216	0x3bcc4240	0.0062334836
217	0x3c393e20	0.011306316
218	0x3cfe760c	0.031062149
219	0xbd43f6ea	-0.047842897
220	0x3c68e0a8	0.0142137185
221	0xbb7e45e0	-0.0038798973
222	0x3b182be0	0.002321951
223	0x3d6ba188	0.057527095
224	0x3d07361c	0.033010587
225	0x3cb41fa0	0.021987736
226	0x3d0293ae	0.03187912
227	0xbada3e40	-0.0016650632
228	0xbd397070	-0.045273244
229	0x3d614326	0.05499568
230	0x3ca80700	0.02051115
231	0xbd540bb8	-0.05176899
232	0xbccf6df0	-0.025320977
233	0xbd5d292e	-0.05399435
234	0x39f27700	0.000462465
235	0x3d1b77b0	0.03795594
236	0xbce94ac0	-0.028478026
237	0xbc52bc80	-0.012862325
238	0xbd1becb4	-0.038067535
239	0x3d7eb2c6	0.06218221
240	0x3d0a8b14	0.03382404
241	0xbd2395be	-0.039937727
242	0xbcb65f74	-0.022262312
243	0xbc10de90	-0.008842126
244	0xbca74c44	-0.020422108
245	0x3d6e83b2	0.058231063
246	0xbc7a26c0	-0.015268028
247	0xbcd24640	-0.025668263
248	0xbcf343d0	-0.029695421
249	0xbbfc26e0	-0.007695064
250	0x3cd456d4	0.02592031
251	0x3cf7f4d0	0.030268103
252	0x3c9fb138	0.019493684
253	0x3d4ebb4c	0.05047159
254	0x3d58867e	0.052862637
255	0x3d26c376	0.04071375

fcs1.bias f4 [256]
0	0x3d527cdc	0.051388606
1	0x3b5f6a20	0.0034090355
2	0xbd85291e	-0.06501983
3	0x3d41ea4c	0.047342584
4	0x3dd43d00	0.10363197
5	0xbd25eb9c	-0.040507898
6	0xbd964daa	-0.07339032
7	0xbd4fba7a	-0.050714947
8	0x3b9678a0	0.0045920163
9	0xbcf5aeb0	-0.029990524
10	0x3dcaa556	0.098948166
11	0xbcb0ee04	-0.02159787
12	0xbd86a742	-0.06574871
13	0xbd4ad71a	-0.049521543
14	0xbc4e9598	-0.012608908
15	0xbdaf34c3	-0.085549854
16	0x3da3468c	0.0797244
17	0x3b74eba0	0.0037371889
18	0x3ca92890	0.020649225
19	0x3cbfc078	0.023407206
20	0xbdc8f0de	-0.09811567
21	0xbd03511e	-0.03205978
22	0x3da2f3e0	0.07956672
23	0x3d799794	0.06093557
24	0x3d33b8d0	0.043877423
25	0x3d873c9e	0.06603359
26	0xbdb50ddc	-0.08840534
27	0xbc04c328	-0.0081031695
28	0xbde05830	-0.109543204
29	0x3d92c976	0.07167332
30	0xbd873f3e	-0.06603859
31	0xbdc96697	-0.098340206
32	0x3c133c68	0.00898657
33	0x3db6cf16	0.08926217
34	0x3d41367c	0.0471711
35	0xbc353e30	-0.01106219
36	0xbd99bc94	-0.075066715
37	0xbcb97498	-0.022638604
38	0xbdd62c28	-0.10457641
39	0xbd3f6068	-0.0467228
40	0x3c05eb48	0.008173771
41	0x3c918200	0.017762184
42	0x3cf31220	0.029671729
43	0xbd88261c	-0.06647894
44	0xbd5bf466	-0.053699873
45	0xbc864440	-0.016389966
46	0x3ca0f998	0.019650266
47	0xbbd88ea0	-0.006608799
48	0x3ddd890c	0.10817155
49	0x3c2ade88	0.010429032
50	0x3db2e9ee	0.08736025
51	0x3de1b91c	0.11021635
52	0x3ddf7e12	0.10912718
53	0x3d836d48	0.06417328
54	0xbddb853d	-0.107187726
55	0xbc55c268	-0.013046838
56	0x3d0559c8	0.032556325
57	0x3d64737c	0.055774197
58	0xbc403cc8	-0.011733241
59	0x3dd2d7ec	0.1029509
60	0x3c9e2d38	0.019308671
61	0xbdc33ff2	-0.09533681
62	0xbd85181d	-0.0649874
63	0xbddd1541	-0.107950695
64	0xbda5b9d9	-0.08092088
65	0x3dbd2b54	0.0923678
66	0x3cc730c0	0.024315238
67	0x3d57c500	0.05267811
68	0xbdb8e974	-0.09028903
69	0xbc8a815c	-0.016907386
70	0xbb363c40	-0.0027806908
71	0xbd3647ce	-0.044502072
72	0xbddb7a7c	-0.107167214
73	0x3dcfafa4	0.10140923
74	0xbd1e855a	-0.038701393
75	0x3d86c578	0.06580633
76	0x3d838aa0	0.06422925
77	0xbb82beb0	-0.003990017
78	0xbce88578	-0.028383955
79	0x3d43de68	0.047819525
80	0x3d080f44	0.033217683
81	0x3d55fb78	0.052241772
82	0xbdaff839	-0.085922666
83	0x3c44a800	0.012002945
84	0xbd91c714	-0.07118049
85	0x3c682320	0.014168531
86	0xbae20480	-0.0017243773
87	0xbd15e67a	-0.036596753
88	0xba46b300	-0.00075797737
89	0xbd91ba58	-0.071156204
90	0xbd27e6ee	-0.040991716
91	0xbcbf6318	-0.023362681
92	0xbd2317a4	-0.039817467
93	0x3da478cc	0.08030853
94	0x3d4c2fc8	0.049850255
95	0xbd9c1928	-0.07621986
96	0xbdda997e	-0.106738076
97	0x3d8d8b92	0.069113865
98	0x3d9fcaba	0.07802339
99	0x3dc3a0a0	0.09552121
100	0xbd37adac	-0.04484336
101	0xbdc6273a	-0.096754506
102	0xbde0d8e4	-0.109788686
103	0x3d03007c	0.031982884
104	0x3d30bb20	0.043147206
105	0x3db9ff5a	0.090819076
106	0xbde2615c	-0.11053726
107	0x3cb894e8	0.022531942
108	0xbb5466c0	-0.0032409877
109	0x3cd64268	0.026154712
110	0xbc715340	-0.014729321
111	0x3dcbbef0	0.09948528
112	0x3d90a7cc	0.07063255
113	0x3d4ce52c	0.050023243
114	0x3da00b96	0.0781471
115	0xbd2a027a	-0.041506268
116	0x3b287f80	0.0025710762
117	0x3d6d9cb4	0.058010772
118	0xbd99f452	-0.075173035
119	0x3dc147f2	0.094375506
120	0x3dcdaafa	0.10042377
121	0xbd3abe16	-0.045591436
122	0xbda7ad2e	-0.08187328
123	0x3cf74630	0.030184835
124	0xbd5464d1	-0.05185396
125	0x3d40beb8	0.047056884
126	0xbc9c03c0	-0.019044757
127	0x3da675c4	0.08127931
128	0xbd19c7e4	-0.037544146
129	0xbd3d51be	-0.046220534
130	0x3dc29790	0.095015645
131	0x3ddca67c	0.10773942
132	0x3de18ab0	0.11012781
133	0x3db3e078	0.087830484
134	0x3db63c90	0.0889827
135	0xbd94cc67	-0.07265549
136	0x3b036f00	0.0020055175
137	0x3d69dfa8	0.05709806
138	0x3d05d384	0.03267242
139	0x3cebd478	0.028787836
140	0xbc422608	-0.011849888
141	0xbd26907c	-0.040665135
142	0xbdb386c7	-0.08765941
143	0x3da55e12	0.08074583
144	0xbc4dabf8	-0.012553208
145	0xbcc6dee0	-0.024276197
146	0xbcbf3270	-0.02333948
147	0xbdd0698a	-0.1017638
148	0xbde48e1d	-0.111599185
149	0x3d004d14	0.031323507
150	0x3ddc9400	0.10770416
151	0x3c4b3f10	0.012405172
152	0x3cf7a160	0.030228317
153	0x3d59b224	0.053148404
154	0x3d6de78c	0.05808215
155	0x3de0bb20	0.10973191
156	0x3dc1d93c	0.09465262
157	0x3bddde80	0.006770909
158	0xbd54e97f	-0.05198049
159	0x3dd76da2	0.10518958
160	0x3dbf6386	0.093451545
161	0x3daf174c	0.085493654
162	0xbd5841ed	-0.052797247
163	0xbd85c4d6	-0.06531684
164	0x3da80302	0.08203699
165	0xbc663938	-0.014051728
166	0x3d190090	0.037354052
167	0x3dda2e80	0.106534004
168	0xbd7e724f	-0.062120732
169	0x3cc18898	0.023624703
170	0xbc9057b8	-0.017619953
171	0xbd98e6de	-0.074659094
172	0xbc7a3f40	-0.015273869
173	0x3ddd9f30	0.10821378
174	0x3d4cf1e0	0.050035357
175	0xbcce4b7c	-0.025182478
176	0x3dc04886	0.09388833
177	0xbd5ac268	-0.053408056
178	0xbd5565e1	-0.052099112
179	0xbdcaf516	-0.09910028
180	0x3ca3e920	0.020008624
181	0x3d0a83e4	0.033817187
182	0x3da0ba42	0.07848026
183	0xbd8cd4d4	-0.06876531
184	0x3dcc0d42	0.09963466
185	0x3c447958	0.011991821
186	0x3dbadbe4	0.09123972
187	0xbdbdd0de	-0.09268354
188	0xbd7b42f1	-0.061343137
189	0x3d9b5498	0.07584494
190	0xbddc1461	-0.107460745
191	0xbd4a4e4f	-0.049391087
192	0xbdb04fc6	-0.086089656
193	0xbdb09f8d	-0.08624182
194	0x3bb09880	0.005389273
195	0xbda80d59	-0.08205671
196	0x3d510e84	0.051039234
197	0xbc588350	-0.013214901
198	0xbdab583d	-0.083664395
199	0xbd5c87ac	-0.053840324
200	0x3d917fa8	0.071044266
201	0x3d82fd90	0.063960195
202	0xbca1ab78	-0.019735083
203	0x3d60c4bc	0.05487512
204	0xbd94db10	-0.07268345
205	0xbc9aa610	-0.018878013
206	0xbddbc32f	-0.10730588
207	0xbc55dbb8	-0.013052873
208	0x3dd7644c	0.10517177
209	0xbda81773	-0.082075976
210	0x3d1eeac4	0.03879811
211	0x3d22f8d8	0.039788097
212	0x3cbcba60	0.02303809
213	0xbcbfff74	-0.02343724
214	0xbd9ab78c	-0.0755454
215	0xbd942427	-0.07233458
216	0xbcac8e6c	-0.021064006
217	0x3daeea34	0.085407645
218	0xbd92e570	-0.07172668
219	0x3c288550	0.01028569
220	0x3d9126e0	0.07087493
221	0x3cf6ab90	0.030111104
222	0x3db33664	0.087506086
223	0xbb0c4900	-0.0021405816
224	0xba660100	-0.0008773953
225	0xb804f000	-3.169477e-05
226	0xbdb7c675	-0.089733995
227	0x3ced6670	0.02897951
228	0xbca40bd0	-0.020025164
229	0x3dadc3e2	0.08484627
230	0xbd20752e	-0.03917425
231	0x3dbfdb88	0.09368044
232	0x3da656f0	0.08122051
233	0x3cd62310	0.026139766
234	0xbd8b1c7e	-0.06792544
235	0x3d61c310	0.055117667
236	0xbda418aa	-0.08012517
237	0x3dba94b6	0.091103956
238	0x3dc2e236	0.095158026
239	0x3d875ed6	0.066098854
240	0xbd41cf8e	-0.04731708
241	0x3dbf09a2	0.09328009
242	0x3d49c6d8	0.049261898
243	0xbde3b5d5	-0.11118666
244	0x3d2b5b8c	0.041835353
245	0xbd502a6b	-0.050821703
246	0x3ca46ea8	0.020072296
247	0x3dc7c8c8	0.09755093
248	0xbdd24920	-0.10267854
249	0x3dba4124	0.09094456
250	0xbdbe2b2d	-0.09285579
251	0xbca1bb2c	-0.01974257
252	0xbc1bc928	-0.009508409
253	0xbda1e49e	-0.079049334
254	0x3dbd96ac	0.09257254
255	0xbdd4bcc2	-0.10387565

fc2.weight f4 [128, 276]
0	0x3c2109e8	0.009829022
1	0xbcb5c0a0	-0.022186577
2	0xbd0f8c9d	-0.03504621
3	0xbd7be02c	-0.061493084
4	0x3d8ce7c9	0.06880147
5	0x3d45adc2	0.04826141
6	0x3d3616ea	0.044455446
7	0x3b660be0	0.0035102293
8	0x3cc76034	0.024337865
9	0x3d1a362e	0.037649326
10	0xbda4bca0	-0.0804379
11	0x3d1faefa	0.03898523
12	0xbb30c520	-0.0026972964
13	0x3cbd9d10	0.023146182
14	0x3d77b53e	0.06047558
15	0xbd5fdc1f	-0.054653283
16	0x3c866c84	0.016409166
17	0x3d81f77f	0.06346034
18	0xbd203366	-0.039111517
19	0x3dab54f5	0.08365814
20	0x3d877de9	0.06615812
21	0xbd6033bc	-0.054736838
22	0x3ab54280	0.0013829023
23	0xbca9bfbc	-0.020721309
24	0x3d93de5b	0.07220145
25	0x3db1fb75	0.0869054
26	0xbdabcb45	-0.0838838
27	0xbd7f736c	-0.062365934
28	0xbbed3ac0	-0.0072396696
29	0xbd40ff81	-0.047118668
30	0xbd0524fa	-0.032505967
31	0xbd6558c1	-0.055992845
32	0xbd0fa4ab	-0.03506915
33	0x3c5b1ad0	0.013373092
34	0xbd9af4c4	-0.075662166
35	0x3d98f253	0.07468095
36	0xbc863d8c	-0.01638677
37	0x3c0f7c58	0.008757673
38	0x3d8a9013	0.06765761
39	0xbd8e4acb	-0.069478594
40	0x3d23a13e	0.039948694
41	0xbd05e9f9	-0.032693837
42	0x3c7fd678	0.015615098
43	0xbc0ccaa8	-0.008593239
44	0xbd8a2a54	-0.06746355
45	0xbda7579b	-0.08171006
46	0x3ce36984	0.027760275
47	0x3d645ca2	0.055752404
48	0xbc589ac0	-0.013220489
49	0xbcc6bb68	-0.024259284
50	0xbd5c076e	-0.053718023
51	0xbd3f8a22	-0.046762593
52	0x3bdace30	0.0066774115
53	0xbd647e5c	-0.05578457
54	0xbd132b42	-0.035929926
55	0x3d3562ca	0.044283666
56	0x3d7f1f26	0.062285565
57	0x3d51fd9e	0.05126726
58	0x3dad06e5	0.08448581
59	0xbc535498	-0.012898587
60	0xbd92a9f6	-0.07161324
61	0x3d4db73a	0.050223567
62	0xbc1e2968	-0.009653427
63	0xba0cd180	-0.0005371794
64	0x3d6befaa	0.05760161
65	0x3ce483b8	0.02789484
66	0x3da97f8b	0.0827628
67	0x3c619090	0.013767377
68	0xbd5faee3	-0.054610144
69	0xbc52b1c8	-0.012859769
70	0xbd2c3988	-0.042047054
71	0xbc53b720	-0.012922078
72	0x3cc915c0	0.024546504
73	0x3d5ad9de	0.05343043
74	0x3da9dd05	0.08294109
75	0x3d552a52	0.052042313
76	0x3d947777	0.072493486
77	0xbd2eb202	-0.04265023
78	0xbd8e63fc	-0.06952664
79	0x3ccae71c	0.024768405
80	0xbcb900e8	-0.02258344
81	0x3d65ea92	0.056131907
82	0xbd3928dc	-0.045204982
83	0x3d89f67d	0.06736467
84	0xbc9a94a8	-0.018869713
85	0xbd93e19a	-0.072207645
86	0xbd37ae45	-0.04484393
87	0xbad1c7c0	-0.0016004965
88	0x3d8cb7af	0.06870972
89	0x3d892b97	0.06697767
90	0x3da1fe05	0.079097785
91	0x3b3cf940	0.0028835088
92	0xbc3343a8	-0.0109414235
93	0xbd0ddab2	-0.034632392
94	0x3cf7efc8	0.030265704
95	0x3d1ae1e2	0.037813075
96	0x389ea400	7.5645745e-05
97	0xbd6aef1f	-0.05735695
98	0xbda691ea	-0.081333
99	0x3d70f0b2	0.058823295
100	0x3d60a52a	0.054845013
101	0x3db02745	0.0860124
102	0x3d0b79d4	0.03405173
103	0xbc80696c	-0.015675269
104	0xbc636c38	-0.013880782
105	0x3ab5d040	0.0013871267
106	0x3d87575f	0.066084616
107	0xbd939e7a	-0.072079614
108	0xbb569b40	-0.0032746345
109	0xbc1e8c90	-0.009677067
110	0x3d73fc92	0.05956704
111	0x3cd22d24	0.02565629
112	0x3d2c9ebe	0.042143576
113	0xbda61fca	-0.08111532
114	0x3cbb3ab0	0.022855133
115	0x3bae2100	0.0053139925
116	0x3cdf3c90	0.027250558
117	0x3d021754	0.03176053
118	0x3cbcd9e8	0.023053125
119	0xbc9bf47c	-0.019037478
120	0x39810c00	0.00024613738
121	0xbd545d7f	-0.051846977
122	0x3c007bc8	0.007842012
123	0x3cd0fc30	0.025510877
124	0xbd72d145	-0.059281606
125	0x3d13e558	0.03610739
126	0xbd134d4f	-0.0359624
127	0x3d91376b	0.07090648
128	0x3d972021	0.07379175
129	0x3cfc6f94	0.030814923
130	0xbd98a0a9	-0.074525185
131	0xbcb85908	-0.02250339
132	0x3da5188f	0.08061325
133	0xbd622e63	-0.05522002
134	0xbd041b3a	-0.032252528
135	0x3d97d683	0.07413962
136	0xbd7d517e	-0.061845295
137	0x3da4faa3	0.08055618
138	0xbd138257	-0.036012974
139	0x3cf02838	0.029316053
140	0x3c91cac8	0.017796889
141	0xba29ec00	-0.0006482005
142	0x3da33395	0.07968823
143	0x3d432bfe	0.047649376
144	0xbd83bc4e	-0.06432401
145	0xbcfe4df4	-0.03104303
146	0x3d71e966	0.059060477
147	0x3d73e2e6	0.05954256
148	0xbd18990d	-0.037255336
149	0x3d258a66	0.04041519
150	0xbd69ce47	-0.057081487
151	0xbd21cb41	-0.03950048
152	0xbbaa57a0	-0.005198434
153	0x3d1b450a	0.037907638
154	0xbd4815cf	-0.048848923
155	0x3d95259d	0.07282565
156	0xbb669820	-0.0035185888
157	0xbb2f1400	-0.0026714802
158	0x3d44885a	0.047981597
159	0x3d44079e	0.047858827
160	0xbdaef238	-0.08542293
161	0x3d5cc9e6	0.053903483
162	0x3d080420	0.03320706
163	0xbd822a76	-0.06355755
164	0x3da26c6f	0.07930838
165	0xbd03891c	-0.03211318
166	0x3d308f1e	0.043105237
167	0x3ba165c0	0.0049254596
168	0xbcaeea84	-0.02135206
169	0x3a263c80	0.00063414127
170	0x3d9befa5	0.07614068
171	0xbac18840	-0.0014765337
172	0x3b82deb0	0.0039938316
173	0x3d89ea53	0.06734147
174	0xbd7c9413	-0.061664652
175	0x3d47c1a2	0.048768647
176	0x3d856651	0.06513656
177	0x3cc017bc	0.023448817
178	0xbce5e6b0	-0.028064102
179	0xbd291933	-0.041283797
180	0x3da96051	0.08270324
181	0x3cd866c8	0.026416197
182	0xbcb72560	-0.022356689
183	0xbd880427	-0.06641417
184	0xbd3487c8	-0.044074804
185	0x3db023bd	0.086005665
186	0xbcf54808	-0.029941574
187	0x3d97c0a7	0.074097924
188	0x3d70ac76	0.05875822
189	0x3d181822	0.03713239
190	0xbce3e0dc	-0.027817182
191	0x3d860c67	0.06545334
192	0xbd9327dd	-0.07185338
193	0x3c69db48	0.014273472
194	0xbd51c3e6	-0.051212214
195	0xbda398b9	-0.07988114
196	0xbcdbd3a0	-0.02683431
197	0x3db4fe39	0.088375516
198	0x3d3ea6c6	0.046545766
199	0xbd9ac07b	-0.07556244
200	0x3d83640d	0.064155675
201	0xbd7786b0	-0.060431182
202	0x3d9ccc13	0.076561116
203	0xbd92cb22	-0.07167651
204	0x3cf3da1c	0.029767089
205	0xbd21cb0b	-0.039500277
206	0xbd1c7942	-0.038201578
207	0x3ca04f10	0.01956895
208	0x3d21853e	0.03943371
209	0xbd290446	-0.04126384
210	0x3d973405	0.07382969
211	0x3d8a33ff	0.06748199
212	0xbd7c5a23	-0.0616094
213	0xbc40b1d0	-0.011761144
214	0xbc58e528	-0.013238229
215	0x3d689fba	0.056792952
216	0x3d5f326e	0.054491453
217	0xbd5dd21f	-0.054155465
218	0x3d51f8ea	0.051262774
219	0x3d942f97	0.072356395
220	0xbd2ca65c	-0.04215084
221	0xbd0a45b8	-0.033757895
222	0xbc90890c	-0.017643474
223	0x3d6cb5b2	0.057790466
224	0x3da1a7b1	0.07893313
225	0x3da43fa3	0.0801995
226	0xbca4fc28	-0.020139769
227	0xbd35f48f	-0.044422682
228	0x3d6bad66	0.057538413
229	0xbd6ea53a	-0.05826304
230	0xbd711a8b	-0.058863204
231	0xbd632f7a	-0.0554652
232	0xbd406be3	-0.04697789
233	0x3d00333e	0.03129887
234	0x3ccf121c	0.02527719
235	0x3d6a47a2	0.05719722
236	0x3cdf7a6c	0.027280055
237	0x3c86bd64	0.01644773
238	0xbc498a00	-0.012300968
239	0xbda97c3b	-0.08275648
240	0x3d95d3bd	0.073157765
241	0xbd473268	-0.048632056
242	0xbc8d3f04	-0.017241962
243	0xbc000dc0	-0.007815778
244	0xbd224bfe	-0.039623253
245	0xbdb30359	-0.08740873
246	0x3cc372a8	0.023858383
247	0x3d91f57d	0.07126901
248	0xbd9eefa8	-0.077605546
249	0x3d184802	0.037178047
250	0x3d08e35c	0.03341995
251	0xbd27dd55	-0.040982563
252	0x3da04169	0.07824976
253	0xbd8b90db	-0.06814738
254	0x3a6c5f80	0.0009016916
255	0xbd77a6f0	-0.06046194

fc2.bias f4 [128]
0	0xbc424c74	-0.011859048
1	0xbcd89690	-0.026438981
2	0x3cc994fc	0.024607174
3	0x3bcb0b50	0.006196417
4	0x3cee3c30	0.029081434
5	0xbcf1c247	-0.029511584
6	0xbc5b85fc	-0.013398644
7	0x3d4a76bc	0.04942964
8	0x3bf93be0	0.0076060146
9	0xbc48ced8	-0.012256347
10	0xbd5c1a07	-0.05373576
11	0xbd2a5a46	-0.041589998
12	0x3cec1074	0.02881644
13	0xbc9b2fd0	-0.018943697
14	0x3c0d9530	0.008641526
15	0x3d220c3a	0.03956244
16	0xbd078114	-0.033082083
17	0x3d03a920	0.032143712
18	0x3d5949e8	0.053048998
19	0x3c4ba890	0.012430325
20	0xba884060	-0.0010395162
21	0x3d2fe162	0.04293955
22	0x3c80b1b0	0.015709728
23	0x3d16ec82	0.036846645
24	0xbcb6a870	-0.022297114
25	0x3d64276a	0.05570165
26	0x3d37c56a	0.044866003
27	0x3cfb2fb8	0.030662403
28	0x3c2db2a8	0.010601677
29	0xbd463706	-0.04839232
30	0x3d5914c4	0.05299832
31	0x3d096872	0.033546872
32	0xbce7073a	-0.028201688
33	0xba982f40	-0.0011610761
34	0x3d29c696	0.041449152
35	0xbcc42aea	-0.023946244
36	0xbcba9c6e	-0.02277967
37	0x3cff4044	0.031158574
38	0xbc03bc5c	-0.008040514
39	0xbd2d7fa0	-0.04235804
40	0xbd290a66	-0.041269682
41	0xbc8ba546	-0.017046582
42	0xbccce3fc	-0.025011055
43	0xbd3c6129	-0.045991097
44	0xbd1ade18	-0.03780946
45	0xbc625c4c	-0.013815951
46	0x3d0eea56	0.03489145
47	0x3bd906a0	0.006623104
48	0xbd49fb2f	-0.049311813
49	0xbc88d598	-0.016703412
50	0xbd74831b	-0.059695344
51	0x3d524546	0.051335596
52	0x3cf09cac	0.029371582
53	0xba13bc80	-0.00056356937
54	0x3b64d020	0.0034914091
55	0xbd677534	-0.056508258
56	0xbd5dd527	-0.054158356
57	0xbc2203f8	-0.009888642
58	0xbca2f668	-0.019892886
59	0x3d0dfe02	0.03466607
60	0x3d74b2e0	0.0597409
61	0x3d4f7c20	0.050655484
62	0x3cb9f1b8	0.022698268
63	0x3cf47f9c	0.029846005
64	0xbd7343cb	-0.059390824
65	0x3d34d144	0.044144884
66	0xbd6587c4	-0.05603768
67	0x3d4104e2	0.047123797
68	0xbd2b5628	-0.041830212
69	0xbd1d7556	-0.03844198
70	0x3d00d218	0.03145036
71	0x3c5eca18	0.013597988
72	0x3d06d3a8	0.032916695
73	0xbcdbe85a	-0.026844192
74	0xbd2dcc06	-0.0424309
75	0x3d73ba2e	0.059503727
76	0xbcc8d8a2	-0.024517361
77	0x3d20b7d6	0.03923782
78	0x3d69a174	0.05703874
79	0xbcf16fbd	-0.029472226
80	0xbc9d5c60	-0.019209087
81	0x3d0e7894	0.03478296
82	0xbcce878e	-0.025211122
83	0x3d100378	0.035159558
84	0x3ce7ae48	0.028281346
85	0xbd149e12	-0.03628356
86	0x3d50b892	0.05095727
87	0xbcad8a52	-0.02118412
88	0xbc09a948	-0.008402176
89	0x3bc6b960	0.006064579
90	0xbc12f7b4	-0.00897019
91	0xbd6177d5	-0.05504592
92	0x3cc02348	0.023454323
93	0x3b428560	0.0029681548
94	0xbb4d91d0	-0.0031367429
95	0x3c78dfc8	0.015190072
96	0x3cc50128	0.024048403
97	0x3ca108d0	0.019657522
98	0xbc76b56c	-0.015057903
99	0x3d2288d4	0.03968127
100	0x3d385c8e	0.045010142
101	0xbc59bdc8	-0.013289876
102	0xbcfbff1c	-0.030761294
103	0x3d2a22b0	0.041536987
104	0x3d6faa34	0.058511928
105	0xbd6ddf6d	-0.058074404
106	0xbcacb84c	-0.021083973
107	0x3ce70f70	0.028205603
108	0x3cfca360	0.030839622
109	0x3c14dba0	0.009085566
110	0xbc967d56	-0.018370312
111	0x3c5a4058	0.013321005
112	0x3c9ee1d0	0.019394785
113	0x3d41b814	0.04729469
114	0xbd00c18e	-0.031434588
115	0x3ce34c20	0.02774626
116	0xbb6994c0	-0.003564164
117	0x3d40bee8	0.047057062
118	0x3d2787e8	0.040901095
119	0x3d27931a	0.04091177
120	0xbd69c0f5	-0.057068784
121	0x3d59ea86	0.053202175
122	0x3ce3445c	0.027742557
123	0x3b0766b0	0.0020660572
124	0xbd300cec	-0.042981073
125	0x3d244850	0.040108025
126	0xbd56310e	-0.052292876
127	0x3d52225a	0.05130229

fc3.weight f4 [1, 128]
0	0xbaf5efdc	-0.00187635
1	0xbb3f7215	-0.0029212285
2	0xbb0d4338	-0.0021554958
3	0xbb104f0a	-0.0022019767
4	0xbb2ee290	-0.0026685335
5	0xba97cad2	-0.0011580831
6	0x3b0948b2	0.002094787
7	0xba556300	-0.00081400573
8	0xba994d42	-0.0011695998
9	0x3b189cf2	0.0023286906
10	0xbb03da9e	-0.002011932
11	0x3b12ef5c	0.0022420501
12	0xbae5ea61	-0.0017541164
13	0x3a9256d8	0.0011164797
14	0xba50bbb0	-0.0007962538
15	0xba8fce24	-0.0010971469
16	0x3a79bfb0	0.000952716
17	0xb98d7440	-0.0002698023
18	0x3b24e93a	0.0025163428
19	0xb9e5edd0	-0.00043855468
20	0x3ada3780	0.001664862
21	0x3a132628	0.00056132907
22	0x3a2af6bc	0.00065217516
23	0x3b40f5ea	0.0029443451
24	0xb96b85f0	-0.00022461242
25	0x3aee00f0	0.0018158238
26	0x38cc8ee0	9.7540906e-05
27	0x3aa4c82c	0.0012571863
28	0xba8d7c61	-0.0010794514
29	0x39c74fa8	0.00038015586
30	0xb9fce568	-0.00048236107
31	0x39f70818	0.00047117542
32	0x3a694738	0.0008898857
33	0xbad42a4b	-0.0016186921
34	0x3b0e261c	0.0021690195
35	0x3ab61b34	0.0013893605
36	0xbb3a33d1	-0.0028412233
37	0x3a99afc8	0.001172536
38	0x3b0e50c6	0.0021715625
39	0xbaa7e930	-0.0012810584
40	0xbaefe16a	-0.0018301432
41	0xbb2245d6	-0.0024760864
42	0xbad97c5d	-0.0016592849
43	0x3a905ae8	0.001101342
44	0x3a90589c	0.0011012736
45	0xb9e81b58	-0.0004427086
46	0xb9916af8	-0.00027736253
47	0x388784a0	6.462005e-05
48	0x3a00bb0c	0.00049106847
49	0xbb0c2a70	-0.00213876
50	0xba898bfc	-0.0010493989
51	0xbaceea9e	-0.0015786474
52	0xb7c8a900	-2.3920555e-05
53	0xb9edb750	-0.0004534074
54	0xbaf94921	-0.0019018986
55	0x3b3f5462	0.0029194583
56	0xba8f854d	-0.0010949761
57	0x3b227b9a	0.002479291
58	0xbb0961cc	-0.0020962832
59	0x3b11bdee	0.002223845
60	0x3a54ba10	0.00081148837
61	0x3accf0bc	0.0015635709
62	0xba47f838	-0.0007628235
63	0xbaa270e2	-0.0012393261
64	0xbb23d0dd	-0.0024996318
65	0xbada6431	-0.001666194
66	0xba889800	-0.0010421276
67	0xbac1b944	-0.0014779945
68	0xbad83f8a	-0.0016498428
69	0xb8d929c0	-0.00010355143
70	0xb9c061e0	-0.00036694016
71	0x3985f690	0.0002555144
72	0xbaaa075c	-0.0012972164
73	0xb9b04ed8	-0.0003362808
74	0x39998b48	0.00029286207
75	0x3b37c078	0.0028038304
76	0xbacb2a8b	-0.001550035
77	0xbb07c821	-0.0020718651
78	0x3b26e0a2	0.0025463481
79	0x39a4ff20	0.000314706
80	0xbab466c8	-0.0013763541
81	0xb9e246f8	-0.00043158955
82	0x3adff4ec	0.0017086542
83	0xbabe2eaa	-0.0014509757
84	0xb84acc80	-4.835101e-05
85	0xbaa5279a	-0.0012600303
86	0x3b26e5f2	0.0025466648
87	0x38cacc40	9.670155e-05
88	0xbac93455	-0.0015350679
89	0xbb1051b1	-0.0022021348
90	0x3a63ebe4	0.0008694513
91	0xbaf38558	-0.0018579168
92	0x3b101efc	0.0021991124
93	0x3b2864da	0.0025694878
94	0x3ac71944	0.0015190025
95	0x3b240810	0.002502922
96	0x3aff60e4	0.0019483832
97	0x3ad2e384	0.0016089533
98	0xbb11b84c	-0.0022235094
99	0xbb3f01b4	-0.0029145302
100	0xbb3b0e0c	-0.0028542308
101	0xbaf4a0e4	-0.0018663672
102	0xbb057dd1	-0.0020369182
103	0x390bdd00	0.00013338402
104	0xba8b2b26	-0.0010617718
105	0x3b0ccee2	0.0021485616
106	0xb93fc3e0	-0.00018288149
107	0x3a0576b8	0.0005091238
108	0x3b0ce19c	0.0021496778
109	0xba850662	-0.0010148997
110	0x3ac5c8a0	0.0015089698
111	0x382e97c0	4.162616e-05
112	0xb9154e30	-0.00014238874
113	0xbb1c9ef4	-0.0023898454
114	0x3b1254f0	0.0022328459
115	0x3a818034	0.0009880126
116	0x393dbec0	0.00018095504
117	0x3b2317bc	0.0024885973
118	0x3a4adb04	0.00077383243
119	0x3b26fff8	0.002548216
120	0xbb0e2838	-0.0021691453
121	0x3a3d6d58	0.00072260713
122	0x3a4a1910	0.0007709423
123	0x3ad3d6a4	0.001616199
124	0xbaa92625	-0.0012905045
125	0x3abb2dfc	0.0014280672
126	0x39f77768	0.00047200476
127	0xbaf616c1	-0.0018775092
