models/checkpoint_actor_local_9.pth (torch_old, 152633 bytes, 5 tensors)

fc1.weight f4 [256, 18]
-0.046103187 -0.05753579 0.04022015 0.031368382 -0.04175143 0.06238979 0.026661344 0.023807019
-0.036152855 -0.060105413 -0.021119006 -0.035863213 -0.0051386654 0.040286295 -0.047822952 0.04358255
-0.03742387 0.03983622 0.01556927 0.0036440417 -0.015064254 -0.04903254 -0.023239084 0.0044669434
-0.04833006 -0.022585928 0.055846825 -0.029781431 -0.009876557 0.013112821 0.03298133 0.013328664
-0.01542788 -0.03324131 -0.012082979 -0.039947942 -0.03147678 -0.03610143 0.017609447 0.035813436
0.017173395 0.046422534 -0.03612414 0.018053599 0.019398488 0.01267729 -0.021031931 -0.04775814
0.0075955316 0.016893104 -0.0035747364 -0.04139743 0.030566782 -0.025272876 -0.024806067 0.0278631
-0.0255564 0.02725979 -0.046274953 -0.059821807 0.011202969 -0.026162334 0.014796555 -0.0427915
0.052860484 0.05570291 -0.020451844 0.06210362 -0.0026139244 0.037457168 0.017579965 0.011505246
-0.058137625 0.03052786 0.036943637 0.012503125 -0.042829216 -0.013487101 3.543496e-05 0.017545775
0.021513201 -0.049759045 -0.010694854 -0.022300906 0.0065543056 -0.06082084 -0.054437473 0.05561073
0.03735383 -0.053397954 -0.0013351813 -0.04358869 0.024672821 -0.052359924 -0.018681735 0.039093673
-0.061980702 -0.037503242 -0.035800323 0.040529802 -0.003221631 0.043852568 0.0067853928 -0.007226534
0.045763135 0.030411579 -0.01997219 -0.0017624274 -0.023160107 -0.0053111464 0.015271381 -0.0066381544
0.06101711 0.003435336 0.021812208 -0.021912068 0.02127985 -0.038109437 -0.058756456 -0.041136846
0.013032168 -0.051291957 0.04758197 0.035325877 -0.01067128 0.03554891 0.036522992 -0.054357722
0.02448754 0.03302791 0.02148097 0.004189633 -0.047815286 0.010853097 0.020319521 0.033576965
-0.036796898 0.029342838 0.030673087 0.0063914135 0.013767585 -0.023888566 0.042506345 -0.045848653
-0.03246355 0.061375886 -0.05490396 -0.0030445457 0.052508585 -0.0036829412 -0.02637788 0.003786683
0.05125092 0.038106196 0.015666053 0.03146524 -0.042299427 -0.042194173 0.03643368 -0.046979003
-0.056632288 -0.042123415 -0.02659265 0.013424128 -0.0010160059 0.021593481 -0.02374518 0.005429521
0.06046646 -0.0027720183 0.024030484 -0.027087636 0.04600691 0.050635673 0.04915124 -0.058799334
-0.054839306 0.012390435 0.043643482 0.037203893 0.015521914 -0.026417218 -0.008788742 -0.020320937
0.04651712 0.019123256 0.03506139 0.05367177 -0.02420874 0.04107283 -0.0618893 0.0041817203
0.025360875 -0.054084875 -0.02963227 0.0122040585 0.029610194 -0.051045224 -0.059104502 -0.021635644
0.014011361 -0.032653123 -0.020304233 0.008639947 -0.007043451 0.05132108 0.009850226 -0.022323072
-0.043137692 0.0026362538 0.03149861 -0.02670896 -0.019791737 0.050781853 0.0055331066 -0.016496047
0.045382448 0.008711606 -0.054250658 0.0458458 0.04442121 0.041626275 0.006493032 0.039477028
-0.031001866 0.05296772 -0.006577857 0.031024344 0.056116007 0.012014471 -0.052343473 -0.04135169
0.030517243 0.052871346 0.0170291 0.011869311 -0.05107099 -0.02292408 0.05960373 -0.0067112744
-0.059752524 -0.011410579 -0.018159471 0.050243236 0.02309537 0.05435147 -0.05710639 0.047204837
-0.027716517 0.05497641 0.012798227 0.032058306 -0.012623511 -0.046565972 -0.0040787756 -0.033439264
00000000: b2d6 3cbd a6aa 6bbd e2bd 243d 227c 003d
00000010: 8c03 2bbd 708c 7f3d e468 da3c f006 c33c
00000020: 0415 14bd 1831 76bd c401 adbc 4ee5 12bd
00000030: 4062 a8bb 3e03 253d 00e2 43bd 9e83 323d
00000040: c649 19bd 4e2b 233d 4016 7f3c e0d0 6e3b
00000050: 10d0 76bc 58d6 48bd e45f bebc 705f 923b
00000060: bef5 45bd 2006 b9bc a4bf 643d 30f8 f3bc
00000070: 48d1 21bc 28d7 563c 6e17 073d 7860 5a3c
00000080: 38c5 7cbc 0a28 08bd b0f7 45bc 74a0 23bd
00000090: cced 00bd 18df 13bd b041 903c 1cb1 123d
000000a0: 38af 8c3c 8e25 3e3d e8f6 13bd 24e5 933c
000000b0: 94e9 9e3c 68b4 4f3c 284b acbc 0a9e 43bd
000000c0: f0e3 f83b 6863 8a3c 2046 6abb 5a90 29bd
000000d0: 3067 fa3c 1009 cfbc 1836 cbbc 2841 e43c
000000e0: a85b d1bc ec4f df3c ce8a 3dbd b607 75bd
000000f0: a88c 373c 6452 d6bc 406d 723c 2446 2fbd
00000100: 3c84 583d bc28 643d a08a a7bc 5e60 7e3d
00000110: 604e 2bbb b06c 193d dc03 903c 8080 3c3c
00000120: b821 6ebd 9015 fa3c 3652 173d e8d9 4c3c
00000130: b06d 2fbd 00f9 5cbc 00a0 1438 28bc 8f3c
00000140: 743c b03c 24d0 4bbd 7839 2fbc 64b0 b6bc
00000150: 80c5 d63b 461f 79bd d4f9 5ebd 14c8 633d
00000160: 5400 193d d0b7 5abd 4001 afba 0e8a 32bd
00000170: a81e ca3c 5c77 56bd 700a 99bc b020 203d
00000180: 7adf 7dbd 009d 19bd 5ca3 12bd 9402 263d
00000190: 0022 53bb c09e 333d 0058 de3b 90cc ecbb
000001a0: 2072 3b3d b421 f93c b89c a3bc 4001 e7ba
000001b0: 44ba bdbc 2009 aebb d034 7a3c e084 d9bb
000001c0: 14ed 793d 6023 613b 84af b23c f080 b3bc
000001d0: 1453 ae3c a418 1cbd 9caa 70bd 1c7f 28bd
000001e0: e084 553c 8417 52bd 50e5 423d deb1 103d
000001f0: 98d6 2ebc bc9b 113d 2299 153d 34a6 5ebd
00000200: 189a c83c 4648 073d dcf8 af3c 3049 893b
00000210: f6d9 43bd 30d1 313c 2075 a63c 0088 093d
00000220: 58b8 16bd 6460 f03c 2046 fb3c 106f d13b
00000230: 7091 613c f4b1 c3bc 221b 2e3d cccb 3bbd
00000240: 80f8 04bd 4865 7b3d fae2 60bd 0087 47bb
00000250: 3e13 573d 805d 71bb 6c16 d8bc 002a 783b
00000260: 7cec 513d 3e15 1c3d 1856 803c b2e1 003d
00000270: 2a42 2dbd ccd3 2cbd 7c3b 153d 0e6d 40bd
00000280: 42f7 67bd 9a89 2cbd d4d8 d9bc e0f0 5b3c
00000290: 802b 85ba d0e4 b03c 4085 c2bc 20ea b13b
000002a0: aeab 773d c0aa 35bb 94db c43c e4e6 ddbc
000002b0: be71 3c3d 5a67 4f3d d052 493d 92d7 70bd
000002c0: 2e9f 60bd 4001 4b3c 82c3 323d 1c63 183d
000002d0: a04f 7e3c ec68 d8bc a8fe 0fbc 1878 a6bc
000002e0: bc88 3e3d 60a8 9c3c 889c 0f3d eed6 5b3d
000002f0: 6851 c6bc fc3b 283d a27f 7dbd d006 893b
00000300: 9cc1 cf3c 1a88 5dbd 60bf f2bc 88f3 473c
00000310: 1491 f23c cc14 51bd 9017 72bd 3c3d b1bc
00000320: e88f 653c 48bf 05bd 1055 a6bc 908e 0d3c
00000330: c0cc e6bb 0e36 523d d862 213c e0de b6bc
00000340: 26b1 30bd 00c5 2c3b b004 013d c0cc dabc
00000350: 4822 a2bc a200 503d 104f b53b b822 87bc
00000360: f2e2 393d 20bb 0e3c f035 5ebd cec8 3b3d
00000370: 04f3 353d 5080 2a3d 80c3 d43b aab2 213d
00000380: a0f7 fdbc aef4 583d 108b d7bb c426 fe3c
00000390: e6d9 653d 58d8 443c 1c66 56bd 6460 29bd
000003a0: 4cff f93c a08f 583d 9c80 8b3c 8077 423c
000003b0: d02f 51bd 48cb bbbc 0a23 743d 40ea dbbb
000003c0: 10bf 74bd 70f3 3abc 2cc3 94bc dacb 4d3d
000003d0: 8032 bd3c a69f 5e3d 64e8 69bd dc59 413d
000003e0: c00d e3bc f22e 613d a8af 513c 924f 033d
000003f0: d8d2 4ebc f6bb 3ebd 40a7 85bb 9cf7 08bd

fc1.bias f4 [256]
0.070226386 -0.10079189 0.22753741 0.22515036 0.11927016 -0.018877119 0.14856286 0.03432648
-0.044456303 0.008223668 0.042430207 -0.06378889 -0.1635885 -0.051930875 0.07836513 -0.028598994
0.20938562 0.031709597 0.019378737 -0.16358718 0.03485106 0.17059742 0.14641894 -0.21154338
-0.1353221 0.014964387 0.018469438 -0.012588143 0.10804398 -0.08001393 0.18893538 -0.115515634
0.10147546 0.07520585 -0.101526424 0.00097440183 -0.04099475 0.15329783 -0.15889338 -0.06319328
-0.09201011 -0.078924045 -0.04695633 0.016232118 -0.09462932 -0.0022743493 -0.21383026 0.22656296
-0.19014297 -0.08745937 -0.22572276 -0.22970611 -0.07960963 0.054975376 -0.12042543 0.024468467
-0.23394187 0.098547176 -0.17679797 0.16640542 -0.08595589 0.055958763 0.01998581 0.14095332
0.20754428 0.016562238 0.04047273 -0.13979393 0.13676347 0.19752757 0.119375154 0.23462273
0.17597325 0.17679147 0.13841416 -0.121812426 0.132223 0.15866937 0.23117079 0.018854633
-0.034976467 -0.05993998 -0.2325095 0.20092754 0.15770449 -0.18563375 0.1547855 0.2273751
-0.09654169 -0.065597385 0.23090194 -0.23070204 -0.19152632 0.18147294 0.10540758 -0.19149405
-0.05933082 -0.12589876 0.19536321 0.21716358 0.21152966 0.17673238 0.06595598 0.19199602
-0.061950922 0.13765152 -0.17960486 0.14008982 -0.14508119 -0.033416525 0.057016715 0.17346887
-0.21744686 0.114267364 0.06163518 -0.0555242 0.13502626 0.21864055 0.13302346 -0.081806436
0.089643165 -0.1702538 0.13739495 0.033624396 0.01568292 -0.22805196 -0.19119895 0.0676402
-0.08379027 -0.07537778 -0.1510105 0.036225334 0.12419011 0.17241175 -0.21018821 0.11288451
-0.036013156 0.23293106 0.07149629 0.055017635 0.10915725 -0.011015311 0.15454175 -0.11498318
-0.23025289 -0.003017515 0.07527898 0.16617389 0.08379607 0.114915535 -0.21302934 0.23299791
0.17137592 0.16875334 -0.076732695 0.01197274 -0.15828565 -0.23020107 0.108948156 0.11189915
-0.0042625964 0.08443682 0.22524951 0.0005956143 0.20395915 -0.2030961 0.06386094 -0.18787085
-0.16122763 -0.12775797 -0.07268421 -0.18721426 -0.22110076 0.008202061 -0.0006971061 0.036184743
0.18220504 0.19158442 -0.037790805 -0.0048181415 -0.17796133 -0.17225346 0.08649261 -0.19402425
0.03553383 0.1643766 -0.21182191 0.0046655685 -0.19938675 0.16715498 0.0049571693 -0.17541824
-0.13624848 -0.04469566 -0.02391103 -0.0019073188 0.07028173 -0.05169098 -0.085913315 0.0110004395
-0.11181736 0.053119853 0.049190417 0.051082328 -0.136843 0.07669787 -0.10856655 -0.18127191
0.14786975 -0.0023323 -0.20670976 0.00018811226 0.05953963 0.052220687 -0.13069752 0.16615297
0.04833682 -0.05324395 -0.062161207 0.1493433 0.066639856 -0.13798192 0.12908919 0.1401002
0.06326015 0.086738065 -0.20695527 0.1231045 0.070627406 0.015089914 -0.072665095 -0.06977734
0.20058893 0.14112021 0.16606058 0.22260626 0.1253586 0.097561166 -0.07215501 -0.07753247
0.11375202 -0.052950352 0.020933941 0.04778333 -0.012420565 -0.080118015 -0.16377687 0.060652092
-0.07520911 -0.17676961 -0.022840366 -0.121849515 -0.07953043 0.23476516 -0.22493517 -0.11658077
00000000: dad2 8f3d fa6b cebd 91ff 683e d18d 663e
00000010: ea43 f43d 30a4 9abc dd20 183e ec99 0c3d
00000020: d017 36bd 90bc 063c 4ccb 2d3d c0a3 82bd
00000030: be83 27be 78b5 54bd e67d a03d 7048 eabc
00000040: 2f69 563e ece1 013d 28c0 9e3c 6683 27be
00000050: fcbf 0e3d 17b1 2e3e d9ee 153e d49e 58be
00000060: e091 0abe 302d 753c 384d 973c 803e 4ebc
00000070: 2a46 dd3d 58de a3bd 4778 413e 7693 ecbd
00000080: 5ed2 cf3d 8605 9a3d 16ed cfbd 006f 7f3a
00000090: 1cea 27bd 1bfa 1c3e f2b4 22be 7a6b 81bd
000000a0: cc6f bcbd eea2 a1bd 4855 40bd 38f9 843c
000000b0: 04cd c1bd 400d 15bb 52f6 5abe 1f00 683e
000000c0: d7b4 42be e61d b3bd de23 67be 1438 6bbe
000000d0: 600a a3bd dc2d 613d 9ca1 f6bd 1872 c83c
000000e0: 758e 6fbe 1ad3 c93d 870a 35be 2f66 2a3e
000000f0: a409 b0bd 0435 653d 48b9 a33c 1156 103e
00000100: 7d86 543e 88ad 873c bcc6 253d 2426 0fbe
00000110: b90b 0c3e ab44 4a3e f67a f43d f140 703e
00000120: 5532 343e d308 353e 71bc 0d3e cb78 f9bd
00000130: 7765 073e 397a 223e 09b8 6c3e 0875 9a3c
00000140: 7c43 0fbd a083 75bd f816 6ebe f3bf 4d3e
00000150: 497d 213e c616 3ebe 1780 1e3e 05d5 683e
00000160: a6b7 c5bd ec57 86bd 8f71 6c3e 283d 6cbe
00000170: 7a1f 44be 0bd4 393e eedf d73d 0417 44be
00000180: e004 73bd 9beb 00be 4b0d 483e 2160 5e3e
00000190: 3b9b 583e 55f9 343e ee13 873d 9b9a 443e
000001a0: 40c0 7dbd 85f4 0c3e 56ea 37be b573 0f3e
000001b0: 2a90 14be c4df 08bd 5c8a 693d d3a1 313e
000001c0: 64aa 5ebe 0205 ea3d 2c75 7c3d 586d 63bd
000001d0: 5344 0a3e 4fe3 5f3e 4d37 083e 228a a7bd
000001e0: d696 b73d 0357 2ebe 43b1 0c3e bcb9 093d
000001f0: 7879 803c 7486 69be a8c9 43be f286 8a3d
00000200: 3c9a abbd aa5f 9abd 7fa2 1abe 0461 143d
00000210: 6257 fe3d b58c 303e 943b 57be fe2f e73d
00000220: 8882 13bd 7b85 6e3e a66c 923d 2c5a 613d
00000230: d68d df3d 9079 34bc 3140 1e3e 4d7c ebbd
00000240: 6ac7 6bbe 80c1 45bb de2b 9a3d 7d29 2a3e
00000250: 469d ab3d d658 eb3d 5d24 5abe 0197 6e3e
00000260: 2b7d 2f3e adcd 2c3e 0826 9dbd 5029 443c
00000270: a215 22be d4b9 6bbe 3620 df3d 622b e53d
00000280: 40ad 8bbb 36ed ac3d cfa7 663e 0023 1c3a
00000290: abda 503e 6df8 4fbe 86c9 823d 3761 40be
000002a0: db18 25be fcd2 02be 76db 94bd 18b5 3fbe
000002b0: 3d68 62be f061 063c 00be 36ba 7436 143d
000002c0: f593 3a3e b52e 443e 88ca 1abd 80e1 9dbb
000002d0: 7f3b 36be 3663 30be 0a23 b13d 4bae 46be
000002e0: ec8b 113d 5752 283e d8e7 58be a0e1 983b
000002f0: 0a2c 4cbe ad2a 2b3e c06f a23b d7a0 33be
00000300: b984 0bbe cc12 37bd 10e1 c3bc 00ff f9ba
00000310: deef 8f3d ecb9 53bd 52f3 afbd 303b 343c
00000320: 8000 e5bd 3494 593d e47b 493d b43b 513d
00000330: 9220 0cbe c613 9d3d 2458 debd 589f 39be
00000340: 2b6b 173e 80d9 18bb b9ab 53be 0040 4539
00000350: d4df 733d 5ce5 553d 92d5 05be 0124 2a3e
00000360: d4fc 453d 5416 5abd c09c 7ebd 73ed 183e
00000370: 7a7a 883d 224b 0dbe f52f 043e 6d76 0f3e
00000380: 8a8e 813d baa3 b13d 15ec 53be 361e fc3d
00000390: 1aa5 903d b03b 773c 70d1 94bd 6ce7 8ebd
000003a0: 2f67 4d3e d181 103e c90b 2a3e e5f2 633e
000003b0: 015e 003e 26ce c73d 02c6 93bd 58c9 9ebd
000003c0: d2f6 e83d 78e2 58bd a87d ab3c 74b8 433d
000003d0: a07f 4bbc ea14 a4bd 20b5 27be 546e 783d
000003e0: 3c07 9abd 1803 35be b81b bbbc 3d8c f9bd
000003f0: dae0 a2bd 4766 703e 6855 66be e6c1 eebd

fc2.weight f4 [128, 256]
0.06496503 0.0044332594 -0.038706653 0.02969297 -0.010871492 0.08738331 0.08566671 0.07808428
0.03561333 0.08763974 -0.02120366 0.048728205 -0.040836323 -0.0458705 0.058168955 0.07587614
0.073912226 -0.07563765 0.041481458 0.052605264 -0.03628911 0.07611399 -0.0040339828 -0.040770657
0.05196715 -0.004909992 -0.0470871 0.08630849 0.025761873 -0.06756172 0.0028546304 -0.029782701
-0.080470406 -0.029666185 0.014684945 0.0775634 -0.05118762 -0.07608608 0.011203535 -0.047953818
-0.00552804 -0.08016431 0.05251897 0.014296792 -0.079972275 -0.04900319 0.055369936 0.048463203
0.05121144 -0.026855614 0.08683594 0.083843075 0.07824386 -0.05445257 0.004907407 -0.027310926
-0.074394666 -0.049155846 0.037410654 -0.07301678 0.039659567 0.08107322 -0.0020895973 0.058841698
-0.040144607 -0.06730286 0.029767469 -0.07602058 -0.06781368 0.076188095 -0.019714251 -0.03943867
0.011478253 -0.065728515 0.051119454 -0.045786027 0.08097673 0.026969038 0.038626693 -0.038032092
0.034358807 0.0027175844 0.036131404 0.027705535 -0.03959558 -0.015393481 0.02974046 0.083720125
0.05488979 -0.07091662 -0.08759303 0.0058535114 0.08743816 0.014886878 -0.03080551 0.062869005
0.00439623 0.0026815012 0.05740752 0.015107587 0.035809636 -0.05006977 -0.04012813 -0.029383611
0.07549126 -0.027407799 0.042382844 0.06751659 -0.05438469 -0.065489665 0.056092404 -0.0038155317
-0.06031703 -0.07495363 -0.08697143 0.023113132 -0.04865194 -0.053363074 0.034322985 0.082670905
-0.0012469441 0.02355507 -0.08080185 0.011116639 -0.080846 -0.002977319 -0.027597744 -0.06943768
-0.0360217 -0.03098179 -0.01698456 0.055412628 0.04759463 0.08334879 -0.05864463 0.009955615
-0.03488874 -0.018553719 -0.074151 0.00022049248 0.031511806 -0.054197527 -0.031182684 -0.018604249
0.061594658 -0.07277359 0.0776492 -0.065651596 -0.04509877 0.019924827 0.069627486 0.08801653
-0.013271503 -0.014895119 -0.08536409 -0.011530459 -0.05952844 -0.01153674 -0.017666496 -0.011397973
-0.07895231 0.06197997 -0.033718817 -0.051154166 0.06243316 0.064454176 -0.05244441 -0.07041898
0.0019579083 -0.05103017 -0.05167193 0.027791545 0.060890175 -0.080119364 0.06529508 0.053118475
0.08333544 0.049792387 0.044220574 0.037485965 0.020245291 -0.087950505 0.04782357 -0.0075639263
0.045904867 0.012382239 -0.0171789 0.03874863 -0.048113704 -0.0650835 -0.013636716 0.08187089
0.00062562525 0.060997374 -0.08106755 -0.031919073 -0.048156746 0.05365824 -0.03700507 -0.0008540973
-0.06473136 -0.023126736 0.02525685 -0.032639995 0.058894895 -0.08788267 -0.0070500746 -0.026861947
-0.030457642 0.046083473 -0.03888637 0.023347206 -0.02196744 -0.07699351 0.07621453 0.007860079
-0.009278446 0.06787502 -0.045182865 -0.008264452 0.08497802 0.024701186 0.06948545 0.030432351
0.028693214 0.08352064 -0.058916647 0.0865478 0.04082503 0.013195977 -0.06916461 -0.07920736
0.018054351 0.055661313 -0.08258936 0.051940106 0.013061278 -0.052726675 -0.08429344 -0.07843092
0.07793679 -0.06470913 0.062499233 0.07867307 -0.05461158 -0.07183584 -0.06112563 0.059940122
-0.032394785 0.020641722 0.06236019 0.04582218 -0.00838089 0.05160626 0.050942384 -0.008499578
00000000: 630c 853d e044 913b de8a 1ebd ac3e f33c
00000010: 581e 32bc 05f6 b23d 0772 af3d a7ea 9f3d
00000020: 48df 113d 777c b33d 4cb3 adbc 3a97 473d
00000030: fd43 27bd b5e2 3bbd 9242 6e3d f364 9b3d
00000040: 4b5f 973d eae7 9abd 76e8 293d 9e78 573d
00000050: e4a3 14bd a7e1 9b3d 802f 84bb 22ff 26bd
00000060: 82db 543d 00e4 a0bb 67de 40bd 81c2 b03d
00000070: 900a d33c cd5d 8abd c014 3b3b dafa f3bc
00000080: abcd a4bd 8006 f3bc 2099 703c 8fd9 9e3d
00000090: 1caa 51bd 05d3 9bbd 088f 373c 396b 44bd
000000a0: 9024 b5bb 302d a4bd 221e 573d 183d 6a3c
000000b0: 81c8 a3bd 92b7 48bd 96cb 623d 5a81 463d
000000c0: 16c3 513d 4e00 dcbc 0bd7 b13d ebb5 ab3d
000000d0: 513e a03d a809 5fbd 50ce a03b 2abb dfbc
000000e0: 3b5c 98bd a457 49bd ea3b 193d d289 95bd
000000f0: 1272 223d b709 a63d a0f1 08bb fe03 713d
00000100: ac6e 24bd 15d6 89bd e8da f33c aeb0 9bbd
00000110: e6e1 8abd 8108 9c3d c87f a1bc 718a 21bd
00000120: 480f 3c3c ac9c 86bd a262 513d 218a 3bbd
00000130: 21d7 a53d 2cee dc3c 0637 1e3d 8ac7 1bbd
00000140: d2bb 0c3d 8019 323b 86fe 133d b8f6 e23c
00000150: fa2e 22bd f034 7cbc 44a2 f33c 7575 ab3d
00000160: 1ed4 603d bc3c 91bd f963 b3bd d0ce bf3b
00000170: c712 b33d 18e8 733c d65b fcbc 77c1 803d
00000180: 400e 903b 20bc 2f3b 2624 6b3d d085 773c
00000190: 20ad 123d f615 4dbd 655d 24bd e6b5 f0bc
000001a0: 299b 9a3d 5286 e0bc a299 2d3d 2346 8a3d
000001b0: 7bc2 5ebd 721f 86bd 26c1 653d 000e 7abb
000001c0: fd0e 77bd 4a81 99bd 141e b2bd c057 bd3c
000001d0: 4247 47bd 3d93 5abd 4296 0c3d 5d4f a93d
000001e0: 8070 a3ba 90f6 c03c 717b a5bd 9022 363c
000001f0: 9692 a5bd 201f 43bb aa14 e2bc 5835 8ebd
00000200: 7d8b 13bd 86cd fdbc 3423 8bbc 5af8 623d
00000210: 96f2 423d c5b2 aa3d 5a35 70bd e01c 233c
00000220: 7fe7 0ebd f8fd 97bc 7bdc 97bd 0034 6739
00000230: 8612 013d 3afe 5dbd d472 ffbc f067 98bc
00000240: ae4a 7c3d 520a 95bd 8b06 9f3d 5874 86bd
00000250: 7db9 38bd 6439 a33c db98 8e3d 0342 b43d
00000260: b870 59bc a80a 74bc 5ed3 aebd 40ea 3cbc
00000270: 18d4 73bd 9804 3dbc 54b9 90bc 90be 3abc
00000280: c0b1 a1bd b6de 7d3d be1c 0abd 0887 51bd
00000290: eab9 7f3d 8d00 843d f3cf 56bd d437 90bd
000002a0: 4050 003b 0305 51bd f2a5 53bd 18ab e33c
000002b0: fa67 793d 9f15 a4bd 6db9 853d c292 593d
000002c0: c5ab aa3d 1af3 4b3d a220 353d e28a 193d
000002d0: 74d9 a53c 651f b4bd a6e2 433d d0da f7bb
000002e0: be06 3c3d e0de 4a3c c4ba 8cbc e2b6 1e3d
000002f0: e012 45bd 804a 85bd 886c 5fbc edab a73d
00000300: 0001 243a 62d8 793d be06 a6bd 93bd 02bd
00000310: 0240 45bd bec8 5b3d a192 17bd 80e5 5fba
00000320: e091 84bd 4874 bdbc 74e7 ce3c 84b1 05bd
00000330: c63b 713d d4fb b3bd 5004 e7bb 960d dcbc
00000340: 4e82 f9bc 06c2 3c3d 5047 1fbd a442 bf3c
00000350: 10f5 b3bc c6ae 9dbd 5d16 9c3d 90c7 003c
00000360: a004 18bc 0f02 8b3d ab11 39bd a067 07bc
00000370: f508 ae3d 245a ca3c 634e 8e3d 444d f93c
00000380: 080e eb3c df0c ab3d 9552 71bd f93f b13d
00000390: 2638 273d f033 583c 2da6 8dbd 7837 a2bd
000003a0: b8e6 933c 1efd 633d 9c24 a9bd 26bf 543d
000003b0: f8fe 553c edf7 57bd 0aa2 acbd 64a0 a0bd
000003c0: 539d 9f3d 3886 84bd 32ff 7f3d 591f a13d
000003d0: 64b0 5fbd ab1e 93bd de5e 7abd c683 753d
000003e0: 65b0 04bd d418 a93c 666d 7f3d 0ab0 3b3d
000003f0: 0050 09bc 1661 533d f6a8 503d d041 0bbc

fc2.bias f4 [128]
-0.006712742 0.0564195 -0.0016845539 -0.014347367 0.048584804 0.008302256 0.006937355 -0.016425483
0.0026760548 0.01253967 0.010052696 -0.04629337 0.02391871 -0.027721182 -0.01806292 0.060154743
0.027752906 -0.026743822 0.012756117 -0.016002104 0.012546599 0.03586778 0.020593949 0.026265644
0.0050254837 0.037816733 -0.053051434 -0.0068050325 0.033539653 -0.060795538 0.0064441487 0.031566747
0.06211105 0.019031838 -0.05693771 0.005173154 0.00894893 0.036967404 0.03250955 0.03366635
0.036458626 0.045319237 0.014755614 -0.022866942 -0.0008761734 0.0040264353 -0.031079128 -0.05870145
0.04298213 0.026731566 -0.04590048 -0.022574596 0.0328267 0.039524958 0.0075330064 0.007043883
-0.010971442 -0.020114243 -0.01842437 0.012722567 0.03759917 -0.04793354 0.021211132 0.03416407
-0.012276992 -0.029448822 -0.033792444 -0.055399828 0.020287842 -0.028181843 0.009064011 -0.016047813
-0.011026293 -0.058094457 -0.040919557 0.00701309 0.014832102 0.018586107 0.010486051 -0.041243143
0.05276431 -0.018802926 0.021123812 -0.011838675 0.02802901 0.041923188 -0.015569307 -0.026542969
0.010219261 0.061821982 -0.04768791 -0.030458078 0.012787342 -0.036944948 0.06001491 0.023881704
0.013091423 0.0568666 0.0038389713 -0.04486285 -0.013951942 -0.0013652369 0.040944956 -0.022419922
-0.041775554 -0.05111868 -0.051776007 -0.04779087 -0.04477956 0.00033177435 -0.028955735 -0.04803104
0.051436692 0.043667212 -0.034304194 0.043912165 -0.04196725 -0.034865968 -0.018364102 -0.032226086
0.016139604 0.00077522546 0.03791154 -0.0088792145 -0.04184427 -0.021222174 -0.05972697 -0.062247522
00000000: 90f6 dbbb 2218 673d 40cc dcba 3811 6bbc
00000010: dc00 473d 3006 083c c052 e33b bc8e 86bc
00000020: c060 2f3b 3073 4d3c 10b4 243c 1e9e 3dbd
00000030: 2cf1 c33c 8817 e3bc b0f8 93bc d264 763d
00000040: 105a e33c dc15 dbbc 08ff 503c d816 83bc
00000050: 4090 4d3c 18ea 123d a4b4 a83c 0c2b d73c
00000060: d0ac a43b b8e5 1a3d 764c 59bd c0fc debb
00000070: e060 093d be04 79bd 7029 d33b 224c 013d
00000080: 2868 7e3d a8e8 9b3c 8437 69bd 9083 a93b
00000090: 889e 123c 226b 173d bc28 053d bae5 093d
000000a0: a455 153d aaa0 393d 88c1 713c 7453 bbbc
000000b0: 00af 65ba 30f0 833b a899 febc ee70 70bd
000000c0: 080e 303d 28fc da3c 2402 3cbd 5cee b8bc
000000d0: 4a75 063d ece4 213d 70d7 f63b 60d0 e63b
000000e0: 90c1 33bc a0c6 a4bc b4ee 96bc 5072 503c
000000f0: 9601 1a3d f655 44bd f8c2 ad3c a0ef 0b3d
00000100: 7025 49bc a83e f1bc f269 0abd eeea 62bd
00000110: b032 a63c 9cdd e6bc 3881 143c b476 83bc
00000120: a0a7 34bc 74f4 6dbd 449b 27bd 10ce e53b
00000130: 5802 733c e441 983c b0cd 2b3c 92ee 28bd
00000140: 641f 583d 9808 9abc d80b ad3c 00f7 41bc
00000150: 189d e53c a6b7 2b3d 6816 7fbc a470 d9bc
00000160: b06e 273c 0c39 7d3d 6654 43bd 3883 f9bc
00000170: 0082 513c 9653 17bd 32d2 753d 90a3 c33c
00000180: 687d 563c f4ec 683d 4097 7b3b 1cc2 37bd
00000190: b096 64bc c0f1 b2ba e6b5 273d fca9 b7bc
000001a0: d81c 2bbd d261 51bd 1413 54bd 5cc0 43bd
000001b0: c66a 37bd 00f2 ad39 9434 edbc 32bc 44bd
000001c0: 48af 523d 64dc 323d 8e82 0cbd 3edd 333d
000001d0: dae5 2bbd 9ecf 0ebd 5070 96bc 80ff 03bd
000001e0: 3437 843c 8038 4b3a 2249 1b3d 207a 11bc
000001f0: e664 2bbd 20da adbc 44a4 74bd 42f7 7ebd

fc3.weight f4 [1, 128]
-0.003 -0.003 -0.003 -0.003 -0.003 -0.003 -0.003 -0.003
-0.003 -0.003 -0.003 -0.003 -0.003 -0.003 -0.003 -0.003
-0.003 -0.003 -0.003 -0.003 -0.003 -0.003 -0.003 -0.003
-0.003 -0.003 -0.003 -0.003 -0.003 -0.003 -0.003 -0.003
-0.003 -0.003 -0.003 -0.003 -0.003 -0.003 -0.003 -0.003
-0.003 -0.003 -0.003 -0.003 -0.003 -0.003 -0.003 -0.003
-0.003 -0.003 -0.003 -0.003 -0.003 -0.003 -0.003 -0.003
-0.003 -0.003 -0.003 -0.003 -0.003 -0.003 -0.003 -0.003
-0.003 -0.003 -0.003 -0.003 -0.003 -0.003 -0.003 -0.003
-0.003 -0.003 -0.003 -0.003 -0.003 -0.003 -0.003 -0.003
-0.003 -0.003 -0.003 -0.003 -0.003 -0.003 -0.003 -0.003
-0.003 -0.003 -0.003 -0.003 -0.003 -0.003 -0.003 -0.003
-0.003 -0.003 -0.003 -0.003 -0.003 -0.003 -0.003 -0.003
-0.003 -0.003 -0.003 -0.003 -0.003 -0.003 -0.003 -0.003
-0.003 -0.003 -0.003 -0.003 -0.003 -0.003 -0.003 -0.003
-0.003 -0.003 -0.003 -0.003 -0.003 -0.003 -0.003 -0.003
00000000: a69b 44bb a69b 44bb a69b 44bb a69b 44bb
00000010: a69b 44bb a69b 44bb a69b 44bb a69b 44bb
00000020: a69b 44bb a69b 44bb a69b 44bb a69b 44bb
00000030: a69b 44bb a69b 44bb a69b 44bb a69b 44bb
00000040: a69b 44bb a69b 44bb a69b 44bb a69b 44bb
00000050: a69b 44bb a69b 44bb a69b 44bb a69b 44bb
00000060: a69b 44bb a69b 44bb a69b 44bb a69b 44bb
00000070: a69b 44bb a69b 44bb a69b 44bb a69b 44bb
00000080: a69b 44bb a69b 44bb a69b 44bb a69b 44bb
00000090: a69b 44bb a69b 44bb a69b 44bb a69b 44bb
000000a0: a69b 44bb a69b 44bb a69b 44bb a69b 44bb
000000b0: a69b 44bb a69b 44bb a69b 44bb a69b 44bb
000000c0: a69b 44bb a69b 44bb a69b 44bb a69b 44bb
000000d0: a69b 44bb a69b 44bb a69b 44bb a69b 44bb
000000e0: a69b 44bb a69b 44bb a69b 44bb a69b 44bb
000000f0: a69b 44bb a69b 44bb a69b 44bb a69b 44bb
00000100: a69b 44bb a69b 44bb a69b 44bb a69b 44bb
00000110: a69b 44bb a69b 44bb a69b 44bb a69b 44bb
00000120: a69b 44bb a69b 44bb a69b 44bb a69b 44bb
00000130: a69b 44bb a69b 44bb a69b 44bb a69b 44bb
00000140: a69b 44bb a69b 44bb a69b 44bb a69b 44bb
00000150: a69b 44bb a69b 44bb a69b 44bb a69b 44bb
00000160: a69b 44bb a69b 44bb a69b 44bb a69b 44bb
00000170: a69b 44bb a69b 44bb a69b 44bb a69b 44bb
00000180: a69b 44bb a69b 44bb a69b 44bb a69b 44bb
00000190: a69b 44bb a69b 44bb a69b 44bb a69b 44bb
000001a0: a69b 44bb a69b 44bb a69b 44bb a69b 44bb
000001b0: a69b 44bb a69b 44bb a69b 44bb a69b 44bb
000001c0: a69b 44bb a69b 44bb a69b 44bb a69b 44bb
000001d0: a69b 44bb a69b 44bb a69b 44bb a69b 44bb
000001e0: a69b 44bb a69b 44bb a69b 44bb a69b 44bb
000001f0: a69b 44bb a69b 44bb a69b 44bb a69b 44bb
