models/checkpoint_critic_local_6.pth (torch, 227615 bytes, 5 tensors)

fcs1.weight f4 [256, 80]
0	0x3d39d972	0.045373388
1	0xbc650d18	-0.013980173
2	0xbba05f20	-0.0048941523
3	0x3835f000	4.337728e-05
4	0x3d08d02c	0.033401653
5	0xbcdcd6e8	-0.026957944
6	0xbd7e706a	-0.062118925
7	0xbc3f6560	-0.0116818845
8	0xbc51eca8	-0.012812771
9	0xbcf37a08	-0.029721275
10	0x3c1c9648	0.009557314
11	0xbd422944	-0.047402635
12	0x3c95425c	0.01822012
13	0x3c97d610	0.01853469
14	0xbc55bdb8	-0.013045721
15	0xbd494588	-0.049138576
16	0x3cabcc88	0.020971552
17	0x3d782c4c	0.06058912
18	0xbd641a7a	-0.055689313
19	0xbd19ae36	-0.037519656
20	0xbd5c8962	-0.053841956
21	0xbd3d77b2	-0.04625673
22	0x3ce9cdc0	0.028540492
23	0x3ac67f00	0.001514405
24	0xbd640f26	-0.05567851
25	0x3d789264	0.060686484
26	0x3d15763c	0.03648971
27	0xbd730ac2	-0.05933643
28	0xbc5ad6b0	-0.01335685
29	0xbd6a4552	-0.057195015
30	0xbd1ea9be	-0.038736098
31	0x3d1eee46	0.038801454
32	0x3b903f10	0.004402049
33	0xbca11f40	-0.019668221
34	0xbd6c8cb6	-0.05775138
35	0xbb5087a0	-0.003181912
36	0x3d4ac872	0.049507566
37	0xbcf156a0	-0.029460251
38	0x3d60d084	0.054886356
39	0xbacc0300	-0.0015564859
40	0x3ce5260c	0.027972244
41	0xbcf2364c	-0.029566906
42	0xbca4d240	-0.020119786
43	0xbd2eac22	-0.042644627
44	0x3caefb50	0.02136007
45	0xbac182c0	-0.0014763698
46	0xbd694098	-0.056946367
47	0x3d1d0608	0.03833583
48	0x3c444560	0.011979431
49	0x3d598994	0.05310972
50	0xbc301bf8	-0.010748856
51	0xbd249c52	-0.04018814
52	0x3d4abf42	0.049498804
53	0x3c8d100c	0.017219566
54	0xbccfd250	-0.02536884
55	0xbd133304	-0.035937324
56	0xbc3f5818	-0.011678718
57	0x3b1b0bc0	0.0023658127
58	0xbd224c30	-0.03962344
59	0xbd2066ee	-0.03916066
60	0xbd79d65e	-0.060995452
61	0x3cb00594	0.021487035
62	0xbcef746c	-0.029230319
63	0x3d117d20	0.03551972
64	0xbd45e3ee	-0.048313074
65	0x3c644590	0.013932601
66	0xbcd06998	-0.025440976
67	0x3c990318	0.018678233
68	0xbbf3d7f0	-0.0074415132
69	0xbc787e28	-0.015166797
70	0x3c1d23f8	0.009591095
71	0x3cd90720	0.026492655
72	0x3d39a780	0.045325756
73	0x3d615fca	0.055022992
74	0x3c8fd624	0.017558165
75	0x3af86640	0.0018951371
76	0xbd20b67e	-0.039236538
77	0xbccda200	-0.025101662
78	0x3c95d6d8	0.018290922
79	0x3d4bcb26	0.049754284
80	0xbd698204	-0.05700876
81	0x3cb6e8c0	0.02232778
82	0x3ce43c3c	0.027860753
83	0xbcb606d8	-0.02222006
84	0xbccde2f0	-0.025132626
85	0x3d28da02	0.041223533
86	0x3cc88a14	0.024479903
87	0x3c8ad6a0	0.016948044
88	0x3b3584e0	0.0027697608
89	0x3c8fe104	0.01756335
90	0xbd780b82	-0.06055785
91	0xbd30e89c	-0.043190584
92	0x3d1b3742	0.037894495
93	0x3cf99e80	0.030471087
94	0x3ce3480c	0.027744316
95	0xbc250c48	-0.010073729
96	0x3cf747f4	0.030185677
97	0x3d3f9854	0.04677613
98	0xbbf6af30	-0.007528208
99	0x3cfa4a70	0.030553073
100	0x3c880e34	0.016608335
101	0xbc921650	-0.017832905
102	0x3d6735f8	0.056447953
103	0xbaec1800	-0.0018012524
104	0xbd4f5818	-0.050621122
105	0x3ce4c0d4	0.027923979
106	0x3b75ccc0	0.0037506074
107	0x3cb26784	0.021777876
108	0xbce457d8	-0.027873918
109	0xbd593874	-0.053032354
110	0xbcaf25b0	-0.021380275
111	0x3d6f1ba4	0.05837597
112	0xbcb936e4	-0.022609182
113	0xbd39a5a4	-0.045323983
114	0x3d6cf604	0.057851806
115	0x3d776a06	0.060403846
116	0x3c3cd7a8	0.011526026
117	0x3cdb60a0	0.026779473
118	0xbc17eb38	-0.009272389
119	0xbd05cd20	-0.032666326
120	0x3cf207e0	0.02954477
121	0xbb9e15b0	-0.0048243627
122	0x3d3cf1d0	0.046129048
123	0xbd166a66	-0.036722563
124	0x3d3d1296	0.046160303
125	0xbd49cbb2	-0.049266525
126	0x3d5fd442	0.054645784
127	0xbc95b150	-0.018273026
128	0x3d63a20c	0.05557446
129	0xbd69b4f4	-0.057057336
130	0xbd289da0	-0.041165948
131	0x3c675050	0.014118269
132	0x3d3a7712	0.04552371
133	0xbb5f6480	-0.0034087002
134	0x3cdba69c	0.026812844
135	0x3d123d22	0.035702832
136	0xbc822b04	-0.015889652
137	0x3ce98004	0.028503425
138	0xbd55ee38	-0.052229136
139	0x3b31ea00	0.0027147532
140	0xbd53c348	-0.051699907
141	0x3cad742c	0.02117356
142	0xbd4dca30	-0.05024165
143	0x3c8bf294	0.017083444
144	0xbd64b624	-0.055837765
145	0xbd7433ee	-0.059619837
146	0x3d456d04	0.04819967
147	0xbb0266a0	-0.0019897595
148	0x3c817a08	0.01580526
149	0xbce87da8	-0.02838023
150	0x3ba4baf0	0.0050271675
151	0xbd319ca6	-0.043362282
152	0x3bf1e460	0.0073819607
153	0x3d2ec774	0.042670682
154	0x3d0fdc74	0.03512235
155	0x3baa9060	0.005205199
156	0xbd0ed338	-0.034869403
157	0xbd286cde	-0.04111945
158	0xbc08ce58	-0.008349977
159	0xbcbd09e0	-0.023075998
160	0xbcd58cec	-0.026068173
161	0x3ad316c0	0.0016104802
162	0x3c360488	0.011109479
163	0x3cf21530	0.029551119
164	0xba779380	-0.00094442815
165	0xbd13eaac	-0.036112472
166	0x3cc4bdc8	0.024016276
167	0xbcd765e0	-0.026293695
168	0xbd35be8a	-0.044371165
169	0xbd32cbac	-0.043651268
170	0x3b03a160	0.00200852
171	0xbcb65868	-0.022258952
172	0xbd237f54	-0.03991635
173	0x3d2fab38	0.042887896
174	0xbd502142	-0.050812967
175	0xbb2fe4e0	-0.00268393
176	0xbd2dd278	-0.042437047
177	0x3c05b7d0	0.0081615
178	0x3d765314	0.060137823
179	0xbd6ac4fc	-0.057316765
180	0x3cb77480	0.022394419
181	0xbc0c9358	-0.008580051
182	0xbcf9eef4	-0.03050945
183	0x3baabcb0	0.0052104816
184	0x3c969598	0.018381879
185	0xbd77cd9e	-0.060498826
186	0xbd4e9ed0	-0.050444424
187	0xbd7798b6	-0.06044837
188	0xbd4f1844	-0.05056025
189	0xbce8e918	-0.02843146
190	0x3d0e410a	0.034729995
191	0x3cee195c	0.029064827
192	0xbc3e6dd8	-0.0116228685
193	0xbd06cbfe	-0.032909386
194	0xb9fc1b00	-0.00048085302
195	0x3d0d95cc	0.034566686
196	0xbd19b898	-0.037529558
197	0x3d755ecc	0.05990486
198	0x3d06b214	0.032884672
199	0xbcf9cde4	-0.030493684
200	0xbcdc9c84	-0.026930101
201	0x3ce9cfbc	0.028541438
202	0xbd7d2cda	-0.061810352
203	0xbd29ac88	-0.041424304
204	0x3bb32dd0	0.0054681078
205	0xbc69abc8	-0.014262147
206	0x3cd1e3a8	0.02562125
207	0xbd2eec68	-0.042705923
208	0x3d522b2e	0.05131071
209	0x3ca12ea8	0.019675568
210	0x3d524e96	0.051344477
211	0x3cce2434	0.025163747
212	0xbd09436e	-0.03351157
213	0xbd1aad6c	-0.037763044
214	0x3d468e42	0.04847551
215	0xbccbb6e4	-0.024867482
216	0xbbfb3af0	-0.007666938
217	0xbd70f4da	-0.05882726
218	0xbd713f26	-0.058898114
219	0xbcfdb1a8	-0.030968502
220	0x3c632ab0	0.013865158
221	0x3d5cb1e0	0.053880572
222	0xbd61d9e0	-0.055139422
223	0xbd490f38	-0.04908678
224	0x3b28be80	0.0025748312
225	0xbcda4668	-0.0266449
226	0xbd7b6582	-0.061376102
227	0xbcacd734	-0.02109871
228	0x3b94c570	0.004540138
229	0x3c871518	0.01648955
230	0xbbfef120	-0.007780209
231	0xbcd14c8c	-0.025549196
232	0xbc402a10	-0.0117287785
233	0xbd3d6058	-0.04623446
234	0x3c3f1c98	0.011664532
235	0x3d67b2e6	0.056567095
236	0xbc90d33c	-0.01767885
237	0x3d0a36b2	0.033743568
238	0x3c706cf0	0.01467441
239	0x3d236818	0.039894193
240	0x3a598f80	0.0008299276
241	0x3c6d1578	0.014470451
242	0x3d014880	0.031563282
243	0x3ce48520	0.02789551
244	0xbb95f9a0	-0.0045768768
245	0xbc872c98	-0.016500756
246	0xbc8b86ec	-0.01703211
247	0xbd4b89c2	-0.049691923
248	0x3d5b578a	0.05355028
249	0xbc37b990	-0.011213675
250	0xbcfbe284	-0.03074766
251	0x3d334808	0.043769866
252	0xbd025aaa	-0.031824745
253	0x3cefac7c	0.029257052
254	0x3cf6e7c0	0.030139804
255	0xbcc1e660	-0.023669422

fcs1.bias f4 [256]
0	0xbda2e721	-0.079542406
1	0x3ddb74cc	0.107156366
2	0xbd3a0a44	-0.045419946
3	0x3d7613f4	0.060077623
4	0xbd987331	-0.07443846
5	0x3cd3b9d8	0.025845453
6	0x3d1e6244	0.038667932
7	0xbd6b5632	-0.05745525
8	0xbd15dc4e	-0.036587052
9	0xbde0708b	-0.10958966
10	0x3d9a969c	0.07548258
11	0xbd7665f4	-0.060155824
12	0x3bc07040	0.0058727562
13	0xbde1b009	-0.11019904
14	0xbda20a94	-0.07912174
15	0xbd88c5e0	-0.06678367
16	0x3a455500	0.00075276196
17	0xbdcc547a	-0.0997705
18	0x3d2d6564	0.04233302
19	0xbcd96e4c	-0.026541851
20	0xbdd084f4	-0.10181609
21	0xbb116fa0	-0.0022191778
22	0xbd014714	-0.031561926
23	0x3d2fad0c	0.04288964
24	0xbdc87dee	-0.09789644
25	0xbd62fcbd	-0.05541681
26	0xbcf1b1e8	-0.029503778
27	0xbce72ee0	-0.028220594
28	0xbd50b755	-0.05095609
29	0x3bb7d870	0.005610518
30	0xbdaae4e3	-0.08344438
31	0xbdca66bf	-0.098828785
32	0x3d8271ea	0.06369384
33	0x3d90ae56	0.07064502
34	0xbd23f6ac	-0.040030167
35	0xbd642a9f	-0.05570471
36	0xbd732fc0	-0.05937171
37	0x3b3fbfc0	0.002925858
38	0xbdd56539	-0.10419697
39	0xbde25295	-0.110509075
40	0xbd1a5136	-0.037675105
41	0x3ca75c58	0.020429775
42	0xbdd7223a	-0.10504575
43	0x3d7cbb70	0.06170219
44	0xbdd51964	-0.104052335
45	0x3aaae7c0	0.0013039038
46	0xbde0f115	-0.10983483
47	0xbcfbab38	-0.030721292
48	0x3d68048c	0.05664496
49	0x3ca197c8	0.019725695
50	0xbbd37fb0	-0.0064544305
51	0x3c7845c0	0.015153348
52	0x3dc45206	0.09585957
53	0xbdae61bc	-0.08514735
54	0xbce1300c	-0.02748873
55	0xbc13bd68	-0.009017326
56	0xbdda3758	-0.10655087
57	0xbd3c933a	-0.046038844
58	0x3cb02668	0.021502689
59	0x3c08c900	0.008348703
60	0x3cfab688	0.030604616
61	0x3dd7769e	0.10520671
62	0x3cba1ed0	0.02271977
63	0x3d165e60	0.036711097
64	0x3d846d1c	0.064661235
65	0x3dbafe30	0.09130514
66	0x3c345f60	0.011009067
67	0x3c3c8308	0.01150585
68	0x3d6dc870	0.05805248
69	0x3da81da4	0.082087785
70	0xbd338c2a	-0.043834843
71	0x3d963268	0.07333833
72	0x3d9f46a8	0.077771485
73	0xbdb3aab6	-0.08772795
74	0xbda6dab2	-0.081471816
75	0x3c9fe500	0.019518375
76	0x3db86da4	0.09005287
77	0xbbe00620	-0.0068366677
78	0xbd1c23ec	-0.038120195
79	0xbdc01440	-0.093788624
80	0x3d96fb84	0.073721915
81	0xbc8bb010	-0.017051727
82	0xbd31c1ac	-0.04339759
83	0xbd369d72	-0.044583745
84	0x3dcd1872	0.10014428
85	0xbd123dd4	-0.035703495
86	0x3d771b9c	0.060329065
87	0xbdb44750	-0.08802664
88	0x3d02331c	0.031787023
89	0xbd762250	-0.060091317
90	0x3d4d03ac	0.05005233
91	0xbd417cb4	-0.047238067
92	0xbda09316	-0.078405544
93	0x3d42b69c	0.04753743
94	0xbd3fcb58	-0.046824783
95	0xbdcf9424	-0.101356775
96	0x3d89fb16	0.06737344
97	0x3c1a05b8	0.0094007775
98	0xbaf1b1c0	-0.0018439814
99	0x3da3ac88	0.07991892
100	0x3dc7eaa0	0.09761548
101	0x3dca7ae8	0.09886724
102	0x3dd205dc	0.10255024
103	0x3d203b64	0.03911914
104	0x3c663810	0.014051452
105	0x3d5ead3c	0.054364428
106	0x3d94c25e	0.07263635
107	0x3d6f2ebc	0.05839418
108	0x3db02a9c	0.08601877
109	0xbda7f50b	-0.08201035
110	0x3d49edf0	0.04929918
111	0x3bb06c30	0.0053839907
112	0x3cbe36c0	0.023219466
113	0x3c399280	0.011326432
114	0x3db3c6da	0.08778162
115	0x3d82adec	0.06380829
116	0x3dacc746	0.08436446
117	0x3d0b08b8	0.03394386
118	0xbd418c96	-0.047253214
119	0x3cc04050	0.023468167
120	0xbce14ec4	-0.027503379
121	0xbbbb1790	-0.005709596
122	0x3d93f47a	0.072243646
123	0xbd9b3a1d	-0.075794436
124	0x3c5528d8	0.013010226
125	0x3da8a062	0.082337156
126	0xbd42d3d8	-0.04756531
127	0xbce319e0	-0.0277223
128	0x3d745f24	0.059661046
129	0x3d06d17c	0.032914624
130	0xbd8bd91e	-0.06828521
131	0xbbc34ed0	-0.005960323
132	0x3dcad9c8	0.0990482
133	0xbca20be0	-0.019781053
134	0xbd60cc0f	-0.054882105
135	0xbc05aaa8	-0.008158363
136	0x3ce0e298	0.027451798
137	0x3d55c0a8	0.052185684
138	0x3d0d6a78	0.034525365
139	0xbdc06d99	-0.09395904
140	0xbd4db8a8	-0.05022493
141	0xbdd6a8c1	-0.10481406
142	0x3dd65f8e	0.10467444
143	0xbdbe4aec	-0.09291634
144	0x3bd4fb10	0.0064996555
145	0x3d9a11e8	0.075229466
146	0x3d6f4400	0.05841446
147	0x3cdb5640	0.026774526
148	0x3bbb46a0	0.0057152063
149	0xbc15b460	-0.009137243
150	0xbd061920	-0.032738805
151	0xbd8ef084	-0.069794685
152	0xbda3d8ba	-0.08000322
153	0xbdbbff92	-0.091796055
154	0x3dbdcec8	0.09267956
155	0x3b344d20	0.002751179
156	0xbd4ce168	-0.05001965
157	0xbda3d450	-0.0799948
158	0x3dd16500	0.10224342
159	0x3da7e228	0.08197433
160	0xbde429cb	-0.11140784
161	0x3d20a660	0.039221168
162	0x3d491410	0.0490914
163	0x3d8c75a4	0.06858376
164	0xbd07cd16	-0.03315457
165	0x3d938b20	0.0720427
166	0x3d0db534	0.034596637
167	0xbdd5e001	-0.10443116
168	0x3daf71ac	0.08566603
169	0x3d2107ac	0.039313957
170	0xbd28100e	-0.041030936
171	0x3da18f30	0.07888639
172	0x3d07864c	0.03308706
173	0x3daab49a	0.08335228
174	0xbdcbe347	-0.09955459
175	0x3d5f1954	0.054467514
176	0xbd288b40	-0.041148424
177	0xbd25658a	-0.04038004
178	0xbd13532c	-0.03596799
179	0x3dd4284a	0.10359247
180	0xbd9256a4	-0.07145432
181	0xbd7d5ee1	-0.06185806
182	0xbd10d64c	-0.03536062
183	0x3dc7c46c	0.097542614
184	0xba8e6700	-0.0010864437
185	0x3d3e5448	0.046467096
186	0xbcb0827c	-0.021546595
187	0xbd1367be	-0.035987608
188	0xbd58a043	-0.052887212
189	0xbd908340	-0.07056284
190	0xbc8abfa0	-0.016937077
191	0x3d9b05e0	0.0756948
192	0xbdbadd64	-0.09124258
193	0xbc34aa98	-0.011027001
194	0x3d625ec4	0.055266157
195	0xbd83cc58	-0.0643546
196	0x3d87e240	0.06634951
197	0x3d83b26a	0.06430514
198	0x3d9ca2a0	0.07648206
199	0x3d9cf8a0	0.07664609
200	0x3c341038	0.010990195
201	0x3b822f90	0.003972955
202	0xbdd88c9e	-0.105736956
203	0xbdcd5bbf	-0.10027265
204	0x3da3efb8	0.08004707
205	0x3dc9ff4c	0.09863147
206	0xbd856185	-0.06512741
207	0x3cec8598	0.028872296
208	0x3d8a1f7c	0.067442864
209	0xbde11022	-0.10989405
210	0x3daf5100	0.085603714
211	0xbb149f20	-0.0022677854
212	0x3ddb4e06	0.10708241
213	0x3d53d6c4	0.05171849
214	0x3ad22d40	0.0016035214
215	0xbc8878f8	-0.016659245
216	0xbd1365a6	-0.03598561
217	0xbd92ce2c	-0.071682304
218	0xbc3b2378	-0.011422031
219	0x3d20b81c	0.03923808
220	0x3b63d9a0	0.0034767166
221	0x3d75fb18	0.060053915
222	0xbc723590	-0.014783278
223	0xbda19f7c	-0.07891747
224	0x3aa0d3c0	0.0012270138
225	0x3d8de832	0.06929053
226	0x3cd221f0	0.025650948
227	0xbc40d490	-0.011769429
228	0x3ce10930	0.027470201
229	0x3d93d2c4	0.07217935
230	0xbd453f88	-0.04815629
231	0xbc07afa0	-0.008281618
232	0x3c6d6c70	0.014491186
233	0x3dc66e62	0.096890226
234	0xbd98d95c	-0.07463333
235	0x3b76ffc0	0.003768906
236	0xbddfe6b0	-0.10932672
237	0xbc9869a0	-0.018605053
238	0x3d9fc258	0.0780074
239	0x3d891132	0.06692733
240	0xbce3dfe0	-0.027816713
241	0xbd116556	-0.035497032
242	0xbdcf6fb0	-0.101287246
243	0x3cc0fb70	0.023557395
244	0xbde02abc	-0.10945651
245	0xbd0c6cca	-0.034283437
246	0xbd169622	-0.03676427
247	0xbdca70ba	-0.09884782
248	0xbd880bc6	-0.066428706
249	0xbd486a9c	-0.048929796
250	0x3daa3962	0.08311726
251	0xbdb377e3	-0.08763101
252	0x3b520160	0.0032044277
253	0xbdac9560	-0.084269285
254	0x3dd45ff0	0.10369861
255	0xbd5060fe	-0.05087375

fc2.weight f4 [128, 276]
0	0xbd0f1d6f	-0.03494018
1	0x3d8fda0d	0.07024012
2	0x3d8a9725	0.0676711
3	0x3d8abb17	0.06773966
4	0xbd97a050	-0.07403624
5	0xbcd8dc20	-0.026472151
6	0xba438900	-0.0007459074
7	0xbd28a09d	-0.041168798
8	0x3d351e92	0.044218607
9	0xbd52aec7	-0.051436212
10	0xbdae5825	-0.08512906
11	0xbd992d31	-0.07479323
12	0xbda13b27	-0.078726105
13	0x3c3c2918	0.011484407
14	0x3d88d485	0.0668116
15	0x3d26128e	0.04054504
16	0x3b343d00	0.002750218
17	0xbd81f875	-0.063462175
18	0x3daed62b	0.08536943
19	0x3d9fa463	0.07795026
20	0xbc976004	-0.018478401
21	0xbcbd0b14	-0.023076572
22	0xbc26bf60	-0.010177463
23	0xbd5ba776	-0.0536265
24	0x3d2f71ce	0.042833142
25	0xbd0d6195	-0.03451689
26	0xbdb44a83	-0.088032745
27	0x3d1d1bf6	0.038356744
28	0x3c3f0258	0.011658274
29	0xbd688b30	-0.056773365
30	0xbd35307b	-0.044235688
31	0x3cceba40	0.025235295
32	0xbd28690d	-0.04111581
33	0xbbcc5370	-0.0062355325
34	0xbc12dac8	-0.008963294
35	0x3c8e6814	0.017383613
36	0xbd9a7ad4	-0.07542959
37	0x3d63d596	0.055623613
38	0xbd356b6f	-0.04429191
39	0x3d6bcd2e	0.05756872
40	0xbd922b1e	-0.0713713
41	0xbca1bd78	-0.019743666
42	0x3c834ca8	0.016027763
43	0xbdac0125	-0.08398656
44	0xbc574058	-0.013137899
45	0x3d7469e2	0.05967129
46	0x392a3a00	0.0001623407
47	0x3d37d3f2	0.04487986
48	0x3d46f2b2	0.048571296
49	0xbd90f9a6	-0.07078867
50	0x3d4dbd9a	0.050229646
51	0x3c6a1ed8	0.01428958
52	0x3d477266	0.048693083
53	0x3da5cf6f	0.080962054
54	0xbd03401f	-0.032043573
55	0x3d9ee423	0.077583574
56	0x3d4b234a	0.0495942
57	0xbc38b800	-0.011274338
58	0xbd7a26d4	-0.061072186
59	0xbbdf4610	-0.006813772
60	0xbd65ee7c	-0.05613564
61	0x3da92017	0.08258074
62	0xbc5acc48	-0.0133543685
63	0xbda979f9	-0.082752176
64	0x3d45f3aa	0.04832808
65	0xbc9060a0	-0.0176242
66	0xbcd81e4a	-0.02638163
67	0x3d5d27be	0.05399298
68	0x3d705c82	0.058681972
69	0xbd50bf6b	-0.0509638
70	0xbd703758	-0.05864653
71	0xbc747ca0	-0.014922291
72	0x3c8bd230	0.017067999
73	0x3d979d33	0.0740303
74	0x3c96bf24	0.01840169
75	0xbc793e20	-0.015212566
76	0xbd9a9e36	-0.075497076
77	0x3d3bcff2	0.04585261
78	0x3cf54fb4	0.029945232
79	0x3d23ab82	0.039958484
80	0xbc596a18	-0.013269924
81	0xbd50c0ad	-0.050965
82	0x3cb48c18	0.022039458
83	0xbd1c754a	-0.038197793
84	0x3d9dd8f7	0.077073984
85	0xbd91501d	-0.070953585
86	0xbccae11c	-0.024765544
87	0x3d4836b2	0.048880287
88	0x3b4eab80	0.0031535327
89	0xbca74974	-0.020420767
90	0xbcb169c8	-0.021656886
91	0x3a73c500	0.00092990696
92	0xbcc75550	-0.024332672
93	0xbc3c91a8	-0.0115093365
94	0xbc9c1678	-0.019053683
95	0xbdacf718	-0.08445567
96	0xbda8eb52	-0.08248009
97	0xbbc8f900	-0.0061331987
98	0xbc39d240	-0.011341631
99	0x3db32565	0.08747367
100	0x3ca28a9c	0.019841485
101	0xbd8e3d44	-0.06945279
102	0xbd9debbb	-0.07710978
103	0x3ca8b3e0	0.020593584
104	0xbd8585bf	-0.06519651
105	0xbc8881b0	-0.016663402
106	0xbda624e3	-0.08112504
107	0xbd9e695a	-0.07734938
108	0x3d44019e	0.047853105
109	0x3c782150	0.015144661
110	0x3d307842	0.043083437
111	0x3b5cdb40	0.003370002
112	0x3d2375f6	0.03990742
113	0x3d7bd4da	0.061482288
114	0xb9f82200	-0.00047327578
115	0x3d5e438a	0.05426363
116	0xbd788a62	-0.060678847
117	0x3dabf03d	0.08395431
118	0x3d04a85c	0.032387123
119	0x3ce6bbd0	0.028165728
120	0x3c127910	0.008939996
121	0xbd7d7412	-0.06187827
122	0x3d391d0a	0.04519371
123	0x3cf53a10	0.029934913
124	0x3d37e76e	0.044898443
125	0xbd8e6877	-0.06953519
126	0xbd730cd0	-0.05933839
127	0xbbdc5790	-0.0067243055
128	0x3db0d2c7	0.086339526
129	0x3d6251d6	0.055253826
130	0x3c9caae4	0.019124456
131	0x3c9a7f70	0.018859595
132	0x3c0562c0	0.00814122
133	0x3d32c69a	0.043646432
134	0xbd20e6e1	-0.039282683
135	0xbcce1aa0	-0.02515918
136	0xbc3328f8	-0.010935061
137	0xbc7043b8	-0.014664583
138	0x3d56ea4e	0.052469544
139	0xbda0b358	-0.07846707
140	0xbbda5f40	-0.0066641867
141	0x3d92f4cd	0.07175598
142	0xbd517c3f	-0.05114388
143	0xbc11e728	-0.00890521
144	0xbd107ef4	-0.035277322
145	0x3d6fd40e	0.05855184
146	0xbcf2e648	-0.029650822
147	0x3c0c99b8	0.008581571
148	0x3d4f9b8e	0.050685458
149	0xbd19387e	-0.03740739
150	0x3d24a85a	0.040199615
151	0x3c80dfe0	0.015731752
152	0xbd75b29e	-0.059984796
153	0x3d53d366	0.051715277
154	0x3d0acdfe	0.033887856
155	0xbdaa4022	-0.083130136
156	0x3c9de2f0	0.019273251
157	0xbce3c154	-0.027802147
158	0x3d799356	0.060931526
159	0x3d20a44e	0.039219193
160	0xbd536c02	-0.051616676
161	0x3d558a2a	0.052133717
162	0xbba59340	-0.005052954
163	0xbd5fb154	-0.054612473
164	0x3d3ae6a6	0.04563012
165	0xbb51c540	-0.003200844
166	0xbbfd1c10	-0.0077242926
167	0x3d33111a	0.04371748
168	0x3b16ee20	0.0023030117
169	0x3d23c3a2	0.039981492
170	0x3a58dd00	0.00082726777
171	0xbcc52c98	-0.024069116
172	0x3c13abb0	0.009013101
173	0xbc093a60	-0.008375734
174	0xbc1c5408	-0.009541519
175	0xbc4e24b8	-0.012581997
176	0x3da28459	0.079353996
177	0xbd68652e	-0.056737117
178	0xbd2374c4	-0.03990628
179	0x3d11ecac	0.0356261
180	0x3c911aa8	0.017712906
181	0xbcdf1f22	-0.027236525
182	0x3d893373	0.06699266
183	0xbcfcd7b6	-0.030864578
184	0xbd6c03fc	-0.057620987
185	0x3da35d27	0.07976752
186	0xbda42500	-0.0801487
187	0x3d15ee58	0.036604255
188	0xbc9a48d8	-0.018833563
189	0x3d5fbb1e	0.05462181
190	0xbc4294d8	-0.011876307
191	0xbd9949b4	-0.07484761
192	0x3d6bea3a	0.057596423
193	0xbd1d7e91	-0.03845078
194	0xbd53a8e8	-0.051674753
195	0x3db37ef3	0.08764448
196	0x3d71eebe	0.059065573
197	0x3d244846	0.040107988
198	0x3c3377c8	0.010953851
199	0x3da1f6e1	0.079084165
200	0x3cccbe28	0.024993017
201	0x3c8e3180	0.017357588
202	0xbc23ef70	-0.010005817
203	0x3cdcdd5c	0.026961021
204	0xbda659d9	-0.08122606
205	0xbd7d8418	-0.061893553
206	0xbd445c88	-0.047939807
207	0xbd8f15c6	-0.06986575
208	0xbda3a493	-0.079903744
209	0x3c4593a0	0.012059122
210	0x3cef0b20	0.02918011
211	0x3d614efe	0.055006973
212	0x3caab60c	0.02083876
213	0x3cbe06d4	0.023196615
214	0xbcc02094	-0.023453034
215	0xbd700a2c	-0.05860345
216	0x3cc7da10	0.024395972
217	0x3d0c2094	0.034210756
218	0x3d5322d6	0.051546894
219	0xbb4b01c0	-0.0030976385
220	0x3d92d241	0.07169009
221	0xbb9d8440	-0.004807025
222	0xba6ec880	-0.00091088563
223	0xbcd4ac16	-0.025960963
224	0xbc9625bc	-0.01832854
225	0x3d0fa2ba	0.035067298
226	0xbd9e6e78	-0.07735914
227	0xbd1b29b6	-0.037881576
228	0xbdb29475	-0.08719722
229	0xbd74f91c	-0.05980788
230	0xbd12c32b	-0.035830658
231	0xbd67538d	-0.056476165
232	0x3d25a492	0.04044015
233	0xbc7a6de0	-0.015284985
234	0xbd5a6325	-0.053317208
235	0x3beda680	0.0072525144
236	0xbd92ea3f	-0.07173585
237	0x3d8353c1	0.06412459
238	0x3dab5b9f	0.08367085
239	0xbd8db340	-0.06918955
240	0x3d8cb4bb	0.06870409
241	0xbd54f9d5	-0.05199607
242	0xbd702404	-0.058628097
243	0x3da158a7	0.07878237
244	0xbdb49e37	-0.088192396
245	0x3d67b442	0.05656839
246	0xbd63dce2	-0.055630572
247	0xbd3bf6ed	-0.045889784
248	0x3d69383a	0.056938387
249	0x3d8ca04f	0.06866514
250	0xbd91eab3	-0.071248434
251	0xbc80003c	-0.015625112
252	0x3c9af498	0.01891546
253	0xbcd93ad0	-0.026517302
254	0x3d3931a6	0.045213364
255	0xbd9dabce	-0.07698785

fc2.bias f4 [128]
0	0x3d5c23c2	0.05374504
1	0x3c83d5d0	0.016093165
2	0xbcbc052c	-0.022951685
3	0x3c723350	0.014782742
4	0xbc06ad48	-0.008220024
5	0xbbcaf998	-0.0061943047
6	0x3d333bee	0.043758325
7	0xb9449300	-0.00018746778
8	0x3d5cbcfc	0.053891167
9	0xbd5c6c0c	-0.05381398
10	0x3d4ab962	0.0494932
11	0x3d6749d6	0.0564669
12	0xbc05c2cc	-0.008164119
13	0x3c6b9400	0.014378548
14	0xbd323916	-0.043511473
15	0xbab284e0	-0.0013619922
16	0xbd5714fc	-0.052510247
17	0x3c813930	0.01577434
18	0xbc2a313c	-0.010387715
19	0x3c1bb4b0	0.0095035285
20	0x3c2c8af8	0.01053118
21	0x3c44cd20	0.012011796
22	0xb9e3b400	-0.00043430924
23	0x3d258954	0.04041417
24	0xbd593d4b	-0.05303697
25	0x3a32eb80	0.00068252534
26	0x3d5d47a6	0.054023407
27	0x3bb2f170	0.0054609105
28	0xbd2fba5c	-0.042902336
29	0x3cb4f3dc	0.022088937
30	0x3cf8abc4	0.030355342
31	0x3d0404fc	0.032231316
32	0x3cff5180	0.031166792
33	0x3d247cae	0.040157966
34	0xbd3204f6	-0.043461762
35	0xbcc23188	-0.023705259
36	0xbd2d9787	-0.042380836
37	0x3a3bd9c0	0.0007165931
38	0xbd1eae59	-0.03874049
39	0xb9b9ea00	-0.00035460293
40	0xbd6660ad	-0.05624454
41	0x3b517500	0.0031960607
42	0x3d268386	0.040652774
43	0x3d628df4	0.05531116
44	0xbd3cc70d	-0.046088267
45	0x3af63fc0	0.001878731
46	0x3c5758d0	0.013143733
47	0xbd5a6d25	-0.053326745
48	0x3d6f0de6	0.058362864
49	0x3d5ed580	0.05440283
50	0xbd6a30ce	-0.05717545
51	0x3b3af580	0.0028527677
52	0xbc1bd200	-0.009510517
53	0x3c459cc0	0.012061298
54	0xbcff9aff	-0.031201838
55	0x3c9b63f0	0.018968552
56	0xbc4c3b64	-0.012465332
57	0x3cc6207c	0.024185412
58	0xbd306166	-0.043061636
59	0x3ceb4960	0.028721511
60	0xbc162500	-0.009164095
61	0x3ceb8044	0.028747685
62	0xbb6e4270	-0.0036355518
63	0xbd10e779	-0.035377
64	0x3d4cc126	0.04998889
65	0x3d4bcaea	0.04975406
66	0x3d52c874	0.0514607
67	0xbc78fe24	-0.015197311
68	0x3d4d6530	0.050145328
69	0xbd2eb4ce	-0.042652898
70	0xbd3d021c	-0.04614459
71	0x3c6b1bd8	0.0143499
72	0x3cadae28	0.021201208
73	0x39c0f580	0.00036804006
74	0x3c98a940	0.018635392
75	0xbd0a135d	-0.033709873
76	0x3d0fefaa	0.03514067
77	0xbd4dfd8c	-0.05029063
78	0x3d67d6f0	0.056601465
79	0xbd1106be	-0.03540682
80	0xbcadac08	-0.021200195
81	0x3c8c7bbc	0.017148845
82	0x3c6b73e0	0.0143708885
83	0xbca2fb4c	-0.019895218
84	0x3c72f248	0.014828272
85	0xba657480	-0.00087530166
86	0x3aa62e40	0.0012678578
87	0x3cefec10	0.029287368
88	0xbd5297ab	-0.051414173
89	0x3d705be2	0.058681376
90	0x3c858cf8	0.01630257
91	0xbd529fb2	-0.05142183
92	0xbc4c87fc	-0.012483593
93	0xbd0387a9	-0.032111797
94	0x3ceb31b8	0.028710231
95	0x398cc580	0.0002685003
96	0x3ca590a8	0.020210579
97	0x3be7a430	0.007069133
98	0x3cc09338	0.0235077
99	0xbc02b450	-0.00797756
100	0xbcc05e36	-0.023482423
101	0x3d4a0530	0.049321353
102	0xbce44e7a	-0.027869452
103	0xbd4428b6	-0.047890387
104	0xbca6f112	-0.020378623
105	0xbcd1268a	-0.025531072
106	0xbc96195c	-0.01832264
107	0x3cc62a00	0.024189949
108	0x3d606f62	0.054793723
109	0xbd500bee	-0.050792627
110	0x3d5e1148	0.0542157
111	0x3ce7553c	0.028238885
112	0xbd5e6d9d	-0.054303754
113	0xbd5b15fd	-0.053487767
114	0x3ce98248	0.028504506
115	0xba2cba40	-0.0006589033
116	0x3cfb07e4	0.030643411
117	0xbcc6867c	-0.024234049
118	0xbb2a5c10	-0.0025994815
119	0xbbe57e78	-0.0070036016
120	0x3d75d1ec	0.06001465
121	0xbd409321	-0.047015313
122	0xbcffc2c4	-0.031220801
123	0x3ce04ad4	0.02737943
124	0x3c027fd0	0.007965043
125	0x3d407614	0.046987608
126	0xbc5c232c	-0.01343612
127	0xbd291d76	-0.04128786

fc3.weight f4 [1, 128]
0	0x3b319ff0	0.0027103387
1	0xbaa70c79	-0.0012744806
2	0xbab06bf2	-0.0013459905
3	0xbb38fdf1	-0.0028227533
4	0x3b324b3a	0.0027205483
5	0xbadd9830	-0.0016906317
6	0xbaba5df3	-0.0014218673
7	0xbb367a5e	-0.0027843933
8	0xbb3686e6	-0.0027851402
9	0x3b17d454	0.002316733
10	0xbad4c886	-0.0016234077
11	0x3b091f04	0.0020923028
12	0xba32b638	-0.0006817314
13	0xba863154	-0.001023809
14	0xbb3a799f	-0.002845384
15	0x3ac92a00	0.00153476
16	0x3aa5c584	0.0012647365
17	0xb91bf700	-0.00014873967
18	0x3b0eac60	0.0021770224
19	0x3a97838c	0.001155959
20	0x3a82e238	0.0009985631
21	0xbb1b4d1b	-0.0023697081
22	0x3ab5edbc	0.0013880054
23	0xbad6d599	-0.0016390561
24	0xba981ecf	-0.0011605861
25	0xbb00dead	-0.0019663975
26	0xb9846e40	-0.00025259145
27	0xbaea00d1	-0.0017853027
28	0x3a7ee680	0.0009723678
29	0x3b1b2dd6	0.0023678443
30	0xba5f8434	-0.00085264747
31	0x3b1040fa	0.0022011385
32	0xbb2a499e	-0.002598382
33	0x3aa99b34	0.0012939931
34	0x3aca63d8	0.0015441133
35	0x3a86d560	0.0010286979
36	0x3ab5a8c4	0.00138595
37	0x3b3156fc	0.0027059903
38	0x3b14515a	0.0022631497
39	0x3ac5f384	0.001510248
40	0xbab148f3	-0.0013525769
41	0x3905e000	0.00012767315
42	0x38ed8f00	0.000113276765
43	0xbb08fa96	-0.0020901314
44	0xba874574	-0.0010320381
45	0xba33d464	-0.0006859957
46	0xbac34664	-0.0014898297
47	0x3a8f12d4	0.0010915645
48	0xbb0b9b54	-0.00213023
49	0xbac0a58a	-0.0014697772
50	0xb9785ce0	-0.00023685722
51	0xb83970c0	-4.4212444e-05
52	0xbad07453	-0.0015903808
53	0x399ee718	0.00030308287
54	0x3b069524	0.0020535672
55	0x398e7708	0.00027173036
56	0xb9469060	-0.00018936535
57	0xbafc9124	-0.001926933
58	0xba858880	-0.0010187775
59	0xbb0e9ef4	-0.0021762224
60	0xbb29af09	-0.0025891683
61	0xba4d1c28	-0.0007824325
62	0x3ac1c904	0.0014784639
63	0xbb19540e	-0.0023396048
64	0x3ab8e7dc	0.0014107185
65	0xb9e27868	-0.0004319579
66	0x39d12810	0.00039893435
67	0x3aad8814	0.0013239407
68	0xbad57305	-0.0016284889
69	0x3b24b054	0.0025129514
70	0xbaeb03b1	-0.0017930177
71	0x3b0c2e0a	0.0021389746
72	0xba439624	-0.00074610324
73	0xba9ae121	-0.0011816361
74	0x394b2f30	0.00019377167
75	0xbaab6dd9	-0.0013079002
76	0x3b05636a	0.0020353445
77	0xbb18207c	-0.0023212722
78	0x3a15ef78	0.00057195826
79	0x3b1b18f0	0.0023665987
80	0x3a932720	0.001122687
81	0x3afce158	0.0019293232
82	0x3a0945e0	0.00052365474
83	0x3a8ef8c4	0.0010907878
84	0xb9094610	-0.00013091438
85	0x3af1906c	0.0018429882
86	0x3a1c739c	0.0005968155
87	0x3b02c650	0.001995463
88	0xba6b7590	-0.0008982057
89	0xbb42be09	-0.002971532
90	0xb9e48be8	-0.00043591787
91	0x3b229620	0.002480872
92	0xbb29286b	-0.0025811445
93	0xba9d36c4	-0.0011994471
94	0x392a5e70	0.00016247644
95	0xbab917b7	-0.0014121447
96	0x3a883188	0.0010390738
97	0x3a891968	0.0010459842
98	0xbb2d961a	-0.0026487173
99	0x3a972b5c	0.0011533308
100	0xbac46b59	-0.0014985605
101	0x3925fcb0	0.0001582976
102	0xba7a362c	-0.00095448154
103	0x3afd4520	0.0019322969
104	0xbb2b8c1b	-0.0026176039
105	0x3b39f486	0.0028374507
106	0xb86a6000	-5.5879354e-05
107	0x3b072dba	0.002062662
108	0x3b05484c	0.0020337282
109	0xbb40c0a4	-0.0029411698
110	0x39d39228	0.0004035395
111	0xba5f9190	-0.00085284654
112	0xbae6f8f8	-0.0017621806
113	0x3ad1e304	0.001601309
114	0xbb078916	-0.0020681075
115	0x3a02b704	0.0004986378
116	0xbad29aa8	-0.001606782
117	0xb8f157a0	-0.00011508097
118	0xba79dfb4	-0.00095319306
119	0xbb1c44fe	-0.0023844833
120	0x3a27373c	0.0006378775
121	0xba8c33b9	-0.0010696567
122	0x38ef3d20	0.000114077935
123	0xb9b63390	-0.00034752162
124	0x3aebf4a4	0.0018001986
125	0xb665c000	-3.4235418e-06
126	0xba077bdc	-0.0005168298
127	0xbae4b9c3	-0.0017450381
