models/checkpoint_actor_local_13.pth (torch_old, 152633 bytes, 5 tensors)

fc1.weight f4 [256, 18]
00000000: a6a7 6abd 40b7 18bd 40c2 7a3c 769d 7cbd
00000010: 6c4d 72bd 008c 01bd e08e b4bb 3820 7c3d
00000020: 4053 d3ba c00c 37bb 2cca f33c 5401 dbbc
00000030: 9239 503d c8a2 753d 00e4 d13c ceb2 15bd
00000040: e04e 15bc f4cd 1cbd 009f 923a 26cd 3cbd
00000050: 64cd b7bc 700f 2abc 10d6 193d 90dd 1d3c
00000060: 201d 71bc 0ac6 0ebd fc47 0ebd 6c27 4abd
00000070: 466b 2cbd a06a cfbc 22b5 06bd 28c8 9e3c
00000080: 8ccf 2fbd 40d9 a43a 90a4 8d3b 90e5 e7bc
00000090: 1e4b 023d a60c 46bd 04dd 27bd a8c3 fcbc
000000a0: 70be 69bd 3e6c 303d e2c3 27bd de58 43bd
000000b0: 5a29 26bd 24b2 ad3c 20ec af3b 880e ffbc
000000c0: f4c2 f5bc c295 02bd 2c95 d73c ec04 a3bc
000000d0: 8463 d73c 4c80 2abd 326b 7bbd 3471 1c3d
000000e0: 5c0c c63c 6886 0c3c e6a6 693d a453 55bd
000000f0: 2c35 72bd e075 033b 08da efbc 0003 19bb
00000100: 3027 603c 88fa 62bc e885 16bc 8ab3 7b3d
00000110: 40fa af3c 7623 723d d046 c9bb c029 e5ba
00000120: c6ff 0bbd 5add 303d d852 4ebd 5cc8 20bd
00000130: 8c70 963c 40dc 043c 6e32 34bd 8eb2 7ebd
00000140: f0a9 8a3b fc24 97bc 7a75 5a3d a2ac 3e3d
00000150: 8465 77bd 2020 27bc b0b5 a7bb 1857 d5bc
00000160: d082 08bd d45b 153d 30cf debb b895 5bbd
00000170: 883c 77bc 66dd 67bd e05a 953c 90ba 4bbc
00000180: aa34 433d 8087 3e3d a08a a0bb 7677 60bd
00000190: d096 54bd d005 6a3c 2c43 0e3d 80f5 86ba
000001a0: 38ef 27bc 0a6e 70bd 04f8 5f3d 7095 76bd
000001b0: 188b 013c c0af 6ebc a0d5 85bc 3a01 553d
000001c0: daa8 2bbd ca0d 223d ba1d 743d 046f c2bc
000001d0: e070 65bc d215 233d 90fc 533d 06e6 5d3d
000001e0: 1cbf 093d 5e3d 06bd 2047 713d dcce 883c
000001f0: 1820 51bc a0ec 1ebd 1ec9 5abd 6241 143d
00000200: 9811 7bbc 34dc 72bd 2032 debc 8aa4 2e3d
00000210: 7ae8 65bd f828 65bd ac04 633d 3492 f83c
00000220: a033 59bb 98d3 8a3c 54fb 5a3d 4cc6 1fbd
00000230: 40fe b2bb 80d8 743b aeaf 633d 6098 673c
00000240: 60e2 09bd b08d 39bd 7426 6f3d caff 0d3d
00000250: 5080 ab3b 6062 e63b 227d 6f3d 746d bf3c
00000260: 36fd 39bd 7814 df3c 2874 10bc d024 bdbc
00000270: 7aeb 183d 6673 253d 564f 14bd f0d7 3abc
00000280: 54bf f93c c0e5 93bc ee6f 40bd 7cb4 4ebd
00000290: 24e9 b6bc 8c41 fc3c a896 e73c 5a5c 24bd
000002a0: 4c27 04bd 5cc1 b73c 5014 5f3d 04c0 8abc
000002b0: eed8 163d e0aa f33c 2cfc 35bd bc64 0f3d
000002c0: 3a8e 4bbd be0e 6ebd 3ed1 243d 6040 d53b
000002d0: 3819 913c 5257 76bd 1e82 553d cc20 cfbc
000002e0: 8817 6b3d 5e0d 11bd cc43 f4bc a8e2 15bd
000002f0: c88a 793c 700d 85bc 4c9d b03c 107e bd3b
00000300: 6e94 0f3d 1625 39bd 1c70 0fbd 80c4 2d3a
00000310: 38f7 97bc 1033 cbbc 3034 2f3c 40b0 79bd
00000320: e0de e73c a23e 293d b8ee 71bd b048 54bd
00000330: 4c8a 30bd 5c68 f73c 9024 c33c 00c0 6ebc
00000340: 20b1 45bc ec18 293d 6cc9 0f3d fa99 0a3d
00000350: 3272 53bd 8648 713d 04f5 4b3d 1e21 653d
00000360: b04c 0ebd 2a5f 353d 2cf6 9c3c 78d4 21bd
00000370: 18f6 3cbd ccb5 393d ceb6 2e3d dcb7 33bd
00000380: 30ec dfbc 82aa 5cbd a05a 93bc 00ee 8bba
00000390: 7014 00bd bc79 03bd 66c7 503d 9a8c 61bd
000003a0: 7a8b 05bd 0814 49bd b2b1 46bd 5cca f43c
000003b0: 1499 46bd ac93 a23c 0038 b4b8 2c8d a1bc
000003c0: 5cb4 b9bc 8891 0e3d 16df 5e3d dee0 3fbd
000003d0: e076 f6bb 1005 16bc 60b0 763d 4412 17bd
000003e0: c481 173d c07a 943c a846 433c 62b2 5e3d
000003f0: e645 1e3d 8c5d 02bd 3cdb 79bd 6019 3abd
-0.05728879 -0.037284136 0.015305102 -0.061673604 -0.059155867 -0.031627655 -0.005510196 0.061554164
-0.0016122833 -0.0027931184 0.029759489 -0.026734032 0.050836153 0.059969693 0.025621414 -0.036547475
-0.009113044 -0.03828235 0.0011186302 -0.046094082 -0.022436805 -0.010379657 0.03755766 0.009635344
-0.014716417 -0.034856834 -0.03473662 -0.049354002 -0.04209449 -0.025319397 -0.032887585 0.019382551
-0.04292254 0.0012576953 0.004322596 -0.028307706 0.03180992 -0.048351906 -0.04098226 -0.030855015
-0.05706638 0.043071978 -0.040958293 -0.047692172 -0.04056678 0.021203108 0.0053687245 -0.031134859
-0.030000187 -0.0318811 0.026316248 -0.019899808 0.02629257 -0.04162626 -0.061381526 0.038193896
0.024175815 0.008576967 0.057043932 -0.05208172 -0.05913274 0.0020059273 -0.02927877 -0.0023347735
0.013681218 -0.013853677 -0.009187199 0.06145052 0.021481633 0.05911585 -0.0061424747 -0.0017483756
-0.03417947 0.043179847 -0.050371975 -0.039253578 0.018364213 0.008109152 -0.043993406 -0.062182
0.004231684 -0.018450253 0.05333469 0.046551354 -0.060399547 -0.01020053 -0.0051180944 -0.026042506
-0.033327878 0.036464527 -0.006799601 -0.05360958 -0.015090115 -0.056607626 0.01823181 -0.012434617
0.047657646 0.04651594 -0.004899338 -0.054801427 -0.05190164 0.014283612 0.03473203 -0.0010296553
-0.010249905 -0.05869869 0.054679886 -0.06020111 0.007906698 -0.014568269 -0.016337216 0.052003123
-0.041909076 0.03956393 0.059598662 -0.023734577 -0.014003962 0.03981573 0.051754534 0.054174446
0.03362952 -0.032773368 0.05890572 0.0167002 -0.012763999 -0.038799882 -0.053414457 0.036195166
-0.015324019 -0.059292033 -0.02712351 0.042637385 -0.05612991 -0.055947274 0.055424377 0.030343153
-0.0033142343 0.016946599 0.05346234 -0.03900747 -0.005462438 0.003736049 0.055587463 0.01413545
-0.033663154 -0.04530114 0.05838628 0.034667768 0.005233802 0.00703077 0.058468945 0.023367621
-0.045407496 0.02723144 -0.008816756 -0.023088843 0.037333943 0.040393256 -0.036208473 -0.011404023
0.03048674 -0.01805389 -0.046981744 -0.050465092 -0.022327967 0.030792974 0.02827008 -0.040127136
-0.03226404 0.022431068 0.05446273 -0.016937263 0.036827974 0.029744565 -0.044429943 0.035008177
-0.049696185 -0.058119528 0.04023861 0.0065079182 0.01771222 -0.06014187 0.052126043 -0.025284193
0.057395488 -0.03541314 -0.029817484 -0.03659311 0.015230842 -0.016241759 0.02155938 0.00578285
0.035053663 -0.045201384 -0.035019025 0.0006628707 -0.0185505 -0.024804622 0.010693595 -0.0609591
0.028304517 0.041319497 -0.05906555 -0.051827133 -0.04310064 0.03020113 0.023821145 -0.014572144
-0.012066156 0.041283533 0.0351042 0.03383825 -0.051622577 0.058907054 0.049794212 0.055939786
-0.034741104 0.04428021 0.019160353 -0.039509267 -0.04613313 0.04533939 0.042654805 -0.043876514
-0.027334303 -0.053873546 -0.01798755 -0.0010675788 -0.03126949 -0.032098517 0.05097141 -0.05506573
-0.03260372 -0.04909137 -0.048509307 0.029881649 -0.04848583 0.019845806 -8.5935e-05 -0.019720636
-0.02266901 0.03480676 0.05441197 -0.04684531 -0.007521495 -0.00915648 0.060226798 -0.036882654
0.03698899 0.018124938 0.011918701 0.054369338 0.03864088 -0.031827495 -0.061000094 -0.045434356

fc1.bias f4 [256]
00000000: 7cbb d1bd 1f35 07be 8c7b 2a3d e887 3fbe
00000010: 8004 1abc b0cd 51bd c028 593c 7811 87bc
00000020: 0e1b 01be 0039 2b3b ad9e 1a3e 4d72 3e3e
00000030: fe08 913d ce99 febd 6d00 69be 1c92 48be
00000040: 6306 12be ce8b b0bd f682 fe3d 8002 9ebc
00000050: 4233 65be fb03 5d3e be9e 26be b9d1 0a3e
00000060: 6143 6d3e 6617 a3bd d652 05be 04ab 773d
00000070: 36bf 883d afd7 3c3e e113 2e3e 7a4f bbbd
00000080: 22c9 863d 5a0d 34be 6e18 903d 6665 80bd
00000090: 3808 d33c 0d47 3f3e 051a 133e d475 6ebd
000000a0: a62c 8c3d 7324 efbd 495c 16be 212f 56be
000000b0: 57ba 023e c96c 613e 4051 0fbe fbfa 483e
000000c0: dcfa c8bd a9d1 2a3e 585a 9b3c 0068 f1b8
000000d0: cfb1 313e c0b0 603b fd63 1e3e c86c 9abd
000000e0: 6828 c2bc 3a08 b9bd 309a 25be 94dd 07be
000000f0: 889d 2fbd a4d7 223d 7ee9 993d b0fc 8abd
00000100: 88db 8dbd ba4d 09be 3978 133e 9ed2 eebd
00000110: 6724 483e 3919 39be 9806 09be 18ab 893c
00000120: 3ab9 4ebe 2f64 2d3e 5170 133e f056 b6bc
00000130: aafd 37be 405a b8bc 50b1 8abc f0da 263c
00000140: 0716 193e 1f90 493e c99d 48be 82bc a9bd
00000150: ca32 2ebe 6c86 453d 14a0 623d f86b b63c
00000160: 1d1f 423e f04c 33be 346f 9dbd ee18 b8bd
00000170: d435 34be 0a4e 1dbe 85c4 39be 80a2 21bd
00000180: ec98 38bd 26a4 8e3d 6f17 14be 269a ecbd
00000190: 5901 3b3e c7b2 073e b976 653e 86c1 45be
000001a0: 51ef 2dbe 485e 833c 60d4 7bbd bc88 3abe
000001b0: 380e 25be c861 a43c b8d9 bc3c e9cf 593e
000001c0: a0fd 8a3b 1156 1a3e ee9d 0bbe c02c 8c3b
000001d0: f0d9 1ebe 1c19 70bd 481f 5ebd 5f55 153e
000001e0: e0f5 09be 6a96 da3d dd6e 593e aeab 5fbe
000001f0: 960b f83d 4436 e3bd 8079 adbd 04a1 273d
00000200: cf3c 673e 4592 3d3e 9db8 27be 225a 9a3d
00000210: dca0 0abd 9fc3 623e 97cb 4ebe fa09 80bd
00000220: 28a0 42bd 182c a63c 5e36 e53d 0dea f2bd
00000230: 535d 2f3e 3e0c 873d f821 c3bc b080 a3bd
00000240: 70cf 53be 33f8 1d3e 51dd 31be 4454 d9bd
00000250: 1969 393e 7ca7 2dbe b8fc f5bd bfde f0bd
00000260: 1885 44be f87b 11bd 0390 683e bea0 c6bd
00000270: 25ea 3e3e fc43 61be fdf7 393e bc84 43bd
00000280: ea99 1abe 430d 48be 9d98 ffbd 3cb1 2f3d
00000290: ed2c 353e d866 b93c f77d 403e 630d 393e
000002a0: c827 58be 4fad 2bbe cfa2 343e 209a 28bd
000002b0: de42 c53d e652 9f3d b90e 26be d0d9 08bc
000002c0: 9ee9 94bd 98e0 d0bc 348b 3fbd a683 96bd
000002d0: a980 4d3e 9a4b 66be b390 6c3e 0058 3e3a
000002e0: fe71 a83d 6be5 483e 1818 bd3c 7aaf de3d
000002f0: ef31 413e d8ed 85bd c0d5 26be df58 713e
00000300: 71e8 493e a0e9 c4bd fddd 113e 603f 99bd
00000310: 444c 503d 80e3 a2bc c637 f73d 8ef7 e13d
00000320: e064 dcbc 7e88 12be e4fb 5b3d 18fc 02be
00000330: d259 aa3d a517 5a3e 6838 c63c 3879 2abe
00000340: 8c05 3d3d 2002 423c 3a1c 8d3d 3007 4bbc
00000350: e660 913d 21a3 5d3e 41fa 453e 448a debd
00000360: 2c66 03be b3dc 5f3e bacb d73d 6fb1 533e
00000370: 00c0 0abd 9ccc 293d e015 b63b 9146 343e
00000380: 3864 0ebe c42b 463d e056 b4bc 4d57 183e
00000390: eced 62bd 58ed a33c a436 1d3d 76bb ab3d
000003a0: 664b 903d dc64 043d 4fb2 2a3e c206 34be
000003b0: ee8e 93bd 78da 47bd e358 11be a8ae f33c
000003c0: d8f6 46bd cc36 0e3d 7028 53bc 40ac d6bd
000003d0: ae57 3cbe 9cbb 773d 88e6 a93c 08fd f63c
000003e0: 693b 143e ff10 17be 529d fa3d ab8a 143e
000003f0: a21d b73d 28c5 ae3c b40d 36be c26c d7bd
-0.10240838 -0.13203858 0.04162173 -0.18704188 -0.009400487 -0.05122155 0.013254344 -0.016487822
-0.12607977 0.0026126504 0.15099593 0.1859829 0.07081793 -0.1243168 -0.22754069 -0.19586986
-0.14260249 -0.08620416 0.124273226 -0.019288301 -0.22382835 0.2158355 -0.16271493 0.13556565
0.23170234 -0.07963447 -0.1301988 0.060465828 0.066770956 0.18441652 0.1699977 -0.09146018
0.06581332 -0.17583218 0.070359096 -0.0626934 0.025760755 0.18679447 0.14365394 -0.05821784
0.068444535 -0.11676874 -0.14683641 -0.20916416 0.12766396 0.22014154 -0.13995838 0.19626991
-0.09813473 0.16681542 0.018963978 -0.00011511147 0.17352985 0.0034285039 0.1546783 -0.075402796
-0.023700908 -0.09034772 -0.16172099 -0.13268119 -0.042874843 0.039756432 0.07515238 -0.067864776
-0.06926638 -0.13408557 0.1440133 -0.11661266 0.19545136 -0.18076028 -0.13381422 0.016805217
-0.20187846 0.16932748 0.14398314 -0.022258252 -0.17967859 -0.022503972 -0.016930252 0.010184035
0.14949809 0.19683884 -0.1959144 -0.08287908 -0.17011562 0.048223898 0.055328444 0.02226828
0.18957181 -0.17509818 -0.07687226 -0.0898913 -0.17598659 -0.15361801 -0.18141373 -0.039461613
-0.045067713 0.069649026 -0.14462064 -0.11552839 0.18262233 0.13251792 0.2240857 -0.19312105
-0.16985823 0.016036168 -0.061481833 -0.18216223 -0.16118705 0.020066157 0.023053035 0.21270718
0.0042416602 0.15071894 -0.13634464 0.0042777956 -0.15512824 -0.058617696 -0.05422905 0.14583348
-0.134727 0.106732205 0.21233697 -0.21842834 0.12111585 -0.11094335 -0.0847044 0.04092504
0.2258179 0.18512829 -0.16379018 0.07536723 -0.033844814 0.22144936 -0.20194851 -0.06251903
-0.04751602 0.020284697 0.1119201 -0.11861048 0.17125444 0.06594132 -0.023819908 -0.079835296
-0.206846 0.15426712 -0.17369582 -0.106117755 0.18106498 -0.16958421 -0.12011093 -0.117612354
-0.19191396 -0.035518616 0.22711186 -0.09698628 0.18644007 -0.2199859 0.18161006 -0.047734007
-0.15097776 -0.19536309 -0.124802805 0.042893633 0.17692919 0.022632048 0.18798052 0.18071513
-0.21108925 -0.1676533 0.17640232 -0.04116261 0.096318945 0.077794835 -0.16216554 -0.008352712
-0.072711214 -0.02549772 -0.046763614 -0.07349329 0.20068611 -0.22489777 0.23102073 0.0007261038
0.08224867 0.19618766 0.023082778 0.10873313 0.18866704 -0.06539506 -0.16292477 0.23569058
0.19717576 -0.09614873 0.14244838 -0.07482791 0.050853983 -0.019883871 0.12071185 0.110335454
-0.02690357 -0.1430988 0.05370702 -0.12791479 0.08317913 0.21298082 0.024196818 -0.16647804
0.046147868 0.011841327 0.068901494 -0.01239185 0.0709856 0.2164426 0.19333746 -0.10866216
-0.12831944 0.21861534 0.10536905 0.20673154 -0.03387451 0.041454896 0.005556807 0.17605044
-0.13905418 0.048381582 -0.022014081 0.14877053 -0.05540268 0.020010635 0.038382187 0.08385365
0.07045631 0.03232275 0.16669582 -0.17580703 -0.07204996 -0.048792332 -0.14194064 0.029746369
-0.048575252 0.034720227 -0.012888059 -0.10482073 -0.18392822 0.060481653 0.020739809 0.030149952
0.14475788 -0.14752577 0.12237038 0.14506023 0.08941199 0.021334246 -0.17778665 -0.10518791

fc2.weight f4 [128, 256]
00000000: a12f ae3d 2690 74bd 7690 623d d036 873b
00000010: 97c7 903d 09c0 ad3d 2c53 fc3c a02c 8f3b
00000020: 1fc1 af3d 6737 823d 5e23 393d 25f2 963d
00000030: 9603 f7bc 4ac4 efbc 803a e2bb 2045 093b
00000040: 8bd0 3fbd 650c a33d 17fa 40bd a06b 953c
00000050: 806c ef3c ccc9 a5bd d845 2bbd 8024 7e3c
00000060: 096c 9f3d 6c42 6ebd 495f b23d 862e acbd
00000070: 40f7 563c ba95 533d ac31 89bd 3849 4f3c
00000080: ecc0 f9bc 1265 473d 80f5 1bba 4882 0ebc
00000090: ee69 693d 8826 a23c 60b9 70bb d049 583c
000000a0: d6ee d5bc 8a82 773d 4d1e aa3d 1854 17bd
000000b0: 81b0 9cbd b52f 943d 4b1f 30bd c4ab efbc
000000c0: fc91 a9bc e0a8 353b 4fe7 8d3d a8cb c33c
000000d0: 00e8 3d38 dd15 953d 20b7 94bd 6fc5 823d
000000e0: d019 613c fa42 00bd 88e5 96bc 9615 8bbd
000000f0: 827d a7bd 4e0d 65bd 7677 47bd 1515 8f3d
00000100: f89d a5bc 1a62 65bd 090f 923d 0c06 d33c
00000110: 532b a13d f1c9 38bd 9282 603d 3b19 b03d
00000120: 3fe3 8b3d 1740 80bd c94f 56bd 6093 5cbc
00000130: 40eb 853b fc30 d43c d339 973d deb0 2d3d
00000140: d14d 93bd 590a 8ebd b5b7 28bd 2996 ab3d
00000150: 24c8 10bd a08a 0bbc b97e 3cbd 4e01 1f3d
00000160: 1c73 f33c 3738 13bd bf90 72bd 68fa de3c
00000170: eb43 a63d d040 bdbb dfee 833d 3d03 9a3d
00000180: 4eac dcbc 0017 9d39 a00c c9bb 4ab1 2c3d
00000190: e845 cc3c 3cef b43c b057 62bc 3826 e93c
000001a0: 989b 57bc a270 303d 70e3 213c 3992 10bd
000001b0: 7a5f 5b3d f5e5 17bd 4cba 9cbc 9278 253d
000001c0: ee86 9cbd ee53 473d 2638 9fbd dd40 3ebd
000001d0: c090 86bb 5c0d a6bc 2a76 783d c080 d8ba
000001e0: 255d 23bd 0a4a 483d 085d 82bd 5343 973d
000001f0: 400c 9dbd 1ef2 1b3d e2fe 9bbd fde5 a43d
00000200: 1879 c4bc 3c16 8fbc de67 07bd 66b8 40bd
00000210: c072 e23b 10c3 bc3c 3d42 a93d 0eca 143d
00000220: f12b 8a3d 2005 3a3b 00e7 d7bc 13dd 41bd
00000230: 3f31 a53d 641a a1bd 0a60 083d aebb 463d
00000240: d93d ac3d 5b7b 903d d222 053d e0ca 033b
00000250: 6178 a7bd b0df 0abc b74f a73d 6455 97bc
00000260: 008b 95bb a865 24bd 6a6c 723d 0d73 6bbd
00000270: 18be 3dbd 792e a03d d0ff 2e3c bdfb 873d
00000280: 4630 1a3d d248 273d e537 ae3d 40a7 aa3b
00000290: f6d0 603d 50eb 5dbc 8008 05bb 49c8 adbd
000002a0: a064 32bd fd59 ad3d 3011 f0bb 471c 9c3d
000002b0: e70a b1bd 8448 9bbd 1a0b 51bd 267e afbd
000002c0: dc73 b93c ce55 a8bd 003d 763a 6318 813d
000002d0: 93ee 99bd a89f 813c b6c7 b0bd 9841 19bc
000002e0: 30d2 4d3c a06a ec3b 3512 6ebd 1c63 a23c
000002f0: d243 3a3d d7d4 a83d d6c2 68bd d08d 6fbc
00000300: 7a75 acbd 7adc 4f3d fca2 9d3c 002d 993a
00000310: ff33 2cbd 5da5 9c3d 0372 aabd 4517 993d
00000320: c9fc b2bd 51b5 0fbd 4634 5b3d b6d7 94bd
00000330: 2875 693c ee26 82bd 8444 a6bc 60c7 8dbb
00000340: 9b00 2fbd 885d 913c cf34 14bd 4b56 a73d
00000350: 51c6 b43d d0e4 2dbd 3404 97bc c06d dabb
00000360: 3012 a8bd 4eb5 753d 4d75 4abd e8e4 02bc
00000370: 013b 9f3d 38be 6cbd 50c3 2c3c a854 5c3c
00000380: aaba 2c3d 8517 a8bd 78af 40bc eed4 093d
00000390: 1a13 2c3d 0e24 653d 90cd fa3b 6e16 273d
000003a0: 78d7 bcbc f948 a7bd c7cb 9bbd faa3 223d
000003b0: 15b8 b43d ff97 63bd 3c31 26bd f8c1 62bc
000003c0: c3da a3bd 09ac b3bd a698 333d 269f 643d
000003d0: b07b 393c 78f2 93bd c2e8 2e3d 44fe 943c
000003e0: 8aaf 2e3d 82f2 f1bc 9ffa 12bd 8059 60bd
000003f0: 93b6 8a3d c43c ad3c 706c 0abc 0fb8 853d
0.08505178 -0.059707783 0.05531355 0.004126407 0.07069319 0.084838934 0.030801378 0.0043693334
0.08581757 0.063582234 0.045199744 0.07370404 -0.030153077 -0.029268403 -0.0069039464 0.0020945743
-0.04682974 0.079613484 -0.047113504 0.018239796 0.029226542 -0.0809513 -0.041814655 0.015511632
0.07784278 -0.058168814 0.087095805 -0.08407311 0.013120472 0.051656462 -0.06698927 0.012651734
-0.0304875 0.048680373 -0.0005949363 -0.008698054 0.056985788 0.019793764 -0.0036731586 0.013201192
-0.026114862 0.060427226 0.08306561 -0.036945432 -0.07650853 0.07235662 -0.042998593 -0.029256709
-0.020699494 0.0027719066 0.06928884 0.023900822 4.527718e-05 0.07279561 -0.07261491 0.06385314
0.013739064 -0.031313874 -0.018419996 -0.067912266 -0.081782356 -0.05592089 -0.04869791 0.06986443
-0.020216927 -0.05600176 0.07131774 0.02575972 0.078695916 -0.04511446 0.05481202 0.08598562
0.06830453 -0.06262224 -0.052322183 -0.013462871 0.004086882 0.025902264 0.07384076 0.042405
-0.07192577 -0.069355674 -0.04119082 0.0837825 -0.03534712 -0.0085169375 -0.04601929 0.038819604
0.029717974 -0.035942283 -0.059220072 0.027219012 0.08118423 -0.0057755485 0.064420454 0.07520149
-0.02693763 0.0002996251 -0.006135538 0.042161264 0.024935678 0.022086732 -0.013814852 0.028460607
-0.013159655 0.043076165 0.0098808855 -0.0352957 0.05355785 -0.03708454 -0.019131802 0.040398188
-0.07642923 0.048664026 -0.07774381 -0.046448577 -0.004106611 -0.020270042 0.060659565 -0.0016517863
-0.03988375 0.048898734 -0.063654006 0.07385888 -0.07668352 0.038072698 -0.076169744 0.08051679
-0.023983523 -0.017466657 -0.03305804 -0.047050856 0.006910652 0.023042232 0.08264587 0.036325507
0.067466624 0.0028384402 -0.026355267 -0.047329973 0.080660336 -0.07866362 0.033294715 0.04851883
0.08410234 0.07054778 0.03250391 0.0020109937 -0.08177257 -0.008476183 0.08169501 -0.018473335
-0.004563689 -0.04013601 0.059185423 -0.057482768 -0.046323866 0.07821364 0.010681108 0.06639812
0.037643693 0.04084093 0.08506755 0.005207926 0.05488678 -0.013544872 -0.0020299256 -0.08485467
-0.043552995 0.084644295 -0.0073262677 0.07622581 -0.086446576 -0.07582191 -0.051035978 -0.08568983
0.022638254 -0.08219491 0.0009393245 0.063034795 -0.075162075 0.0158232 -0.08631842 -0.009354018
0.01256232 0.007214859 -0.058122832 0.01982265 0.045474835 0.08243721 -0.056826435 -0.014621213
-0.084208444 0.050747372 0.019242756 0.0011686385 -0.042041775 0.07648728 -0.08322527 0.074751414
-0.08739621 -0.035085026 0.05351665 -0.07267706 0.014249124 -0.063550815 -0.020296343 -0.004326746
-0.042725187 0.017744794 -0.036183175 0.08170756 0.08826888 -0.04245454 -0.018434621 -0.0066659153
-0.08206594 0.05998736 -0.049428273 -0.007989146 0.07774926 -0.057798594 0.010544613 0.013447918
0.042170204 -0.08207611 -0.011760585 0.03365033 0.042010404 0.055942588 0.0076538995 0.040792875
-0.023051962 -0.08168215 -0.07607227 0.03970716 0.08824173 -0.055564877 -0.040574297 -0.013840191
-0.0800071 -0.087730475 0.04384675 0.05581584 0.011320993 -0.072239816 0.042702444 0.01818765
0.042647876 -0.029534582 -0.035883542 -0.054772854 0.067731045 0.02114714 -0.008448705 0.06529247

fc2.bias f4 [128]
00000000: f8ae 1cbd a6d0 02bd 88f2 043d 743b 10bd
00000010: 061a 63bd 40d8 e23b 8e6f 5e3d e653 20bd
00000020: a07c 41bd e66d 033d de12 14bd 2c40 4cbd
00000030: 48a5 263c 401b d83a f679 0ebd 800d 12ba
00000040: 582f 903c 0015 4fbc 806e 8bbc 5c6f fcbc
00000050: 42a5 17bd 4647 0f3d c865 253c aa43 613d
00000060: b441 053d 5893 79bd de23 513d 9268 013d
00000070: 0cff 253d 7c72 0e3d f08f f4bc 80e0 a23c
00000080: eade 5f3d ca85 45bd e072 2b3b 5857 ccbc
00000090: 3cc1 3dbd d47a f8bc 1006 293d d866 a3bc
000000a0: 0065 85ba 2cb7 433d b018 d9bc 58ec 573c
000000b0: 00ac df3b 301a e23c 1482 293d c027 e0ba
000000c0: 985e 63bd a49e cd3c 68ce fbbc 606e 45bb
000000d0: 104f 4e3c 50e3 613d 00ba f0bb e0c3 cc3c
000000e0: 4ead 153d bece 543d 383e 36bd b096 6e3c
000000f0: 4c43 dd3c 6c99 a1bc c47d 36bd 942c 48bd
00000100: fcc0 7fbd f040 973c d03f 8fbc d079 d4bc
00000110: 1063 493d 6c0a c43c ce66 1d3d 2e30 603d
00000120: 38b1 64bc 4672 013d e80d e83c 50f9 a63b
00000130: b885 013c 3082 133c 300d d7bb 2eed 5ebd
00000140: 8860 423d 9a4a 193d 08e9 583c 0cbb 653d
00000150: 0ce2 fc3c c0f3 ee3b 3096 debc 7863 35bd
00000160: b03d a9bc f499 2e3d ded9 5b3d b8c4 b43c
00000170: 6c48 69bd 601a 6fbb 5471 25bd 80d3 963a
00000180: e842 92bc 4cd5 a53c d0a0 903c 9cc7 d33c
00000190: bcf4 b7bc c888 6bbc d45e c43c 00a4 4dbc
000001a0: 10cf 68bc b068 c33c 94f6 973c cca1 8bbc
000001b0: 9059 2ebd 0057 563a 10f9 9c3c c6f0 58bd
000001c0: ca17 18bd 90da 963b 38c4 f33c f87a 0dbd
000001d0: d09f 79bc 243d 613d 3893 ff3c 0076 0b3b
000001e0: b8e5 b43c 146c 64bd 8ecd 483d 308e c6bc
000001f0: 5258 283d 081e 5e3d 9030 803c cea5 693d
-0.0382528 -0.031937264 0.03245786 -0.03521295 -0.05544474 0.0069227517 0.054305606 -0.03914251
-0.047237992 0.03208723 -0.036150806 -0.049865887 0.010171242 0.0016487613 -0.03478428 -0.00055714697
0.0176007 -0.012639284 -0.017020464 -0.030814819 -0.037022837 0.03498008 0.010095067 0.05499617
0.032533363 -0.060931534 0.051059596 0.031593867 0.040526435 0.03477715 -0.029853791 0.01988244
0.054655947 -0.048223294 0.0026161 -0.024943992 -0.04632686 -0.030332007 0.041265547 -0.0199465
-0.0010177195 0.04778211 -0.02650103 0.013178907 0.006825924 0.027600378 0.041383818 -0.001710169
-0.055510134 0.02510006 -0.03073807 -0.0030125603 0.012592092 0.055148423 -0.0073463917 0.024995744
0.03654223 0.051954977 -0.04449293 0.014562294 0.027009629 -0.019726478 -0.044553533 -0.048870638
-0.062439904 0.018463582 -0.017486483 -0.025936991 0.04916674 0.02393075 0.03842812 0.054733448
-0.013958268 0.03160312 0.028326944 0.0050956383 0.007905416 0.009003207 -0.0065628514 -0.05442541
0.04745534 0.03742466 0.013239153 0.056086585 0.030869506 0.007292241 -0.027171224 -0.044284314
-0.020659298 0.04262729 0.05367457 0.022066459 -0.056953833 -0.0036484227 -0.04039128 0.0011507124
-0.017854169 0.02024331 0.017654806 0.025852017 -0.022455566 -0.014375873 0.023970999 -0.012551308
-0.014209524 0.02385363 0.018550195 -0.017044924 -0.042565882 0.0008176416 0.019161731 -0.052963994
-0.037132062 0.0046036914 0.02975665 -0.0345411 -0.015235856 0.05498995 0.031198129 0.002128005
0.022082195 -0.055767134 0.049024157 -0.024237722 0.041099854 0.05422786 0.015648156 0.05704289

fc3.weight f4 [1, 128]
00000000: a69b 44bb a69b 44bb a69b 44bb a69b 44bb
00000010: a69b 44bb a69b 44bb a69b 44bb a69b 44bb
00000020: a69b 44bb a69b 44bb a69b 44bb a69b 44bb
00000030: a69b 44bb a69b 44bb a69b 44bb a69b 44bb
00000040: a69b 44bb a69b 44bb a69b 44bb a69b 44bb
00000050: a69b 44bb a69b 44bb a69b 44bb a69b 44bb
00000060: a69b 44bb a69b 44bb a69b 44bb a69b 44bb
00000070: a69b 44bb a69b 44bb a69b 44bb a69b 44bb
00000080: a69b 44bb a69b 44bb a69b 44bb a69b 44bb
00000090: a69b 44bb a69b 44bb a69b 44bb a69b 44bb
000000a0: a69b 44bb a69b 44bb a69b 44bb a69b 44bb
000000b0: a69b 44bb a69b 44bb a69b 44bb a69b 44bb
000000c0: a69b 44bb a69b 44bb a69b 44bb a69b 44bb
000000d0: a69b 44bb a69b 44bb a69b 44bb a69b 44bb
000000e0: a69b 44bb a69b 44bb a69b 44bb a69b 44bb
000000f0: a69b 44bb a69b 44bb a69b 44bb a69b 44bb
00000100: a69b 44bb a69b 44bb a69b 44bb a69b 44bb
00000110: a69b 44bb a69b 44bb a69b 44bb a69b 44bb
00000120: a69b 44bb a69b 44bb a69b 44bb a69b 44bb
00000130: a69b 44bb a69b 44bb a69b 44bb a69b 44bb
00000140: a69b 44bb a69b 44bb a69b 44bb a69b 44bb
00000150: a69b 44bb a69b 44bb a69b 44bb a69b 44bb
00000160: a69b 44bb a69b 44bb a69b 44bb a69b 44bb
00000170: a69b 44bb a69b 44bb a69b 44bb a69b 44bb
00000180: a69b 44bb a69b 44bb a69b 44bb a69b 44bb
00000190: a69b 44bb a69b 44bb a69b 44bb a69b 44bb
000001a0: a69b 44bb a69b 44bb a69b 44bb a69b 44bb
000001b0: a69b 44bb a69b 44bb a69b 44bb a69b 44bb
000001c0: a69b 44bb a69b 44bb a69b 44bb a69b 44bb
000001d0: a69b 44bb a69b 44bb a69b 44bb a69b 44bb
000001e0: a69b 44bb a69b 44bb a69b 44bb a69b 44bb
000001f0: a69b 44bb a69b 44bb a69b 44bb a69b 44bb
-0.003 -0.003 -0.003 -0.003 -0.003 -0.003 -0.003 -0.003
-0.003 -0.003 -0.003 -0.003 -0.003 -0.003 -0.003 -0.003
-0.003 -0.003 -0.003 -0.003 -0.003 -0.003 -0.003 -0.003
-0.003 -0.003 -0.003 -0.003 -0.003 -0.003 -0.003 -0.003
-0.003 -0.003 -0.003 -0.003 -0.003 -0.003 -0.003 -0.003
-0.003 -0.003 -0.003 -0.003 -0.003 -0.003 -0.003 -0.003
-0.003 -0.003 -0.003 -0.003 -0.003 -0.003 -0.003 -0.003
-0.003 -0.003 -0.003 -0.003 -0.003 -0.003 -0.003 -0.003
-0.003 -0.003 -0.003 -0.003 -0.003 -0.003 -0.003 -0.003
-0.003 -0.003 -0.003 -0.003 -0.003 -0.003 -0.003 -0.003
-0.003 -0.003 -0.003 -0.003 -0.003 -0.003 -0.003 -0.003
-0.003 -0.003 -0.003 -0.003 -0.003 -0.003 -0.003 -0.003
-0.003 -0.003 -0.003 -0.003 -0.003 -0.003 -0.003 -0.003
-0.003 -0.003 -0.003 -0.003 -0.003 -0.003 -0.003 -0.003
-0.003 -0.003 -0.003 -0.003 -0.003 -0.003 -0.003 -0.003
-0.003 -0.003 -0.003 -0.003 -0.003 -0.003 -0.003 -0.003
