models/checkpoint_critic_local_13.pth (torch_old, 349244 bytes, 5 tensors)

fcs1.weight f4 [256, 200]
000000 16 83 77 3d 94 5c 84 bc 8c fc 87 bc 84 84 f8 3c
       0.060427748 -0.016157426 -0.016599916 0.030336626
000010 82 f9 35 3d b0 10 c0 bc e4 40 01 bd a0 f8 1e 3c
       0.044427402 -0.023445457 -0.031556025 0.0097028315
000020 d4 c4 44 3d da fe 1d 3d 2a 47 72 bd 70 77 76 bc
       0.048039272 0.038573124 -0.0591499 -0.015043125
000030 d4 0b 8f 3c 58 16 0b 3d cc 81 35 bd 80 2b 9f bb
       0.017461695 0.033956856 -0.044313237 -0.0048574805
000040 44 2b 29 bd f4 97 49 bd 4e 77 18 bd 20 e9 9b 3c
       -0.041301027 -0.04921718 -0.037223153 0.019032061
000050 f0 16 42 bd e0 b4 62 bb 64 a6 7f 3d c8 32 f0 3c
       -0.047385156 -0.0034592673 0.06241454 0.02932109
000060 48 6e 53 3d 80 8b 38 bb 78 6d 09 bd c0 52 74 3d
       0.051618844 -0.002815932 -0.033551663 0.05964923
000070 20 28 63 bc 9e 80 0e 3d 88 e8 09 3c a4 29 84 3c
       -0.013864547 0.034790628 0.008417256 0.016133137
000080 42 1f 09 3d e8 7e ba bc 92 1c 0c bd 6a 38 75 bd
       0.033477075 -0.022765592 -0.034206934 -0.059868254
000090 78 a9 06 3d d0 0b 4a bd 9c 47 2f bd 24 59 65 bd
       0.03287646 -0.04932767 -0.0427929 -0.055993214
0000a0 68 81 35 bc da d9 24 bd 8c e9 89 3c 68 30 55 bd
       -0.011078216 -0.040246822 0.016834997 -0.052048117
0000b0 f6 52 64 bd fe 97 28 bd f2 8f 4e 3d a4 b9 10 bd
       -0.05574318 -0.041160576 0.050430246 -0.03533329
0000c0 96 c2 4b bd 50 c9 25 bd 80 49 91 3b 60 e2 4e bc
       -0.04974612 -0.04047519 0.0044338107 -0.012627214
0000d0 aa 0f 27 bd 12 37 14 3d 40 5f f9 3a cc 58 ec bc
       -0.040786423 0.03618533 0.0019025579 -0.028850935
0000e0 ee c8 5c bd 4c 53 85 bc 50 e0 b9 3c f6 f2 2c 3d
       -0.05390256 -0.01627507 0.022689968 0.042223893
0000f0 94 06 5e bd 10 e4 cb bc a6 bd 40 bd 9e 83 5d 3d
       -0.054205492 -0.024889022 -0.047055863 0.054080598
000100 8c f8 57 bd 24 d4 91 bc e0 72 94 3c de 75 33 bd
       -0.052727267 -0.017801352 0.018121183 -0.04381358
000110 80 89 01 3c d6 8e 3b 3d 30 07 03 bd 80 20 d3 3a
       0.007906318 0.045790516 -0.031989276 0.0016107708
000120 d8 ac 41 3d 00 3b f6 3b 3c e6 93 3c b4 0d 7c bd
       0.047283977 0.0075143576 0.01805412 -0.061536506
000130 34 2d 96 3c 5c e5 0b bd 3a 10 57 3d 34 09 0c bd
       0.018332101 -0.03415428 0.05250571 -0.034188464
000140 36 3d 5d 3d 20 59 99 bb 80 f7 dd 3b 6c 9b cc bc
       0.054013453 -0.004679814 0.006773889 -0.024976455
000150 c0 45 8b 3c 80 25 e6 bb d0 b9 1d 3c 30 9a 49 bd
       0.017001033 -0.0070235133 0.009626821 -0.04921931
000160 92 b1 16 bd c6 9c 16 3d 98 d8 00 bc de 39 05 3d
       -0.036790438 0.036770605 -0.00786414 0.03252589
000170 c4 bf f4 bc 34 85 bf bc f4 27 ba bc 40 6b db bc
       -0.029876597 -0.023378946 -0.02272413 -0.02678454
000180 38 24 27 bd e0 0b 42 3b 5a f2 13 bd ea 6c 6a bd
       -0.040806025 0.0029609129 -0.036119796 -0.057232775
000190 ea 57 43 bd 60 b4 0b bd aa 4b 36 3d 68 74 4a 3c
       -0.047691263 -0.034107566 0.044505753 0.012356855
0001a0 34 20 5b bd 5a 36 03 bd ca d1 75 bd 3c 9e e3 3c
       -0.05349751 -0.032034256 -0.060014524 0.027785413
0001b0 e8 f5 76 3d 0c 1b 14 3d ac 6f 87 bc b4 87 d7 bc
       0.06029311 0.036158606 -0.016532741 -0.026309825
0001c0 44 ab fd bc f8 c4 49 3d fc 89 92 3c c0 59 0c bd
       -0.030965455 0.04926011 0.017888062 -0.03426528
0001d0 c4 a7 8e bc c8 f1 14 bc 8c 18 d8 bc 74 1a a7 bc
       -0.017413981 -0.009090848 -0.026378892 -0.020398356
0001e0 30 12 6b bd e6 53 73 bd 38 82 73 bc 90 81 9a 3b
       -0.05739039 -0.059406184 -0.01486259 0.004715152
0001f0 80 e3 33 3b 80 0d 63 3d 14 e1 81 bc 60 25 37 3d
       0.0027448833 0.055432796 -0.015854396 0.044713378
000200 68 52 44 bd 8a c5 68 bd 78 ca 23 bc 20 23 54 bc
       -0.04793015 -0.056829013 -0.009997003 -0.012947828
000210 a0 e8 8a bc b4 8d ed 3c 70 0e 15 3c 80 2a 7b bd
       -0.016956627 0.028998233 0.00909768 -0.061319828
000220 68 ac 67 bc 88 52 45 bd 20 b1 51 3b 34 cd 7f bd
       -0.014140226 -0.04817441 0.0031996444 -0.062451556
000230 06 db 73 bd c4 a7 d9 3c 28 b1 2f bd d4 33 92 3c
       -0.05953505 0.026569255 -0.04289356 0.01784698
000240 30 b1 c8 3b 0a 92 4c bd 22 13 4f bd 00 ad e0 b9
       0.006124638 -0.04994396 -0.050555356 -0.00042853504
000250 3c 67 64 3d a8 4e c6 bc 08 89 59 bd 80 14 8d 3c
       0.055762514 -0.024207428 -0.0531092 0.01722169
000260 70 e4 74 bc 04 f6 ef bc 54 9d ae 3c 08 5b 06 bc
       -0.014947042 -0.029292114 0.021315254 -0.0082004145
000270 c0 4c af bb 94 93 b5 3c 02 4c 10 bd 4c bc 79 bd
       -0.0053497255 0.022165097 -0.035228737 -0.06097059
000280 34 a1 cc 3c ce a7 42 bd 70 4c 79 3d ee cc 47 3d
       0.024979211 -0.047523312 0.060863912 0.04877942
000290 a0 5f 03 3c e6 46 3f 3d bc b3 f6 3c 00 a2 04 3b
       0.008018404 0.046698473 0.030115 0.002023816
0002a0 6c 09 ee bc e0 13 ed 3b 04 a0 aa 3c 28 45 64 3d
       -0.029057227 0.0072350353 0.020828255 0.055730015
0002b0 c0 c0 24 3c d0 b6 3c bd fa db 49 3d 1c 36 22 3d
       0.010055721 -0.04607278 0.04928205 0.039602384
0002c0 96 08 0f bd 8a e2 17 3d cc 83 27 3d 14 a1 0e 3d
       -0.034920298 0.03708128 0.040897176 0.034821585
0002d0 24 5c 00 bd d0 a7 c5 3c 88 7d 0b bc 68 1b 2a bd
       -0.031337872 0.02412787 -0.008513816 -0.041530043
0002e0 be f3 33 3d a6 00 54 bd 66 ef 16 bd 36 cc 5c bd
       0.043933623 -0.05175843 -0.036849402 -0.05390569
0002f0 f0 05 99 3c a0 93 3a 3c 84 df 1a 3d 10 09 30 bd
       0.018679589 0.011387736 0.037810817 -0.042977393
000300 0c d8 f6 bc 90 80 0e bd ac 84 91 3c 9a b6 05 3d
       -0.030132316 -0.034790576 0.017763458 0.032644846
000310 30 8d a8 3b 44 a0 63 3d 5e 92 57 3d 96 ce 79 3d
       0.005143784 0.055572763 0.05262982 0.06098803
000320 e2 bb 02 bd 10 97 63 3d 14 26 37 bd b4 92 67 3d
       -0.03191746 0.055563986 -0.04471405 0.05653639
000330 bc 83 ac bc 84 69 4b 3d a8 6b cb 3c f8 c4 bf bc
       -0.02105891 0.049661174 0.024831608 -0.023409352
000340 60 ca ba bc 04 59 2e bd 28 ac f0 3c 9e 36 36 3d
       -0.022801578 -0.04256536 0.029378965 0.04448568
000350 d8 23 50 3d 18 22 dd bc 90 85 2a 3d 52 93 08 bd
       0.050815433 -0.026993796 0.04163128 -0.03334362
000360 f4 41 f5 3c 60 72 5a 3c 00 89 d1 3a 1a 36 5a 3d
       0.029938675 0.013332933 0.0015986264 0.05327425
000370 50 d7 33 3d 92 08 2d 3d f8 80 25 bc b2 61 06 bd
       0.04390651 0.0422445 -0.010101549 -0.032808013
000380 3a b1 1b 3d 50 ab 7e 3d 78 5d cb 3c 00 93 bd bc
       0.038010813 0.062175095 0.024824843 -0.023141384
000390 bc d5 c3 bc d8 71 5d 3d 0c 6c 1b 3d 68 f0 2c bc
       -0.023905627 0.054063648 0.03794484 -0.010555364
0003a0 4a e5 0e 3d a8 88 7e bd 70 77 34 3c b0 bb 96 3b
       0.034886636 -0.062142044 0.011014804 0.004600011
0003b0 38 13 1c 3c 04 02 29 3d a2 54 13 3d b0 08 f0 3c
       0.0095260665 0.041261688 0.035969384 0.029301018
0003c0 20 c2 0d bb d8 a1 4f bc a8 28 4f bd 0a f3 18 bd
       -0.00216306 -0.012672864 -0.050575882 -0.037341155
0003d0 b0 b3 14 bc 80 c6 69 3a 96 13 56 3d 5a b9 33 3d
       -0.009076044 0.00089178234 0.052264772 0.043877937
0003e0 5e 12 61 bd c4 db 82 3c 98 04 7e 3c 0a 47 35 bd
       -0.054949157 0.015973933 0.015504025 -0.0442572
0003f0 8c 77 f6 bc a4 2a 23 bd 26 d0 18 3d 4c d0 2a 3d
       -0.030086301 -0.039835587 0.03730788 0.041702554

fcs1.bias f4 [256]
000000 3b 24 81 3d a2 ae 19 3d 08 b1 8a bd 40 44 4f 3d
       0.063057385 0.03752006 -0.06772047 0.050602198
000010 3b de 83 3d 20 1d ce bc a6 b1 14 3d 50 d6 ef 3b
       0.064388715 -0.025160372 0.03630223 0.007319249
000020 26 d8 85 bc 0a a2 55 3d 02 9a 96 bc 40 e0 b0 3c
       -0.01633842 0.052156486 -0.018383984 0.021591306
000030 8a 97 78 3d ec e8 80 bd 6c 95 f1 3c b4 7b 85 bd
       0.060691394 -0.06294426 0.029490195 -0.06517735
000040 88 b0 4e 3c e8 d8 15 3d ae a1 17 bd a0 f9 3b bb
       0.0126153305 0.03658381 -0.037019424 -0.0028682724
000050 19 0a 76 bd 4e 64 35 bd eb 61 89 3d 1a 65 94 bc
       -0.060068224 -0.04428511 0.067081295 -0.018114615
000060 80 bd 6f 3c 1a 3b 3b bd e0 f4 b1 bc 82 ef 1d 3d
       0.014632583 -0.04571066 -0.02172321 0.03855849
000070 a0 4a 2d bb 95 33 82 3d 38 71 ee 3c 66 e0 8a bd
       -0.0026442185 0.06357495 0.029106721 -0.06781082
000080 4d 64 80 3d 60 53 ca 3c 1b 75 87 3d 00 f0 72 39
       0.06269131 0.02469796 0.06614133 0.00023168325
000090 b2 87 14 bd f0 a9 93 3c be 94 bc bc 46 c4 bd bc
       -0.03626222 0.018025368 -0.023020145 -0.02316488
0000a0 a8 9a 1e bd 2a 09 71 3d 3e 47 3f bd 67 95 44 bd
       -0.03872171 0.05884663 -0.0466988 -0.047994044
0000b0 70 e6 ea 3b a8 d2 31 3d 7e a8 68 3d aa 4e 73 3d
       0.0071685836 0.043413788 0.05680131 0.05940119
0000c0 8c 3a cf bc 2e 00 6b 3d 78 55 f7 3c 10 70 eb 3c
       -0.025296472 0.05737322 0.030192122 0.028739959
0000d0 d1 c9 82 3d b0 ae 82 3b 4c 5b ed bc 00 ff 14 ba
       0.0638615 0.0039881095 -0.028974198 -0.000568375
0000e0 61 5b 6a bd 28 e6 f3 3c ca ae 20 3d 40 9b 36 bc
       -0.057216052 0.029772833 0.03922919 -0.011145413
0000f0 42 b2 46 3d 84 6d 24 3d a2 f7 d6 bc 90 53 63 bc
       0.048509844 0.040143505 -0.026241127 -0.013874903
000100 de 18 72 bd 8b d5 84 3d 9d ab 82 3d 4d 21 8d 3d
       -0.059105746 0.064860426 0.06380389 0.06891117
000110 e8 f9 b6 3c b2 65 75 3d 98 cc 09 3c f0 63 6d bc
       0.022335961 0.059911437 0.008410595 -0.014489159
000120 3b 04 05 bd a0 17 24 3b 99 e0 0a bd e7 45 81 3d
       -0.032474738 0.0025038496 -0.0339056 0.06312161
000130 20 c3 62 3c 24 dd be 3c 24 35 76 bd d3 ad 90 3d
       0.013840467 0.023298807 -0.060109273 0.07064404
000140 70 d2 c3 bb c0 52 5a bb 0e 06 90 bc a2 00 5f 3d
       -0.005976014 -0.0033313483 -0.017581012 0.054443963
000150 63 fa 8c 3d 72 03 74 3d ef 1a 4c bd 7b 1e 3d bd
       0.06883695 0.0595736 -0.049830373 -0.046171647
000160 b1 cd 8f bd 5c 0c 87 bd 58 6d b6 3c 70 72 d3 3c
       -0.070216544 -0.06594154 0.022268936 0.025811404
000170 00 cf 84 3c 9e f4 8a bd 8d 12 70 bd 72 37 e2 bc
       0.016211987 -0.06784938 -0.05861144 -0.027614329
000180 87 99 8d bd e1 97 6c bd 98 32 b7 3c b6 8f 50 bd
       -0.06914049 -0.05776203 0.022362992 -0.050918303
000190 64 32 de 3c bc 74 8d bd 59 8b 7f bd a0 ed 65 3c
       0.027123637 -0.06907031 -0.06238875 0.014033705
0001a0 ac de 04 3d e8 54 d3 3c 8a bd 80 bc 70 cb 3f bd
       0.03243892 0.025797322 -0.01571538 -0.046824872
0001b0 02 99 62 3d f8 f4 c6 3c 42 e1 c1 bc ea 5a 28 3d
       0.0553217 0.024286732 -0.023666982 0.041102327
0001c0 ac aa b2 3c 80 8f ee ba 36 0e 64 3d e9 4b 0a bd
       0.021809898 -0.0018200725 0.055677615 -0.0337638
0001d0 74 0c 2c 3d 5e 94 5c bd 84 2a ae bc e7 83 8d 3d
       0.042004064 -0.05385243 -0.021260507 0.06909924
0001e0 52 9e d1 bc 38 7d 15 3c 88 f7 2a 3d 5c 63 21 3d
       -0.025588188 0.009124093 0.04173997 0.039401397
0001f0 0a 24 1d bd 10 d7 8b 3c 80 c9 15 3b b8 9d b8 3c
       -0.038364448 0.017070323 0.00228557 0.022536144
000200 ec 32 63 bc 7b ba 05 bd d6 92 6e 3d a8 2c 17 3d
       -0.013867121 -0.032648545 0.058245502 0.036907822
000210 10 2b 0c 3c 20 d0 75 bc d5 d3 7a bd 46 62 8f bd
       0.008555189 -0.015003234 -0.061237175 -0.07001166
000220 6c 34 50 3d f1 33 5f bd c0 12 2e 3c 96 ff 62 bd
       0.050831243 -0.054492895 0.010624588 -0.055419527
000230 2c e3 cf bc 81 c3 80 bd ac 27 be bc a8 16 6f 3c
       -0.025376879 -0.062872894 -0.023212276 0.014592804
000240 94 74 75 bd 2d 69 76 bd 28 2b 7f bd 50 78 45 3d
       -0.05992563 -0.060158897 -0.062297016 0.048210442
000250 58 b1 83 3c b2 92 e4 bc 17 b1 11 bd 7c 15 80 bd
       0.016075775 -0.027901981 -0.035569277 -0.06254098
000260 ac 9a c9 3c 94 d5 09 3d a0 d8 75 bd ac d3 59 bd
       0.024609886 0.03365095 -0.060021043 -0.05318038
000270 16 e0 6c 3d c8 4b 37 3d 96 a8 00 bd 4e e4 12 3d
       0.057830893 0.044750005 -0.031410776 0.03586226
000280 60 35 22 bb b0 bc ae bb d0 53 10 bc bc fe e9 bc
       -0.0024751052 -0.005332552 -0.008809045 -0.02856385
000290 cc a6 e1 3c b3 63 50 bd 16 0f 02 bd ba f6 8d bd
       0.027545355 -0.05087633 -0.03175267 -0.06931825
0002a0 10 ed 3f 3d ac b2 0b bc ce 04 0a 3d 18 3e 48 3d
       0.04685694 -0.008526485 0.03369599 0.048887342
0002b0 70 de 25 bd 3c d3 8f 3c 00 68 6a bb da 76 21 3d
       -0.040495336 0.01755678 -0.0035767555 0.039419986
0002c0 74 e1 69 bc 3c 2a a3 bc fe 80 52 bd 18 d7 70 bd
       -0.014274944 -0.0199176 -0.051392548 -0.05879888
0002d0 af ac 39 bd ac c1 15 bc 98 7a 71 bc 5b 1f 8e bd
       -0.0453307 -0.009140413 -0.014738701 -0.06939574
0002e0 e2 8e 29 bd d6 ee 2d 3d c2 a1 30 3d 5f 2a 84 3d
       -0.04139603 0.0424641 0.043123014 0.06453394
0002f0 f8 61 12 3d 17 07 20 bd 9b 0e 06 bd 20 9b 5b 3b
       0.03573796 -0.03906926 -0.032728773 0.003350921
000300 18 86 4a bc 91 85 0a bd 50 56 dc bb dd e2 83 3d
       -0.012361072 -0.033818785 -0.0067241564 0.06439755
000310 32 1f 31 bd 20 8d f9 3c a3 bd 03 bd 33 0c 83 3d
       -0.04324264 0.030462801 -0.032163274 0.06398811
000320 2e 2f 6e 3d cd c2 88 3d 00 a0 87 38 c8 3f ff 3c
       0.058150463 0.0667778 6.467104e-05 0.031158343
000330 8a f7 73 3d 72 70 2f 3d 24 aa 42 bd 10 97 53 bc
       0.059562244 0.042831846 -0.04752554 -0.012914434
000340 91 bc 8e 3d 5c 3a 7e bc 38 4a 49 3c a0 d6 da 3c
       0.0696956 -0.015516844 0.012285762 0.02671367
000350 80 19 7e 3c e0 c4 b9 bc 94 fa 43 bd d7 68 86 3d
       0.015509009 -0.022676885 -0.04784639 0.06562965
000360 08 8d f2 bc 16 ed 2e bd 4b e9 8f bd 00 b5 94 bb
       -0.029608265 -0.04270657 -0.07026919 -0.0045381784
000370 b0 a9 64 bd ac da 7f bc bc 62 98 3c 13 0c 6e bd
       -0.05582589 -0.0156161 0.018601768 -0.058116984
000380 da f1 11 3d b4 34 58 3d d0 10 ec 3b 86 da 8b bd
       0.03563104 0.052784637 0.0072041526 -0.068287894
000390 00 00 8a b7 20 60 16 bd 88 09 12 3d 48 cf 1f 3c
       -1.6450882e-05 -0.036712766 0.03565362 0.00975401
0003a0 fc 93 76 bd f2 76 bd bc 38 c2 7d 3c f0 9e 14 3d
       -0.060199723 -0.023128007 0.0154882 0.036284387
0003b0 18 b1 5c 3c 00 48 85 39 a8 f8 f5 3c e9 fe 11 bd
       0.013469957 0.0002542138 0.030025795 -0.035643492
0003c0 94 00 6f bc d0 7c 4a 3c 4b c7 3f bd a0 31 77 bb
       -0.01458754 0.012358859 -0.04682092 -0.0037718788
0003d0 08 90 a6 3c f6 96 52 3d da 0d d0 bc 39 b4 64 bd
       0.020332351 0.0514135 -0.02539723 -0.055835936
0003e0 88 ab 10 3c 0d 40 48 bd fc 73 c9 bc e0 22 34 3b
       0.008829959 -0.04888921 -0.024591438 0.0027486607
0003f0 f2 9e 92 bc 7f c5 2b bd 0c c0 08 bc 04 2c be 3c
       -0.017898057 -0.041936394 -0.008346569 0.023214348

fc2.weight f4 [128, 276]
000000 f6 08 36 3d a4 c5 d6 3c 06 4b f7 bc 50 03 45 bc
       0.04444214 0.02621729 -0.030187141 -0.012024716
000010 92 2f 81 bd 3a c1 13 3d 1e c7 5c 3d a0 69 0d bd
       -0.063079014 0.036072947 0.05390083 -0.03452456
000020 b5 7a 58 bd df 3a 2e bd 11 4b 3f bd 00 74 9c 38
       -0.052851398 -0.042536613 -0.04670245 7.460266e-05
000030 ea c0 43 3d 2a 1c 9b bd cb 3b ac 3d 1b 03 9a 3d
       0.0477914 -0.07573731 0.08409842 0.075201236
000040 e0 82 e5 bc fd 57 9e 3d 3c fc c7 3c fa 48 3a 3d
       -0.028016508 0.07731626 0.024412267 0.045479752
000050 94 07 09 bd b8 c0 d6 3c c3 94 af bd a6 c3 37 3d
       -0.033454493 0.026214942 -0.08573296 0.04486432
000060 03 27 ae bd fd bd af bd 32 05 b1 bd 50 c8 f7 3b
       -0.08503535 -0.08581159 -0.08643569 0.007561721
000070 c0 aa bf 3a c5 8c 50 bd 03 85 94 3d 6e 5e 05 3d
       0.0014623031 -0.0509155 0.072519325 0.03256076
000080 78 99 97 bc a8 69 3a 3c 76 23 8a bd 21 ba 80 3d
       -0.018505797 0.0113777295 -0.06745045 0.06285501
000090 00 59 95 bb c6 1b 4b 3d a2 97 3a 3d f8 79 1d bc
       -0.004557729 0.049587034 0.045554765 -0.009611599
0000a0 f4 eb c5 3c a9 c0 a5 3d 10 1f 0d 3c 2e e1 33 3d
       0.024160363 0.08093388 0.008613363 0.04391592
0000b0 80 4f 20 bc be 98 1d 3d ef bb 16 bd 84 f5 c3 bc
       -0.009784579 0.038475744 -0.03680032 -0.023920782
0000c0 4e fc 92 bd 8d 1e b3 3d 58 5e 5f bd 79 39 9e bd
       -0.071770296 0.087460615 -0.054533333 -0.07725806
0000d0 18 2a 0c bc ed ac 94 3d 08 93 46 bd 00 93 00 3d
       -0.008554958 0.072595455 -0.048480064 0.03139019
0000e0 a8 0a a6 bd 0c 35 9e bd 89 4b 16 bd 69 24 12 bd
       -0.08107501 -0.07724962 -0.03669313 -0.035679255
0000f0 d2 bc 5b 3d 0c 6d b6 3c ae f5 36 bd 68 af da 3c
       0.05364687 0.022268794 -0.044667892 0.026694968
000100 00 aa 59 b9 01 b4 a6 3d ea cb 6c 3d 20 fc 07 3d
       -0.00020758063 0.08139802 0.057811655 0.03319943
000110 02 30 19 3d 1b 44 92 3d dd b6 55 bd b3 ff 90 3d
       0.0373993 0.07141896 -0.052176345 0.07080021
000120 c0 4c dd bc 8e 60 8d bd 55 cc 0f bd 75 1e 62 bd
       -0.027014136 -0.06903182 -0.035106976 -0.055204827
000130 cd 94 89 bd 20 44 e3 3b b8 4d 59 3c 97 39 1d bd
       -0.067178346 0.0069356114 0.0132631585 -0.038385
000140 75 32 b2 3d 66 7b 5a 3d 7b 91 45 bd ef 12 a3 3d
       0.0870103 0.05334034 -0.048234444 0.07962596
000150 95 ae 8d bd 64 67 88 bd 22 d6 2c bd c8 00 15 3c
       -0.069180645 -0.06660345 -0.0421964 0.009094425
000160 ae 66 10 3d a9 8b 95 bd 0e 2c 2e bd d0 50 43 bc
       0.035254173 -0.07302029 -0.042522483 -0.011921123
000170 e2 2d 43 3d 1d 3a 53 bd f7 91 9a bd c4 da 96 bc
       0.04765118 -0.051569093 -0.07547372 -0.018414862
000180 93 36 9d bd c0 ab ea 3c 65 ff 12 bd 39 21 92 bd
       -0.07676425 0.02864635 -0.035888094 -0.07135243
000190 bd 14 20 bd 39 d7 af bd 27 19 9d 3d 8e 66 0f bd
       -0.039082278 -0.08585972 0.07670813 -0.035009913
0001a0 6e c2 19 3d 1b c9 00 bd 28 96 6b 3c 6a f6 63 3d
       0.03753894 -0.03144179 0.014379062 0.05565492
0001b0 40 98 6d 3c 6e 30 1b bd 4d 84 9f bd b4 0b d0 3c
       0.014501631 -0.037887983 -0.07788906 0.025396205
0001c0 ec 60 86 bc f0 4b cb 3b 06 a0 71 bd 50 01 98 3b
       -0.016403638 0.006204121 -0.0589905 0.0046388283
0001d0 ac 08 8c bd e0 83 37 3c b8 c7 18 bc a0 cd 0b bd
       -0.068375915 0.011200875 -0.00932496 -0.034131646
0001e0 a6 38 6f bd 0c ed 96 bc d3 76 a2 3d 50 9c a4 3b
       -0.058403634 -0.01842358 0.0793282 0.0050235167
0001f0 96 d2 4e bd 00 eb 76 3c 8e 3b f4 bc 10 fb 20 3c
       -0.0504938 0.015070677 -0.029813554 0.009825483
000200 ff 3f 91 3d f8 6b 0d 3c 50 0b da 3c b8 f8 f8 3c
       0.070922844 0.008631699 0.026616722 0.030392036
000210 b1 6a 9e 3d ec 6a bd 3c 67 b5 b0 3d c6 53 7b 3d
       0.077351935 0.023122273 0.0862835 0.06135919
000220 3d b0 86 bd 00 b3 1f 3b d2 49 08 3d b0 48 1c bc
       -0.065765835 0.0024368167 0.033273526 -0.009538814
000230 82 d6 94 bd d3 12 b1 3d 12 95 1d bd 54 a5 8c 3c
       -0.072674766 0.086461686 -0.038472243 0.017168678
000240 50 2a ad 3c 96 6a 3e 3d 46 77 6f bd 7a 17 82 bd
       0.02113834 0.046488367 -0.058463357 -0.06352134
000250 00 fd a3 bd e1 4c 49 bd 80 36 bd ba cb e6 a3 3d
       -0.0800724 -0.049145583 -0.0014435798 0.08003005
000260 cd d9 20 bd a5 35 a1 3d e0 ca 04 3b 88 8e ea bc
       -0.03927021 0.0787156 0.0020262524 -0.028632417
000270 ff e9 ad 3d 6d f5 8b 3d 0f 88 9a 3d db 82 07 bd
       0.08491897 0.06833921 0.07545482 -0.033083778
000280 28 57 de bc 49 67 8b bd 50 82 03 3c e0 7c 3b 3b
       -0.027141169 -0.068068095 0.008026674 0.0028608367
000290 90 65 5a bc d2 e1 55 3d fe c8 0d 3d 85 49 00 bd
       -0.013329878 0.052217312 0.03461551 -0.031320114
0002a0 18 9f 7c bc d2 7b 11 3d 8f 28 2f bd a8 ab 14 bd
       -0.01541879 0.035518475 -0.04276329 -0.036296517
0002b0 83 e3 83 3d d8 4d d3 3c 16 66 a7 bd b7 85 ad 3d
       0.06439879 0.025793955 -0.08173768 0.0847277
0002c0 b1 7a b3 bd 43 80 89 bd 17 0e 81 3d 7d ae 57 bd
       -0.08763636 -0.06713917 0.063015155 -0.05265664
0002d0 e6 fe 57 bd e5 90 a1 bd 60 1a 2f bb 71 79 8a 3d
       -0.052733324 -0.078889646 -0.0026718602 0.06761444
0002e0 53 ce 94 3d e2 00 45 3d 78 c6 d1 bc d9 e4 91 3d
       0.07265916 0.048096545 -0.025607333 0.07123727
0002f0 4a 4a 32 3d 3f 0a 43 bd 6f 8a 81 3d 2c 7c f6 bc
       0.04352788 -0.047617193 0.06325232 -0.030088507
000300 36 a9 43 3d a0 fd 8c 3b 2d 96 a5 3d 7c 42 10 bd
       0.047768794 0.0043026954 0.080852844 -0.035219654
000310 c1 6e ae 3d c0 e6 9f bc 79 04 8e 3d 6e 23 79 3d
       0.085172184 -0.01951921 0.06934447 0.060824804
000320 fe 67 0a bd b8 87 5e bc 13 24 15 bd 39 f6 b1 3d
       -0.03379058 -0.013582163 -0.036411356 0.08689541
000330 07 e8 90 3d 90 8b b9 3c 64 1e 92 3c e5 70 3d bd
       0.07075506 0.022649556 0.017836757 -0.046250243
000340 e9 70 80 3d b8 e7 ac bd aa 49 7e 3d c5 f6 0f bd
       0.06271536 -0.08442634 0.06208197 -0.035147447
000350 36 ca 6c 3d 70 c9 dc bb a8 52 a3 bc d4 3c 29 bd
       0.05781003 -0.0067378804 -0.019936875 -0.041317776
000360 fa 65 35 3d d4 f6 e8 3c 1a 90 5f 3d 61 6a a4 3d
       0.044286706 0.02843801 0.054580785 0.08028103
000370 58 de 2b 3c 66 71 17 3d 13 2b 29 bd 26 0f 42 3d
       0.010490023 0.03697338 -0.041300844 0.047377728
000380 82 d3 6b 3d f6 b1 85 bd 69 9c 51 bd 58 1d 30 bc
       0.057574756 -0.06528084 -0.051174555 -0.010749184
000390 ed 2f 1c bd 99 22 92 3d fd 8a 92 3d 49 01 86 3d
       -0.038131643 0.07135505 0.07155416 0.06543214
0003a0 e8 a4 8b bd 4a 28 a6 bd 02 39 14 bd 00 88 2a b8
       -0.06818563 -0.08113153 -0.03618718 -4.065782e-05
0003b0 30 37 ad 3b 7b 73 20 bd 7f df 27 bd 7e e6 71 3d
       0.00528612 -0.03917263 -0.040984627 0.059057705
0003c0 1e 02 71 3d 30 58 4c 3c 49 3b 91 3d 36 0e a9 bd
       0.05883991 0.012472197 0.07091386 -0.08254664
0003d0 e8 68 71 bc ac c5 0c 3d 23 a9 01 bd 88 21 67 3c
       -0.014734484 0.034368202 -0.031655442 0.014107116
0003e0 14 7d 01 3d c4 fc a9 bd 48 83 14 bc 5a f9 1a 3d
       0.031613424 -0.08300164 -0.009064503 0.037835456
0003f0 a0 50 c3 bc d6 82 4c bd 7e 95 14 bd f2 ce 26 3d
       -0.023842156 -0.049929462 -0.03627538 0.040724702

fc2.bias f4 [128]
000000 88 17 d1 bb 80 d1 49 3c 44 b3 80 3c 12 d0 12 bd
       -0.006380979 0.012318015 0.01571048 -0.035842963
000010 8a e1 44 bd 84 32 02 bd f8 19 3c 3c a4 71 51 bc
       -0.048066653 -0.031786457 0.011480801 -0.012783442
000020 e8 bc 02 3c 12 bc 5b 3d 88 f1 09 bc c4 8e ec 3c
       0.007979609 0.053646155 -0.008419402 0.02887667
000030 c6 8d 62 3d f6 3e ec bc 60 86 5e 3d 08 f4 ba bc
       0.055310987 -0.028838616 0.05432737 -0.022821441
000040 bc 1b 00 3d 26 e2 d5 bc 32 fc 38 3d dc fd 52 3d
       0.03127645 -0.026108813 0.045162387 0.05151163
000050 5a 2a 70 3d 4c e7 68 3d a0 e9 fc ba 72 d5 36 3d
       0.05863414 0.056861207 -0.00192957 0.04463715
000060 80 f7 fe ba e4 9c 56 3d 84 6a 71 bc 00 97 65 39
       -0.0019452423 0.052395716 -0.014734868 0.00021895394
000070 78 b6 a0 bc 7c 74 72 bc 38 5d 19 3d 4c 04 26 3d
       -0.019618258 -0.01479828 0.037442416 0.04053144
000080 56 72 8f bc 48 57 d5 bb b0 02 04 3b f8 70 45 bc
       -0.017510574 -0.006510649 0.0020143203 -0.01205086
000090 70 07 1d 3c e8 e5 32 bc 58 4b 4f bd 85 07 23 bd
       0.009584293 -0.010919072 -0.050608963 -0.039802093
0000a0 c4 04 6a bd 98 34 60 3d b2 fb e3 bc 66 23 84 bc
       -0.05713345 0.054737657 -0.027829979 -0.01613016
0000b0 62 e0 57 3d a8 9f 59 bc f0 57 75 3c 90 6f 30 3c
       0.052704223 -0.013282694 0.014974579 0.010768786
0000c0 4c 1e 2e 3d b8 ba 41 3c 48 80 79 bc b4 c8 0a bd
       0.042509362 0.011824302 -0.015228339 -0.03388281
0000d0 c9 99 10 bd 14 9f 23 bc aa 25 c3 bc 10 43 76 bd
       -0.03530291 -0.009986658 -0.02382167 -0.06012255
0000e0 22 d9 19 bd c0 d1 4c bd e2 1f 5e 3d c2 1a 2d 3d
       -0.03756059 -0.05000472 0.054229625 0.042261846
0000f0 50 f4 25 3d 1e d7 80 bc ad ae fa bc f4 8c ad 3c
       0.040516198 -0.015727576 -0.03060087 0.021185376
000100 68 58 22 3c 40 b5 25 3b 10 9d 86 3b fc 8e 51 bd
       0.009908773 0.0025285035 0.004108079 -0.05116175
000110 f0 4b 5c 3d 2f 5e 6d bd 63 df 40 bd 0c d3 03 bc
       0.053783357 -0.05795115 -0.04708804 -0.008045923
000120 1c e6 fa 3c 4c f7 5e bd 26 13 19 3d dc b4 bf 3c
       0.030627303 -0.05443506 0.037371777 0.02340167
000130 50 9e d1 3c a8 9a 09 3c 74 a8 26 3d c0 b9 63 3d
       0.025588185 0.008398689 0.040687993 0.055597067
000140 6c c1 b4 3c 52 b0 01 bd 70 5e 31 bb a0 1c 9b bb
       0.022064887 -0.031662293 -0.0027064346 -0.004733637
000150 a0 04 51 bb b6 98 27 bd a0 b9 b6 ba 16 9c 73 bd
       -0.0031893626 -0.04091712 -0.0013940819 -0.059475027
000160 ea e6 36 3d 80 a0 47 3d 24 43 4e bd ac d1 26 bd
       0.04465381 0.04873705 -0.050357 -0.040727302
000170 06 97 48 3d 8a bc 02 3d 52 f0 5a 3d 94 88 0e bd
       0.048972152 0.031918086 0.053451844 -0.03479822
000180 18 c3 7a 3c 40 b6 b9 3b e0 9c 5b 3d 00 be 78 3c
       0.015305303 0.005667478 0.053616405 0.015182018
000190 91 3a 38 bd 00 e1 71 3b a0 2c 20 bc ba d2 32 3d
       -0.04497773 0.0036907792 -0.009776264 0.043657996
0001a0 93 e4 10 bd d7 99 ed bc 4c 3f 29 bc 6c ee 04 3d
       -0.035374235 -0.02900402 -0.010330033 0.03245394
0001b0 46 92 9f bc 88 fe 64 3c fa 37 2c 3d 75 79 14 bd
       -0.019478928 0.013976701 0.04204557 -0.036248643
0001c0 c4 89 e2 3c 4e 82 23 bd c0 58 00 3a 68 a7 9c bc
       0.027653582 -0.03991919 0.0004896037 -0.019122794
0001d0 7a 1d 62 bd 10 c8 02 3d 18 0d 1c 3d 84 2e 4b 3d
       -0.055203892 0.031929076 0.038098425 0.049604908
0001e0 f4 82 20 3d 08 20 1f bd ca 6d 17 3d 98 44 2f bc
       0.039187387 -0.038848907 0.036969937 -0.010697506
0001f0 64 e1 69 bc 30 4c bb bb 64 d3 a7 3c 2e 47 68 3d
       -0.014274929 -0.0057158694 0.020486541 0.056708507

fc3.weight f4 [1, 128]
000000 0c bf 11 3b 00 cd 70 b8 cd ef 21 bb 56 34 0c 3b
       0.0022239117 -5.741138e-05 -0.0024709583 0.00213935
000010 46 29 02 bb 2c b2 38 3b 80 e2 98 3a 84 b1 06 bb
       -0.0019861027 0.002818237 0.0011664182 -0.0020552585
000020 00 e1 8a ba 00 f7 5b 37 1c 7f 41 3b 84 a2 2c 3b
       -0.001059562 1.3110926e-05 0.0029525226 0.0026341984
000030 c9 9c 92 ba 0e b8 18 bb 80 a2 e8 38 46 6f 0c 3b
       -0.0011185642 -0.0023303065 0.0001109289 0.0021428629
000040 00 80 42 3b 9a 80 eb ba dc 94 66 3a 94 b9 30 ba
       0.0029678345 -0.0017967403 0.00087959855 -0.00067415205
000050 c2 f8 32 bb 51 27 06 bb 6a 62 0e 3b 54 fb 1f 3b
       -0.0027308916 -0.0020470212 0.002172614 0.0024411278
000060 c8 98 69 3a 00 a3 a6 3a ea 55 20 3b 88 4a d6 39
       0.0008911011 0.0012713373 0.0024465271 0.0004087279
000070 8e 3e 30 bb 9c f7 a3 3a 40 2e 75 3a d2 a2 30 3b
       -0.0026892754 0.0012509706 0.00093529 0.0026952517
000080 31 bd a2 ba 9e 66 17 3b 44 34 e3 ba 2f 5f 27 bb
       -0.0012416003 0.0023101936 -0.0017334302 -0.0025538912
000090 f8 5c e1 3a 96 0d 1f 3b 96 ae 3b 3b 0c 06 0c ba
       0.0017193845 0.0024269572 0.0028637997 -0.0005341477
0000a0 69 2c 1e bb 3d 19 9f ba bc 54 fe 3a e8 53 c3 39
       -0.0024135357 -0.0012138259 0.0019403915 0.00037255813
0000b0 34 46 08 bb c3 ea 36 bb 40 f6 ad 38 ac 23 1e 3b
       -0.0020793797 -0.0027910925 8.2951505e-05 0.0024130149
0000c0 20 eb f7 b8 88 8c c0 ba b8 73 2e 3b b4 a1 bb 3a
       -0.00011821673 -0.0014690319 0.0026619267 0.0014315159
0000d0 0a 1b 41 bb cc 4c 0d 3a 9e f0 16 3b 08 50 1d 3b
       -0.002946558 0.0005390167 0.0023031603 0.0024004001
0000e0 1b 3c 3c bb 00 27 db ba e6 da 0f 3b 40 7c b1 b8
       -0.002872235 -0.0016719997 0.0021950542 -8.463161e-05
0000f0 10 41 b0 3a d0 9d 4f b9 2d dd c8 ba 5c b5 59 3a
       0.0013447125 -0.00019799848 -0.0015324705 0.0008304918
000100 82 56 14 3b d0 78 31 3b 88 9a 75 3a 49 91 3b bb
       0.002263457 0.0027080067 0.0009369035 -0.0028620532
000110 ec f8 1e ba af e4 3d bb f2 ca 8a ba 78 00 74 3a
       -0.0006064314 -0.0028975417 -0.0010589047 0.0009307931
000120 2c e6 13 3b d3 9e b6 ba 78 ca 3e 3b 29 e4 36 bb
       0.0022567613 -0.0013932831 0.002911238 -0.002790699
000130 1e 1e 24 bb f0 ff e7 39 90 e2 16 39 bc 54 96 3a
       -0.0025042365 0.00044250442 0.00014389516 0.0011469345
000140 fe 97 1d 3b 4f 33 1d bb 94 2f 8e 3a 28 75 11 3a
       0.0024046893 -0.002398688 0.001084792 0.00055487687
000150 78 1e 91 b9 3c 7c 1a 3b 3a 6a 38 3b 08 e4 05 3a
       -0.00027679256 0.0023572585 0.0028139488 0.00051075267
000160 71 07 d8 ba da 6c 34 3b 7c d7 39 bb 9d 00 9c ba
       -0.001648171 0.00275307 -0.0028357198 -0.0011902038
000170 92 7e dd ba 94 c0 15 3b 3c 30 4e 3a d8 99 38 ba
       -0.0016898683 0.0022850381 0.0007865464 -0.00070419675
000180 69 75 32 bb cc fe c9 ba 38 dc 72 ba 84 15 1b 3a
       -0.0027230626 -0.0015411018 -0.00092643825 0.0005915987
000190 b8 ac a9 3a 6c 73 fc 3a 54 4b a7 ba 64 41 f7 3a
       0.0012945151 0.0019260473 -0.0012763538 0.0018864092
0001a0 2e 4c 3c 3b 83 f9 fa ba 22 18 1b 3b e6 c9 05 3b
       0.002873193 -0.0019147847 0.0023665507 0.002041453
0001b0 48 0d b0 3a 18 94 6b ba 08 27 db b9 f4 53 d1 3a
       0.0013431692 -0.0008986606 -0.00041800016 0.0015970455
0001c0 26 d0 c4 ba e8 a6 86 3a 7a 7f bd ba 82 32 2f 3b
       -0.0015015646 0.0010273131 -0.0014457547 0.0026732986
0001d0 e6 d8 3c 3b d5 82 c7 ba 47 61 3d bb 06 34 04 3b
       0.0028815805 -0.0015221486 -0.0028897093 0.002017261
0001e0 dc 33 39 3b de 9e 0b 3b 6c 5c 01 3a 30 7b c7 ba
       0.002825967 0.002130441 0.00049347314 -0.0015219208
0001f0 71 91 ba ba 14 5c a3 3a 5b f8 08 bb a3 17 df ba
       -0.0014234019 0.0012463355 -0.0020899985 -0.0017020594
