models/checkpoint_critic_local_9.pth (torch_old, 349244 bytes, 5 tensors)

fcs1.weight f4 [256, 200]
0	0x3d04beea	0.032408632
1	0xbc2eadc0	-0.010661542
2	0xbce504a8	-0.027956322
3	0x3d1d3e84	0.038389698
4	0x3d0921c4	0.033479467
5	0xbd71f7de	-0.059074275
6	0xbce440dc	-0.027862959
7	0x3d22893e	0.039681666
8	0x3d0b4336	0.033999644
9	0x3ba0fca0	0.0049129277
10	0x3d4c029e	0.049807183
11	0xbd6d5be6	-0.05794897
12	0xbd010b66	-0.03150501
13	0xbd730d58	-0.059338897
14	0x3d22293e	0.039590113
15	0x3d44d39a	0.04805336
16	0x3d6a509c	0.05720578
17	0x3d79f6aa	0.061026253
18	0xbd5baa0a	-0.05362896
19	0xbce6c1a4	-0.028168507
20	0x3d2daa50	0.04239875
21	0xbcb3f264	-0.021966167
22	0x3d4544c2	0.048161276
23	0x3b7d5c80	0.003865987
24	0x3d10a01c	0.035308942
25	0xbcc4ee70	-0.024039477
26	0x3ce5e1b8	0.028061733
27	0x3d4d40bc	0.050110564
28	0x3d092b22	0.0334884
29	0x3d637426	0.05553069
30	0x3d2d8662	0.042364486
31	0x3c06b130	0.008220956
32	0x3d1743e0	0.036929965
33	0xbd013c76	-0.0315518
34	0xbd101d12	-0.035183974
35	0xbc8b2990	-0.016987592
36	0xbcd32a28	-0.025776938
37	0xbc4b4728	-0.012407102
38	0xbc3380a0	-0.01095596
39	0x3d54c6c0	0.051947355
40	0xbd43f03e	-0.047836535
41	0xbd28b432	-0.041187473
42	0x3c80b220	0.015709937
43	0x3ce17320	0.027520716
44	0x3d1ccf4a	0.038283624
45	0x3cb20910	0.021732837
46	0xbcb48844	-0.022037633
47	0xbd0fe600	-0.035131454
48	0x3d61630c	0.0550261
49	0xbd4c693e	-0.049905054
50	0x3c8cc8b8	0.017185554
51	0x3cb66970	0.022267073
52	0xbbb64e90	-0.0055635646
53	0xbd3a0220	-0.045412183
54	0xbc9ba084	-0.018997438
55	0xbc92a6a0	-0.017901719
56	0xbc0c7c10	-0.008574501
57	0x3b857530	0.0040728077
58	0x3c67eeb0	0.014156029
59	0x3d3df54e	0.04637652
60	0xbc029fb0	-0.007972643
61	0x3b480300	0.0030519366
62	0xbd18e9fc	-0.03733252
63	0xbcf6bbe4	-0.03011889
64	0xbd5730fc	-0.05253695
65	0xbd119698	-0.035544008
66	0xbd300610	-0.04297453
67	0x3d648e70	0.0557999
68	0x3cf79c9c	0.030226044
69	0xbd24a8ec	-0.04020016
70	0x3cf0db74	0.029401518
71	0x3be9a8d0	0.0071307197
72	0xbd63526e	-0.055498533
73	0xbc6ae8b0	-0.014337704
74	0x3d490d26	0.049084805
75	0x3d7f228e	0.062288813
76	0x3cb16874	0.021656252
77	0x3be75000	0.0070590973
78	0xbc843034	-0.016136266
79	0xbc7982c0	-0.015228927
80	0x3d4455de	0.04793345
81	0x3d70bbba	0.05877278
82	0x3d434cd8	0.047680706
83	0x3d2ad726	0.041709088
84	0xbce4444c	-0.027864598
85	0x3b40d700	0.0029425025
86	0xbd7f810e	-0.062378936
87	0x3d44b712	0.048026152
88	0x3d1d258e	0.038365893
89	0x3d44134c	0.047869965
90	0xbc9006d4	-0.01758138
91	0x3d02ebb4	0.031963065
92	0x3d532590	0.051549494
93	0xbd3deae6	-0.046366595
94	0x3d100bd2	0.035167523
95	0xbd439b98	-0.047755808
96	0x3c218eb8	0.009860687
97	0x3d4d6de8	0.050153643
98	0x3c3aa818	0.011392616
99	0xbc6832d8	-0.014172278
100	0x3cfeb0c0	0.03109014
101	0xbd3d71a8	-0.04625097
102	0xbd12870a	-0.035773315
103	0x3c185578	0.009297721
104	0x3d6275fa	0.055288292
105	0x3d590414	0.052982405
106	0x3d7db40e	0.06193929
107	0x3d5c382c	0.053764507
108	0xbb5db7e0	-0.0033831522
109	0xbc797de0	-0.015227765
110	0x3d4de32c	0.050265476
111	0xbbae2760	-0.0053147525
112	0x3ce978c4	0.028499968
113	0xbbe6ba20	-0.007041231
114	0x3aa565c0	0.0012618825
115	0x3d645846	0.055748247
116	0x3cafaa64	0.021443553
117	0x3d24b5c4	0.040212408
118	0xbcdb098c	-0.02673795
119	0xbc012608	-0.0078826025
120	0xbcfc8898	-0.030826852
121	0x3ca3249c	0.019914918
122	0x3d6c9618	0.057760328
123	0x3d4b799c	0.049676523
124	0xbd698c5e	-0.05701863
125	0xbca176e8	-0.01971002
126	0xbd7bd124	-0.06147875
127	0xbd411814	-0.047142103
128	0x3d2da4c8	0.042393476
129	0x3b140180	0.0022583902
130	0xbd270af0	-0.040781915
131	0xba364a00	-0.0006953776
132	0x3d1ffd80	0.039060116
133	0x3cd0a44c	0.025468968
134	0xbd4130d6	-0.047165714
135	0xbc56e0c8	-0.013115115
136	0x3c1b9d18	0.009497903
137	0xbcc50ee8	-0.02405496
138	0xbd33ac1c	-0.04386531
139	0xbcf9d2e4	-0.030496068
140	0xbcb9a634	-0.02266226
141	0xbd100be8	-0.035167605
142	0x3d0ce29c	0.0343958
143	0x3ca970d0	0.020683676
144	0xbb515640	-0.0031942278
145	0xbd093ea2	-0.033506997
146	0xbd1eb4b6	-0.038746558
147	0xbd7d9ade	-0.06191527
148	0x3cabec64	0.020986743
149	0x3ce7dec8	0.028304473
150	0xbd719132	-0.05897636
151	0x3b02fde0	0.0019987747
152	0xbd0b12e4	-0.033953562
153	0xbd1a77f4	-0.037712052
154	0x3d7ab6b6	0.061209403
155	0x3c8208d4	0.01587335
156	0xbbe59d80	-0.007007301
157	0xbd6bf2ac	-0.057604477
158	0xbd73f926	-0.05956378
159	0x3c600078	0.013671987
160	0xbb9e4080	-0.0048294663
161	0xbd56fef2	-0.05248923
162	0x3d199e70	0.037504613
163	0x3d46cf8e	0.048537783
164	0xbcf3eaa4	-0.029774971
165	0x3d1e0636	0.038580142
166	0x3d437af2	0.04772467
167	0xbd78c718	-0.060736746
168	0x3cdddd9c	0.02708321
169	0x3d45de62	0.048307784
170	0x3d3cb61c	0.04607211
171	0x3ca12b28	0.019673899
172	0x3d147cc0	0.036251783
173	0x3d1e46f4	0.038641885
174	0xbd67f01e	-0.056625478
175	0x3d228434	0.03967686
176	0x3d2be9ea	0.041971125
177	0x3be0b6e0	0.006857738
178	0xbce14ea8	-0.027503327
179	0xbd40e116	-0.04708966
180	0x3c8fb374	0.017541625
181	0xbd224850	-0.039619744
182	0xba111080	-0.000553377
183	0x3d0edbe8	0.034877688
184	0x3c9e205c	0.01930254
185	0xbd5417a6	-0.051780365
186	0x3d36e7ec	0.04465477
187	0xbd5b63d0	-0.053561985
188	0x3cf60cc4	0.030035384
189	0xbc99b758	-0.018764183
190	0xbb362740	-0.002779439
191	0x3d1da72e	0.038489513
192	0xbd0af550	-0.033925354
193	0x3af5e500	0.0018760264
194	0xbce0b6b0	-0.027430862
195	0xbd168bce	-0.036754422
196	0xbd5289b4	-0.051400855
197	0xbce744ac	-0.028230987
198	0xbc1d29e8	-0.009592511
199	0x3c9af808	0.018917099
200	0x3d12d9b8	0.035852164
201	0xbd55db1c	-0.052210912
202	0x3d68169e	0.056662194
203	0x3d21ac7c	0.039471135
204	0xbd4b489e	-0.0496298
205	0x3c4cf748	0.012510128
206	0xbd5e0ce0	-0.054211497
207	0xbcf6e4b8	-0.030138358
208	0x3d2caadc	0.04215513
209	0x3c4c80e8	0.0124819055
210	0x3d7ce084	0.061737552
211	0x3c348ad0	0.011019424
212	0xbb076820	-0.0020661429
213	0x3d12781e	0.035759084
214	0xbd6cdf48	-0.057830125
215	0x3d2f5a8e	0.04281097
216	0x3c021428	0.007939376
217	0x3c9d0f90	0.01917246
218	0x3c974930	0.018467516
219	0x3d63f2ec	0.05565159
220	0x3cb39ac0	0.021924376
221	0xbd0bdb1c	-0.034144506
222	0xbcdf7f60	-0.027282417
223	0xbc9f3eb8	-0.019439086
224	0xbd1a44f2	-0.037663408
225	0xbbddb020	-0.0067653805
226	0x3c96c788	0.01840569
227	0x3d4a5026	0.04939284
228	0xbd3ce358	-0.04611525
229	0x3d13637c	0.035983548
230	0x3ac92000	0.001534462
231	0xbd5de5ac	-0.05417411
232	0xbc81766c	-0.015803538
233	0x3c4bace8	0.012431361
234	0xbcf2745c	-0.0295965
235	0xbd1200d0	-0.035645306
236	0x3d499c34	0.049221233
237	0xbd1e1884	-0.0385976
238	0x3d4425a0	0.047887444
239	0xbbc615c0	-0.0060450733
240	0x3cc9b53c	0.024622552
241	0x3c38e188	0.01128424
242	0x3d26f47a	0.040760495
243	0x3cc9d838	0.024639234
244	0x3d540516	0.051762663
245	0xbd0f7ee8	-0.035033137
246	0x3c2ae930	0.010431573
247	0x3d0c7470	0.03429073
248	0xbcd86b30	-0.026418298
249	0xbaef7400	-0.0018268824
250	0x3d0b4be2	0.034007914
251	0xbce60ea4	-0.028083153
252	0x3d4edb8e	0.050502352
253	0x3cbd9cd8	0.023146078
254	0x3d3be2d6	0.045870624
255	0xbd202364	-0.03909625

fcs1.bias f4 [256]
0	0xbd90a75b	-0.070631705
1	0xbd23231c	-0.039828405
2	0x3cebd9c4	0.028790362
3	0xbce8f5de	-0.028437551
4	0x3d1e02a6	0.038576744
5	0xbbcf5750	-0.006327547
6	0xbd3c5706	-0.04598143
7	0x3d837775	0.06419269
8	0xbd86f72c	-0.06590113
9	0xbbac4490	-0.0052571967
10	0x3d55bb28	0.05218044
11	0x3a8f5200	0.0010934472
12	0x3ca57fe8	0.020202592
13	0xbc7fa2c4	-0.015602771
14	0x3c719ce0	0.014746875
15	0x3c9dd8d8	0.019268438
16	0x3a8390c0	0.0010037646
17	0x3d6216e2	0.055197604
18	0xbc649914	-0.013952512
19	0xbcf2205e	-0.02955645
20	0x3d2c1112	0.042008467
21	0x3cb2ba68	0.021817401
22	0x3ce82838	0.02833949
23	0x3c7795a8	0.015111364
24	0xb8656800	-5.4694712e-05
25	0xbd6db253	-0.05803139
26	0xbd84b5d1	-0.06479991
27	0x3c71d028	0.014759101
28	0xbd49f65c	-0.049307212
29	0x3d4c0fa8	0.04981962
30	0x3c83e818	0.016101882
31	0x3d8c4373	0.068488024
32	0x3b611e80	0.0034350455
33	0xbd82a658	-0.06379384
34	0x3d3928b0	0.04520482
35	0x3d5cb5dc	0.053884372
36	0xbcb41d64	-0.02198667
37	0x3c045768	0.00807748
38	0x3d622052	0.055206604
39	0xbd2d4cc8	-0.042309552
40	0xbd6b2ef0	-0.05741781
41	0x3d53f0be	0.05174326
42	0xbd54654c	-0.051854417
43	0x3ca83154	0.020531334
44	0x3d85b1e5	0.06528071
45	0xbc25f304	-0.01012874
46	0xbd4f2b7c	-0.05057858
47	0x3d160442	0.036625154
48	0x3d906aa3	0.07051589
49	0xbcb6db52	-0.022321377
50	0x3d894789	0.067030974
51	0xbd67ee09	-0.056623492
52	0xbd070d06	-0.032971404
53	0xbd1f5283	-0.03889705
54	0xbd1ff3b5	-0.039050777
55	0xbc77fc60	-0.0151358545
56	0x3d8b5025	0.06802396
57	0xbb346800	-0.002752781
58	0x3d2b4784	0.04181625
59	0xbcc9a668	-0.024615481
60	0xbd1309c5	-0.03589799
61	0x3d65a19a	0.05606232
62	0x3d214404	0.039371505
63	0x3c480348	0.012207814
64	0x3cb9c8e0	0.022678792
65	0xbb8372e0	-0.004011497
66	0xbd5d2570	-0.05399078
67	0xbd8c84ab	-0.06861242
68	0x3c25c0f0	0.010116801
69	0xbd052f62	-0.03251589
70	0x3ce79d5c	0.028273277
71	0x3ca2b4a0	0.01986152
72	0x3d2e9f84	0.042632595
73	0xbaaee440	-0.001334317
74	0xbcea41c8	-0.02859582
75	0x3d52c620	0.051458478
76	0x3d0c7afc	0.034296975
77	0x3cb32424	0.02186782
78	0xbd69ebc8	-0.057109624
79	0xbd00a453	-0.03140671
80	0xbd571594	-0.052510813
81	0x3c7dcca0	0.015490681
82	0xbc071918	-0.008245729
83	0xbd34450e	-0.04401117
84	0x3d71fca2	0.05907882
85	0x3c6dbd60	0.014510483
86	0x3d7bf26a	0.06151048
87	0xbcc60fe0	-0.024177492
88	0x3cf79a90	0.030225068
89	0xbd3bc3e7	-0.045841124
90	0xbc80ac6e	-0.01570722
91	0x3d034bf2	0.03205485
92	0xbd150bcb	-0.0363882
93	0xbd3ba17c	-0.0458083
94	0xbcfce7a8	-0.030872181
95	0xbd8e6489	-0.06952769
96	0x3c6d79a0	0.01449433
97	0x37efa000	2.8565526e-05
98	0xbd2412cc	-0.04005699
99	0x3d632d76	0.055463277
100	0xbd16cd36	-0.0368168
101	0x3d0f006e	0.03491252
102	0xbd58ef9d	-0.052962888
103	0x3cd953a0	0.026529133
104	0x3d82f0d3	0.0639359
105	0xbc181294	-0.009281773
106	0xbd52061d	-0.05127536
107	0x3d3a2318	0.045443624
108	0xbd8609bc	-0.065448254
109	0x3d1a7160	0.03770578
110	0xbc88382c	-0.016628347
111	0x3d5433d8	0.051807255
112	0x3cb66e1c	0.022269301
113	0x3d738436	0.059452258
114	0x3d5dfc44	0.054195657
115	0xbd806896	-0.06269948
116	0x3d0bfcc6	0.03417661
117	0xbcc597b2	-0.024120186
118	0x3d3f9d3c	0.04678081
119	0xbd19a2cd	-0.037508775
120	0xbd18405f	-0.037170764
121	0x3b4beb20	0.0031115487
122	0xbd898eac	-0.067166656
123	0x3d4eb2d4	0.050463513
124	0xbcd97430	-0.02654466
125	0xbd823ecd	-0.063596345
126	0xbd89a160	-0.06720233
127	0x3cd9ce74	0.026587702
128	0x3d707ad6	0.058710895
129	0xbd7187de	-0.058967464
130	0x3d5d046a	0.053959288
131	0x3c7d87d0	0.015474275
132	0xbcd6e126	-0.026230406
133	0xbbc2e5c0	-0.0059477985
134	0xbd18f447	-0.037342336
135	0x3d66a96e	0.056313924
136	0x3d296d0e	0.04136377
137	0x3cc0ec44	0.02355016
138	0xbcea83a2	-0.02862722
139	0x3cb5c9e0	0.022190988
140	0x3b4a2da0	0.0030849949
141	0xbd01e580	-0.03171301
142	0xbd90368d	-0.07041655
143	0x3d8b8f0b	0.06814393
144	0x3d412ff2	0.047164865
145	0x39d1d900	0.00040025264
146	0xbd840935	-0.064470686
147	0xbaa9e000	-0.0012960434
148	0x3d5af562	0.05345667
149	0xbc622c18	-0.013804458
150	0xbd698aa2	-0.057016976
151	0xbbc5c7c0	-0.006035775
152	0x3d890c59	0.06691808
153	0xbd8092f1	-0.06278027
154	0x3d4decec	0.050274774
155	0xbc943750	-0.018092781
156	0xbd028c1d	-0.031871904
157	0xbccdb180	-0.025109053
158	0xbd8f316e	-0.0699185
159	0xbd779d08	-0.06045249
160	0xbd008051	-0.031372372
161	0x3b49b700	0.0030779243
162	0xbd1d78ae	-0.038445167
163	0xbd4d66f4	-0.050147012
164	0x3ba2c0a0	0.0049668103
165	0xbbd6be00	-0.0065534115
166	0x3cb0fa90	0.021603853
167	0x3d5b7cd8	0.053585857
168	0x3d7553da	0.05989442
169	0xbc408380	-0.011750102
170	0x3ca648d0	0.020298392
171	0x3d441770	0.047873914
172	0x3d4fb2a0	0.05070746
173	0xbb1d4740	-0.0023998767
174	0xbd89f30e	-0.06735812
175	0xbc5816fc	-0.013189074
176	0x3c8ca8dc	0.017170362
177	0xbd46a366	-0.048495673
178	0x3d34d1a2	0.044145234
179	0x3c15ea30	0.009150073
180	0xbc8b049e	-0.016969975
181	0x3cfcd95c	0.030865364
182	0xbd473d39	-0.04864237
183	0xbd810b18	-0.06300944
184	0x3b16fc00	0.0023038387
185	0xbcea1bb0	-0.028577656
186	0x3d5c8f70	0.05384773
187	0xbcae5d04	-0.021284588
188	0x3c9c9374	0.01911328
189	0xbd15dcc7	-0.036587503
190	0x3d85e173	0.06537142
191	0x3c377020	0.011196166
192	0x3d1736a8	0.03691736
193	0xbd189926	-0.03725543
194	0xbcfc2ae0	-0.030782163
195	0x3ceb2be8	0.02870746
196	0x3d2f9e8e	0.04287582
197	0xbbedfd30	-0.0072628483
198	0x3cd2a51c	0.025713496
199	0x3cf6d918	0.030132815
200	0xbc008b60	-0.00784573
201	0xbc9e2ac6	-0.019307505
202	0xbcad51c4	-0.021157153
203	0x3c00e428	0.007866897
204	0xbd202407	-0.03909686
205	0xbc4767ec	-0.012170773
206	0xbd2bf77d	-0.04198407
207	0xbc31e320	-0.0108573735
208	0x3cc41dc0	0.023939967
209	0xbc4d754c	-0.012540173
210	0xbd44ef8f	-0.048080023
211	0x3c857614	0.016291656
212	0xbb0552c0	-0.0020343512
213	0xbd8c44db	-0.06849071
214	0xbd5869bb	-0.052835207
215	0xbd83fb39	-0.06444401
216	0xbd699a1c	-0.057031736
217	0xbc911f52	-0.01771513
218	0xbcaa3aba	-0.020779956
219	0x3d4c3320	0.049853444
220	0x3d55f1ea	0.05223266
221	0xbd3249ad	-0.043527294
222	0x3c40edc0	0.011775434
223	0xbd520d3c	-0.051282153
224	0x3b297820	0.0025858954
225	0x3d20f93e	0.039300196
226	0x3d837ffb	0.06420895
227	0xbd51e513	-0.051243853
228	0xbc29bdbc	-0.010360178
229	0xbd81ff8b	-0.06347569
230	0x3c8e0f44	0.017341264
231	0xbd5dd941	-0.054162268
232	0xba6aa080	-0.0008950308
233	0xbd06a9c8	-0.03287676
234	0x3cad773c	0.02117502
235	0x3ce8fe9c	0.02844172
236	0xbd48e722	-0.04904855
237	0x3d68b01e	0.056808583
238	0x3d78c0c6	0.060730718
239	0x3c77e848	0.015131064
240	0x3d8849a3	0.0665467
241	0xbd638003	-0.055542003
242	0xbd52b9a8	-0.051446587
243	0xbd105073	-0.035232972
244	0xbd810eaa	-0.06301625
245	0xbd06563f	-0.032797094
246	0xbcf7741c	-0.030206732
247	0xbd0ae1f8	-0.033906907
248	0x3d2a6c14	0.041606978
249	0xbd7e8b9b	-0.062144857
250	0xbca5d606	-0.020243656
251	0xbd813cc3	-0.063104175
252	0xbd49ffe8	-0.049316317
253	0x3cec6124	0.028854914
254	0x3d05883a	0.03260062
255	0x3cb920e0	0.022598684

fc2.weight f4 [128, 276]
0	0xbd80da82	-0.06291677
1	0x3ce61ca4	0.028089829
2	0xbd8c7dc7	-0.068599276
3	0xbd8e4ced	-0.06948266
4	0xbc94f56c	-0.018183433
5	0x3c7b4ad0	0.015337661
6	0x3c6d8610	0.014497295
7	0x3da42ea7	0.08016711
8	0x3d77c8f2	0.06049437
9	0xbca7f0f8	-0.020500645
10	0xba896340	-0.0010481849
11	0xbcfbc20a	-0.030732173
12	0xbd098e78	-0.033583134
13	0x3d9b494f	0.07582342
14	0x3db3fff7	0.08789056
15	0xbc9cc29c	-0.019135766
16	0x3bebc4b0	0.007195078
17	0x3cefb85c	0.029262714
18	0x3cf9bac8	0.030484572
19	0x3d9cad2d	0.07650218
20	0x3da55623	0.0807307
21	0xbd2532a1	-0.040331487
22	0xbd8497bc	-0.064742535
23	0xbd2dd30f	-0.04243761
24	0xbd16a4b5	-0.03677817
25	0xbad2c240	-0.001607962
26	0xbca3b7c0	-0.01998508
27	0xbcb8feec	-0.022582494
28	0x3d8e3277	0.06943219
29	0x3cadc498	0.021211907
30	0xbd011c50	-0.03152114
31	0x3bae8470	0.0053258464
32	0x3d80f207	0.06296163
33	0xbd34b5ad	-0.044118572
34	0xbbef93a0	-0.0073112994
35	0xbd83e1bc	-0.0643954
36	0xbbae3a40	-0.0053170025
37	0xbc607de0	-0.013701886
38	0xbd93a024	-0.07208279
39	0xbd173120	-0.036912084
40	0xbd50f495	-0.0510145
41	0xbb8f0500	-0.0043646097
42	0x3da9a779	0.08283896
43	0xbc21ce10	-0.009875789
44	0xbd069c21	-0.03286374
45	0xbccbc0f8	-0.024872288
46	0x3c38b900	0.011274576
47	0xbd9c516e	-0.07632719
48	0xbc6fa1a0	-0.014625937
49	0x3c2c2770	0.0105074495
50	0xbd78debe	-0.0607593
51	0xbd93e0f3	-0.0722064
52	0x3db270bf	0.08712911
53	0xbd7bcd48	-0.06147507
54	0xbdb32d90	-0.08748925
55	0xbd10c0cb	-0.03534011
56	0x3daee415	0.08539597
57	0x3c4f0430	0.012635276
58	0xbd9625e2	-0.07331444
59	0x3c03b688	0.008039124
60	0x3d1125fc	0.035436615
61	0xbcab1978	-0.020886168
62	0x3d9ba1b1	0.075991996
63	0x3d5388de	0.0516442
64	0xbd8788d0	-0.06617892
65	0x3d2180d6	0.03942951
66	0x3ce88230	0.02838239
67	0xbd2a69a0	-0.041604638
68	0xbd1aba52	-0.037775345
69	0x3d7e1d52	0.06203968
70	0x3c8d6e0c	0.017264389
71	0xbd8f874e	-0.07008229
72	0x3d9d4b17	0.07680338
73	0xbd64e23a	-0.05587981
74	0xbd052b4c	-0.032511994
75	0xbc9cd5b4	-0.01914487
76	0x3da72331	0.08161009
77	0x3c9f8c78	0.01947616
78	0x3d5edc02	0.054409035
79	0xbd69d806	-0.05709078
80	0x3d32a5ce	0.043615155
81	0xbda62a5b	-0.081135474
82	0xbd427194	-0.047471598
83	0x3d8076b9	0.062726445
84	0x3d91a555	0.07111613
85	0xbbd48dc0	-0.0064866245
86	0x3d159f94	0.03652914
87	0x3d55e7a2	0.052222855
88	0x3cffa830	0.031208128
89	0xbd9d6cd8	-0.07686776
90	0xba3b3c80	-0.0007142499
91	0x3d1e0d7a	0.03858707
92	0x3db36b77	0.08760732
93	0x3ab44cc0	0.0013755783
94	0xbd9cb0be	-0.076508984
95	0x3da54d8b	0.08071431
96	0xbda70940	-0.08156061
97	0x3bb7af80	0.005605638
98	0x3d346bfa	0.044048287
99	0x3d671c4e	0.056423478
100	0xbda66e88	-0.08126551
101	0xbda67a7f	-0.08128833
102	0x3dadd8e5	0.08488635
103	0xbc86513c	-0.016396157
104	0x3d627ff2	0.0552978
105	0xbd55224b	-0.052034657
106	0x3d1face2	0.038983233
107	0xbcf96034	-0.030441381
108	0xbd671236	-0.05641385
109	0x3d674052	0.056457825
110	0x3d45ebf6	0.048320733
111	0xbcb2fa54	-0.021847881
112	0x3db289e5	0.087177075
113	0xbd8310b5	-0.06399671
114	0x3d1e97a2	0.038718827
115	0xbd9ead08	-0.07747847
116	0x3c7d5ee8	0.015464522
117	0xbc40fff0	-0.01177977
118	0xbd60a3a2	-0.054843552
119	0xbdb2423b	-0.08704039
120	0x3da426ab	0.08015188
121	0xbb3bb840	-0.0028643757
122	0xbc154b20	-0.0091121495
123	0x3d0346da	0.03204999
124	0x3d834ce3	0.06411149
125	0x3d0fe882	0.035133846
126	0xbcffe286	-0.031235944
127	0xbd64c2d6	-0.055849873
128	0xbd1dc5bd	-0.038518656
129	0x3d50e2a6	0.0509974
130	0x3d0f5b30	0.034999073
131	0xbd00afd1	-0.03141767
132	0x3cd84d2c	0.026403986
133	0xbc8dc2b0	-0.017304748
134	0xbd596849	-0.05307797
135	0x3d947565	0.07248954
136	0x3d55c1ee	0.0521869
137	0x3c5a34e8	0.013318278
138	0xbdadd4ed	-0.08487878
139	0x3db11a09	0.08647544
140	0xbd1c0843	-0.038093816
141	0x3d92de5b	0.07171317
142	0xbcb48bc0	-0.022039294
143	0x3d2c16e6	0.042014025
144	0xbca86d84	-0.020560034
145	0xbb2c34a0	-0.0026276484
146	0xbd7e615a	-0.06210456
147	0xbca75a74	-0.020428874
148	0xbcb96178	-0.022629485
149	0x3d784a2a	0.060617603
150	0xbc1bac00	-0.009501457
151	0xbd0c59ff	-0.034265514
152	0xbd6899df	-0.056787368
153	0x3d23a452	0.03995163
154	0x3d2dd69e	0.042441003
155	0x3d047fec	0.03234856
156	0x3d9c908f	0.0764476
157	0xbcb81efc	-0.022475712
158	0x3d8e7359	0.069555946
159	0xbd62f1b7	-0.0554063
160	0xbda26782	-0.07929899
161	0xbd65d6d7	-0.05611309
162	0xbc792fc8	-0.015209146
163	0x3d17865e	0.036993377
164	0xbd0dfb66	-0.03466358
165	0x3db212b9	0.08694977
166	0xbd74a1d7	-0.059724655
167	0xbc703d38	-0.014663033
168	0xbd7f3634	-0.06230755
169	0xbd9985ef	-0.07496249
170	0xbd2af662	-0.041738875
171	0x3daeceab	0.085355125
172	0xbd0d39dc	-0.034479007
173	0xbda72ca2	-0.0816281
174	0xbd2b627c	-0.04184197
175	0xbdaa5320	-0.08316636
176	0x3b529e20	0.0032137707
177	0x3c9779a4	0.01849062
178	0xbd8beaa3	-0.06831863
179	0xbd1afce6	-0.03783884
180	0x3dae10bf	0.08499288
181	0x3c1fceb0	0.009753868
182	0xbdae4407	-0.08509069
183	0x3d90e58b	0.07075032
184	0x3c8a04f8	0.016848072
185	0x3d8c07fb	0.0683746
186	0xbc31fc78	-0.010863416
187	0xbd24e679	-0.04025886
188	0xbc8d34c0	-0.017237067
189	0xbc884dc8	-0.016638651
190	0x3d597182	0.053086765
191	0x3d62c226	0.055360936
192	0xba06b180	-0.0005138144
193	0x3d70ed06	0.058819793
194	0x3c9bca98	0.019017503
195	0x3d201882	0.039085872
196	0x3d175a8e	0.036951594
197	0x3dabf633	0.08396568
198	0xbd73bb50	-0.059504807
199	0x3d5fec72	0.05466885
200	0x3d405aae	0.04696148
201	0xbdaa39a9	-0.08311779
202	0x3cd52f50	0.026023537
203	0xbda49647	-0.08036476
204	0x3d56d2b2	0.05244703
205	0x3c90ba5c	0.017666988
206	0xbc950a24	-0.018193312
207	0xbd834ef4	-0.064115435
208	0x3d81d56f	0.06339537
209	0xbdac10aa	-0.08401616
210	0xbd5783a4	-0.052615777
211	0x3ca3ead0	0.020009428
212	0xbd25a775	-0.040442903
213	0x3d96ab51	0.07356895
214	0x3d6bbfce	0.057555966
215	0x3dad6f4b	0.08468493
216	0x3d94f4db	0.07273265
217	0xbc15d720	-0.009145528
218	0x3d167356	0.036731087
219	0xbd78efcc	-0.060775563
220	0x3d7481f6	0.059694253
221	0x3cbc7970	0.023007125
222	0xbda88e45	-0.08230261
223	0x3ba34a30	0.004983209
224	0xbc4ff3a0	-0.012692362
225	0xbd3e8fe2	-0.046523936
226	0x3d445f5a	0.047942497
227	0x3d0506ac	0.032477066
228	0xbd061061	-0.032730464
229	0x3adc86c0	0.0016824827
230	0xbd34f59a	-0.044179536
231	0xbbe23cd0	-0.006904222
232	0x3d849a33	0.06474724
233	0x3d97e053	0.07415833
234	0x3da2469b	0.07923623
235	0x3d5497d6	0.051902615
236	0xbda5f0f0	-0.08102596
237	0x3c85bb1c	0.016324572
238	0x3b86ecc0	0.0041175783
239	0x3d639d72	0.055570073
240	0xbaa00700	-0.0012209117
241	0x3d9ed3f9	0.07755274
242	0x3d4a4092	0.049377985
243	0xbcda1b72	-0.026624415
244	0x3d3964ea	0.045262255
245	0xbd344545	-0.044011373
246	0x3c8bc070	0.017059535
247	0x3d55b2a6	0.052172326
248	0x3d6c7ef6	0.057738267
249	0xbd56ef70	-0.05247444
250	0x3d9916f1	0.07475079
251	0xbd5e7e36	-0.054319583
252	0xbda5e0f6	-0.080995485
253	0x3d75ddda	0.060026027
254	0x3d8e50ab	0.0694898
255	0x3d94415b	0.07239028

fc2.bias f4 [128]
0	0x3b195760	0.0023398027
1	0x3d47113c	0.04860042
2	0xbd32db17	-0.04366597
3	0x3d5bdf06	0.05367949
4	0xbcc0971c	-0.023509555
5	0x3d2def20	0.042464375
6	0xbd58cdf7	-0.0529308
7	0xbb104080	-0.0022011101
8	0xbc991176	-0.018685084
9	0x3d5c56b2	0.053793617
10	0xbd67bde5	-0.056577582
11	0x3d298c32	0.041393466
12	0x3d59af28	0.053145558
13	0xbcaf85c0	-0.021426082
14	0xbd192eaa	-0.037398018
15	0x3cdd8f00	0.027045727
16	0xbce9a164	-0.02851934
17	0xbc102ea4	-0.0088001825
18	0xbcd83f86	-0.026397478
19	0xbd367b9c	-0.044551477
20	0xbc0adc70	-0.008475408
21	0xbd292175	-0.041291673
22	0x3cd79af8	0.026319012
23	0xbd2b4b0c	-0.041819617
24	0x3d6785c8	0.056524068
25	0xbc824808	-0.015903488
26	0xba8c5600	-0.0010706782
27	0xbc625970	-0.013815269
28	0xbd58ba5d	-0.052912105
29	0xbd5ec984	-0.0543914
30	0x3c1b4b38	0.009478383
31	0xbd18eb24	-0.037333623
32	0x3c369e98	0.01114621
33	0xbc7797b8	-0.015111856
34	0x3d236ae8	0.039896876
35	0x3b04d8e0	0.002027087
36	0x3d66ba6c	0.05633013
37	0xbd30699c	-0.043069467
38	0x3d342cac	0.043987915
39	0x3cb85788	0.022502676
40	0x3d088306	0.03332808
41	0xbcf0e7c3	-0.029407388
42	0x3c9b28bc	0.018940322
43	0x3bc94ee0	0.006143436
44	0x3d6bb65a	0.05754695
45	0x3b734820	0.0037121847
46	0x3d6b5970	0.05745834
47	0x3d5d7c04	0.05407335
48	0x3d50366a	0.050833143
49	0xbd5ee532	-0.054417796
50	0x3c0edf78	0.008720271
51	0xbc20e698	-0.009820603
52	0xbc94898a	-0.01813199
53	0xbcce34a0	-0.025171578
54	0x3d3d3150	0.046189606
55	0x3cb8bd90	0.022551328
56	0xbc390aa8	-0.011294045
57	0x3ca747c8	0.02041997
58	0x3d6b0904	0.057381645
59	0x3d27a588	0.040929347
60	0x3c047d40	0.008086503
61	0x3bcc2b90	0.006230779
62	0x3ccfd8dc	0.025371961
63	0xbb0dbc30	-0.002162706
64	0xbcb8dff0	-0.02256772
65	0xbca44248	-0.020051137
66	0xbd5cf994	-0.053948954
67	0x3d248764	0.04016818
68	0xbd3a72be	-0.045519583
69	0x3c8d945c	0.017282657
70	0x3d4d5dfa	0.05013845
71	0x3d5ba414	0.053623274
72	0xbc0b16bc	-0.008489307
73	0x3c901454	0.017587818
74	0x3cf55b04	0.029950626
75	0x3d6ca4e0	0.057774425
76	0xbc78ce60	-0.015185922
77	0xbd2c04e2	-0.041996844
78	0xbccc26fa	-0.02492093
79	0x3d44f87c	0.048088536
80	0x3cd8e884	0.02647806
81	0x3d1de58a	0.038548984
82	0x3caf5ee4	0.021407552
83	0x3cb53264	0.022118755
84	0x3d738cb6	0.059460364
85	0xbd1831c6	-0.037156843
86	0xbcca6546	-0.024706494
87	0xbd55cf46	-0.052199624
88	0x3c842178	0.01612924
89	0x3d6b8120	0.05749619
90	0x3d009b9c	0.0313984
91	0x3c9eb5f8	0.019373879
92	0x3d66adcc	0.05631809
93	0xbd052745	-0.032508153
94	0xbb4a9730	-0.0030912869
95	0xbc82c7d6	-0.01596443
96	0xbd54e455	-0.051975567
97	0x3d50df1e	0.05099403
98	0xbd021c9f	-0.031765576
99	0x3d6b2bd0	0.05741483
100	0xbd263b23	-0.04058374
101	0xbc4c99fc	-0.012487885
102	0x3d6b0db8	0.05738613
103	0x3ce2f3f4	0.027704217
104	0x3ca1e2d4	0.01976148
105	0xbce41858	-0.02784364
106	0xbd739cfb	-0.05947588
107	0xbd452ddd	-0.04813944
108	0x3d27dd7e	0.040982716
109	0x3d71a71e	0.058997266
110	0xbd03258a	-0.032018222
111	0xbb4a7a90	-0.0030895807
112	0xbca27436	-0.019830804
113	0xbd4e589f	-0.050377484
114	0x3cfd7c4c	0.030943058
115	0xbd41d03c	-0.04731773
116	0x3d477518	0.048695654
117	0xbd3f7f3e	-0.046752207
118	0x3cbe72f8	0.02324818
119	0x3ad27d00	0.0016058981
120	0xbd4d7e6c	-0.050169393
121	0x3d0779d6	0.033075176
122	0x3d428ff0	0.04750055
123	0xbd2159a6	-0.039392136
124	0x3d453c20	0.048153043
125	0x3d67c29e	0.056582086
126	0xbbee8480	-0.007278979
127	0x3d0954b8	0.03352806

fc3.weight f4 [1, 128]
0	0xbacd644e	-0.0015670152
1	0xbae640c8	-0.0017566914
2	0xbb2b9aed	-0.0026184872
3	0x3aa03848	0.0012223804
4	0x3a5c9ba8	0.00084155286
5	0xbb078d22	-0.0020683487
6	0x3b07aa0e	0.0020700726
7	0x3a2d1b90	0.00066035334
8	0x3b32c318	0.002727693
9	0x3a96db74	0.0011509494
10	0x39e46ac0	0.00043567084
11	0x3a8b5250	0.001062939
12	0xba03bc94	-0.0005025354
13	0xbacda274	-0.0015688674
14	0xbaa27933	-0.0012395739
15	0xb9e87058	-0.0004433419
16	0xba88ef6e	-0.0010447332
17	0x3b2c0d70	0.0026253127
18	0xb944f2f0	-0.00018782518
19	0xbb10508a	-0.0022020661
20	0x3b185af6	0.0023247576
21	0x3a20e0a0	0.00061369874
22	0xb9698690	-0.0002227074
23	0xba463994	-0.00075616804
24	0x3b3a91de	0.0028468291
25	0x399ebd00	0.00030276924
26	0xb9a60b10	-0.0003167023
27	0xbaccc3b5	-0.001562229
28	0x3ad7c4b8	0.0016461825
29	0xbb3c2c72	-0.0028713015
30	0xbb203473	-0.0024445325
31	0x39565b80	0.00020442717
32	0xb98a6f08	-0.00026404136
33	0xbb03da3e	-0.0020119096
34	0xbb09a43e	-0.0021002437
35	0xb9039cf0	-0.00012551597
36	0xbb2b3b12	-0.0026127738
37	0xbb0ad7d0	-0.0021185763
38	0x3b2cc2b6	0.0026361174
39	0x3a41ce44	0.00073931017
40	0xbb2a43a1	-0.0025980251
41	0x3a02ee90	0.0004994655
42	0xbb00aa02	-0.0019632583
43	0xba9f0dbe	-0.0012134833
44	0xbb317428	-0.002707729
45	0x3adbd730	0.0016772505
46	0xbb3d49de	-0.002888314
47	0xbabfa084	-0.0014619981
48	0x3ac08d74	0.0014690594
49	0xbb40dc8c	-0.0029428331
50	0xba969d9f	-0.0011491067
51	0x3b19ba68	0.0023457054
52	0x3b087152	0.0020819497
53	0x3b2426a8	0.0025047455
54	0xb884cd00	-6.332435e-05
55	0x3a13b900	0.0005635172
56	0xbb20290c	-0.0024438528
57	0x3ab6fa30	0.001396006
58	0xbad31aac	-0.0016105971
59	0x38b20dc0	8.4902626e-05
60	0x39a9f748	0.0003241843
61	0xb9ff7aa0	-0.00048728753
62	0x3abe286c	0.0014507896
63	0x3b399c9a	0.0028322102
64	0x39c67a70	0.00037856726
65	0x3ab86e3c	0.0014070938
66	0x3a809120	0.0009808876
67	0xbb05f45a	-0.0020439834
68	0xbac06f4d	-0.0014681608
69	0x3ab32338	0.0013667112
70	0x3a6eb208	0.0009105508
71	0xbaabad32	-0.0013097881
72	0xbb2138e1	-0.0024600553
73	0x3b4472f0	0.0029975735
74	0xbae5dc51	-0.0017536973
75	0x3b14384a	0.0022616559
76	0x37c7b280	2.380577e-05
77	0xbab76e76	-0.0013994712
78	0xba664ee8	-0.00087855617
79	0x39425b60	0.00018535322
80	0x399e6fa0	0.00030219276
81	0xbb02748f	-0.00199059
82	0x3a795fc8	0.0009512869
83	0xbaedff44	-0.001815774
84	0x3b441652	0.002992053
85	0xba5d575c	-0.00084434985
86	0x3b2cf89c	0.00263933
87	0x3ae07d2c	0.0017127148
88	0x3a34ccf4	0.00068969955
89	0xb91f53a0	-0.00015194574
90	0x3b0674e8	0.002051646
91	0x3a096a00	0.00052419305
92	0xbaac0c24	-0.0013126177
93	0x3b278528	0.0025561545
94	0x3a8b0998	0.0010607718
95	0xbb07d580	-0.002072662
96	0xbb3ca1ae	-0.0028782892
97	0x3a1932b0	0.000584404
98	0x3aedcf00	0.0018143356
99	0xba03a740	-0.00050221756
100	0xbb39c492	-0.0028345925
101	0x3a47d294	0.0007622626
102	0xbb0a70f0	-0.0021124445
103	0xb9f65668	-0.00046985154
104	0x3ab882a8	0.0014077025
105	0xba672618	-0.0008817627
106	0x3abe4804	0.0014517312
107	0x3b2d85d4	0.0026477473
108	0xba650864	-0.0008736907
109	0x3aa9f96c	0.001296801
110	0xba3f6d70	-0.0007302379
111	0xbb279466	-0.002557063
112	0xb99a77e0	-0.00029462483
113	0xba88b044	-0.0010428508
114	0x39d2b8d8	0.0004019204
115	0x3b33e958	0.0027452316
116	0x395e3420	0.00021190988
117	0x3b26d414	0.0025455998
118	0xba5f2444	-0.0008512179
119	0x39501060	0.00019842526
120	0xba28180c	-0.00064122747
121	0x3a4bdb1c	0.0007776485
122	0xbb431214	-0.0029765414
123	0xbaf98555	-0.0019036928
124	0x3b0fdb24	0.0021950686
125	0x3ab0b340	0.0013481155
126	0xbb190d77	-0.0023353973
127	0xbb12992e	-0.0022369134
