models/checkpoint_actor_local_5.pth (torch_old, 152633 bytes, 5 tensors)

fc1.weight f4 [256, 18]
00000000: 2c32 a03c 1cc3 2abd cef0 04bd 1817 82bc
00000010: f005 f63c b028 ba3c 10b2 fcbb 8efa 6e3d
00000020: 728a 50bd 3877 25bd c687 0fbd f458 363d
00000030: 92a2 33bd e208 61bd 6e3d 5fbd 0c48 5a3d
00000040: 524a 72bd 3c86 703d 044f 12bd e4e9 d63c
00000050: 509a cb3c 3803 193c 3c8d 62bd e24d 51bd
00000060: 0400 8c3c 1cc1 1dbd 50f3 613c a05d 6c3d
00000070: 9c49 803c 526f 3bbd e895 59bd 9425 d23c
00000080: 32f8 353d 188d 4f3d c077 98ba a44a bcbc
00000090: a0d0 df3c 361f 053d 2892 7fbc 8a56 5dbd
000000a0: 7ea9 063d c02e ff3a 6025 9bbc b862 de3c
000000b0: 409d f33b 185b 04bc d6aa 6fbd 802a 7abd
000000c0: 684f a5bc 34db 6fbd 06c7 62bd 5432 18bd
000000d0: a0f3 6abb c03c cabc 20fd 61bb 5c3d e33c
000000e0: b2da 523d b8b0 58bc 34d0 5fbd c00c 833c
000000f0: 4a4d 45bd a863 a63c b069 083d 2299 18bd
00000100: 4059 91bb 901e 723d 70c3 50bc 3c00 633d
00000110: 007f 143b e4a5 053d 685a 3a3c 9ee9 4c3d
00000120: 98ee ffbc 1cc3 48bd 5809 66bc cc95 c23c
00000130: dc9f 143d 8081 3f3d 5aba 16bd fc97 3bbd
00000140: d2b5 7fbd bce8 b83c a84d 2a3c a204 003d
00000150: e8c4 b93c 0470 b33c f042 c93c c637 61bd
00000160: e014 a5bb 6495 a63c 62cf 643d 9e89 32bd
00000170: a0a2 11bc be87 0c3d 6678 4fbd 84de 6bbd
00000180: e0db 663d 0052 de3a 22a4 7e3d 4472 54bd
00000190: 94ba 053d 0848 58bc 767d 78bd 005d dcba
000001a0: 708e f83c e094 8e3c 18d7 073c 5a93 583d
000001b0: 1801 48bc d68c 0e3d 3a62 453d 185e bc3c
000001c0: 9693 143d a0b3 dbbb 80f6 acba fca0 af3c
000001d0: 802e da3b 0a61 713d 40db f33c 082b c13c
000001e0: 40c1 3fbb b0e1 e5bc ec42 6bbd aac0 16bd
000001f0: 2cc7 33bd 0600 53bd 903f 423d 0c2f 133d
00000200: 3c46 0a3d e8ae 613c 10d3 713c 0091 4fba
00000210: c0b0 ff3a 2484 f5bc e4fa 923c 9e4d 5c3d
00000220: ceaf 55bd e037 1fbd 5627 1cbd e04f 6c3c
00000230: a6ef 2ebd c4e5 953c 8474 253d c0bb 823c
00000240: 726c 423d 9c23 123d 0e7d 6e3d 9e0c 363d
00000250: 8032 063c 18bb 8b3c 480b 243d 240f ddbc
00000260: 488a 5c3c c079 b73c 58eb 0b3c d4d8 5b3d
00000270: e0ea afbc 84bb f13c 0a16 2abd 588c 71bd
00000280: 6c30 15bd 7848 a23c 8003 42bd 60ec d5bb
00000290: 3883 3abc 7c28 43bd 065c 23bd 564d 7abd
000002a0: 80ad 8abb 50e6 22bc 88a3 71bc f41a 2cbd
000002b0: 7ef9 723d 78f8 82bc ec74 3a3d b010 c53b
000002c0: a0b6 083c 60b3 643c 9845 643d e849 603d
000002d0: 8832 71bc 045b a4bc 2296 773d 2082 283b
000002e0: e42e 53bd b8fa 163d 2c67 cf3c b0b6 89bc
000002f0: 9a82 0dbd b8b6 c93c fac8 68bd d474 e6bc
00000300: c8e2 383d 402a 90bc 307b cc3c 4086 213c
00000310: e8cf 27bc f8cb 333c 349e 1ebd 3ced dfbc
00000320: 2ea2 1ebd 7022 28bc 6c1a 6dbd 9c9e 64bd
00000330: 34be 3ebd a6f2 403d c869 c6bc 8084 323d
00000340: f85f 063d 00b6 d33c f220 153d 08b8 7b3c
00000350: 8ae9 54bd 9002 4c3c f6d4 6c3d 68ba d63c
00000360: 48dc 2e3c b6f6 203d 3070 4f3c 444e fb3c
00000370: f8b0 5d3c 5c8f 033d d4c1 d3bc 5c3e 7cbd
00000380: b488 fb3c 6e28 21bd 861d 7ebd b083 b53b
00000390: ac4c f3bc 7cfa 903c fa2f 57bd 400d 923c
000003a0: 101f e23c 00ca 9ebb 10a6 d43b cc80 e0bc
000003b0: b2a8 60bd 5882 a73c 98d2 44bd 64b7 753d
000003c0: c003 9e3a 5c0f e23c 9c91 73bd 8215 013d
000003d0: e8af 4ebd 98bc 4cbc 260d 05bd 008b cf3b
000003e0: feb0 543d 4228 093d a42e febc 949c 573d
000003f0: 6894 59bd d0be d2bb 00af 24bd 2053 1c3b
0.019555174 -0.041689977 -0.03245621 -0.015880153 0.030032128 0.02272448 -0.0077116564 0.058344416
-0.05091328 -0.0403969 -0.035041593 0.044518426 -0.04385621 -0.054940112 -0.054501943 0.053291366
-0.05915291 0.058721766 -0.035719886 0.026234575 0.024853855 0.009339146 -0.055310473 -0.051099665
0.017089851 -0.03851424 0.01379092 0.057706475 0.0156601 -0.04576046 -0.053121477 0.025652684
0.04442615 0.050671667 -0.0011632368 -0.02298481 0.02732116 0.03250047 -0.015598811 -0.05403761
0.032876484 0.0019468889 -0.01893872 0.027146682 0.007434517 -0.008078359 -0.05851253 -0.061075687
-0.020179465 -0.058558658 -0.055365585 -0.03715737 -0.0035850778 -0.024687171 -0.003448315 0.02773922
0.051478095 -0.013225727 -0.054641917 0.01599729 -0.04816941 0.020311192 0.033303916 -0.037255414
-0.0044356883 0.059111178 -0.012741908 0.055420145 0.0022658706 0.03262891 0.011374094 0.050027482
-0.0312417 -0.049014196 -0.014040314 0.02375307 0.036285266 0.04675436 -0.036798812 -0.04579924
-0.062429257 0.022571914 0.010394491 0.03125442 0.0226769 0.021904 0.024568051 -0.05498483
-0.005037889 0.020334907 0.05586184 -0.043588273 -0.0088888705 0.03430914 -0.05065193 -0.057585254
0.056362033 0.0016961694 0.062168248 -0.051866785 0.032648638 -0.013200767 -0.060666524 -0.0016812384
0.030341357 0.017404974 0.008291028 0.0528749 -0.012207292 0.03480228 0.04818938 0.022994086
0.03627356 -0.0067047626 -0.0013196021 0.021439068 0.0066583753 0.058930434 0.029767632 0.02358009
-0.0029259473 -0.028061718 -0.05743687 -0.036804833 -0.043891117 -0.051513694 0.0474239 0.03593354
0.033758387 0.013774611 0.014759794 -0.000791803 0.0019507632 -0.029970236 0.0179419 0.05378496
-0.052169614 -0.038871646 -0.03812345 0.014423341 -0.042709015 0.018298037 0.04039432 0.015958667
0.047466703 0.03567849 0.05822473 0.044445626 0.008190751 0.017056987 0.04004982 -0.026984759
0.013460703 0.022396922 0.008539997 0.05367358 -0.021474302 0.02950836 -0.041524924 -0.058971733
-0.03642313 0.019809946 -0.04736662 -0.0065284222 -0.011383824 -0.04764603 -0.039882682 -0.06110891
-0.0042321086 -0.009942606 -0.014748462 -0.042017892 0.059319966 -0.01598762 0.04552166 0.006013952
0.008344322 0.013958782 0.055730432 0.054757982 -0.01472152 -0.02006293 0.060445912 0.0025712326
-0.05155839 0.036860198 0.02531775 -0.016810745 -0.03454838 0.02462326 -0.05683229 -0.02813188
0.04513815 -0.017598271 0.024961084 0.009858668 -0.01024244 0.010973923 -0.038725093 -0.027334802
-0.038728885 -0.010262117 -0.057886526 -0.055815324 -0.04656811 0.047106408 -0.024220362 0.043583393
0.032806367 0.02584362 0.036408372 0.015363701 -0.051980533 0.012451783 0.057820283 0.026211932
0.010672636 0.039297782 0.012661025 0.030676968 0.013530962 0.03211914 -0.02584926 -0.061582908
0.030704834 -0.039345197 -0.062039874 0.00553938 -0.029699646 0.017697565 -0.05253599 0.017828584
0.027602702 -0.0048458576 0.0064895228 -0.027405165 -0.05484838 0.020447895 -0.0480524 0.059989348
0.0012055561 0.027595215 -0.059465036 0.031514652 -0.050460726 -0.012496136 -0.032483242 0.0063337088
0.051926605 0.03348566 -0.0310281 0.05263956 -0.053120047 -0.006431438 -0.040205956 0.0023853257

fc1.bias f4 [256]
00000000: 9121 223e deb2 f03d dc2b 8ebd 145c 3fbe
00000010: 1208 23be cec8 36be 5804 f33c 68bb da3c
00000020: 0924 053e a214 c7bd cc6b b7bd 501a 10be
00000030: d85f 51be 2257 e83d 00e0 8ebd 7c80 3c3d
00000040: 65a4 103e 34a7 2a3d 9e94 973d 3be0 29be
00000050: 914d 5a3e 60d1 4dbe dc1d 223d 10dc dabc
00000060: b8a9 edbc 2ee7 66be b8ca 0fbd 5431 8ebd
00000070: 1080 fbbd 0405 86bd a2b3 883d 22ba 02be
00000080: 048f 3dbe 0e56 963d f8d5 19be 5c7e 4b3d
00000090: 7527 3fbe 4014 c53b 3c4d 99bd 8cf4 17be
000000a0: 4f3d 343e 7b41 663e eacc a83d 9b61 3abe
000000b0: 8e6e 29be 3e8b 23be 288c f2bc 9cbf 1d3d
000000c0: 1ccd 6fbe f149 f5bd 2cbb 3abe 2145 263e
000000d0: 7bfe 2fbe fa79 36be e752 393e 9219 ffbd
000000e0: 842b 0cbd c8cb a73c 9845 acbc 56e4 debd
000000f0: e8d7 17be 28e4 8e3c 7d88 343e 3de1 353e
00000100: 3808 913c ee06 53be b58e e7bd a016 7abd
00000110: 2a4d 8dbd 84db 683d b53f 363e 7a8e f0bd
00000120: 322e 0bbe 84a4 d6bd 887a fb3c 099a 033e
00000130: 1cce afbd 8770 413e f2cb ee3d a00e 353c
00000140: af5f 543e 0f9a 42be 6fdf 1a3e b658 ef3d
00000150: 1c02 19be ae96 b23d e322 403e b49c 67bd
00000160: eb42 febd a28c 96bd c468 1e3d 1bbd 703e
00000170: db15 2d3e 96e2 d9bd 6d51 613e 0a29 9dbd
00000180: eb31 703e d2fa 61be 749f 273d 0e14 3abe
00000190: c7d8 673e 6670 ebbd cbd8 0d3e c221 17be
000001a0: 7a2c f5bd b209 b0bd 1db4 3cbe c82f 1cbe
000001b0: d633 1fbe 0277 58be c678 86bd 020b afbd
000001c0: 05ec 623e ab26 663e e32c 2ebe 3e23 833d
000001d0: 589c 843c 483a 42be 97df 543e 736b 543e
000001e0: 00c9 f6bd 9d83 5f3e 5e87 3bbe 8641 9e3d
000001f0: 80d0 7abc a070 f5bb 80f8 3d3b 3272 15be
00000200: 5237 4fbe 5838 b3bc fa38 6ebe 27c6 1b3e
00000210: 001c 5a3b 7ba2 f8bd 0bbd 123e dcf1 2bbe
00000220: 1bde 433e 002d 9c3a 56fa 57be ae8a 23be
00000230: 006e b03a e645 b83d 2409 523d dc58 0abd
00000240: 5aa7 52be a648 ddbd 2dea 263e 805b 803a
00000250: 06dc fd3d dc20 f1bd 821e bdbd f938 653e
00000260: ea7b e43d 4621 993d 4ab5 57be 40f5 1bbd
00000270: 8c6f 193d 641d 2e3d 2c57 57be 1c8f 55bd
00000280: e752 4a3e 99f4 113e 94a9 78bd 60ff 4b3c
00000290: 6f6b 33be 0464 f6bd bde9 353e 016d 073e
000002a0: 76ac b93d 31f4 09be d7ce 60be d35b 0c3e
000002b0: 4753 3c3e 8c08 fcbd b7e1 51be 5022 a1bd
000002c0: 45d8 ecbd 3640 91bd 0ed1 a23d 7245 f5bd
000002d0: f293 ea3d 61df 0a3e 409e 563b 3bbe 6e3e
000002e0: c687 ed3d 8e74 b23d a217 cf3d 7c5f 16be
000002f0: 9558 043e 4272 ba3d 155d 253e d7b2 633e
00000300: 9ff9 2c3e 31ec 6dbe 45ba 443e 00a8 c4ba
00000310: 8d2f 583e 28f0 4cbe ae4c 4ebe 5369 4d3e
00000320: dc86 293d a8c9 4bbd 97fd 623e 289b cd3c
00000330: 441a 55bd 36ab 08be a1e0 393e 8251 c33d
00000340: 3f5d 653e c62f c3bd c090 b53b 2c10 643d
00000350: d3a2 373e 73ee 3bbe d6a9 60be c127 663e
00000360: 78b2 b2bd 2140 2d3e fe80 e7bd 96da ea3d
00000370: 3cfb 6ebd f024 20bd b857 ffbd 40f9 113b
00000380: 1612 893d c0cd c7bb 4fcf 6a3e de60 c53d
00000390: 4b85 283e 0616 ecbd ae0d c8bd 5205 c23d
000003a0: 61f7 083e 3cca bcbd 8024 eb3a 0895 f93c
000003b0: ae3e a0bd a498 173d e82b d63c 5d45 153e
000003c0: d841 d5bc ec3d 41bd acc9 68be 766e 4cbe
000003d0: 15ff 243e d7e5 3f3e c2c7 bd3d ee3f f23d
000003e0: 8bf3 0b3e e8f7 fd3c 16f3 41be 10e3 2fbd
000003f0: 9ce6 93bd 14cb e8bd 5a89 de3d 5e29 e13d
0.15833117 0.11752866 -0.06941959 -0.18687469 -0.15921047 -0.17850038 0.029665157 0.02670069
0.13002028 -0.09720732 -0.089561075 -0.14072537 -0.20446718 0.11344744 -0.06976318 0.04602097
0.14125212 0.041663364 0.07401393 -0.16589443 0.21318652 -0.20099401 0.039579257 -0.026716262
-0.029011592 -0.22549126 -0.035105437 -0.06943002 -0.12280285 -0.065439254 0.06674887 -0.12766317
-0.18511587 0.073406324 -0.15023029 0.049681053 -0.18667395 0.006014377 -0.074854344 -0.14839381
0.17601512 0.22485916 0.08242209 -0.18201296 -0.1654608 -0.15971085 -0.029607847 0.03851281
-0.23418087 -0.11976994 -0.18235463 0.16237308 -0.1718692 -0.17819968 0.18098031 -0.12456049
-0.034221187 0.020482913 -0.021029279 -0.108833954 -0.14828455 0.017442778 0.17630191 0.17761703
0.017704114 -0.20608112 -0.11306516 -0.061056733 -0.068994835 0.05684997 0.1779774 -0.11745925
-0.13591841 -0.104805976 0.030698076 0.12851728 -0.08584234 0.18890582 0.11659993 0.01105085
0.20739625 -0.19004081 0.15124296 0.11686842 -0.14942211 0.08720146 0.18763308 -0.056545928
-0.12415107 -0.07351042 0.03867413 0.23509638 0.16902868 -0.10638921 0.22003718 -0.07673843
0.23456542 -0.22068337 0.04092355 -0.18171713 0.22641288 -0.11496048 0.13852231 -0.14758971
-0.11971374 -0.08595599 -0.18428083 -0.15252602 -0.15547118 -0.21139148 -0.065660045 -0.085470214
0.22160347 0.22475688 -0.1700931 0.06403206 0.016187832 -0.18967545 0.20788418 0.20744114
-0.120500565 0.2182755 -0.18313357 0.07727341 -0.015308499 -0.0074902326 0.002898723 -0.14594343
-0.20235947 -0.021877453 -0.23263922 0.15212308 0.003328085 -0.12140366 0.14329927 -0.16791481
0.19127695 0.0011915267 -0.2109159 -0.15970871 0.0013460517 0.08997707 0.05127825 -0.03377615
-0.20571652 -0.10804872 0.16300268 0.0009792894 0.12395482 -0.117738456 -0.092343345 0.22385015
0.11156447 0.074770495 -0.2106525 -0.038075686 0.037459895 0.042508498 -0.21029347 -0.052138433
0.19758187 0.14253463 -0.060708597 0.012451023 -0.17521451 -0.12030795 0.17764945 0.13225175
0.090660974 -0.13472058 -0.21953903 0.13706903 0.18391143 -0.12306318 -0.2049626 -0.07867873
-0.11564688 -0.070923254 0.0795003 -0.11976136 0.114539996 0.13561775 0.0032748133 0.23314755
0.11598162 0.08713637 0.101119295 -0.14684862 0.12924416 0.09103824 0.16148789 0.2223619
0.16892098 -0.23234631 0.19211681 -0.0015003681 0.21111889 -0.20013487 -0.20146438 0.20059709
0.041388378 -0.04975286 0.2216705 0.025098398 -0.052027002 -0.13346562 0.18152095 0.09537031
0.22398852 -0.095305964 0.005540937 0.055679485 0.17933206 -0.1835268 -0.21939787 0.22476102
-0.087254465 0.16918994 -0.113039 0.11467473 -0.058345065 -0.039097726 -0.12467903 0.0022273809
0.06692903 -0.0060975254 0.22930644 0.096376166 0.16457097 -0.11527638 -0.09768234 0.09473671
0.13375618 -0.09218261 0.0017939955 0.030466571 -0.07824455 0.037010804 0.026143983 0.14577241
-0.026032373 -0.047178194 -0.22733182 -0.19964013 0.16112931 0.1874002 0.092666164 0.118286
0.13667123 0.031002 -0.18940386 -0.042941153 -0.072217196 -0.11366859 0.108660415 0.10994218

fc2.weight f4 [128, 256]
00000000: 805a 54bd ea41 5fbd 1cba 9abd 088a 7cbd
00000010: 50ec 3ebd acab a6bd 2207 623d ef39 9a3d
00000020: 04e6 ae3c d624 26bd 3b4d a4bd bcc3 90bd
00000030: ede3 b1bd 18f8 70bc 194e 9e3d 7796 b13d
00000040: e5f0 9c3d 2f60 9f3d 84d4 c4bc 4216 233d
00000050: 0a02 eabc c8a3 d03c d6e0 5e3d 9007 213c
00000060: ec02 bd3c c025 83ba fba5 ad3d 4d37 8e3d
00000070: 2204 433d 72c4 93bd 541e 9e3c b4a6 2cbd
00000080: 825c 1b3d 3e88 43bd d949 953d ec1f 2abd
00000090: aca2 ee3c d2b6 13bd 442e d2bc e3af 813d
000000a0: 2a15 f0bc f350 18bd 8014 b4bd 2883 423c
000000b0: 6018 5e3b 5a8b 3f3d 0083 f03a eb20 5abd
000000c0: 0024 faba 8a75 4e3d be80 703d 90d0 703c
000000d0: 55c3 88bd 1881 42bc 309a 343c 0861 f8bc
000000e0: 50dc 1bbc 663d 90bd c6d9 653d d844 09bd
000000f0: 38f3 48bc a7c2 823d 9577 97bd f07a a2bb
00000100: 9fbf 973d 8474 9dbc d1db 883d cadb 8cbd
00000110: 8e7d 183d 6837 dc3c 617c a93d 00da f23c
00000120: b418 f5bc 4fbd ac3d 40aa 353b d689 003d
00000130: 0688 223d 7896 413c 998c 47bd 4003 613c
00000140: 8a79 47bd 485d a6bc b8e9 11bc 2723 4dbd
00000150: 920f 5b3d 26d4 723d 3524 02bd a03d ecbb
00000160: 86e8 503d c884 50bc 8600 3a3d 0041 91bb
00000170: a671 13bd 2664 21bd 63cb b0bd 6ff2 0ebd
00000180: e902 a63d 24a0 cfbc 2654 7b3d b285 93bd
00000190: 3232 1a3d 645c 933c 90a4 a6bd 5516 a33d
000001a0: 002d b6b9 b152 84bd 006d b2bd def1 aebd
000001b0: 30d1 4ebc 41b2 42bd 54ad 1abd 4a99 4d3d
000001c0: 7445 0d3d a3c6 4dbd 9ce2 923c 86db 493d
000001d0: d8a1 b4bd 6709 9dbd 1c75 db3c 3871 1dbc
000001e0: 86bd 42bd 928e fcbc cc9c 093d bd14 a1bd
000001f0: fa97 393d c337 5dbd 8a25 3c3d 783e b5bc
00000200: 8333 a73d 36c1 a7bd 2af7 a7bd c243 563d
00000210: 67cc b33d b1c7 863d a6c1 7b3d ccee 88bc
00000220: 8c97 8f3c a839 6bbd b264 323d 40db a9bb
00000230: 8835 00bd e234 4f3d 5051 4abc ccce 84bc
00000240: c240 573d 12f9 7d3d 0cb0 5fbd 3614 5a3d
00000250: 6a03 1b3d 9e4c 783d d9ef 4bbd 3075 c5bc
00000260: 2aa0 4bbd 1289 303d 3c93 0d3d e0d3 31bb
00000270: 580b 9bbd 7e83 1a3d f06b 0c3d a3e9 923d
00000280: 005a 1e39 40bb de3b 5bf6 91bd 780f da3c
00000290: 5eb2 e7bc c0ff 963a 602c 4bbd 1d43 4dbd
000002a0: 20e7 353c e633 6b3d f0c4 743c 20d3 5d3c
000002b0: 608d 53bd 4068 fd3b 2ef5 e5bc 1db5 ac3d
000002c0: e083 3cbc e93f 75bd ee85 113d 29e4 80bd
000002d0: c08a 49bc c6aa 743d d3a2 0fbd 8015 53bc
000002e0: 70e5 fc3b 6066 bbbb 66e4 083d add5 a73d
000002f0: a886 673c a72e ae3d e7ba 9ebd b889 5a3c
00000300: c82d 3dbc 2eec 543d 0ea7 2b3d 45a8 9fbd
00000310: a5d8 71bd 3863 b5bc d8f3 343c 92c5 633d
00000320: d760 8abd 2002 b23b 9062 0c3c 400a 203b
00000330: fef1 53bd 5a8b 783d 189f ee3c dbca b03d
00000340: e010 4f3c 1a10 333d 2e92 53bd 12ab 383d
00000350: 162e 0abd e09e 7fbd 4648 433d 999b 883d
00000360: 86b9 613d 5b16 8cbd 71d6 853d 3aba 54bd
00000370: 8006 fbbb 6a1e 753d d2af 89bd fd88 983d
00000380: a82e 913c 79cf ab3d 5db3 883d dc7e cb3c
00000390: 4572 a7bd bbc5 36bd e648 7abd 6e1e f3bc
000003a0: 4082 ffba ba47 5e3d 5cb1 963c b08f 4abc
000003b0: 12b0 67bd 10b5 653c 12f2 733d 236d 0dbd
000003c0: c875 003c 93c2 68bd 886f 0abc 2d47 4ebd
000003d0: 3864 82bc a09a d8bc 7021 053c 48e1 09bc
000003e0: b931 58bd 8ae6 82bd 3031 d83c 02f4 91bd
000003f0: b4cf 97bd a2ef 0a3d e234 7cbd 0a5c 9bbd
-0.05184412 -0.05450622 -0.07555029 -0.061655074 -0.046612084 -0.081382126 0.055182584 0.07530581
0.021349914 -0.040562473 -0.08022543 -0.07068583 -0.086860515 -0.014707588 0.0772974 0.08671277
0.076631345 0.077820174 -0.024027117 0.03981615 -0.028565425 0.025468722 0.05441364 0.009828463
0.023072682 -0.0010005757 0.08478924 0.069441415 0.047611363 -0.07215203 0.019301571 -0.042151168
0.03793002 -0.047737353 0.07289476 -0.04153435 0.029130302 -0.036063023 -0.025656827 0.06332376
-0.029306967 -0.037186574 -0.087929726 0.01187209 0.003388904 0.046763755 0.0018349588 -0.05325405
-0.0019084215 0.050405063 0.058716528 0.014698163 -0.06677882 -0.011871599 0.011023089 -0.030319706
-0.009512976 -0.07042961 0.056115888 -0.03351292 -0.012265019 0.06384783 -0.07395855 -0.004958503
0.07409596 -0.019220598 0.06682552 -0.06877859 0.037229113 0.026881889 0.082756765 0.029644966
-0.029919006 0.08434545 0.0027719885 0.03138145 0.039680503 0.01181566 -0.04871807 0.013733685
-0.048699893 -0.020308152 -0.008905821 -0.050082352 0.053481646 0.05928435 -0.03177281 -0.0072094947
0.051003 -0.01272697 0.045410655 -0.0044327974 -0.035997055 -0.03940215 -0.08632543 -0.03489917
0.08106024 -0.025344916 0.061359547 -0.07203235 0.037645526 0.017988391 -0.081368566 0.07963244
-0.00034747273 -0.06461085 -0.08712196 -0.08542226 -0.012623116 -0.047533277 -0.037762955 0.050195016
0.034490064 -0.050238263 0.017930321 0.04928162 -0.08819932 -0.07667809 0.02678924 -0.009609513
-0.047544025 -0.030829702 0.0335968 -0.07865284 0.04531095 -0.054008257 0.045934238 -0.022124514
0.08164122 -0.08191149 -0.0820144 0.052310713 0.08779221 0.06581057 0.061463974 -0.01671543
0.017528318 -0.057428032 0.04355306 -0.0051836073 -0.03130105 0.050587542 -0.012348488 -0.01621189
0.052551992 0.06200511 -0.05461125 0.05324193 0.037845053 0.060619943 -0.049789283 -0.02410373
-0.04971329 0.04309947 0.03456424 -0.0027134344 -0.07570523 0.037723057 0.034282625 0.07173469
0.00015101582 0.0067972243 -0.07127067 0.026618704 -0.028283294 0.0011520311 -0.049602866 -0.050112832
0.011102468 0.05742254 0.014939532 0.013539106 -0.051648498 0.007733375 -0.028071012 0.08432982
-0.011506051 -0.059875403 0.035528116 -0.06293518 -0.012301147 0.059733175 -0.03506739 -0.012883544
0.007717781 -0.005718991 0.033420943 0.08195052 0.014131226 0.08504992 -0.077504925 0.013338499
-0.01154656 0.05198305 0.041907363 -0.07795767 -0.0590445 -0.022142038 0.011044465 0.05560834
-0.06756752 0.005432382 0.008568421 0.0024420172 -0.051744454 0.06067977 0.029128596 0.086324416
0.012638301 0.043716528 -0.05165308 0.04508502 -0.033735357 -0.062407374 0.047676347 0.06670303
0.05510857 -0.068402015 0.06535042 -0.051935412 -0.007660687 0.05984346 -0.06722988 0.074480034
0.017722443 0.08389182 0.06674836 0.024840765 -0.08176092 -0.044622164 -0.061104678 -0.029677596
-0.0019493774 0.054267623 0.018395118 -0.012363359 -0.056564398 0.014020219 0.059557028 -0.03452791
0.007840581 -0.056826185 -0.008449443 -0.050360847 -0.015916929 -0.026440918 0.008125648 -0.008415528
-0.052781794 -0.06391628 0.026390642 -0.07126619 -0.07412663 0.033919938 -0.06157387 -0.075859144

fc2.bias f4 [128]
00000000: 4c7d 183d 443e 383d a023 dabb 0a38 023d
00000010: 3000 303c b25d 5f3d 702b 2e3d 80c8 6c3d
00000020: 4efa 723d 046e ebbc e09b 4ebb 4241 0a3d
00000030: 6e1b 79bd 68e2 733c b013 1ebc c4fc dbbc
00000040: f2b5 413d 381f ce3c 9698 5cbd a69c 343d
00000050: 60d9 5e3b 0076 2f3c 28dc 02bd ac80 51bd
00000060: ccdb 833c ce2c 1a3d 92f3 5dbd c408 573d
00000070: e0c7 4a3c e886 b4bc 305a e73c 020f 2a3d
00000080: bcd2 ec3c fc83 7a3d 50db 6fbc d838 32bc
00000090: 9cce 663d 7202 10bd 66e1 55bd 0058 79bd
000000a0: 209a a2bc 2871 9e3c 38ce 2a3d a02d 3d3b
000000b0: 56ed 19bd a29c 7dbd 3028 d3bb 280d f7bc
000000c0: 949e 563d 009a 043b ca65 223d 0c0e edbc
000000d0: 0004 5dba 8eb1 643d 742b f93c f88d a3bc
000000e0: d8ea 013d 44a0 323d 7cad 1d3d 681c 67bd
000000f0: 26c0 20bd c0a2 f9bc cc07 a63c 6654 24bd
00000100: c8c8 d5bc 0826 883c 4032 9ebc a05c babb
00000110: 5aae 4ebd 8085 9f3b 0aa5 703d fa87 13bd
00000120: 3822 9e3c 8a5f 343d 80ff 223c f066 f63b
00000130: 1a58 6ebd e012 34bd 0041 ee39 785d 76bd
00000140: 58e3 32bc 507e 14bc d8fb 31bd 5ef4 2f3d
00000150: f204 443d a2be 13bd a0ea d53c 18b6 57bd
00000160: 40b7 653b 4e07 11bd d46f a8bc 400d efba
00000170: a01c aabc c047 f43c ba9c 6bbd be65 5bbd
00000180: 044e b2bc c0d5 66bc 900e 4b3c 96d3 76bd
00000190: 5663 6a3d 2a2a 61bd 90f8 b53b 86a7 473d
000001a0: f83c c93c 287d 403c a6cc 693d c0ae 0dbd
000001b0: 80d7 133c 76c7 203d 40b0 7cbb f2ca 17bd
000001c0: b8c3 1b3d 308c 5abd 5a78 4dbd 80b6 5ebd
000001d0: c669 1e3d 74dd 673d b2fc 173d b431 5fbd
000001e0: 8020 fd3c 0025 80b9 c006 72bd c8ac 06bc
000001f0: eeef 4ebd 1c09 643d de4d 013d 80d7 b5bb
0.037228867 0.044981256 -0.006657079 0.031791724 0.010742232 0.054532714 0.042521894 0.0578084
0.05932074 -0.028738983 -0.0031526014 0.03375364 -0.060817175 0.014885522 -0.009648249 -0.026853926
0.047292657 0.02516137 -0.053856455 0.044094704 0.0034004077 0.010709286 -0.03194824 -0.0511481
0.016096018 0.037640385 -0.054187365 0.052498594 0.0123767555 -0.022036985 0.028241247 0.04151822
0.02890908 0.061161026 -0.0146396905 -0.01087781 0.05634938 -0.035158582 -0.05221691 -0.06087494
-0.019848883 0.019341066 0.04170057 0.0028866306 -0.037579857 -0.061916955 -0.0064439997 -0.03015764
0.052397326 0.0020233393 0.039647855 -0.028937362 -0.0008431077 0.05583339 0.030416228 -0.019965157
0.031718105 0.043609872 0.038495526 -0.056423575 -0.039245747 -0.030473113 0.02026739 -0.04011955
-0.026096717 0.016619697 -0.01931107 -0.0056873113 -0.050459243 0.0048682094 0.058751144 -0.03601835
0.019303426 0.044036426 0.009948611 0.0075195953 -0.05818949 -0.043963313 0.00045443326 -0.060147732
-0.010918461 -0.009063318 -0.043453068 0.042957656 0.04785628 -0.036070473 0.026112854 -0.052663893
0.0035051852 -0.035407357 -0.020561136 -0.0018238202 -0.020765603 0.02981937 -0.057522513 -0.053563826
-0.021765716 -0.014089048 0.012393609 -0.060260378 0.05722364 -0.05497185 0.0055533126 0.048743747
0.024565205 0.01174859 0.057079934 -0.034590483 0.009023547 0.03925272 -0.0038557202 -0.037058778
0.03802845 -0.05335635 -0.050163604 -0.054373264 0.038675092 0.05660768 0.037106223 -0.05449076
0.030899286 -0.0002444163 -0.05908847 -0.008219905 -0.050521784 0.05567275 0.0315684 -0.0055493712

fc3.weight f4 [1, 128]
00000000: a69b 44bb a69b 44bb a69b 44bb a69b 44bb
00000010: a69b 44bb a69b 44bb a69b 44bb a69b 44bb
00000020: a69b 44bb a69b 44bb a69b 44bb a69b 44bb
00000030: a69b 44bb a69b 44bb a69b 44bb a69b 44bb
00000040: a69b 44bb a69b 44bb a69b 44bb a69b 44bb
00000050: a69b 44bb a69b 44bb a69b 44bb a69b 44bb
00000060: a69b 44bb a69b 44bb a69b 44bb a69b 44bb
00000070: a69b 44bb a69b 44bb a69b 44bb a69b 44bb
00000080: a69b 44bb a69b 44bb a69b 44bb a69b 44bb
00000090: a69b 44bb a69b 44bb a69b 44bb a69b 44bb
000000a0: a69b 44bb a69b 44bb a69b 44bb a69b 44bb
000000b0: a69b 44bb a69b 44bb a69b 44bb a69b 44bb
000000c0: a69b 44bb a69b 44bb a69b 44bb a69b 44bb
000000d0: a69b 44bb a69b 44bb a69b 44bb a69b 44bb
000000e0: a69b 44bb a69b 44bb a69b 44bb a69b 44bb
000000f0: a69b 44bb a69b 44bb a69b 44bb a69b 44bb
00000100: a69b 44bb a69b 44bb a69b 44bb a69b 44bb
00000110: a69b 44bb a69b 44bb a69b 44bb a69b 44bb
00000120: a69b 44bb a69b 44bb a69b 44bb a69b 44bb
00000130: a69b 44bb a69b 44bb a69b 44bb a69b 44bb
00000140: a69b 44bb a69b 44bb a69b 44bb a69b 44bb
00000150: a69b 44bb a69b 44bb a69b 44bb a69b 44bb
00000160: a69b 44bb a69b 44bb a69b 44bb a69b 44bb
00000170: a69b 44bb a69b 44bb a69b 44bb a69b 44bb
00000180: a69b 44bb a69b 44bb a69b 44bb a69b 44bb
00000190: a69b 44bb a69b 44bb a69b 44bb a69b 44bb
000001a0: a69b 44bb a69b 44bb a69b 44bb a69b 44bb
000001b0: a69b 44bb a69b 44bb a69b 44bb a69b 44bb
000001c0: a69b 44bb a69b 44bb a69b 44bb a69b 44bb
000001d0: a69b 44bb a69b 44bb a69b 44bb a69b 44bb
000001e0: a69b 44bb a69b 44bb a69b 44bb a69b 44bb
000001f0: a69b 44bb a69b 44bb a69b 44bb a69b 44bb
-0.003 -0.003 -0.003 -0.003 -0.003 -0.003 -0.003 -0.003
-0.003 -0.003 -0.003 -0.003 -0.003 -0.003 -0.003 -0.003
-0.003 -0.003 -0.003 -0.003 -0.003 -0.003 -0.003 -0.003
-0.003 -0.003 -0.003 -0.003 -0.003 -0.003 -0.003 -0.003
-0.003 -0.003 -0.003 -0.003 -0.003 -0.003 -0.003 -0.003
-0.003 -0.003 -0.003 -0.003 -0.003 -0.003 -0.003 -0.003
-0.003 -0.003 -0.003 -0.003 -0.003 -0.003 -0.003 -0.003
-0.003 -0.003 -0.003 -0.003 -0.003 -0.003 -0.003 -0.003
-0.003 -0.003 -0.003 -0.003 -0.003 -0.003 -0.003 -0.003
-0.003 -0.003 -0.003 -0.003 -0.003 -0.003 -0.003 -0.003
-0.003 -0.003 -0.003 -0.003 -0.003 -0.003 -0.003 -0.003
-0.003 -0.003 -0.003 -0.003 -0.003 -0.003 -0.003 -0.003
-0.003 -0.003 -0.003 -0.003 -0.003 -0.003 -0.003 -0.003
-0.003 -0.003 -0.003 -0.003 -0.003 -0.003 -0.003 -0.003
-0.003 -0.003 -0.003 -0.003 -0.003 -0.003 -0.003 -0.003
-0.003 -0.003 -0.003 -0.003 -0.003 -0.003 -0.003 -0.003
