models/checkpoint_actor_local_8.pth (torch_old, 152633 bytes, 5 tensors)

fc1.weight f4 [256, 18]
0	0x3c8a1fd0	0.016860873
1	0x3d18f580	0.037343502
2	0xbd304464	-0.043033972
3	0x3ccd3658	0.025050327
4	0xbc4c6cd8	-0.012477122
5	0x3c3c0900	0.011476755
6	0x3d63fb0e	0.055659346
7	0xbd1ea84c	-0.03873472
8	0xbd27421c	-0.04083453
9	0x3d1f7a52	0.038935013
10	0xbd6b88f0	-0.05750364
11	0x3d6aafe0	0.057296634
12	0xbc725e30	-0.014792964
13	0x3d68bd54	0.056821182
14	0xbcf35554	-0.029703774
15	0xbd6ddc6e	-0.058071546
16	0xbccb52fc	-0.024819843
17	0xbba9a1b0	-0.0051767454
18	0x3d48ec90	0.04905373
19	0xbcb4aec8	-0.022055998
20	0xbc5618a0	-0.0130673945
21	0xbd1cbcd6	-0.038266025
22	0x3d3c9bd6	0.046047054
23	0x3cc87510	0.024469882
24	0x3ccb52f4	0.024819829
25	0x3d0d0648	0.03442982
26	0xbd1e7722	-0.038687833
27	0xbbb86c60	-0.0056281537
28	0x3d266336	0.04062196
29	0x3d4921be	0.049104445
30	0xbc667de8	-0.014068104
31	0x3d710626	0.058843754
32	0x3cf069a0	0.02934724
33	0xbc830504	-0.015993603
34	0xbd335038	-0.043777674
35	0xbb00ae60	-0.0019635186
36	0xbc961c6c	-0.0183241
37	0x3d1f9100	0.038956642
38	0xbc74d480	-0.014943242
39	0xbd22f198	-0.039781183
40	0x3d72e64a	0.059301652
41	0xbd2e0728	-0.042487293
42	0x3cc438b0	0.023952812
43	0xbd4a208e	-0.049347453
44	0x3cf32da4	0.02968485
45	0x3d3b1772	0.045676656
46	0xbd485a68	-0.048914343
47	0xbd1ef19e	-0.038804643
48	0x3cd6dba8	0.026227787
49	0xbd1003e8	-0.035159975
50	0x3d449006	0.047988914
51	0xbd7f7032	-0.062362857
52	0xbd4da43e	-0.05020546
53	0x3d24db48	0.040248185
54	0xbcf141f0	-0.029450387
55	0xbcb60788	-0.022220388
56	0xbd54b664	-0.051931754
57	0x3cf5f9e4	0.030026384
58	0x3d61a312	0.055087157
59	0xbcacfa0c	-0.021115325
60	0x3d0e9ed6	0.034819447
61	0xbcfd1fc4	-0.030898936
62	0x3d1a49f8	0.0376682
63	0x3b77e180	0.0037823617
64	0xbd67558a	-0.05647806
65	0xbd0f3da0	-0.03497088
66	0x3bf6dd50	0.0075337067
67	0xbc383bf0	-0.011244759
68	0x3a09f680	0.00052628666
69	0xbc745d08	-0.0149147585
70	0x3d01c0f2	0.031678148
71	0x3c5a2208	0.013313778
72	0x3c13cc70	0.00902091
73	0xbd3ba36e	-0.045810156
74	0x3b657640	0.003501311
75	0xbd2e2a72	-0.042520948
76	0xbd4701ee	-0.048585825
77	0xbd3fb6ae	-0.046805076
78	0xbd446f16	-0.047957502
79	0x3b471f00	0.0030383468
80	0x3d6c710c	0.057724997
81	0x3d72b4c0	0.059254408
82	0x3d79a45a	0.060947753
83	0xbcf67ab0	-0.030087799
84	0x3d13ca4a	0.03608159
85	0xbc6274f8	-0.013821833
86	0x3b9a3610	0.004706152
87	0x3c45f0d0	0.01208134
88	0x3d763fea	0.060119547
89	0xbbff87a0	-0.00779815
90	0xbd12efc6	-0.035873197
91	0x3ae3cd80	0.0017379969
92	0xbd13639a	-0.03598366
93	0xbb8402a0	-0.0040286332
94	0x3d118bea	0.035533823
95	0xbd07e652	-0.033178635
96	0x3d651c42	0.055935152
97	0x3d5d9dce	0.054105572
98	0xbc4521b8	-0.012031965
99	0xbd39f43c	-0.045398936
100	0x3d01a914	0.031655386
101	0xbcd4bfd0	-0.02597037
102	0x3d3f0d22	0.046643384
103	0xbd58c26a	-0.052919783
104	0xbcdf8328	-0.02728422
105	0x3d2bbe3c	0.04192947
106	0x3c7c7588	0.015408881
107	0x3bf560d0	0.0074883476
108	0xbd22dbec	-0.039760515
109	0x3d0d64f6	0.034520112
110	0xbd550600	-0.052007675
111	0xbccbebac	-0.02489265
112	0xbc945014	-0.01810459
113	0x3d1c74d4	0.038197353
114	0xbbb4e200	-0.0055201054
115	0x3c35b8c8	0.011091419
116	0x3c6cf2e8	0.01446221
117	0x3d31332e	0.0432617
118	0xbc22bbb8	-0.009932451
119	0xbc8d63b4	-0.017259456
120	0x3d0e1818	0.034690946
121	0xbc885f84	-0.016647108
122	0x3b56b960	0.00327643
123	0x3d05eb66	0.032695197
124	0x3a8ec4c0	0.0010892376
125	0xbcb9cf70	-0.022681922
126	0x3d3ac9b0	0.0456025
127	0x3d5c3c12	0.053768225
128	0x3cb72838	0.022358045
129	0xbc254438	-0.010087065
130	0x3d2d4e7a	0.04231117
131	0x3bcb8840	0.0062113106
132	0x3a825e80	0.0009946376
133	0xbd015ac8	-0.031580716
134	0x3d669d04	0.056302086
135	0xbcc723fc	-0.02430915
136	0xbd41a748	-0.047278672
137	0xbd759b8a	-0.059962787
138	0x3d50cdb4	0.050977424
139	0xbd2dfc94	-0.042477205
140	0x3d21745a	0.039417602
141	0xbb4d3440	-0.003131166
142	0xbd5aabca	-0.053386487
143	0xbd6990ea	-0.057022966
144	0xbd4f4146	-0.05059936
145	0x3d617b54	0.055049255
146	0xbd7c5254	-0.06160195
147	0x3d4aaf7a	0.049483754
148	0x3cb30cf4	0.021856762
149	0x3bc61110	0.0060445145
150	0x3d320fa0	0.043471932
151	0xbd7accb4	-0.061230376
152	0x3d17cde6	0.037061594
153	0xbc451e60	-0.012031168
154	0xbcb6d630	-0.02231893
155	0x3cddc8b4	0.027073242
156	0x3d45af78	0.048263043
157	0x3d41ae3e	0.04728531
158	0xbcf37e30	-0.029723257
159	0xbc8ac23c	-0.016938321
160	0x3b7f0620	0.0038913563
161	0xbd427b42	-0.04748083
162	0xbc5eaef8	-0.0135915205
163	0xbc457198	-0.012051009
164	0xbd7ca8a0	-0.06168425
165	0xba136e00	-0.0005623996
166	0xbb69b3c0	-0.0035660118
167	0xbcee2674	-0.02907107
168	0xbd7bdad0	-0.061487973
169	0xbcbee7c0	-0.023303866
170	0xbd7c0830	-0.061531246
171	0x3ca21984	0.019787557
172	0xbccf01bc	-0.025269382
173	0xbbebfbd0	-0.0072016492
174	0xbd595998	-0.05306396
175	0xbcd1dd4c	-0.025618218
176	0x3d11bff0	0.035583436
177	0x3d0d3c9a	0.034481622
178	0x3aa5d480	0.0012651831
179	0xbcc5eca8	-0.024160698
180	0x3ce30ffc	0.027717583
181	0x3d7b170a	0.06130127
182	0x3caf9134	0.021431543
183	0x3901ba00	0.00012371689
184	0x3d34b84c	0.04412107
185	0x3ba3d000	0.0049991608
186	0xbb2939e0	-0.002582185
187	0xbcda9e38	-0.026686773
188	0xbd1148b4	-0.035469726
189	0x3bd45f80	0.006481111
190	0x3ce85110	0.028358966
191	0x3d28e724	0.041236058
192	0x3c4cade0	0.012492627
193	0x3d1889ca	0.03724078
194	0xbc9b483c	-0.018955342
195	0xbb421140	-0.0029612333
196	0xbd6b0844	-0.05738093
197	0x3d1fb850	0.038994133
198	0x3d72ce96	0.059279047
199	0xbb539280	-0.0032283366
200	0xbd66b0da	-0.056321003
201	0xbba76d80	-0.005109489
202	0x3b06f260	0.0020591244
203	0x3cf3ab80	0.029744864
204	0x3cb6caec	0.022313558
205	0x3d44e950	0.048074067
206	0xbd322ca6	-0.04349961
207	0x3bf14fc0	0.0073642433
208	0xbd7bb89a	-0.061455347
209	0x3d1c5268	0.038164526
210	0xbced5bf4	-0.02897451
211	0x3a51e500	0.0008006841
212	0xbd59aac6	-0.053141378
213	0xbc99c94c	-0.018772744
214	0xbcf2a858	-0.029621288
215	0x3d36ece6	0.044659518
216	0x3c8a3888	0.01687266
217	0x3d73ada4	0.05949177
218	0x3c73d470	0.014882192
219	0xbd09b534	-0.033620074
220	0x3c1fe560	0.009759277
221	0x3cc3dee8	0.02391
222	0xbc5940b8	-0.013260059
223	0xbca9cdcc	-0.020728014
224	0x3c791390	0.015202418
225	0x3d791d4c	0.060818955
226	0x3cd995cc	0.026560687
227	0x3d156066	0.036468886
228	0xbd6e1d68	-0.058133513
229	0xbcab0730	-0.02087745
230	0x3c077ad8	0.008269034
231	0x3cc389fc	0.023869507
232	0xbd3b6904	-0.045754448
233	0xbd76a66c	-0.060217306
234	0x3d71a78a	0.05899767
235	0xbd1fafce	-0.03898602
236	0x3cfccad8	0.030858442
237	0xbce13ce0	-0.027494848
238	0xbcc4c358	-0.024018928
239	0x3c34fa70	0.011046037
240	0xbc2ea718	-0.010659955
241	0xbb7cc120	-0.003856726
242	0xbb41dda0	-0.0029581562
243	0xbcec1314	-0.02881769
244	0x3b819760	0.003954813
245	0xbd24319c	-0.040086374
246	0x3cba50e4	0.02274365
247	0xbc981424	-0.018564291
248	0x3c94df3c	0.018172853
249	0x3ca99f88	0.020705953
250	0xbc4574b8	-0.012051754
251	0x3d5a189a	0.053246118
252	0x3d694ff8	0.05696103
253	0x3d556666	0.052099608
254	0xbd79b512	-0.060963698
255	0xbcaac8d4	-0.020847715

fc1.bias f4 [256]
0	0x3ae14f00	0.0017189682
1	0x3e202df3	0.15642528
2	0x3e579e3b	0.21056454
3	0x3c0fa9d0	0.008768514
4	0xbe5056e0	-0.2034564
5	0x3d179bbc	0.037013754
6	0x3dc34ade	0.09535764
7	0xbe1a7702	-0.1508446
8	0xbdd00e8e	-0.10159026
9	0xbe18ff18	-0.1494106
10	0xbbddb460	-0.006765887
11	0x3cec2008	0.028823867
12	0x3e24b065	0.16082914
13	0x3e563bdb	0.2092127
14	0x3d8dccaa	0.06923802
15	0xbe52dcb2	-0.20592001
16	0x3dc92ab6	0.098225996
17	0xbd8b6ea2	-0.06808211
18	0x3e41721b	0.18891184
19	0x3e05e8d9	0.13077106
20	0x3e269cd7	0.16270767
21	0xbdd0243a	-0.1016316
22	0x3e0f008d	0.13965054
23	0x3cefeec8	0.029288664
24	0xbdb0824a	-0.08618601
25	0x3ce07958	0.027401611
26	0xbde10684	-0.10987571
27	0x3d00988c	0.03139548
28	0x3e2d3b57	0.16917168
29	0xbd0e78b0	-0.034783065
30	0x3e5e2a1b	0.2169575
31	0xbcfab410	-0.030603439
32	0xbdd9a2ba	-0.10626741
33	0x3d727a7c	0.05919884
34	0x3dbf7c2e	0.09349857
35	0xbe060452	-0.13087586
36	0x3d5bc3dc	0.053653583
37	0x3e2a2f0f	0.16619514
38	0x3cd33ed8	0.025786802
39	0xbe24ac6b	-0.16081397
40	0x3cd15fd8	0.025558397
41	0xbc78aa40	-0.0151773095
42	0x3e5d17f5	0.2159117
43	0xbdb2296e	-0.08699308
44	0x3e49029f	0.19629906
45	0x3e3e2db3	0.1857212
46	0x3db57c2a	0.08861573
47	0x3d5cd5ec	0.05391495
48	0xbd097670	-0.033560216
49	0x3e024975	0.12723334
50	0xbddb9c3c	-0.10723159
51	0xbd8041d4	-0.06262556
52	0xbe5ba89c	-0.21451038
53	0x3e5fe897	0.2186607
54	0x3b48e640	0.0030654818
55	0xbe2ae19c	-0.16687626
56	0x3df6714a	0.12033327
57	0x3e435291	0.19074465
58	0xbd036098	-0.03207454
59	0xb955fc00	-0.0002040714
60	0xbc804ae0	-0.015660703
61	0xbe020df6	-0.12700638
62	0xbd24d1d4	-0.04023917
63	0xbdad4ace	-0.084615335
64	0x3c9a92e8	0.018868878
65	0xbe6cae51	-0.23113371
66	0x3e57c797	0.21072231
67	0x3e61ee93	0.22063665
68	0x3d139c4c	0.03603773
69	0xbe5efe01	-0.21776582
70	0xbe0395c4	-0.128501
71	0xbe0ccb4c	-0.13749427
72	0x3dfd3326	0.123632714
73	0xbb106800	-0.0022034645
74	0x3d2e026c	0.04248278
75	0x3d656ec4	0.056013837
76	0x3e100539	0.14064492
77	0x3db28e56	0.08718555
78	0xbe433d96	-0.19066462
79	0xbe01cca2	-0.12675717
80	0xbe44e3d1	-0.1922753
81	0x3e17e79b	0.14834444
82	0x3e6554b5	0.22395594
83	0x3d8da2de	0.0691583
84	0x3dfb0bca	0.12258108
85	0xbe5b77f0	-0.21432471
86	0xbdfa3b53	-0.122183464
87	0x3deddd4a	0.11614473
88	0xbca39208	-0.019967094
89	0xbd5d9238	-0.054094523
90	0x3dc0ebda	0.09419985
91	0xbe12273e	-0.14272782
92	0x3daa26fa	0.083082154
93	0x3e2cfa4f	0.1689236
94	0x3d9214a6	0.071328446
95	0x3bf7ab00	0.0075582266
96	0xbe1971de	-0.14984843
97	0x3e3d5e09	0.18492903
98	0x3e378f4b	0.17925756
99	0xbd989ff0	-0.07452381
100	0xbdaf91a0	-0.08572698
101	0x3e1c5801	0.15267946
102	0xbdec12c8	-0.1152702
103	0x3e6f0aed	0.23344012
104	0xbd650184	-0.05590965
105	0x3cec1a18	0.028821036
106	0xbddf20bc	-0.108949155
107	0x3e6317d5	0.2217706
108	0x3e291e7b	0.16515534
109	0xbcdb49d8	-0.02676861
110	0xbe3f3b4b	-0.18674962
111	0x3d62bc04	0.055355087
112	0x3da65e3a	0.08123441
113	0xbdf54c41	-0.11977435
114	0xbded10db	-0.115754806
115	0x3e5fc215	0.2185138
116	0x3e3b87a5	0.18313463
117	0x3e687655	0.2270139
118	0xbe41371f	-0.18868683
119	0xbdb37596	-0.08762662
120	0x3e6e19ed	0.23252077
121	0xbd735564	-0.059407607
122	0x3db1545a	0.08658667
123	0x3d988a0a	0.07448204
124	0x3d02e8b4	0.031960204
125	0xbe5ea02e	-0.21740791
126	0x3d0b154c	0.033955857
127	0x3da5872a	0.08082421
128	0xbd17fb24	-0.03710474
129	0xbddcec24	-0.10787228
130	0x3e379ebb	0.17931645
131	0xbd0dd3b8	-0.03462574
132	0x3e6ba76b	0.23013084
133	0x3da33662	0.07969357
134	0x3d2377d4	0.0399092
135	0x3e4abe99	0.1979927
136	0xbe0321ae	-0.12805817
137	0x3d61f124	0.05516161
138	0x3e153fad	0.14575072
139	0xbd936550	-0.07197058
140	0x3dd27c9e	0.10277675
141	0xbc537410	-0.012906089
142	0x3e0051ab	0.12531154
143	0xbc734ad0	-0.01484938
144	0x3d39acbc	0.045330748
145	0xbdee7f26	-0.116453454
146	0x3e1d6f8d	0.15374584
147	0x3e377c9b	0.17918627
148	0xbd00224c	-0.031282708
149	0x3e11de41	0.1424494
150	0x3e318037	0.17334066
151	0xbe55f213	-0.20893125
152	0x3da1d77a	0.07902427
153	0x3e4bc5e7	0.19899713
154	0xbe1a9264	-0.15094906
155	0x3d903d3a	0.07042928
156	0xbe48318c	-0.1955015
157	0x3ca40548	0.02002205
158	0xbc64e0a0	-0.01396957
159	0xbe5ab6c7	-0.21358787
160	0x3cd38e28	0.025824621
161	0x3e539c2b	0.20665042
162	0x3dadbf6e	0.08483778
163	0xbe57c765	-0.21072157
164	0x3e2b0c21	0.16703846
165	0x3d9736ba	0.07383485
166	0x3e0fc25b	0.14038984
167	0xbd53080c	-0.051521346
168	0xbe715672	-0.23568133
169	0x3e29c9df	0.16580914
170	0xbe50f353	-0.20405321
171	0x3e04a983	0.12955289
172	0xbe2d289e	-0.16910025
173	0xbe499ee4	-0.19689518
174	0x3d9a04b2	0.07520427
175	0xbde413f1	-0.11136616
176	0xbe3e5540	-0.18587208
177	0x3e6d88a9	0.23196663
178	0xbd0c7e38	-0.03430006
179	0xbe13f146	-0.14447507
180	0xbda5480c	-0.080703825
181	0xbd260580	-0.04053259
182	0x3dcc70c2	0.09982444
183	0xbe361479	-0.17781247
184	0x3ddc0fce	0.10745202
185	0xbdaac9c8	-0.08339268
186	0xbde649e1	-0.1124456
187	0xbe0b1e4c	-0.13585776
188	0x3e13bc11	0.1442721
189	0xbd8e0456	-0.06934421
190	0xbdcbb974	-0.09947482
191	0xbe4d5325	-0.20051248
192	0xbe39cff3	-0.18145733
193	0x3dd5ba12	0.10435881
194	0xbe65c227	-0.22437344
195	0x3c63d1b0	0.013904974
196	0xbe259c2c	-0.16172856
197	0x3b2977c0	0.002585873
198	0xbda31e30	-0.07964742
199	0xbdc6e838	-0.09712261
200	0xbd717c8c	-0.058956668
201	0xbd490128	-0.04907337
202	0x3e026e3d	0.12737365
203	0xbe0ae6b6	-0.13564572
204	0x3e1cb5fd	0.15303798
205	0x3d846ab6	0.06465666
206	0xbd042ac4	-0.032267347
207	0x3d339294	0.04384096
208	0x3deceada	0.11568232
209	0x3de65462	0.112465635
210	0x3ddc4ed6	0.10757224
211	0x3e1e1efd	0.15441509
212	0xbdc78cc0	-0.09743643
213	0xbe3fc249	-0.18726458
214	0xbe0d1ca0	-0.13780451
215	0x3dfc8a46	0.12331061
216	0xbd994728	-0.07484275
217	0x3e029391	0.12751605
218	0x3d902fb2	0.07040347
219	0xbe408348	-0.1880008
220	0xbe32e440	-0.17469883
221	0x3e69d33f	0.2283449
222	0xbda8001c	-0.08203146
223	0x3e27e377	0.16395365
224	0x3da86e46	0.08224158
225	0xbe4085c7	-0.18801032
226	0xbe1133ba	-0.14179888
227	0xbdd115b4	-0.10209218
228	0x3dc2b292	0.09506716
229	0xbe2a573a	-0.16634837
230	0x3e079e77	0.13244043
231	0x3e557527	0.20845471
232	0xbdaca50c	-0.08429918
233	0x3e0e1ae9	0.13877453
234	0xbe176c8d	-0.14787503
235	0x3e65cdfd	0.2244186
236	0x3cf93f58	0.030425712
237	0x3dc2aed6	0.095060036
238	0xbc7fb5d0	-0.015607312
239	0xbe500bd8	-0.20317018
240	0x3cc742b8	0.024323806
241	0xbe1c3d5d	-0.15257783
242	0x3d346cb4	0.04404898
243	0xbd5bd080	-0.053665638
244	0xbe3c503c	-0.18389982
245	0x3d902e1a	0.07040043
246	0xbdd85a24	-0.10564068
247	0x3e5db403	0.216507
248	0xbe64bea8	-0.22338355
249	0xbdb3cfcc	-0.087798685
250	0x3dd3beda	0.103391364
251	0xbd6b05d4	-0.057378605
252	0xbd88399c	-0.06651613
253	0x3d615334	0.05501099
254	0x3d084b94	0.033275202
255	0x3dc2a5da	0.0950429

fc2.weight f4 [128, 256]
0	0xbd8d70d0	-0.06906283
1	0xbd87c1d4	-0.06628767
2	0xbdaf5dc6	-0.08562808
3	0xbbaa4730	-0.0051964745
4	0xbd813dbc	-0.06310603
5	0xbcd37fd4	-0.02581779
6	0xbcb43aa0	-0.02200061
7	0xbd9f260e	-0.0777093
8	0x3bf0f130	0.0073529705
9	0xba015000	-0.00049328804
10	0x3cc458c4	0.023968108
11	0x3d079d5c	0.033109054
12	0x3ca2dd7c	0.019881003
13	0xbd444343	-0.04791571
14	0x3da49bef	0.080375545
15	0xbd91549b	-0.07096215
16	0x3d78fcb6	0.06078788
17	0x3c107190	0.008816138
18	0x3d815f67	0.06317025
19	0x3cec6018	0.028854415
20	0x3d67159e	0.0564171
21	0xbc31e148	-0.010856934
22	0x3d069862	0.032860167
23	0x3cfc56e8	0.030803159
24	0x3ba21040	0.004945785
25	0x3d8be033	0.06829872
26	0xbc343ec8	-0.011001296
27	0x3bd6c370	0.0065540597
28	0xbda088ff	-0.0783863
29	0xbcad1d74	-0.021132208
30	0x3d90e419	0.07074756
31	0x3c74fdf8	0.014953129
32	0x3c0a5080	0.008442044
33	0xbd82b52d	-0.06382213
34	0x3cab72c4	0.020928748
35	0x3d67535e	0.05647599
36	0xbd9f03e2	-0.077644125
37	0xbd41ce94	-0.04731615
38	0xbd30908a	-0.043106593
39	0xbcaf9c08	-0.021436706
40	0x3d6afece	0.057371907
41	0x3d9fe1ab	0.078067146
42	0xbd908c00	-0.07057953
43	0xbb7b5820	-0.0038352087
44	0xbd9340d4	-0.07190099
45	0x3d588522	0.05286134
46	0xbd8d9a9c	-0.06914255
47	0x3d9710eb	0.07376274
48	0xbd97d2ae	-0.07413231
49	0xbd6b8af6	-0.05750557
50	0xbd9c97e2	-0.07646157
51	0x3cedbc64	0.029020496
52	0x3c99e610	0.01878646
53	0x3cd0b484	0.025476702
54	0xbcb09be8	-0.021558717
55	0x3d2c59c6	0.042077802
56	0xbcfb8ecc	-0.03070774
57	0x3d819e17	0.06328981
58	0xbcec7b6e	-0.02886745
59	0xbd08d702	-0.033408172
60	0x3db34d89	0.08755023
61	0x3d928f93	0.07156291
62	0xba887e00	-0.0010413527
63	0x3c82c660	0.015963733
64	0xbd7de1f4	-0.061983064
65	0x3bbf8c70	0.005845599
66	0x3d042a74	0.03226705
67	0xbdb16460	-0.08661723
68	0xbd73bdad	-0.05950706
69	0x3d0aaca0	0.033856034
70	0x3ccbb5f8	0.024867043
71	0xbd8cfbf3	-0.06883993
72	0x3bbeea00	0.005826235
73	0xbd47feb8	-0.048826903
74	0x3c65db50	0.014029339
75	0xbd3876ec	-0.045035288
76	0x3bc2ae20	0.0059411675
77	0xbced8ddc	-0.028998308
78	0x3d43e332	0.047824092
79	0xbcf47726	-0.02984197
80	0x3d442dae	0.047895126
81	0x3d7339e6	0.059381388
82	0x3d09caee	0.033640794
83	0xbc335c78	-0.010947339
84	0xbbd60500	-0.0065313578
85	0x3c8b7448	0.01702322
86	0xbdac2544	-0.08405545
87	0xbce88f9c	-0.02838879
88	0x3d3b3532	0.045705028
89	0xbd98130e	-0.074255094
90	0x3d017e8a	0.031614818
91	0xbd99d4f4	-0.07511321
92	0x3d5e3086	0.054245494
93	0x3d16352e	0.03667181
94	0xbc21d950	-0.0098784715
95	0x3d797466	0.06090202
96	0xbd2c3421	-0.0420419
97	0xbd9affe2	-0.07568337
98	0xbd3aede4	-0.045637026
99	0x3d610f0a	0.054945983
100	0xbcd30de0	-0.025763452
101	0x3cd7f318	0.026361033
102	0xbd1c384d	-0.03813963
103	0x3ca42498	0.02003698
104	0xbc57f2d0	-0.01318045
105	0x3d9a3ce5	0.07531146
106	0xbdab004d	-0.08349667
107	0xbd8276f2	-0.06370343
108	0xbb0e17e0	-0.002168171
109	0x3daf89b7	0.08571189
110	0x3d9e2b75	0.077231325
111	0x3d36e2c2	0.044649847
112	0x3dac5425	0.08414487
113	0x3cb628f8	0.022236332
114	0x3d8dd29d	0.06924937
115	0x3d259c4e	0.040432267
116	0xbd077827	-0.03307357
117	0xbd2aa952	-0.041665383
118	0xb9b06200	-0.00033642352
119	0xbb009920	-0.001962252
120	0xbd9cc4ac	-0.076547
121	0x3d4eb11a	0.050461866
122	0x3da066e5	0.078321256
123	0xbd689108	-0.056778938
124	0xbd9a986a	-0.07548602
125	0x3d804cf7	0.0626468
126	0xbda90811	-0.08253492
127	0xbd7852a5	-0.06062569
128	0xbcc969d0	-0.024586588
129	0x3cbf0c30	0.023321241
130	0xbcc915a8	-0.02454646
131	0xbd1a2207	-0.037630107
132	0x3d1e63b6	0.03866931
133	0xbd27d6c8	-0.040976316
134	0xbccef258	-0.025262043
135	0xbca09e58	-0.019606754
136	0xbd89defe	-0.067319855
137	0x3d15154e	0.03639727
138	0xbd111255	-0.035417873
139	0x3da93ab5	0.082631506
140	0xbc2fd908	-0.010732897
141	0x3d9cf245	0.07663397
142	0xbda40fe5	-0.08010844
143	0xbb224600	-0.0024760962
144	0xbda017c2	-0.078170314
145	0xbc9e5910	-0.019329578
146	0x3d6b473a	0.057440974
147	0xbd8b4780	-0.06800747
148	0xbc8b9d34	-0.017042734
149	0x3b174920	0.0023084357
150	0xbd1f4c57	-0.038891163
151	0xbd09b310	-0.033618033
152	0x3a396200	0.0007071793
153	0xbd756e42	-0.059919603
154	0x3d8a422b	0.06750902
155	0xbd6e628a	-0.058199443
156	0x3ce017bc	0.027355067
157	0xbd8284a4	-0.063729554
158	0xbdb18960	-0.0866878
159	0xbd7385c5	-0.059453744
160	0xbd981bf5	-0.074272074
161	0x3db0afbd	0.086272694
162	0x3d9b32bd	0.07578037
163	0x3da5d287	0.080967955
164	0xbd3d3bcf	-0.046199616
165	0x3d7155da	0.058919765
166	0x3d980feb	0.07424911
167	0x3d7e7802	0.062126167
168	0x3d557106	0.05210974
169	0x3d1cd5a2	0.038289674
170	0x3d19d966	0.037560843
171	0xbcbb1f9c	-0.022842221
172	0x3cf70334	0.030152895
173	0xbd8984f9	-0.06714816
174	0x3d7ecff6	0.062210046
175	0x3d1662da	0.036715366
176	0x3d8affdd	0.06787083
177	0x3c2e4470	0.010636434
178	0xbd4f557d	-0.050618637
179	0x3d219e62	0.039457686
180	0x3db24b89	0.087058134
181	0x3d7a6862	0.061134703
182	0xbd2ec4a8	-0.042668015
183	0xbdb1bcdd	-0.08678601
184	0xbca0c0f8	-0.019623265
185	0xbc0b91f0	-0.008518681
186	0x3cc47f84	0.023986585
187	0xbd3a1324	-0.04542841
188	0xbdaa4e94	-0.08315769
189	0xbd01ee9d	-0.0317217
190	0xbd9f718d	-0.0778533
191	0x3b2cf5c0	0.0026391596
192	0x3b7f3fc0	0.003894791
193	0x3d8cef75	0.0688161
194	0xbcdc99e6	-0.026928853
195	0xbd96e7a8	-0.07368404
196	0x3cc93b00	0.024564266
197	0xbd0f0c85	-0.03492405
198	0xbd53b3ca	-0.051685132
199	0xbd8c2afa	-0.06844135
200	0xbd56f7bf	-0.052482363
201	0xbd0166ae	-0.031592064
202	0xbce6aeba	-0.028159488
203	0x3d78a6c6	0.060705923
204	0xbd8cd575	-0.06876651
205	0x3ced5aa8	0.028973892
206	0xbdb3bf40	-0.087767124
207	0x3c87e368	0.016587928
208	0x3d7c3486	0.061573528
209	0xbd0c187d	-0.03420304
210	0xbd3d380d	-0.046196032
211	0x3d4a573a	0.049399592
212	0xbca7ed88	-0.020499006
213	0xbd1c4135	-0.038148124
214	0xbd5454b3	-0.051838588
215	0xbca642f0	-0.02029559
216	0xbd98ead0	-0.07466662
217	0x3c45ceb0	0.012073204
218	0x3d4ed8b2	0.050499626
219	0xbd36b69e	-0.04460775
220	0x3c9dc6d4	0.019259848
221	0xbd85f138	-0.065401495
222	0xbc390770	-0.011293277
223	0x3d8f7f3b	0.07006689
224	0x3c1ad1e0	0.009449452
225	0x3c8f3710	0.01748231
226	0x3d7f5282	0.062334545
227	0x3d9eb3af	0.07749116
228	0x3d329496	0.043598734
229	0x3cbca21c	0.023026519
230	0xbd3af028	-0.045639187
231	0xbd84af70	-0.064787745
232	0xbb1560c0	-0.0022793263
233	0xbcbeefdc	-0.023307733
234	0xbdb0395d	-0.08604691
235	0xbd666e6d	-0.056257654
236	0xbc3b3580	-0.01142633
237	0xbd2b87d1	-0.04187757
238	0x3da99033	0.08279457
239	0xbda27e0f	-0.079342
240	0xbd87581c	-0.066086024
241	0x3cadb610	0.021204978
242	0xbda99075	-0.08279506
243	0x3d19c712	0.037543364
244	0x3d813403	0.063087486
245	0xbc894c70	-0.016760081
246	0x3d18bd36	0.03728982
247	0x3d1e8fe6	0.03871145
248	0xbd2a6dfe	-0.041608803
249	0x3d50508a	0.050858058
250	0x3d22c8da	0.03974233
251	0x3da3f919	0.08006496
252	0xbd397ed9	-0.045286987
253	0x3bd820a0	0.006595686
254	0x3b376500	0.0027983785
255	0x3d9a483f	0.07533311

fc2.bias f4 [128]
0	0xbd18b1e6	-0.037279032
1	0xbd12334a	-0.035693444
2	0x3d2bf842	0.041984804
3	0x3c75f068	0.015010931
4	0xbcc6fde8	-0.024290994
5	0xbd7f34a8	-0.062306076
6	0xbd4e16c0	-0.050314665
7	0xbd7ddb68	-0.06197682
8	0x3cb7ad38	0.022421464
9	0x3d549110	0.051896155
10	0x3cfc9e40	0.030837178
11	0xbcf4d4b8	-0.029886588
12	0x3a012b80	0.00049274415
13	0x3cbc13ec	0.022958718
14	0xbd24dd48	-0.040250093
15	0xbd4ad5ba	-0.04952023
16	0xbab41ac0	-0.0013740882
17	0xbd30d682	-0.04317332
18	0xbd5d9048	-0.054092675
19	0xbcb1bde0	-0.021696985
20	0xbd4f908a	-0.050674953
21	0x3d0bdd6c	0.03414671
22	0xbcbd86b0	-0.023135513
23	0xbce49ebc	-0.027907722
24	0x3cea43b0	0.028596729
25	0xbc37e6d8	-0.011224471
26	0xbc426338	-0.011864476
27	0xbc20d028	-0.009815253
28	0xbd47cb48	-0.04877785
29	0x3c906a24	0.017628737
30	0x3d00e948	0.031472474
31	0x3d4a7490	0.04942757
32	0x3c897b74	0.0167825
33	0x3c779c98	0.015113018
34	0xbcaccd04	-0.021093853
35	0x3d680c46	0.05665233
36	0x3d0043ba	0.03131459
37	0x3c985eb0	0.018599838
38	0x3c83c4cc	0.016085051
39	0xbd3c2426	-0.04593291
40	0xbadb5b80	-0.0016735643
41	0x3d7d8424	0.061893597
42	0x3d1db9d6	0.038507305
43	0xbd67eb50	-0.056620896
44	0xbd277740	-0.04088521
45	0xbc16ebb0	-0.009211466
46	0xbce1bd7c	-0.027556174
47	0x3c97b50c	0.018518947
48	0x3cfffb00	0.031247616
49	0xbd0d1e7a	-0.034452893
50	0xbc531200	-0.0128827095
51	0x3c8ba6ec	0.017047368
52	0x3d41cb18	0.047312826
53	0xbd72036c	-0.059085295
54	0x3d74a1c2	0.059724577
55	0xbcf10c44	-0.029424794
56	0xbd7da4ee	-0.061924867
57	0x3d71f336	0.059069835
58	0x3bfccd60	0.0077149123
59	0x3b9f5fd0	0.0048637167
60	0x3bc9ca70	0.0061581656
61	0xb9b53000	-0.00034558773
62	0x3c964b28	0.018346384
63	0xbc0545e0	-0.008134335
64	0x3bfae2f0	0.0076564476
65	0x3d6de26e	0.05807727
66	0x3cfcca5c	0.030858211
67	0x3ca82a38	0.020527944
68	0xbd650946	-0.055917047
69	0x3d066814	0.0328141
70	0x3ce682d0	0.028138548
71	0x3b87d5d0	0.0041453615
72	0xbc025138	-0.007953934
73	0x3d567ebe	0.052366965
74	0x3d0c8e9c	0.03431569
75	0x3cee6e84	0.029105432
76	0x3d18d4f8	0.037312478
77	0x3d0a302a	0.03373734
78	0x3d33f2ea	0.043932833
79	0x3d1782a4	0.036989823
80	0xbcac8268	-0.021058276
81	0x3d658d42	0.056042917
82	0x3d251622	0.04030431
83	0x3b3a7740	0.0028452426
84	0x3cb202d8	0.021729872
85	0xbd01b2f2	-0.031664796
86	0x3d63a0f8	0.055573434
87	0xbbc12890	-0.005894728
88	0x3d55e62a	0.052221455
89	0x3d79f182	0.061021335
90	0x3d3a37a2	0.04546321
91	0x3d1c9e06	0.03823664
92	0x3bd38f70	0.006456308
93	0x3d2e7a4a	0.042597093
94	0x3c85331c	0.016259722
95	0xbb323fa0	-0.0027198568
96	0x3cb99660	0.022654712
97	0x3d3da0ca	0.04629592
98	0xbd1a0e0a	-0.037611045
99	0x3cee5a8c	0.02909591
100	0x3d759ba8	0.0599629
101	0xbd28a3d8	-0.04117188
102	0x3c5797b8	0.013158731
103	0xbcbc30c0	-0.022972465
104	0xbd1b9c2e	-0.03799074
105	0x3cf99120	0.030464709
106	0x3d64b1aa	0.055833496
107	0x3c9b3e58	0.018950626
108	0xbc713710	-0.014722601
109	0x395d9200	0.00021130592
110	0x3d5fbba8	0.054622322
111	0xbcebbc58	-0.028776333
112	0x3c7f92e8	0.01559899
113	0x3a943240	0.001130648
114	0x3cd138fc	0.025539868
115	0xbc0d2af0	-0.008616194
116	0xbcf13764	-0.029445358
117	0x3d1a5134	0.037675098
118	0x3c97d564	0.01853437
119	0x3d048e70	0.0323624
120	0xbc65b628	-0.01402048
121	0xbd723140	-0.059129
122	0xbc94e31c	-0.0181747
123	0x3d196f8c	0.037459895
124	0x3c3705c8	0.011170812
125	0x3bbee940	0.0058261454
126	0xbcf48814	-0.029850043
127	0x3ca1e82c	0.019764028

fc3.weight f4 [1, 128]
0	0xbb449ba6	-0.003
1	0xbb449ba6	-0.003
2	0xbb449ba6	-0.003
3	0xbb449ba6	-0.003
4	0xbb449ba6	-0.003
5	0xbb449ba6	-0.003
6	0xbb449ba6	-0.003
7	0xbb449ba6	-0.003
8	0xbb449ba6	-0.003
9	0xbb449ba6	-0.003
10	0xbb449ba6	-0.003
11	0xbb449ba6	-0.003
12	0xbb449ba6	-0.003
13	0xbb449ba6	-0.003
14	0xbb449ba6	-0.003
15	0xbb449ba6	-0.003
16	0xbb449ba6	-0.003
17	0xbb449ba6	-0.003
18	0xbb449ba6	-0.003
19	0xbb449ba6	-0.003
20	0xbb449ba6	-0.003
21	0xbb449ba6	-0.003
22	0xbb449ba6	-0.003
23	0xbb449ba6	-0.003
24	0xbb449ba6	-0.003
25	0xbb449ba6	-0.003
26	0xbb449ba6	-0.003
27	0xbb449ba6	-0.003
28	0xbb449ba6	-0.003
29	0xbb449ba6	-0.003
30	0xbb449ba6	-0.003
31	0xbb449ba6	-0.003
32	0xbb449ba6	-0.003
33	0xbb449ba6	-0.003
34	0xbb449ba6	-0.003
35	0xbb449ba6	-0.003
36	0xbb449ba6	-0.003
37	0xbb449ba6	-0.003
38	0xbb449ba6	-0.003
39	0xbb449ba6	-0.003
40	0xbb449ba6	-0.003
41	0xbb449ba6	-0.003
42	0xbb449ba6	-0.003
43	0xbb449ba6	-0.003
44	0xbb449ba6	-0.003
45	0xbb449ba6	-0.003
46	0xbb449ba6	-0.003
47	0xbb449ba6	-0.003
48	0xbb449ba6	-0.003
49	0xbb449ba6	-0.003
50	0xbb449ba6	-0.003
51	0xbb449ba6	-0.003
52	0xbb449ba6	-0.003
53	0xbb449ba6	-0.003
54	0xbb449ba6	-0.003
55	0xbb449ba6	-0.003
56	0xbb449ba6	-0.003
57	0xbb449ba6	-0.003
58	0xbb449ba6	-0.003
59	0xbb449ba6	-0.003
60	0xbb449ba6	-0.003
61	0xbb449ba6	-0.003
62	0xbb449ba6	-0.003
63	0xbb449ba6	-0.003
64	0xbb449ba6	-0.003
65	0xbb449ba6	-0.003
66	0xbb449ba6	-0.003
67	0xbb449ba6	-0.003
68	0xbb449ba6	-0.003
69	0xbb449ba6	-0.003
70	0xbb449ba6	-0.003
71	0xbb449ba6	-0.003
72	0xbb449ba6	-0.003
73	0xbb449ba6	-0.003
74	0xbb449ba6	-0.003
75	0xbb449ba6	-0.003
76	0xbb449ba6	-0.003
77	0xbb449ba6	-0.003
78	0xbb449ba6	-0.003
79	0xbb449ba6	-0.003
80	0xbb449ba6	-0.003
81	0xbb449ba6	-0.003
82	0xbb449ba6	-0.003
83	0xbb449ba6	-0.003
84	0xbb449ba6	-0.003
85	0xbb449ba6	-0.003
86	0xbb449ba6	-0.003
87	0xbb449ba6	-0.003
88	0xbb449ba6	-0.003
89	0xbb449ba6	-0.003
90	0xbb449ba6	-0.003
91	0xbb449ba6	-0.003
92	0xbb449ba6	-0.003
93	0xbb449ba6	-0.003
94	0xbb449ba6	-0.003
95	0xbb449ba6	-0.003
96	0xbb449ba6	-0.003
97	0xbb449ba6	-0.003
98	0xbb449ba6	-0.003
99	0xbb449ba6	-0.003
100	0xbb449ba6	-0.003
101	0xbb449ba6	-0.003
102	0xbb449ba6	-0.003
103	0xbb449ba6	-0.003
104	0xbb449ba6	-0.003
105	0xbb449ba6	-0.003
106	0xbb449ba6	-0.003
107	0xbb449ba6	-0.003
108	0xbb449ba6	-0.003
109	0xbb449ba6	-0.003
110	0xbb449ba6	-0.003
111	0xbb449ba6	-0.003
112	0xbb449ba6	-0.003
113	0xbb449ba6	-0.003
114	0xbb449ba6	-0.003
115	0xbb449ba6	-0.003
116	0xbb449ba6	-0.003
117	0xbb449ba6	-0.003
118	0xbb449ba6	-0.003
119	0xbb449ba6	-0.003
120	0xbb449ba6	-0.003
121	0xbb449ba6	-0.003
122	0xbb449ba6	-0.003
123	0xbb449ba6	-0.003
124	0xbb449ba6	-0.003
125	0xbb449ba6	-0.003
126	0xbb449ba6	-0.003
127	0xbb449ba6	-0.003
