models/checkpoint_critic_local_17.pth (torch_old, 349244 bytes, 5 tensors)

fcs1.weight f4 [256, 200]
0	0xbbd63830	-0.00653746
1	0x3d571e78	0.05251929
2	0x3c34f518	0.011044763
3	0x3ca831cc	0.020531558
4	0xbc54f670	-0.012998208
5	0x3d7d0bd0	0.061778843
6	0x3d4db086	0.050217174
7	0x3cfd00f4	0.030884244
8	0xbd3973f6	-0.045276605
9	0xbc253d68	-0.010085441
10	0xbd75082c	-0.059822246
11	0xbd408786	-0.047004245
12	0xbd0fdc8e	-0.035122447
13	0x3caea84c	0.021320485
14	0xbd0c8730	-0.034308612
15	0x3c754fe0	0.014972657
16	0xbd7cae5a	-0.061689712
17	0xbd770b1a	-0.06031332
18	0x3cc0a564	0.023516364
19	0x3c918da4	0.017767735
20	0xbd1d43b6	-0.038394652
21	0xbcb6b0f4	-0.022301175
22	0xbcb67978	-0.022274718
23	0x3d497076	0.049179517
24	0xbd108348	-0.03528145
25	0xbb9ffbc0	-0.004882306
26	0x3d6ddb0e	0.058070235
27	0x3bd3c020	0.006462112
28	0xbd1b1bfc	-0.037868485
29	0x3c968ef4	0.018378712
30	0x3d285850	0.041099846
31	0xbd491932	-0.049096294
32	0x3c5ecfb8	0.013599329
33	0x3aaadb00	0.0013035238
34	0xbceb9068	-0.028755382
35	0x3cfb30bc	0.030662887
36	0xbcc0f63c	-0.023554914
37	0xbd642e86	-0.05570843
38	0xbcc213c4	-0.023691066
39	0x3d683306	0.056689285
40	0x3d7e55a4	0.062093392
41	0x3c986648	0.018603459
42	0xbd72a2e0	-0.05923736
43	0x3ce5e2a0	0.028062165
44	0xba69e200	-0.0008921921
45	0xbbf32240	-0.0074198544
46	0xbcb383b0	-0.02191338
47	0xbcf059c8	-0.029339686
48	0x3ccc1028	0.024910048
49	0x3d634de2	0.055494197
50	0xbc501cb0	-0.012702152
51	0x3d62f746	0.0554116
52	0xbd5923a2	-0.053012498
53	0x3d3578ae	0.044304542
54	0x3d3bbc18	0.045833677
55	0x3be43ea0	0.0069654733
56	0x3d1effd6	0.038818203
57	0x3d3b26bc	0.045691237
58	0xbd19493c	-0.037423357
59	0x3d4aaca4	0.04948105
60	0xbada14c0	-0.0016638264
61	0x3d11f40c	0.03563313
62	0xbcee839c	-0.02911549
63	0xbbc85110	-0.006113179
64	0x3d576b84	0.05259277
65	0xbc408ac8	-0.011751838
66	0x3d76e640	0.060278177
67	0x3d4353f6	0.047687493
68	0xbca548dc	-0.020176344
69	0xbca5c454	-0.020235218
70	0xbd79427a	-0.060854413
71	0xbd05e6d0	-0.032690823
72	0x3b5023c0	0.003175959
73	0xbd698334	-0.05700989
74	0xbc8a6efc	-0.016898625
75	0xbd4df5d8	-0.050283283
76	0xbd144fd0	-0.036208928
77	0x3c4ecf68	0.012622692
78	0x3c19aa00	0.00937891
79	0x3d3097ac	0.043113396
80	0xbc1eb4f8	-0.009686701
81	0x3d7adc2a	0.06124512
82	0x3d4c9c1e	0.049953572
83	0xbcd57310	-0.026055843
84	0x3d2a5b52	0.041590996
85	0x3c4d9698	0.012548111
86	0x3d702b1a	0.058634855
87	0x3d69c862	0.057075866
88	0xbd09dad8	-0.03365597
89	0x3d4e5762	0.050376303
90	0xbc537a78	-0.012907617
91	0xbcbaf7b0	-0.022823185
92	0xbd080802	-0.03321076
93	0x3d0cdc58	0.034389824
94	0xbd5d4b88	-0.05402711
95	0xbd28dcbc	-0.041226134
96	0x3c3f1230	0.011662051
97	0x3d3fc156	0.04681524
98	0xbd60bc40	-0.05486703
99	0x3bf64740	0.007515818
100	0x3cba40c4	0.02273596
101	0xbd62d8f0	-0.05538267
102	0x3d5155fa	0.051107384
103	0xbd46f4a0	-0.048573136
104	0x3cbe5b90	0.02323702
105	0xbd2b5cfa	-0.041836716
106	0x3d0f2ea0	0.034956574
107	0xbd79f000	-0.061019897
108	0x3cbedc20	0.023298323
109	0x398aec00	0.00026497245
110	0x3d631052	0.055435486
111	0xbc95e5d8	-0.018298075
112	0x3cb8429c	0.0224927
113	0xbc631dd0	-0.013862088
114	0x3ceac804	0.028659828
115	0x3d100ad0	0.03516656
116	0x3bf12be0	0.0073599666
117	0xbd1e0400	-0.038578033
118	0x3ce8440c	0.02835276
119	0xbd620e18	-0.055189222
120	0xbd66fb70	-0.056392133
121	0x3b542560	0.003237091
122	0x3c2a7ba8	0.0104054585
123	0x3d3862bc	0.045016035
124	0x3d5ca3fe	0.053867333
125	0xbbf48aa0	-0.0074628145
126	0xbc40f888	-0.0117780045
127	0x3d0dddb0	0.034635246
128	0xbd6e8c82	-0.058239467
129	0x3cc3ed8c	0.023916982
130	0xbcee7414	-0.029108085
131	0xbd5d46da	-0.054022647
132	0xbc2d2548	-0.010567971
133	0x3c85bc24	0.016325064
134	0xbd588c64	-0.052868262
135	0xbb5ea260	-0.0033971295
136	0xbc908604	-0.017642029
137	0x3d197730	0.03746718
138	0x3d3d722e	0.04625147
139	0xbd39f2ee	-0.04539769
140	0xbceb08c0	-0.028690696
141	0x3ca36278	0.019944414
142	0x3d353c04	0.04424669
143	0x3cb3635c	0.021897964
144	0xbc215f28	-0.009849347
145	0xbd2c346e	-0.04204219
146	0x3d0606d4	0.032721356
147	0x3d3cdd4a	0.046109475
148	0x3d782e8a	0.060591258
149	0xbd1c2f52	-0.038131066
150	0xbc79ca18	-0.015245937
151	0x3d2b2618	0.041784376
152	0xbd6a2052	-0.05715973
153	0xbd70d5fe	-0.05879783
154	0xbd33e036	-0.043914996
155	0x3d5b33fe	0.05351638
156	0xbd566f40	-0.05235219
157	0x3bc86250	0.0061152354
158	0xbc707e30	-0.014678523
159	0x3c75b428	0.014996566
160	0xbd7526de	-0.05985152
161	0x3b56c200	0.0032769442
162	0x3cde1d4c	0.02711358
163	0x3cf0cd0c	0.029394649
164	0xbc8c1a90	-0.01710251
165	0xbcb93e24	-0.022612639
166	0xbd295d62	-0.041348822
167	0xbbec21d0	-0.007206179
168	0xbcde9090	-0.027168542
169	0x3d201b58	0.039088577
170	0xbc99b878	-0.01876472
171	0x3be38810	0.00694371
172	0x3d200878	0.039070576
173	0x3d1a36ee	0.03765004
174	0x3d279eb4	0.040922835
175	0x3d44d6b4	0.04805632
176	0xbd6ad65c	-0.057333335
177	0xbd4850ee	-0.048905306
178	0xbd070414	-0.032962874
179	0xbc83f71c	-0.016109042
180	0xba9c52c0	-0.0011926517
181	0xbce1cb60	-0.027562797
182	0x3cf6d4e8	0.030130818
183	0x3ca7f5cc	0.020502947
184	0xbca8a110	-0.020584613
185	0xbd79e866	-0.061012648
186	0xbca8434c	-0.020539902
187	0x3c312928	0.010813035
188	0xbd5d5c24	-0.05404295
189	0xbd3d023c	-0.04614471
190	0x3ba4f530	0.0050341114
191	0xbc8e2458	-0.017351314
192	0x3d5c2cba	0.053753592
193	0x3bda9ea0	0.0066717416
194	0x3bcb75d0	0.0062091127
195	0x3d6a4940	0.057198763
196	0xbd5233f6	-0.051319085
197	0x3cb3cfb4	0.021949627
198	0xbd2c3156	-0.042039238
199	0xbc1856d8	-0.009298049
200	0xbd656ada	-0.056010105
201	0x3d2f3cc4	0.04278256
202	0xbcd94d08	-0.02652599
203	0xbd1d0aae	-0.038340263
204	0x3d523e44	0.051328912
205	0xbcdf4d8c	-0.027258657
206	0x3c1242d8	0.00892707
207	0x3adce2c0	0.0016852245
208	0xbcf48de0	-0.029852808
209	0x3cf42710	0.029803783
210	0x3d56b0a6	0.05241456
211	0x3d54c342	0.051944025
212	0xbd1ef754	-0.03881009
213	0xbd288876	-0.041145764
214	0x3d26be54	0.040708855
215	0x3cff8844	0.031192906
216	0x3c9519d0	0.018200785
217	0x3bfca080	0.007709563
218	0x3d13d5b0	0.03609246
219	0x3cd6a06c	0.026199542
220	0xbd659376	-0.056048833
221	0xbce396c4	-0.027781852
222	0x3d7047bc	0.05866216
223	0x3d6c8c3c	0.057750925
224	0xbbcf75a0	-0.0063311607
225	0x3cb353b8	0.021890506
226	0xbd4b4560	-0.049626708
227	0xbcfeb220	-0.031090796
228	0x3d24a252	0.040193863
229	0xbd2b5b3e	-0.041835062
230	0x3d00b54c	0.0314229
231	0xbcd0fb78	-0.025510535
232	0xbbf2e6a0	-0.0074127465
233	0xbd7e6876	-0.06211134
234	0xbbf44470	-0.0074544474
235	0x3c622990	0.013803855
236	0xbc879384	-0.016549833
237	0xbd2e60d0	-0.042572796
238	0x3d36aa50	0.044596016
239	0xbd4732f8	-0.048632592
240	0x3d60e184	0.05490257
241	0x3d2651f2	0.040605493
242	0xbb5fbe80	-0.0034140646
243	0x3d4b41da	0.049623348
244	0xbd468c6c	-0.04847376
245	0x3d387de4	0.045041934
246	0xbd63ba6c	-0.055597708
247	0x3d78419c	0.060609445
248	0xbd55cc42	-0.05219675
249	0x3d6462f0	0.055758417
250	0x3d0c4b8c	0.034251735
251	0x3d258026	0.040405415
252	0x3d6e4486	0.058170818
253	0x3c012968	0.007883407
254	0x3d56c690	0.052435458
255	0x3d1add8c	0.03780894

fcs1.bias f4 [256]
0	0xbd89baba	-0.067250684
1	0x3c471bf0	0.012152657
2	0x3c206228	0.009789027
3	0xbd59a18a	-0.05313257
4	0x3d7bbb6a	0.06145803
5	0x3d8e8da5	0.0696061
6	0xbcb7ce88	-0.022437349
7	0x3d31f2c4	0.04344441
8	0x3cfbd0b0	0.030739158
9	0xbd495c32	-0.04916019
10	0xbd0d7ca1	-0.034542684
11	0xbd3bc166	-0.045838736
12	0xbd446de9	-0.04795638
13	0x3d000926	0.031258725
14	0xbcc12566	-0.023577403
15	0x3cbc8704	0.0230136
16	0x3d8737e3	0.066024564
17	0x3d70fc6a	0.05883447
18	0xbcdec612	-0.027194057
19	0xbd7a2afe	-0.061076157
20	0x3d161852	0.036644287
21	0xbd448572	-0.047978826
22	0xbc266430	-0.0101557225
23	0x3d48b98c	0.049005076
24	0x3d4614d6	0.048359714
25	0x3cbefc74	0.023313738
26	0xbc0c3364	-0.008557174
27	0xbcea60ae	-0.028610554
28	0x3becd440	0.0072274506
29	0x3cc06f0c	0.023490451
30	0x3d69195a	0.056908943
31	0x3c2db260	0.01060161
32	0x3c023038	0.007946067
33	0xbd86e0b1	-0.06585825
34	0x3c5d3cd8	0.013503276
35	0x3cbb2dc4	0.022848971
36	0x3c958b50	0.018254906
37	0x3c732ed8	0.014842711
38	0x3d7c7c8a	0.061642207
39	0x3d0d44ea	0.03448955
40	0xbcbc0ee4	-0.02295632
41	0xbd89829c	-0.06714365
42	0xbcaf3296	-0.021386426
43	0x3d8f4593	0.06995692
44	0xbcec8cd2	-0.028875742
45	0x3d53e77a	0.051734425
46	0xbd83900e	-0.064239606
47	0x3cc8ccec	0.024511777
48	0x3c356950	0.011072472
49	0xbcd2841c	-0.02569776
50	0x3d8d8a4d	0.069111444
51	0xbcc3fc56	-0.023924034
52	0x3d712b92	0.058879443
53	0x3cdd6d50	0.027029663
54	0xbd6f938c	-0.05849032
55	0x3c819e6c	0.015822612
56	0xbd08d9cd	-0.033410836
57	0xba3c1780	-0.00071751326
58	0xbd5c39bc	-0.053765997
59	0x3d4e1574	0.050313428
60	0xbce44f74	-0.027869917
61	0x3c3ddb38	0.01158791
62	0xbb6e8440	-0.0036394745
63	0xbc1d2b60	-0.009592861
64	0x3d11894e	0.035531335
65	0xbd1ed3e3	-0.03877629
66	0xbd315f26	-0.04330363
67	0xbb622fa0	-0.003451325
68	0x3d06a4d8	0.03287205
69	0xbd582928	-0.052773625
70	0x3d282608	0.041051894
71	0x3bd9faf0	0.0066522285
72	0xbd5009ef	-0.050790723
73	0xbc28d8d8	-0.010305606
74	0xbd8e51bf	-0.069491856
75	0x3a3a7500	0.0007112771
76	0xbc80cb22	-0.015721861
77	0xbaaa3540	-0.001298584
78	0xbd791ffa	-0.06082151
79	0xbd2b8a8f	-0.041880187
80	0x3b752b60	0.0037409887
81	0xb9c5df00	-0.00037740916
82	0xbd6f0100	-0.058350563
83	0xbd7aa496	-0.061192118
84	0xbd588cd0	-0.052868664
85	0x3d0f8162	0.0350355
86	0xbd2aef1c	-0.04173194
87	0x3c3512c0	0.011051834
88	0xbcd8e5d8	-0.026476786
89	0x3ccabfcc	0.024749659
90	0x3ce24400	0.027620316
91	0xbcc5abd6	-0.02412979
92	0xbd66d222	-0.056352742
93	0xbccbefc4	-0.024894603
94	0x3d6963fa	0.05698011
95	0x3d8ec4e7	0.0697115
96	0x3d631cea	0.055447496
97	0xbc97a17a	-0.018509615
98	0xbd8bb13f	-0.068209164
99	0x3cfe157c	0.031016104
100	0x3b71f1c0	0.0036917776
101	0x3d73f13e	0.05955624
102	0xbd587f6c	-0.052855894
103	0x3caa3564	0.020777412
104	0x3c1304a8	0.008973278
105	0xbd6143c0	-0.054996252
106	0x3d472424	0.04861845
107	0x3c70af00	0.014690161
108	0x3d5691d0	0.05238515
109	0x3cf370ac	0.029716812
110	0xbbf15380	-0.0073646903
111	0xbd4c0f84	-0.049819484
112	0x3cfd691c	0.03093391
113	0xbd29272e	-0.04129713
114	0x3d05ad86	0.032636188
115	0xbd8b9ac7	-0.06816631
116	0xbcd79774	-0.026317336
117	0xbd292b21	-0.041300897
118	0x3cf98ba0	0.030462086
119	0x3d464bf8	0.048412293
120	0x3cc111ac	0.023567997
121	0xbcac40f8	-0.021027073
122	0x3d036b90	0.032085
123	0xbd54eba6	-0.051982544
124	0x3d6764f2	0.056492753
125	0xbc23f484	-0.010007028
126	0xbd296216	-0.041353308
127	0xbd0ef03b	-0.03489707
128	0xbc67d1c8	-0.014149137
129	0xbd81befb	-0.06335255
130	0xbb9825f0	-0.0046431944
131	0x3c38e9a0	0.011286169
132	0x3d2bc484	0.04193546
133	0xbd08698a	-0.033303775
134	0xbd1dcafb	-0.038523655
135	0xbcfa3d94	-0.03054694
136	0xbd318380	-0.0433383
137	0x3be7bfa0	0.007072404
138	0x3ca56c40	0.02019322
139	0xbd867027	-0.0656436
140	0xbd860296	-0.06543462
141	0xbc6a59c4	-0.014303628
142	0x3cc66de0	0.024222314
143	0xbd5939f4	-0.053033784
144	0xbca63be2	-0.020292226
145	0xbc132de8	-0.008983113
146	0x3d83a815	0.064285435
147	0x3d345f0a	0.04403595
148	0x3d6c68aa	0.057717003
149	0x3d87b25b	0.066258155
150	0xbc04f8a0	-0.008115917
151	0xbd6af41d	-0.05736171
152	0x3b8b1ad0	0.0042451397
153	0x3d6568ae	0.056008033
154	0x3d4564a4	0.04819168
155	0x3cbea244	0.023270734
156	0x3aebf480	0.0018001944
157	0xbd534ece	-0.051588826
158	0x3d07c848	0.033149987
159	0x3d66a8a2	0.056313165
160	0xbc0499e0	-0.008093327
161	0xbcc4b80a	-0.024013538
162	0xbc270f34	-0.010196496
163	0x3d10bd14	0.03533657
164	0xbd6a6219	-0.05722246
165	0xbd5d1408	-0.05397418
166	0x3d71fa7e	0.05907678
167	0x3ad74640	0.0016424134
168	0x3d58f6ee	0.052969866
169	0xbd6e6c05	-0.058208484
170	0xbd8d2090	-0.068909764
171	0xbd3ecbdf	-0.046581145
172	0x3d808c13	0.06276717
173	0x3c793ad8	0.015211783
174	0x3d2de7c8	0.042457372
175	0x3cca1d08	0.024672046
176	0xbcece172	-0.028916094
177	0x3d89beb1	0.067258246
178	0xbd0f14a5	-0.034931798
179	0x3d4402ec	0.04785435
180	0xbcb70a78	-0.02234386
181	0x3d1fa54a	0.03897599
182	0x3d8c1b5f	0.06841158
183	0x3c897510	0.016779453
184	0xbb8e6130	-0.0043450817
185	0x3a2cc380	0.0006590411
186	0x3cf2c8e0	0.0296368
187	0x3d4254a4	0.047444
188	0xbd6a7b28	-0.057246357
189	0x39d81900	0.00041217357
190	0x3d4e5474	0.05037351
191	0xbd8d74e5	-0.069070615
192	0x3cba07c0	0.022708774
193	0xbd753d91	-0.059873167
194	0x3d8ed909	0.0697499
195	0x3d803e17	0.06261843
196	0x3c379fa8	0.011207499
197	0xbd51148c	-0.051044986
198	0x3d76eefa	0.0602865
199	0xbca21280	-0.019784212
200	0x3d29e61a	0.041479208
201	0xbbbff870	-0.0058584735
202	0xbd7969a6	-0.06089177
203	0x3b8e0c60	0.0043349713
204	0xbc19d26c	-0.009388547
205	0x3d7d9b76	0.061915837
206	0x3d1c2ebe	0.038130514
207	0xbd6c648e	-0.057713084
208	0xbbf43890	-0.007453032
209	0xbd8ca4ba	-0.068673566
210	0x3d4b9536	0.049702846
211	0x3d89548d	0.0670558
212	0x3d4c37fe	0.049858086
213	0xbbafbe00	-0.005363226
214	0xbd395746	-0.045249246
215	0x3cd82e34	0.026389219
216	0xbd32129a	-0.04347477
217	0x3ca9027c	0.020631067
218	0xbd0b0236	-0.033937655
219	0xbc47c96c	-0.012194019
220	0x3a842340	0.0010081306
221	0xbc977f2a	-0.018493254
222	0x3cdb1148	0.026741639
223	0x3c731ad0	0.014837936
224	0xbd0110dd	-0.031510223
225	0xbc1e6530	-0.00966768
226	0xbca5174c	-0.02015271
227	0x3d4eb5b0	0.05046624
228	0x3cf0a798	0.02937679
229	0xbc9c114e	-0.01905122
230	0x3cf3cbac	0.029760204
231	0xbd3cd4f4	-0.046101525
232	0xbb237be0	-0.0024945661
233	0xbd7b1990	-0.061303675
234	0xbd7a0698	-0.061041445
235	0xbb4fe9a0	-0.0031724945
236	0xbc8b5918	-0.017010257
237	0xbc59a060	-0.013282865
238	0x3d30854e	0.04309588
239	0x3d799b82	0.06093932
240	0xbc0a7718	-0.008451246
241	0x3d0afa36	0.033930026
242	0xbd2a31c4	-0.041551366
243	0x3cc41474	0.023935534
244	0x3d0abc86	0.033871196
245	0x3d0ce304	0.034396186
246	0x3cc9e5b8	0.024645671
247	0xbd14fdad	-0.036374737
248	0xbd8dc0d6	-0.06921546
249	0x3d47bf32	0.048766322
250	0xbd1f57c6	-0.038902067
251	0xbd1ba85e	-0.038002364
252	0xbc2469b0	-0.0100349635
253	0x3d6fe52e	0.058568172
254	0x3b370640	0.002792731
255	0x3c8c57a8	0.017131642

fc2.weight f4 [128, 276]
0	0x3d590c72	0.052990384
1	0xbd4f4b23	-0.050608765
2	0x3d3aa166	0.045564078
3	0xbd774208	-0.060365707
4	0xbd8d5a13	-0.06901946
5	0xbc3dbbc8	-0.011580415
6	0x3c9a7748	0.018855706
7	0xbd457fa0	-0.048217416
8	0x3da09ec1	0.0784278
9	0xbd8a33bd	-0.067481495
10	0xbb448a20	-0.0029989555
11	0xbd95e17a	-0.07318397
12	0xbd324b3c	-0.04352878
13	0x3bb375d0	0.005476691
14	0x3bced670	0.006312184
15	0xbcacae2c	-0.021079145
16	0x3c6e1b60	0.014532894
17	0x3c848b60	0.01617974
18	0xba818dc0	-0.0009884164
19	0x3d923d35	0.071405806
20	0xbb85f920	-0.004088536
21	0x3d84fed5	0.06493918
22	0x3d6eed42	0.058331735
23	0xbc8e7b8c	-0.017392896
24	0xbcaa7ef0	-0.020812482
25	0xbc5eccb0	-0.013598606
26	0xbd837563	-0.06418874
27	0xbd919184	-0.07107833
28	0x3d65097e	0.055917256
29	0xbd95e6fc	-0.073194474
30	0xbd0a4ba5	-0.033763546
31	0xbd72a4a8	-0.05923906
32	0xbd4607db	-0.048347335
33	0xba165880	-0.00057352334
34	0xbcf70868	-0.030155376
35	0x3d527c9e	0.051388375
36	0x3cea8838	0.028629407
37	0xbcbf1264	-0.023324199
38	0xbd1b32e5	-0.037890334
39	0x3db3d947	0.08781677
40	0x3dad69a5	0.08467416
41	0xbd83ab5e	-0.0642917
42	0xbd2cddea	-0.04220382
43	0x3d1ff32e	0.039050274
44	0x3cf115cc	0.029429339
45	0xbd586341	-0.05282903
46	0xbcdc05e4	-0.026858278
47	0x3d856c23	0.06514766
48	0xbcf55528	-0.029947832
49	0x3d7849b6	0.06061717
50	0xbd3de6d7	-0.046362724
51	0xbcce572c	-0.025188051
52	0x3c493488	0.012280591
53	0x3da3027b	0.079594575
54	0x3db1edc7	0.086879306
55	0x3d40dfa6	0.047088288
56	0x3d84e783	0.0648947
57	0x3d5b1bbe	0.053493254
58	0xbd464d13	-0.048413347
59	0x3d0a401e	0.033752553
60	0x3c260838	0.010133795
61	0xbca033d8	-0.019555971
62	0xbd2d75a2	-0.04234851
63	0x3c88efcc	0.016715907
64	0x3d6021da	0.054719783
65	0xbdb4a856	-0.0882117
66	0x3d14e510	0.036351264
67	0xbd998cda	-0.074975684
68	0xbc6460b0	-0.013939068
69	0x3c9a5d20	0.018843234
70	0x3d685c42	0.05672861
71	0x3d09e144	0.033662096
72	0x3d8c5d9f	0.06853794
73	0x3da7907f	0.08181857
74	0xbc948690	-0.01813057
75	0xbd50d81a	-0.05098734
76	0x3d407a96	0.046991907
77	0x3c3e4ac8	0.011614509
78	0xbd8407ff	-0.06446838
79	0xbcbe3b00	-0.023221493
80	0x3d62c6b6	0.055365287
81	0xbd578831	-0.052620117
82	0xbceeed60	-0.029165924
83	0xbd58beb9	-0.052916262
84	0x3d01957c	0.0316367
85	0x3d09120a	0.03346447
86	0x3d82944b	0.06375941
87	0x3ce3bc78	0.02779983
88	0xbda44764	-0.08021429
89	0xbc8cdde0	-0.017195642
90	0xbc2dcfa0	-0.010608584
91	0xbd5cf6cf	-0.053946313
92	0xbbff3620	-0.0077884346
93	0xbd6e3c5c	-0.058163032
94	0xbd81393c	-0.06309745
95	0xbd73db60	-0.059535384
96	0x3cb053a8	0.021524265
97	0xbb91add0	-0.004445769
98	0x3d69d5ce	0.057088666
99	0x3d5cdbe6	0.05392065
100	0x3cca583c	0.024700277
101	0x3aa70440	0.0012742355
102	0x3d8d7399	0.06906814
103	0xbcf4d97a	-0.029888857
104	0x3d11901e	0.03553783
105	0xbd023298	-0.03178653
106	0xbd2abcdb	-0.041684013
107	0x3d9e44e1	0.07727981
108	0xbd9c2122	-0.07623507
109	0x3d002958	0.03128943
110	0xbd44bedf	-0.04803359
111	0x3d153e10	0.03643614
112	0x3d4b0f3a	0.049575068
113	0xbd79dc42	-0.06100107
114	0xbd76ef8e	-0.06028705
115	0xbce70e58	-0.028205082
116	0x3d552372	0.052035756
117	0xbca25340	-0.019815087
118	0x3d23fd42	0.040036447
119	0xbd8dd5d8	-0.06925553
120	0xbd95894d	-0.07301579
121	0xbd9cde31	-0.07659567
122	0x3ccda530	0.025103182
123	0xbd9778fc	-0.07396123
124	0x3d33c97e	0.04389333
125	0xbd0ec536	-0.034856044
126	0xbd38cf52	-0.04511959
127	0x3c9a0ae8	0.018804029
128	0xbd428760	-0.047492385
129	0xbd836d16	-0.06417291
130	0xbda64d15	-0.08120171
131	0x3b9f2fa0	0.0048579723
132	0xbd2246f4	-0.039618447
133	0xbda601f6	-0.08105843
134	0xbd8572a3	-0.06516006
135	0x3c8aee3c	0.016959302
136	0xbd981bf5	-0.074272074
137	0x3c876450	0.016527325
138	0xbd42e0e4	-0.047577754
139	0xbd972af8	-0.073812425
140	0x3c9b0e54	0.01892773
141	0xbd894aa2	-0.06703688
142	0xbda7311e	-0.08163665
143	0x3d2dbea2	0.04241813
144	0x3d1c8b5e	0.03821885
145	0x3c013d30	0.007888123
146	0x3b1321c0	0.0022450536
147	0xbd8e16a6	-0.069379136
148	0xbd9ca2bc	-0.076482266
149	0xbd9231dd	-0.07138417
150	0x3bc44b70	0.005990438
151	0xbd218d4e	-0.0394414
152	0x3cb5fa00	0.022213936
153	0xbd112799	-0.035438154
154	0x3d191e62	0.03738249
155	0xbd1f1d68	-0.038846403
156	0x39ef5400	0.00045648217
157	0x3d8b080b	0.067886434
158	0x3d0a3674	0.033743337
159	0x3da3eb11	0.0800382
160	0xbda7dff3	-0.08197012
161	0xbd8cbebe	-0.06872319
162	0x3d3b3c56	0.045711838
163	0x3caaf6d8	0.020869657
164	0xbd4a4184	-0.049378887
165	0xbce5cb60	-0.028051078
166	0x3ba86b10	0.005139716
167	0xbd8d1c3a	-0.068901494
168	0x3c491d30	0.012275025
169	0xbd086cff	-0.03330707
170	0x3d2619c2	0.04055191
171	0x3d9d7b4b	0.07689532
172	0x3d170132	0.036866374
173	0xbc35ee80	-0.011104226
174	0xbd65e989	-0.05613092
175	0x3d8ddf2d	0.06927333
176	0x3d772372	0.060336538
177	0xbd65bef7	-0.05609032
178	0x3cabaa04	0.020955093
179	0xbd324fda	-0.043533184
180	0x3c206148	0.009788819
181	0xbcebed54	-0.02879969
182	0x3ca65648	0.020304814
183	0x3d8bd01f	0.06826805
184	0xbd4b2685	-0.049597282
185	0xbd333fc5	-0.043761987
186	0x3db1c953	0.08680978
187	0x3d81e275	0.063420214
188	0x3da9f8d3	0.082994126
189	0x3ab731c0	0.0013976619
190	0x3daf504d	0.08560238
191	0xbd5a7ea2	-0.053343423
192	0x3d8c3899	0.06846733
193	0x3d5765f6	0.052587472
194	0xbdab224c	-0.08356151
195	0x3d963c09	0.073356695
196	0x3bae9730	0.0053280815
197	0xbdb31fd7	-0.08746307
198	0x3cbdaed0	0.023154646
199	0x3d06c426	0.032901905
200	0x3d48ccb2	0.049023338
201	0x3da22237	0.07916682
202	0xbd552631	-0.052038375
203	0xbc9cb6a8	-0.019130066
204	0xbceadd16	-0.028669875
205	0xbca1faa8	-0.019772843
206	0xbcaef680	-0.021357775
207	0xbd80e186	-0.06293015
208	0x3d3ba656	0.045812927
209	0x3d105fcc	0.03524761
210	0xbd9eb258	-0.0774886
211	0xbbd05f40	-0.006359011
212	0xbaa0e000	-0.0012273788
213	0x3d5c3e2a	0.05377022
214	0xbda07764	-0.07835272
215	0x3d88c97b	0.06679054
216	0x3d4fc9c2	0.05072952
217	0xbca523d8	-0.020158693
218	0x3d55b0e6	0.052170657
219	0xbd9802cf	-0.07422411
220	0x3d5229fe	0.051309578
221	0x3cda9d10	0.026686221
222	0x3da350b9	0.07974381
223	0x3d509afe	0.050929062
224	0x3d93721d	0.071995
225	0x3d6783ca	0.05652217
226	0xbcf862d8	-0.03032057
227	0x3d5e9596	0.054341875
228	0x3cdc82f8	0.02691792
229	0x3d926841	0.07148791
230	0xbd530b3c	-0.051524386
231	0xbcbc9c40	-0.023023725
232	0x3c0c9e00	0.008582592
233	0x3dacb6f5	0.08433334
234	0xbd1b3da5	-0.037900586
235	0x3d4d2f1e	0.050093763
236	0xbd750bf3	-0.05982585
237	0x3cc27ed0	0.02374211
238	0x3db45177	0.08804601
239	0x3d9b92d3	0.07596364
240	0xbc521da0	-0.012824446
241	0xbd3cc30c	-0.04608445
242	0xbd2a563c	-0.041586146
243	0x3d3b752a	0.045766033
244	0x3c5c28c8	0.013437457
245	0x3d9680ed	0.073488094
246	0x3ca6a098	0.020340249
247	0x3afbdcc0	0.0019215569
248	0x3d8ac425	0.06775693
249	0x3d9063b3	0.07050266
250	0xbd56f833	-0.052482795
251	0x3d489c66	0.04897728
252	0xbcbfd980	-0.023419142
253	0xbd112169	-0.035432253
254	0x3d83939b	0.06424638
255	0x3da35e65	0.07976989

fc2.bias f4 [128]
0	0xbd6dbab5	-0.058039386
1	0xbd6724cb	-0.056431573
2	0xbcf5cb11	-0.030004056
3	0x3c5ef828	0.01360897
4	0x3d01ab28	0.031657368
5	0xbbbc5410	-0.0057473257
6	0x3d5f06f4	0.05444999
7	0xbd32711b	-0.043564897
8	0xbcbc09ec	-0.02295395
9	0x3c8a510c	0.01688435
10	0x3d676606	0.05649378
11	0xbd193d2d	-0.037411857
12	0x3cc4aa38	0.024006948
13	0x3c281288	0.010258324
14	0x3d2c3d68	0.04205075
15	0x3d4088c2	0.047005422
16	0x3b05e9d0	0.0020433553
17	0xbc8e7214	-0.017388381
18	0xbd4b0d3c	-0.04957317
19	0x3d54b15e	0.051926963
20	0xbd039080	-0.032120228
21	0x3d200d2c	0.03907506
22	0xbc9e3716	-0.019313376
23	0xbc91226e	-0.017716613
24	0x3d34a448	0.044101983
25	0x3d27502c	0.040847942
26	0xbc0cc97c	-0.0085929595
27	0x3d6b7bb0	0.057491004
28	0xbd18b35d	-0.03728043
29	0x3ccfdc60	0.025373638
30	0xbd613974	-0.054986432
31	0x3d355430	0.04426974
32	0x3ca44d0c	0.02005627
33	0xbd3a8744	-0.045539156
34	0xbcd92cda	-0.026510645
35	0xbd645bea	-0.05575172
36	0xbd1ed51b	-0.038777452
37	0xbc780610	-0.015138164
38	0xbc1a3670	-0.009412393
39	0x3d593924	0.05303301
40	0x3ba2d4b0	0.004969202
41	0xba0e6c00	-0.00054329634
42	0xbcf75699	-0.03019266
43	0x3c983ab4	0.01858268
44	0x3c4d3dd0	0.012526944
45	0x3cc64788	0.02420403
46	0x3d2fc55a	0.04291282
47	0x3bc20930	0.0059215054
48	0x3d6bc18a	0.05755762
49	0xbd1c2158	-0.038117737
50	0xbd538f2e	-0.05165022
51	0x3a307700	0.00067315996
52	0xbd582b49	-0.052775655
53	0xbd2155bd	-0.039388407
54	0xbd312baa	-0.043254532
55	0xbcfd8a33	-0.030949688
56	0x3d1da2b4	0.038485244
57	0x3cced234	0.025246717
58	0x3d58b464	0.05290641
59	0xbc95df3e	-0.018294927
60	0x3b8718b0	0.004122816
61	0xbd73ae0a	-0.05949215
62	0x3d5e2898	0.054237932
63	0xbd7076ba	-0.058706976
64	0xbd2a8e85	-0.041639823
65	0x3d0717b0	0.032981575
66	0x3a949040	0.0011334494
67	0xbc21c5c0	-0.009873807
68	0xbc2725a0	-0.010201842
69	0x3cf3e1e0	0.029770792
70	0x3cc27950	0.023739487
71	0xbcdd8f8a	-0.027045984
72	0x3d51bc74	0.051205114
73	0x3d0f4e98	0.034987062
74	0xbd062cee	-0.032757692
75	0x3cb67400	0.02227211
76	0xbd0ef5f6	-0.034902535
77	0x3d4dafd4	0.05021651
78	0x3d5a7714	0.053336218
79	0x3d001b34	0.031275943
80	0x3b3b2c40	0.002856031
81	0x3d5ed47c	0.05440186
82	0xbcc67d4a	-0.024229664
83	0xbcb75f10	-0.022384197
84	0x3cd1d8a4	0.025615998
85	0x3d6cde58	0.05782923
86	0xbb2fae20	-0.0026806667
87	0x3c829144	0.015938409
88	0x3c3b2970	0.011423454
89	0x3c73def8	0.014884703
90	0x3cea2e44	0.028586514
91	0x3d2d6398	0.042331308
92	0x3c81af64	0.015830703
93	0x3d1a0c00	0.0376091
94	0x3d257e14	0.04040344
95	0xbd6824e0	-0.05667579
96	0x3d746f02	0.059676178
97	0xbd3f23cd	-0.046665
98	0xbd011870	-0.031517446
99	0x3ccc01e8	0.024903253
100	0xbd383de4	-0.0449809
101	0x3c3a9fa0	0.011390597
102	0x3cccdd64	0.025007911
103	0x3d483c3e	0.048885576
104	0x3d203bd8	0.03911957
105	0x3cb3351c	0.02187591
106	0xbd434ca5	-0.047680516
107	0xbd34a2a5	-0.044100422
108	0xbd4ba480	-0.049717426
109	0x3d752a72	0.059854932
110	0xbcee635e	-0.029100116
111	0x3c1dc328	0.009629048
112	0x3d205982	0.03914786
113	0x3d35320e	0.04423719
114	0xbd320ad0	-0.043467343
115	0xbd195bf7	-0.03744122
116	0xbc7a1e34	-0.01526599
117	0x3be9fb10	0.0071405247
118	0x3c09b940	0.008405983
119	0x3d0f480e	0.034980826
120	0x3ccc1338	0.024911508
121	0x3d6ac34c	0.057315156
122	0x3d532b2c	0.051554844
123	0x3d6d4178	0.057923764
124	0x3d450bbc	0.048106894
125	0x3d52d77e	0.05147504
126	0xbbf026b8	-0.0073288344
127	0x3d521c40	0.051296473

fc3.weight f4 [1, 128]
0	0x3b1899c8	0.002328502
1	0x398e6730	0.0002716123
2	0xbb1e39c7	-0.0024143325
3	0x39e8fd90	0.00044439407
4	0xbadb29bd	-0.0016720813
5	0xbb073c66	-0.0020635366
6	0x39bf5e30	0.00036500534
7	0x3b44568e	0.0029958817
8	0xbb3f9d31	-0.002923798
9	0x3af4f6e8	0.0018689306
10	0xbb01a013	-0.001977925
11	0xba8b3ce9	-0.0010623011
12	0x3b17a5ec	0.0023139669
13	0xbadd8bf3	-0.001690267
14	0xbb08863f	-0.002083197
15	0xbb2b29ba	-0.00261174
16	0xbadeef26	-0.0017008528
17	0x39239ad0	0.00015602564
18	0x3b3d6c04	0.0028903494
19	0x3b372a8e	0.0027948949
20	0x3aa000bc	0.001220725
21	0xbb20354e	-0.0024445835
22	0xbb05b3e0	-0.0020401403
23	0xbb212021	-0.00245858
24	0xb78a1180	-1.6459031e-05
25	0x3b0e76d6	0.0021738312
26	0x39cebc90	0.00039431872
27	0xbb1a54ae	-0.0023549008
28	0x39272cb0	0.00015943008
29	0xbb3d87f7	-0.0028920153
30	0xbb190ec1	-0.0023354741
31	0x3a1f788c	0.00060833315
32	0xba927455	-0.0011173586
33	0xbab48103	-0.0013771359
34	0xbb402ae5	-0.0029322442
35	0x3a43d02c	0.00074696797
36	0x3ac3b1a8	0.0014930265
37	0x3ad7466c	0.0016424186
38	0x3a914720	0.0011083819
39	0x3b2a5f6e	0.0025996822
40	0xbad770c2	-0.0016436803
41	0xbae0bc55	-0.0017145971
42	0xbafb5e8a	-0.0019177955
43	0x3940a820	0.00018373178
44	0x39c10b40	0.0003682021
45	0x3abca23c	0.0014391611
46	0xb9752b00	-0.0002338104
47	0xba7a2b84	-0.00095432275
48	0x3b11234c	0.0022146283
49	0x3ae425f4	0.001740633
50	0xba5c9e88	-0.0008415957
51	0x3b2c2dbe	0.0026272382
52	0x38e314c0	0.000108280685
53	0xbb033424	-0.0020020092
54	0x3ad671f4	0.0016360865
55	0x3b00cee0	0.0019654557
56	0x3a8460c0	0.0010099635
57	0xbad292ee	-0.0016065517
58	0xba1cedb8	-0.00059863506
59	0x3a2e97c8	0.00066601904
60	0x3b2a05d4	0.0025943415
61	0x3adf244c	0.0017024367
62	0xb966ea60	-0.00022021821
63	0xba529500	-0.0008033067
64	0xb7285000	-1.0032207e-05
65	0x3b067040	0.0020513684
66	0xba924606	-0.0011159785
67	0x39bdd858	0.00036210078
68	0xbabdc5e8	-0.0014478536
69	0x3a341b74	0.0006870546
70	0x39bfec00	0.00036606193
71	0xbb412ccc	-0.0029476164
72	0xba39aaa0	-0.0007082615
73	0xbaa46e24	-0.0012545031
74	0xbb19e93c	-0.0023484966
75	0x3b35546c	0.0027668728
76	0x3a8f1ecc	0.0010919212
77	0xbb233660	-0.0024904236
78	0xbb406e9c	-0.0029362803
79	0x3b0e2ab8	0.0021692943
80	0x3a93e9d8	0.0011284901
81	0x3a5dcb84	0.0008460807
82	0xb9927420	-0.0002793381
83	0x3b08f748	0.0020899344
84	0xbade6603	-0.0016967658
85	0x3aa56448	0.0012618387
86	0xba1c1f60	-0.0005955603
87	0x3a84af5c	0.0010123062
88	0xb9d074e0	-0.0003975993
89	0x3b1ba51a	0.0023749531
90	0xb9a60020	-0.0003166208
91	0xba806e08	-0.0009798417
92	0x3ab00d20	0.0013431646
93	0xbb3cb91c	-0.0028796857
94	0x3b1c4376	0.002384392
95	0x3ab8d854	0.0014102557
96	0x3ad9a4d4	0.0016604909
97	0x3a116b88	0.00055473344
98	0x3b112c88	0.0022151787
99	0x3aacd8dc	0.0013187188
100	0x3b4030bc	0.0029325923
101	0xbab71618	-0.0013968376
102	0x3a95b4a4	0.0011421633
103	0x3b3f7182	0.0029211943
104	0x3af07b18	0.0018347232
105	0xbb012b3c	-0.0019709608
106	0x3aed8628	0.0018121647
107	0xbb3f3861	-0.0029177892
108	0x3b1c62e8	0.0023862664
109	0xba4013e0	-0.00073271804
110	0x3a838f6c	0.001003725
111	0xbb12038d	-0.0022279948
112	0xbb1b1f67	-0.002366984
113	0x3a5efe54	0.0008506526
114	0x3aec4e5c	0.0018028724
115	0xbac66260	-0.0015135519
116	0x3a801b04	0.0009773676
117	0xba3ba6bc	-0.0007158329
118	0xbb04231a	-0.0020162524
119	0x3a5cb90c	0.0008419908
120	0x3b3477e4	0.002753728
121	0x3af60ac0	0.0018771514
122	0x3a623430	0.00086289924
123	0xbb102705	-0.0021995914
124	0x3aea796c	0.001788897
125	0x3b25a4f6	0.0025275326
126	0x39078f20	0.00012927921
127	0xbb1c7825	-0.0023875323
