models/checkpoint_critic_local_19.pth (torch, 227615 bytes, 5 tensors)

fcs1.weight f4 [256, 80]
0.015502624 -0.021875903 0.015728131 0.016292162 -0.0507679 -0.046027735 -0.037449785 0.03110598
0.04948525 -0.060748003 -0.01956664 0.030731373 -0.039769374 -0.02151841 0.0041427314 0.008874066
0.021778196 0.011655167 0.014270753 -0.046022877 0.021861382 0.02521205 0.035392195 -0.0015591234
0.010602258 0.016139857 -0.056188546 -0.017240614 0.042264 -0.005608067 -0.028440371 0.02737844
-0.033746645 0.006688133 -0.045871235 -0.03048145 -0.0539611 0.019984432 -0.022308692 -0.012226634
0.014398292 -0.03284882 -0.017371066 0.0045726 0.043168478 0.038474217 0.04409872 0.011121646
-0.05998098 0.036407217 -0.024565592 -0.035462372 -0.05042795 0.026285172 -0.060950555 -0.008467071
-0.0165985 0.013723448 0.048500627 -0.05032374 -0.012984954 -0.02521313 -0.034198433 -0.0027298257
0.051132716 0.034122355 -0.024604827 -0.060704365 0.034524277 0.0412601 -0.02912917 -0.03177187
0.01661478 0.007892132 -0.03212356 0.04775861 -0.008097693 -0.01342354 0.04923317 -0.021796182
0.054578215 -0.06111715 -0.022747919 -0.0013877824 0.022796497 0.0311926 0.04486365 -0.048934683
0.022832476 0.014779791 0.01480522 0.059229158 -0.027418368 -0.05280555 -0.049612783 -0.034255013
-0.004184924 0.022769302 0.041800886 -0.046821207 0.046484344 0.01304251 -0.052876286 0.036701746
-0.02256696 0.051246002 -0.051822267 0.01884351 0.02695278 -0.020866454 -0.035022236 -0.03746237
-0.025880493 0.010438532 -0.009473674 -0.038883522 0.056200214 -0.05567 0.044339806 0.05141919
-0.027448274 0.021052144 -0.05243127 0.04084246 0.06068632 -0.053669095 0.005859956 -0.05961755
-0.010097489 -0.058848575 0.011777103 -0.054872967 -0.04915438 -0.025322333 -0.029977642 -0.0017155483
-0.060013436 0.02575583 -0.053548753 0.036637276 0.03828057 -0.045672923 -0.024730317 -0.041120984
-0.02322068 0.0075063035 -0.022479743 -0.025039367 0.024760753 -0.013529949 -0.021904044 0.029913083
-0.008466288 0.0080880895 0.041113593 -0.053024642 0.059697405 0.017593086 0.040456377 0.043848798
0.008842669 0.02005352 0.014503032 0.016961664 -0.03771185 0.017475545 -0.019020602 0.0048191696
-0.03761944 -0.039185427 -0.05368539 0.02801767 0.041867472 -0.056812488 -0.0028827712 -0.038160384
0.05653406 0.018552557 -0.062478878 0.050263405 -0.008566849 0.008510426 0.0063795075 0.027894117
0.023890696 0.04865458 -0.05836618 0.010575011 0.021699563 -0.05197923 0.049517512 0.020488575
0.05140531 -0.01576867 0.008952014 -0.02087333 -0.036385752 0.0059212 -0.046924867 0.026571982
0.006175719 -0.00229612 -0.04845333 -0.021181107 -0.03218875 -0.0029101372 -0.054734536 -0.04644873
0.022138923 0.022865638 -0.036831766 -0.005630426 -0.0030626133 0.007972717 0.037694164 0.033142485
0.03285522 0.03223729 -0.061533578 -0.0052236095 -0.028170615 -0.019814022 -0.061732017 0.0020069107
0.017780244 -0.011049405 0.017594956 -0.024493791 -0.047175452 -0.0007354319 0.0618907 0.033027515
-0.00957904 -0.036823414 0.05985254 -0.054979928 -0.022859707 0.02197732 -0.049623646 0.017838642
-0.05679094 -0.056129135 -0.008463316 -0.014315933 0.035042442 -0.021972641 -0.005087048 -0.05668015
-0.0011114851 -0.018666252 -0.03626611 -0.017400421 0.026454277 0.038425937 -0.02340646 -0.052755423
00000000: b8fe 7d3c 1835 b3bc 48d8 803c 2477 853c
00000010: 00f2 4fbd 9487 3cbd f264 19bd f8d1 fe3c
00000020: 0cb1 4a3d e6d2 78bd 384a a0bc 5cc0 fb3c
00000030: 36e5 22bd 6047 b0bc c0bf 873b 8864 113c
00000040: 3068 b23c 50f5 3e3c e0cf 693c 7c82 3cbd
00000050: a416 b33c 8089 ce3c 68f7 103d 805b ccba
00000060: 18b5 2d3c bc37 843c f625 66bd 303c 8dbc
00000070: 041d 2d3d e0c3 b7bb c8fb e8bc c048 e03c
00000080: ec39 0abd 2028 db3b 7ae3 3bbd 3cb4 f9bc
00000090: 5006 5dbd 64b6 a33c b8c0 b6bc 3852 48bc
000000a0: d0e6 6b3c 7c8c 06bd c44d 8ebc c0d5 953b
000000b0: 6ed1 303d 2497 1d3d dca0 343d 9037 363c
000000c0: 9eae 75bd bc1f 153d c83d c9bc fe40 11bd
000000d0: 8a8d 4ebd 0054 d73c 4aa7 79bd 78b9 0abc
000000e0: 94f9 87bc 50d8 603c 98a8 463d 4420 4ebd
000000f0: d8be 54bc c48b cebc a813 0cbd e0e6 32bb
00000100: 8a70 513d e2c3 0b3d 1090 c9bc 24a5 78bd
00000110: 5469 0d3d 5a00 293d 4ca0 eebc 3823 02bd
00000120: b81b 883c 004e 013c fe93 03bd 889e 433d
00000130: 30ac 04bc 68ee 5bbc b8a8 493d e88d b2bc
00000140: 688d 5f3d fa55 7abd d859 babc 40e6 b5ba
00000150: b8bf ba3c a087 ff3c f2c2 373d bc6f 48bd
00000160: 2c0b bb3c f026 723c 9891 723c 469a 723d
00000170: 7c9c e0bc a24a 58bd c636 4bbd fc4e 0cbd
00000180: b021 89bb b086 ba3c 6837 2b3d 98c7 3fbd
00000190: 5e66 3e3d 40b0 553c ce94 58bd 9254 163d
000001a0: 58de b8bc 54e7 513d 9643 54bd b45d 9a3c
000001b0: 14cc dc3c 20f0 aabc 7a73 0fbd 2472 19bd
000001c0: 5403 d4bc 6006 2b3c 7837 1bbc 5444 1fbd
000001d0: 3232 663d 3a06 64bd a89d 353d ee9c 523d
000001e0: 34db e0bc 8c75 ac3c 2cc2 56bd 6c4a 273d
000001f0: 3892 783d 20d4 5bbd e004 c03b 8831 74bd
00000200: f06f 25bc 340b 71bd c0f4 403c 7ac2 60bd
00000210: 1a56 49bd c870 cfbc ac93 f5bc 40dc e0ba
00000220: a6d0 75bd e4fd d23c f055 5bbd f810 163d
00000230: 16cc 1c3d 8813 3bbd 3c97 cabc 7a6e 28bd
00000240: 4c39 bebc 70f7 f53b 7027 b8bc 5c1f cdbc
00000250: 10d7 ca3c b8ac 5dbc 1c70 b3bc 480c f53c
00000260: 30b6 0abc e883 043c ba66 283d 5e30 59bd
00000270: 4485 743d 601f 903c 96b5 253d cc9a 333d
00000280: d8e0 103c 4847 a43c 209e 6d3c 30f3 8a3c
00000290: be77 1abd e028 8f3c 18d1 9bbc 20ea 9d3b
000002a0: d816 1abd e680 20bd 36e5 5bbd 5085 e53c
000002b0: 3a7d 2b3d 36b4 68bd e0ec 3cbb 104e 1cbd
000002c0: 4290 673d 88fb 973c dae9 7fbd 00e1 4d3d
000002d0: f85b 0cbc 506f 0b3c 300b d13b 3482 e43c
000002e0: 6cb6 c33c 064a 473d 6011 6fbd d042 2d3c
000002f0: 48c3 b13c 2ce8 54bd e0d2 4a3d a8d7 a73c
00000300: 608e 523d 4c2d 81bc 78ab 123c 8cfe aabc
00000310: 3a09 15bd a006 c23b 4a34 40bd 7cad d93c
00000320: b05d ca3b 807a 16bb 0077 46bd 0084 adbc
00000330: 5ad8 03bd 00b8 3ebb 5231 60bd 0641 3ebd
00000340: b05c b53c b850 bb3c e8dc 16bd 707f b8bb
00000350: 20b6 48bb 00a0 023c 3265 1a3d 6ac0 073d
00000360: 3293 063d 400b 043d a20a 7cbd d02a abbb
00000370: 10c6 e6bc 0451 a2bc b6da 7cbd 6086 033b
00000380: e0a7 913c 9008 35bc 4c23 903c 34a7 c8bc
00000390: 0c3b 41bd 00ca 40ba 1a81 7d3d dc47 073d
000003a0: 68f1 1cbc 26d4 16bd f027 753d a232 61bd
000003b0: 4844 bbbc c809 b43c 2a42 4bbd 5822 923c
000003c0: 9e9d 68bd aae7 65bd b8a9 0abc 608d 6abc
000003d0: aa88 0f3d f8ff b3bc 40b1 a6bb 7229 68bd
000003e0: 40af 91ba f8e9 98bc c68b 14bd 548b 8ebc
000003f0: a4b6 d83c 8464 1d3d e8be bfbc 1216 58bd

fcs1.bias f4 [256]
-0.04492539 -0.07709694 -0.10931432 -0.033994593 -0.051899154 -0.040682055 0.09698792 -0.030760765
-0.03247624 0.03248577 -0.00745558 -0.08099538 -0.064107 0.1047155 -0.09628735 -0.10340974
0.033263132 0.045171916 -0.03133771 0.071987465 -0.08313177 -0.09668153 -0.08598085 0.09292148
-0.09988329 -0.06316265 0.084937274 0.047885373 0.096466824 0.0023105443 0.09746091 -0.089925855
-0.061314307 0.07614079 0.07662833 0.0822275 0.1114573 -0.087262824 -0.09653589 -0.047714278
0.104901865 0.013379544 -0.064144894 0.10658398 -0.053018797 0.044651657 0.0150472075 0.019338086
0.0516617 -0.05503663 -0.057496995 -0.11103052 0.08868843 -0.06375236 -0.08316128 -0.02123268
-0.022824809 -0.025871798 -0.03591661 -0.0890289 0.088603035 0.021403342 -0.07122097 0.0786939
-0.10743925 0.045007437 -0.0046005324 0.060531825 0.03543915 0.07492834 -0.03151636 0.09144135
0.061740622 0.05416721 -0.032985546 0.019481242 -0.09578241 0.05392757 0.083581254 -0.05417456
-0.039289743 -0.10534289 -0.0028516725 0.10289709 -0.06748986 0.042492554 0.06728117 0.0005407855
0.060035214 0.0073493794 0.057376444 -0.0980362 0.106871516 0.025417536 -0.059024796 0.0368703
0.1002444 0.008559272 -0.100032836 -0.052741576 0.08796242 -0.06776133 0.044330224 -0.03962633
-0.079930864 -0.0010847822 -0.060188625 0.04584074 0.032072395 0.035845235 0.06677951 0.10999438
0.053610608 -0.05556265 0.08058967 0.08339158 -0.046416223 0.01389727 -0.0017819554 -0.09084258
0.00070171803 -0.0907636 0.031081244 -0.021362603 0.03914614 -0.057809856 -0.10634614 0.062291354
-0.00040010363 0.041353166 0.06447585 -0.05797235 0.051202834 0.0036678836 0.09822874 -0.10728119
0.09146319 0.033297986 0.030101702 0.09248242 0.042877063 -0.109279715 -0.007433936 -0.08125965
-0.056146506 -0.10035511 -0.023539387 0.08009285 -0.013099842 -0.06621453 -0.044972032 0.075035736
-0.062499672 0.027812257 -0.100197226 -0.074898064 0.108335316 0.025047123 -0.08413915 -0.09361046
-0.08208687 0.005048752 -0.08062744 0.08681604 -0.043484665 -0.06365156 0.08550958 0.01545389
0.035231426 -0.0617232 -0.031635307 0.031852767 0.035792828 0.071444705 -0.10117763 -0.023774467
0.014433354 0.048424155 -0.042255253 -0.017328829 -0.069605485 -0.09721087 0.09161626 -0.012699045
0.0016071051 -0.022492856 -0.03369093 -0.041540243 -0.00596343 -0.010695778 -0.060484413 0.01483205
0.017343134 -0.095136985 -0.09957546 0.103304595 0.069423795 -0.11156284 0.059211254 -0.0363172
0.09309445 0.09481263 0.0945289 -0.033249557 0.0678765 0.10766722 -0.088012055 -0.011119366
0.09655245 0.10129838 0.07115394 -0.10007933 -0.088568486 -0.03297507 0.0045704767 0.05982147
0.025473058 0.040674567 -0.08630359 0.030929074 0.049253985 0.035345808 0.07341015 -0.074796945
-0.035334885 0.08157337 -0.052351918 -0.004711315 -0.109593585 -0.11092315 0.06888448 -0.10411169
0.104805335 -0.09731812 -0.0075773597 0.09724742 -0.09470339 0.02707991 0.038063914 0.07417655
0.09143439 -0.08679357 -0.064029194 -0.07030646 0.08372396 -0.036321327 0.07043818 0.0067148358
0.11173378 -0.09065543 -0.055034287 0.010873266 -0.008692056 -0.050135523 -0.05392597 0.10619706
00000000: b003 38bd 00e5 9dbd 30e0 dfbd ea3d 0bbd
00000010: 3594 54bd 3aa2 26bd 9aa1 c63d 00fe fbbc
00000020: ce05 05bd cc0f 053d f04d f4bb e8e0 a5bd
00000030: 884a 83bd 1475 d63d 4d32 c5bd 7cc8 d3bd
00000040: ec3e 083d 3006 393d f85b 00bd 2a6e 933d
00000050: fd40 aabd f700 c6bd ba16 b0bd 9e4d be3d
00000060: 9c8f ccbd 6b5b 81bd 98f3 ad3d 7423 443d
00000070: 6690 c53d 806c 173b 9699 c73d 0c2b b8bd
00000080: b624 7bbd b4ef 9b3d 50ef 9c3d e466 a83d
00000090: ba43 e43d dab6 b2bd 9cb4 c5bd 0c70 43bd
000000a0: cad6 d63d e035 5b3c 665e 83bd b448 da3d
000000b0: 3d2a 59bd a8e4 363d 9088 763c e86a 9e3c
000000c0: 389b 533d 176e 61bd f881 6bbd f863 e3bd
000000d0: 48a2 b53d 9990 82bd 7650 aabd 28f0 adbc
000000e0: 18fb babc 18f1 d3bc 4c1d 13bd c954 b6bd
000000f0: 8275 b53d 1056 af3c 4ddc 91bd 442a a13d
00000100: 1c09 dcbd b859 383d 10c0 96bb 38f0 773d
00000110: a428 113d 0874 993d 4c17 01bd 9a45 bb3d
00000120: bce3 7c3d 70de 5d3d da1b 07bd 2097 9f3c
00000130: 9129 c4bd 28e3 5c3d a62c ab3d 25e6 5dbd
00000140: 48ee 20bd 03be d7bd 20e3 3abb b6bb d23d
00000150: 2038 8abd ac0c 2e3d b6ca 893d 80c3 0d3a
00000160: 7ce7 753d 10d3 f03b 9003 6b3d 34c7 c8bd
00000170: 74df da3d 7038 d03c fcc3 71bd 5005 173d
00000180: f04c cd3d 303c 0c3c 04de ccbd 8d07 58bd
00000190: a425 b43d 74c6 8abd 9c93 353d 384f 22bd
000001a0: cbb2 a3bd 402f 8eba 5988 76bd 80c3 3b3d
000001b0: 585e 033d 74d2 123d b2c3 883d bc44 e13d
000001c0: cc96 5b3d a995 63bd 320c a53d 34c9 aa3d
000001d0: f01e 3ebd 60b1 633c 8090 e9ba ad0b babd
000001e0: 80f3 373a 44e2 b9bd 189e fe3c a000 afbc
000001f0: b457 203d 07ca 6cbd 01cc d9bd 3825 7f3d
00000200: 00c5 d1b9 f061 293d ea0b 843d 6a74 6dbd
00000210: 10ba 513d e060 703b 262c c93d 3eb6 dbbd
00000220: 0e51 bb3d 7863 083d d897 f63c 6c67 bd3d
00000230: dc9f 2f3d 0bce dfbd 6098 f3bb 766b a6bd
00000240: e1f9 65bd fb86 cdbd acd5 c0bc b807 a43d
00000250: b8a0 56bc 7c9b 87bd 9834 38bd 56ac 993d
00000260: a8ff 7fbd 88d6 e33c 3434 cdbd 2864 99bd
00000270: e8de dd3d a02f cd3c 2651 acbd d7b6 bfbd
00000280: 291d a8bd 0070 a53b 0020 a5bd 9ccc b13d
00000290: fa1c 32bd c05b 82bd a61f af3d 5032 7d3c
000002a0: d44e 103d 77d1 7cbd 0694 01bd 0c78 023d
000002b0: 809b 123d 9a51 923d 3836 cfbd acc2 c2bc
000002c0: e079 6c3c 6858 463d d813 2dbd 30f5 8dbc
000002d0: 528d 8ebd 7e16 c7bd 4ea1 bb3d a80f 50bc
000002e0: 80a5 d23a f042 b8bc 80ff 09bd 1a26 2abd
000002f0: e068 c3bb 583d 2fbc 81be 77bd 2002 733c
00000300: 3013 8e3c 2ed7 c2bd 38ee cbbd 5c91 d33d
00000310: 102e 8e3d 0f7b e4bd 8087 723d 58c1 14bd
00000320: 4ea8 be3d 202d c23d 5e98 c13d b030 08bd
00000330: d602 8b3d a280 dc3d aa3f b4bd 002e 36bc
00000340: 4abd c53d 8675 cf3d 28b9 913d 64f6 ccbd
00000350: 6563 b5bd de10 07bd f0c3 953b 5c07 753d
00000360: e0ac d03c 609a 263d f0bf b0bd f85e fd3c
00000370: 8cbe 493d c4c6 103d 1058 963d 242f 99bd
00000380: 50bb 10bd f00f a73d f76e 56bd 6061 9abb
00000390: 9a72 e0bd ad2b e3bd 4e13 8d3d 8238 d5bd
000003a0: 2ea4 d63d b94e c7bd 804b f8bb a829 c73d
000003b0: daf3 c1bd b0d6 dd3c e8e8 1b3d e0e9 973d
000003c0: f441 bb3d d4c0 b1bd bd21 83bd d5fc 8fbd
000003d0: 7877 ab3d acc5 14bd e441 903d 2008 dc3b
000003e0: aed4 e43d 8ea9 b9bd a26b 61bd c825 323c
000003f0: 2069 0ebc e85a 4dbd 7ae1 5cbd d87d d93d

fc2.weight f4 [128, 276]
-0.020118184 0.03740529 0.04868778 -0.048681516 0.0013714284 -0.050097555 0.055898137 0.046987586
-0.014536619 -0.04359103 -0.022792585 -0.05234725 -0.01993128 -0.029153377 0.054965384 0.049960382
0.06715814 -0.00671684 0.0136522055 0.06844344 0.0675647 -0.022457242 0.0073118582 -0.021166697
-0.06793806 -0.06736213 0.06928853 -0.05039955 0.08237826 -0.034170978 -0.01610218 -0.029354554
-0.06597356 0.06202144 0.07447771 -0.07234374 0.06715711 0.063316144 0.04894396 0.0029244944
0.016042091 0.03819848 -0.020249188 0.014275916 0.0699897 0.047748767 0.039816 -0.08386407
-0.011790916 0.048068814 -0.056786153 -0.012384146 0.05735316 -0.049165584 0.069432564 0.068858184
0.007850416 -0.049120653 -0.018565252 -0.0067142174 -0.061834328 -0.07635817 -0.06930969 0.056586973
0.07198561 0.029374257 -0.02036187 -0.0529598 -0.010141954 -0.04239504 0.030468307 0.06274932
-0.025156274 -0.06719601 -0.048444524 0.04649257 -0.049985424 0.0053590015 -0.06292425 -0.08571879
-0.07458572 -0.018555962 0.07410107 -0.069772534 -0.066147715 0.047922276 -0.05716966 0.072286494
0.07945641 -0.03143002 -0.049822886 0.071581565 -0.02204451 -0.087432995 0.041770615 0.06341153
0.071841426 -0.03666115 0.051225938 0.023420826 0.0518919 -0.0499443 0.0068255737 -0.07220477
-0.016438454 0.08148395 -0.055503163 -0.020212077 0.082859896 0.0011797324 0.040711902 -0.03687395
0.06261801 0.05218517 0.009638593 -0.01754824 0.038924374 0.034620866 0.05578015 0.010895252
-0.0033437535 0.03047356 0.08683746 0.06888423 0.084016584 0.08079796 -0.088117786 -0.051689874
-0.049736936 0.003380902 0.084526174 0.009634852 -0.047393225 -0.080037445 0.047131456 0.040299155
0.0006143823 0.05083046 -0.033854928 -0.058201846 -0.081593074 -0.03522386 -0.013073511 0.05891227
-0.04613255 0.035752125 -0.04349228 0.0022749528 0.08509857 -0.08173505 -0.06532225 0.034899056
0.0027281865 0.06185905 -0.047333185 0.07120631 0.030128092 0.018211104 0.015662357 -0.029595546
-0.052249447 0.0051488057 -0.064667396 -0.08685393 -0.07054628 0.043778785 0.067719854 -0.020843595
-0.086725295 -0.06473748 -0.02658996 0.00034470856 0.02764874 -0.07978468 0.079366274 -0.03379451
-0.013315931 -0.025875404 0.05329638 -0.004764594 0.048319228 0.019555308 0.0872274 0.07470817
0.042038597 -0.02823411 -0.00914146 -0.040840823 -0.057892427 -0.058399715 0.06632271 -0.007368326
0.082713954 -0.04823597 0.030173339 -0.06556669 0.027024284 -0.011230461 -0.014332928 0.06541466
-0.02866504 -0.048496164 -0.024544477 -0.052040346 -0.05765138 0.027951382 -0.017149918 -0.05115071
-0.02951667 0.05020868 -0.045064718 -0.039262287 -0.080490395 0.08704489 0.050590225 -0.0279775
0.0544566 -0.08142661 -0.0745072 0.03612043 0.061856933 -0.018559672 0.074964724 -0.022630326
0.06932073 0.026027098 -0.059396222 0.069981225 -0.024842165 0.022633292 -0.03133851 -0.012038544
-0.058987506 -0.023143463 -0.019209318 -0.07418575 0.06616636 0.011236779 0.008555427 0.018854
-0.06670593 -0.0022212863 0.060970746 -0.029527817 0.031649016 -0.06684372 0.034401096 0.041484915
-0.029235866 0.05457797 -0.029466558 0.036087573 0.008986615 0.029337756 -0.0050873533 0.017799921
00000000: e4ce a4bc 4a36 193d d66c 473d 4566 47bd
00000010: 80c1 b33a 1833 4dbd 72f5 643d 0e76 403d
00000020: 002b 6ebc 828c 32bd 84b7 babc 126a 56bd
00000030: ec46 a3bc 10d3 eebc 6223 613d 42a3 4c3d
00000040: 358a 893d f018 dcbb 80ad 5f3c 132c 8c3d
00000050: 5d5f 8a3d 40f8 b7bc 5098 ef3b c865 adbc
00000060: 1c23 8bbd 28f5 89bd 25e7 8d3d c26f 4ebd
00000070: efb5 a83d def6 0bbd b8e8 83bc f678 f0bc
00000080: 251d 87bd 320a 7e3d c587 983d f428 94bd
00000090: ab89 893d e5ab 813d 7679 483d e0a8 3f3b
000000a0: b46a 833c 0276 1c3d a0e1 a5bc 88e5 693c
000000b0: c356 8f3d 3694 433d 1a16 233d edc0 abbd
000000c0: b02e 41bc cee3 443d 9998 68bd e0e6 4abc
000000d0: 26eb 6a3d da61 49bd a932 8e3d 8505 8d3d
000000e0: 089f 003c bd32 49bd 2816 98bc f002 dcbb
000000f0: fe45 7dbd ac61 9cbd 3df2 8dbd bec7 673d
00000100: 316d 933d 48a2 f03c f0cd a6bc 60ec 58bd
00000110: 702a 26bc 6ca6 2dbd ac98 f93c b782 803d
00000120: 8814 cebc 109e 89bd c46d 46bd fe6e 3e3d
00000130: 84bd 4cbd 909a af3b 6ede 80bd 558d afbd
00000140: 66c0 98bd ac02 98bc 4dc2 973d e7e4 8ebd
00000150: 7478 87bd 264a 443d bc2a 6abd f10a 943d
00000160: 0bba a23d c4bc 00bd 1513 4cbd 5b99 923d
00000170: b096 b4bc 1210 b3bd aa17 2b3d e7dd 813d
00000180: 9921 933d 012a 16bd 4ad2 513d 08dd bf3c
00000190: 9a8c 543d 6592 4cbd 10a9 df3b 18e0 93bd
000001a0: f0a9 86bc 0fe1 a63d 4957 63bd cc93 a5bc
000001b0: 73b2 a93d 40a1 9a3a 86c1 263d 2409 17bd
000001c0: df3d 803d 1ec0 553d 30eb 1d3c 54c1 8fbc
000001d0: 2a6f 1f3d 9cce 0d3d ba79 643d 0082 323c
000001e0: e022 5bbb b0a3 f93c d7d7 b13d 2d13 8d3d
000001f0: e310 ac3d 6779 a53d 1977 b4bd c3b8 53bd
00000200: f5b8 4bbd 2092 5d3b 0f1c ad3d 80db 1d3c
00000210: 661f 42bd acea a3bd ea0c 413d ba10 253d
00000220: 800e 213a 9a33 503d 77ab 0abd 0f65 6ebd
00000230: 451a a7bd e546 10bd 4832 56bc fe4d 713d
00000240: 7cf5 3cbd d270 123d f624 32bd 6017 153b
00000250: 2948 ae3d b564 a7bd acc7 85bd 50f2 0e3d
00000260: 60cb 323b ea5f 7d3d 71e0 41bd 9dd4 913d
00000270: 30cf f63c 742f 953c 584e 803c 5c72 f2bc
00000280: 8403 56bd 50b7 a83b 5770 84bd 79e0 b1bd
00000290: 917a 90bd 6251 333d b5b0 8a3d 30c0 aabc
000002a0: 089d b1bd 1595 84bd 30d3 d9bc 00ba b439
000002b0: 9c7f e23c 2666 a3bd c98a a23d 1d6c 0abd
000002c0: 102b 5abc a8f8 d3bc 4e4d 5a3d 5020 9cbb
000002d0: 62ea 453d 7432 a03c 47a4 b23d 9900 993d
000002e0: aa30 2c3d 384b e7bc 10c6 15bc b548 27bd
000002f0: 9c20 6dbd 8a34 6fbd 33d4 873d 0072 f1bb
00000300: ef65 a93d 1593 45bd 142e f73c d447 86bd
00000310: 0862 dd3c f8ff 37bc a8d4 6abc 1ff8 853d
00000320: f2d2 eabc eaa3 46bd 8011 c9bc 4228 55bd
00000330: da23 6cbd 4cfa e43c fc7d 8cbc 6883 51bd
00000340: f2cc f1bc 9ea7 4d3d c895 38bd 7ed1 20bd
00000350: 26d8 a4bd 9744 b23d b237 4f3d 1231 e5bc
00000360: e20d 5f3d ffc2 a6bd 3b97 98bd 04f3 133d
00000370: b25d 7d3d 740a 98bc 1b87 993d 3c63 b9bc
00000380: 07f8 8d3d c836 d53c 7449 73bd 5152 8f3d
00000390: cc81 cbbc 7469 b93c cf5c 00bd 503d 45bc
000003a0: e29c 71bd 5c97 bdbc dc5c 9dbc b3ee 97bd
000003b0: 3b82 873d 781a 383c 102c 0c3c b473 9a3c
000003c0: 1e9d 88bd 0093 11bb 76bc 793d 52e4 f1bc
000003d0: 66a2 013d 5ce5 88bd 2ae8 0c3d 16ec 293d
000003e0: 0e80 efbc 268d 5f3d da63 f1bc 90d0 133d
000003f0: 983c 133c bc55 f03c d0b3 a6bb 24d1 913c

fc2.bias f4 [128]
-0.045993365 -0.01755111 -0.0551994 -0.0008203015 -0.015286509 -0.02972652 0.053868063 -0.019627802
0.044440806 -0.0549122 0.032015324 0.027366564 0.012254231 0.024289943 -0.053072557 -0.0048006065
0.016147234 0.010857739 -0.021477006 0.058857188 0.015182644 0.05296143 0.00023207814 0.05522991
0.035449386 0.033810012 0.056629606 -0.041654192 -0.04081658 -0.003076475 0.055359446 -0.058613546
-0.049754336 0.056650847 -0.002866663 0.008854769 -0.04182613 0.050057583 0.05973228 -0.04876762
0.003219448 -0.051827513 -0.019496903 0.044711545 0.045362607 0.019132398 0.01504536 0.013373166
-0.02523676 -0.04285986 -0.012669593 -0.021388397 -0.025383372 0.02422326 0.020406835 0.020405568
0.04244736 0.002274707 0.032298207 -0.0022993125 -0.043363832 0.008227892 -0.04164934 -0.054287095
0.051359072 -0.013859142 -0.0014852695 0.01017531 -0.0044132844 -0.019065045 0.01598487 -0.059306387
0.02387961 0.043809153 -0.019092418 -0.0020472705 0.027895622 -0.032004703 -0.02941917 -0.05030083
0.02331201 -0.022381786 -0.02356891 -0.044667635 -0.02100825 -0.014027927 -0.022303946 -0.03287001
-0.01095866 -0.018078607 -0.026376296 -0.0015075542 -0.03766568 0.010076828 0.02889277 0.03416547
-0.003448911 0.030485407 -0.004287202 0.037241593 -0.017740637 0.016945995 -0.006017305 -0.02862861
0.02819451 0.0089860335 0.008920699 0.014201298 0.040067613 -0.027290225 0.045572497 -0.021686625
0.057252474 0.04795695 0.042420805 0.006688513 -0.031468056 0.040633187 -0.011009328 0.01181113
0.011797823 0.04261879 -0.056236822 -0.03443319 -0.007583875 -0.014051367 0.02259636 -0.016983688
00000000: 8a63 3cbd 58c7 8fbc c418 62bd 8009 57ba
00000010: 4474 7abc 0885 f3bc c2a4 5c3d 7cca a0bc
00000020: 9007 363d 9deb 60bd 8022 033d d82f e03c
00000030: f8c5 483c b4fb c63c 9c62 59bd 684e 9dbb
00000040: 3447 843c a8e4 313c 8cf0 afbc 3c14 713d
00000050: a0c0 783c 16ee 583d 005a 7339 c238 623d
00000060: 6033 113d 5e7c 0a3d 72f4 673d 969d 2abd
00000070: 492f 27bd b09e 49bb 96c0 623d c214 70bd
00000080: 34cb 4bbd b80a 683d a0de 3bbb 9813 113c
00000090: e051 2bbd 2e09 4d3d d6a9 743d 8ec0 47bd
000000a0: 60fd 523b 1649 54bd f8b7 9fbc 7423 373d
000000b0: 24ce 393d 8cbb 9c3c d080 763c 201b 5b3c
000000c0: 52bd cebc d28d 2fbd 2094 4fbc b836 afbc
000000d0: caf0 cfbc dc6f c63c 3c2c a73c 9429 a73c
000000e0: 48dd 2d3d 4013 153b 204b 043d 10b0 16bb
000000f0: 469e 31bd 48ce 063c 8098 2abd 255c 5ebd
00000100: e45d 523d 7411 63bc 60ad c2ba 58b6 263c
00000110: 509d 90bb 4c2e 9cbc b4f2 823c 41eb 72bd
00000120: 2c9f c33c 3a71 333d b467 9cbc 802b 06bb
00000130: 5c85 e43c 5d17 03bd 7900 f1bc 3e08 4ebd
00000140: d4f8 be3c 025a b7bc 9613 c1bc 69f5 36bd
00000150: 7e19 acbc 64d5 65bc c4b6 b6bc b4a2 06bd
00000160: f48b 33bc 9619 94bc 1a13 d8bc 2099 c5ba
00000170: 5447 1abd 4819 253c 88b0 ec3c 18f1 0b3d
00000180: 2007 62bb 88bc f93c a87b 8cbb a48a 183d
00000190: d054 91bc 54d2 8a3c d02c c5bb 8c86 eabc
000001a0: 2cf8 e63c 283a 133c 2028 123c 90ac 683c
000001b0: f01d 243d c08f dfbc 3aaa 3a3d 26a8 b1bc
000001c0: 9281 6a3d 826e 443d 70c1 2d3d 502b db3b
000001d0: a6e4 00bd fc6e 263d 7860 34bc 7883 413c
000001e0: a84b 413c 0a91 2e3d 9558 66bd d109 0dbd
000001f0: 2882 f8bb b437 66bc 001c b93c 6021 8bbc

fc3.weight f4 [1, 128]
-0.0012803121 -0.0013744154 0.002749174 0.0007613257 -0.0012665341 -0.001028267 0.00010216143 -0.002968886
-0.0020544538 0.0026495056 0.0008980902 -0.00042686705 -0.001502447 -0.0019315964 -0.0012704444 -0.0011368125
-0.001943122 -0.0012701147 0.0027167103 0.0022183247 0.0011496884 -0.0017899898 -0.0025858344 -0.0025159626
-0.0011988244 0.002544662 -0.0008455552 0.00065513304 0.0009236755 -0.0021090216 -0.0005889202 0.0017647287
0.0015426958 0.0012248382 -0.0009286115 -0.000735146 -0.002496382 -0.00042146514 0.0019873972 -0.0023620292
-0.0017649936 0.0016031386 0.00211717 0.0018748473 0.002667951 -0.0021013627 -0.0029596102 0.002046437
-0.0018790809 0.0010274798 -0.0028447148 -0.00016529206 0.00018551736 -0.00084360735 0.0023136656 0.0010628169
0.0016772556 0.0023024012 -0.0025903266 -0.0014278357 0.0020053028 0.0023322431 -0.002598454 0.002154178
-0.0019516075 -0.00019492232 -0.0021171677 -0.00071656937 -0.0015898193 -0.0022701006 -0.0029535652 0.0020404244
0.0023659095 -0.0015916132 -0.0027281335 -0.001376858 -6.4208405e-05 0.0014261184 -0.0026004016 0.0014118222
-0.0007081786 0.0016852668 -0.0012064147 0.00044674054 0.0016652117 -0.0018846517 0.0007973653 0.0020228238
0.0011916482 0.00092868414 0.002056121 -0.00042564934 -0.0024644122 -0.0029675087 0.002948484 0.0027417736
0.0010247496 0.0014101202 -3.5511097e-05 0.0028730761 0.0018972717 0.00080821174 0.00101393 0.002377078
-0.00023382576 -0.0007849531 -0.00056489673 -0.0027023335 -0.00298777 -0.0016141617 0.0021890057 -0.00064512645
0.0029384992 -0.0006309578 0.0028675175 0.0018208958 0.002779103 0.0019868612 0.00024437183 0.00070203026
-0.0008075177 0.002596911 0.002968445 -0.0009226294 0.0018112608 -0.001824176 0.002111446 0.00062278216
00000000: 25d0 a7ba ba25 b4ba 7c2b 343b b493 473a
00000010: d501 a6ba eac6 86ba 803f d638 a491 42bb
00000020: 04a4 06bb 54a3 2d3b d06d 6b3a 20cd dfb9
00000030: c1ed c4ba 9f2d fdba 0a85 a6ba 1901 95ba
00000040: 5bb0 feba fa79 a6ba d60a 323b 5061 113b
00000050: 24b1 963a 179e eaba 1a77 29bb d9e2 24bb
00000060: df21 9dba 58c4 263b 40a8 5dba 3cbd 2b3a
00000070: d022 723a 8337 0abb c461 1aba 784e e73a
00000080: 4834 ca3a c08a a03a 106e 73ba d0b6 40ba
00000090: 579a 23bb 18f8 dcb9 fe3e 023b 46cc 1abb
000000a0: 5c57 e7ba 6820 d23a 38c0 0a3b 70bd f53a
000000b0: cad8 2e3b 04b7 09bb 05f6 41bb 841d 063b
000000c0: 7e4b f6ba 80ac 863a 656e 3abb 4052 2db9
000000d0: 7087 4239 8825 5dba dea0 173b 384e 8b3a
000000e0: 5cd7 db3a e2e3 163b 78c2 29bb 3726 bbba
000000f0: 666b 033b 8cd8 183b d34a 2abb 1c2d 0d3b
00000100: 15cd ffba 1064 4cb9 2ec0 0abb 28d8 3bba
00000110: 7c61 d0ba f8c5 14bb 9a90 41bb a4b8 053b
00000120: 600d 1b3b ad9d d0ba 7cca 32bb b077 b4ba
00000130: a0a7 86b8 98ec ba3a 806b 2abb e40c b93a
00000140: 10a5 39ba 2ce4 dc3a 8f20 9eba 8038 ea39
00000150: 3c43 da3a 6b06 f7ba 4806 513a 5a91 043b
00000160: 1431 9c3a f072 733a fcbf 063b b029 dfb9
00000170: fa81 21bb 897a 42bb 5a3b 413b 54af 333b
00000180: e450 863a c8d3 b83a c0f1 14b8 384a 3c3b
00000190: e0ad f83a 2cde 533a d8e5 843a c0c8 1b3b
000001a0: 202f 75b9 50c5 4dba 9415 14ba a219 31bb
000001b0: 76ce 43bb 4792 d3ba 6c75 0f3b b41d 29ba
000001c0: d693 403b dc66 25ba f6ec 3b3b 20ab ee3a
000001d0: 9c21 363b 0036 023b 081f 8039 7408 383a
000001e0: 98af 53ba f030 2a3b 3e8a 423b 9cdc 71ba
000001f0: d467 ed3a 3119 efba 3060 0a3b 3442 233a
