models/checkpoint_actor_local_7.pth (torch_old, 152633 bytes, 5 tensors)

fc1.weight f4 [256, 18]
0	0x3d6ba630	0.057531536
1	0x3d6dde70	0.05807346
2	0xba1c0480	-0.0005951598
3	0x3d4e0b16	0.05030354
4	0xbd78b5f6	-0.060720406
5	0x3c867b48	0.016416207
6	0x3be6a370	0.0070385262
7	0xbce50854	-0.027958073
8	0x3d4300d6	0.04760822
9	0xbd28bbbc	-0.041194662
10	0xbd013576	-0.031545125
11	0xba4e5b00	-0.00078718364
12	0xbcac7fdc	-0.021057062
13	0xbd4479f2	-0.04796786
14	0x3cd04f34	0.025428392
15	0x3d3452be	0.04402422
16	0xbc343c58	-0.011000715
17	0xbd7c95a8	-0.06166616
18	0x3d0fff1e	0.035155408
19	0xbc8dab7c	-0.017293684
20	0xbcd729ec	-0.026265107
21	0x3aea3fc0	0.0017871782
22	0x3b9283f0	0.0044712946
23	0xbc96fbb4	-0.018430568
24	0x3d13083e	0.035896532
25	0x3c4bbda8	0.012435354
26	0x3bd0cc80	0.0063720345
27	0xbcaa54e0	-0.020792425
28	0xbcec10d8	-0.028816625
29	0x3cdb2594	0.026751317
30	0x3d783dd2	0.06060583
31	0x3d4aa292	0.049471445
32	0x3cceff88	0.025268331
33	0x3c3f5428	0.011677779
34	0xba65c280	-0.00087646395
35	0x3b97e380	0.0046352744
36	0xbd4d6c0e	-0.050151877
37	0x3b0704c0	0.0020602196
38	0x3cd27e80	0.025695086
39	0x3be19f40	0.006885439
40	0xbd1004e6	-0.03516092
41	0x3d5910a2	0.052994378
42	0x3ce73230	0.028222173
43	0xbc57eab8	-0.01317852
44	0xbd12565c	-0.03572689
45	0x3b454040	0.003009811
46	0x3d487a2c	0.048944637
47	0xbd0ad722	-0.033896573
48	0x3c89778c	0.016780637
49	0x3ca4e010	0.020126373
50	0xbd56ab94	-0.052409723
51	0x3d468058	0.048462242
52	0xbd13555a	-0.03597007
53	0xbd0f4642	-0.034979112
54	0xbcd9e2fc	-0.026597492
55	0xbd0f387a	-0.03496597
56	0x3cbe1bd4	0.023206629
57	0xbb0648e0	-0.0020490214
58	0xbcff5adc	-0.031171255
59	0xbd7abec2	-0.061217077
60	0xbc493b80	-0.012282252
61	0x3ce14b84	0.027501829
62	0xbcc5c888	-0.024143472
63	0x3d474390	0.048648417
64	0x3d7c127c	0.061541066
65	0xbc065998	-0.008200072
66	0xb98bfa00	-0.0002669841
67	0xbd55c2ae	-0.052187614
68	0xbd04c5ea	-0.032415308
69	0xbcf10bf8	-0.029424652
70	0x3d74f844	0.059807077
71	0x3d578e5c	0.052626
72	0xbcbb4690	-0.022860795
73	0xbd1e1d0a	-0.038601913
74	0xbcd017d8	-0.025401995
75	0xbd7bdd1e	-0.06149017
76	0x3d08269e	0.033239953
77	0x3c98367c	0.018580668
78	0x3d5ba3de	0.053623073
79	0xbc92dff0	-0.017929047
80	0x3ccc54d0	0.024942786
81	0x3d33596a	0.043786444
82	0x3d3cd9b8	0.04610607
83	0x3c8d5c94	0.017256059
84	0xbd4c974e	-0.049948983
85	0x3d7f03c8	0.062259465
86	0xbcb788e4	-0.022404142
87	0xbcec0c98	-0.028814599
88	0xbcb877ec	-0.02251812
89	0x3ca00b80	0.019536734
90	0x3cbc9850	0.023021847
91	0x3d14cf62	0.03633059
92	0x3cde1660	0.027110279
93	0x3d177e50	0.036985695
94	0x3c887c00	0.01666069
95	0xbd4f2cb4	-0.05057974
96	0xbc537a00	-0.012907505
97	0xbd74b7aa	-0.05974547
98	0x3c739548	0.014867134
99	0xbd032fc4	-0.032027975
100	0xbd662f50	-0.056197464
101	0x3d37050c	0.044682547
102	0x3d72f532	0.059315868
103	0xbd67a468	-0.056553274
104	0xbb93c820	-0.0045099407
105	0x3cca1678	0.024668917
106	0x3cfe7f48	0.031066552
107	0x3caf78a0	0.021419823
108	0x3bcf9ea0	0.0063360482
109	0xbcce9ca0	-0.025221169
110	0x3cc54aec	0.024083577
111	0x3cfff7c4	0.031246074
112	0xbd231574	-0.03981538
113	0x3c64e758	0.013971172
114	0xbd7e85a0	-0.062139153
115	0x3d0feca0	0.035137773
116	0x3bdddaf0	0.006770484
117	0xbc8c4744	-0.017123826
118	0xbd247ed0	-0.04016
119	0x3d786a2e	0.060648136
120	0x3d50aadc	0.050944194
121	0x3d6e817e	0.058228962
122	0x3cd0ec30	0.025503248
123	0x3d0f7050	0.03501922
124	0x3d1f2cb4	0.03886099
125	0x3d05b078	0.032638997
126	0xbbac49a0	-0.0052578
127	0xbadd5280	-0.0016885549
128	0xbc5671b0	-0.013088629
129	0xbb9fe040	-0.0048790276
130	0x3d7a01ee	0.061036997
131	0xbca91c4c	-0.020643376
132	0xbd18edde	-0.037336223
133	0xbd260b74	-0.040538266
134	0x3d525218	0.051347822
135	0xbc03e210	-0.008049503
136	0xbd069a66	-0.03286209
137	0xbce80798	-0.028323933
138	0x3bb53b70	0.005530767
139	0x3b71c220	0.003688939
140	0xbd73674c	-0.059424683
141	0x3d68b174	0.056809857
142	0xbd6b9762	-0.057517417
143	0xbd1d4362	-0.03839434
144	0x3d2ea7f0	0.042640626
145	0xba47e080	-0.00076247007
146	0x3d1e3186	0.038621448
147	0xbd48ecdc	-0.04905401
148	0xbd31010e	-0.043213896
149	0x3c9be500	0.019030094
150	0x3d17855e	0.036992423
151	0x3cc6849c	0.024233155
152	0xbc1f2930	-0.00971441
153	0x3b04a180	0.0020237863
154	0x3ba07fb0	0.004898034
155	0xbd61d402	-0.055133827
156	0x3d0bc838	0.03412649
157	0x3d2c892a	0.042122997
158	0x3d17d7da	0.037071086
159	0x3d5c0220	0.053712964
160	0x3b26be40	0.0025442988
161	0xbd044200	-0.032289505
162	0x3d37cefc	0.04487513
163	0xbd434b6c	-0.04767935
164	0xbb816fe0	-0.003950104
165	0x3d3e05c8	0.046392232
166	0x3c4dbcd8	0.012557231
167	0x3d206308	0.039156944
168	0xbcf5c4d4	-0.030001082
169	0xbb8c33c0	-0.00427863
170	0xbca37ac4	-0.019956
171	0xbba96c00	-0.0051703453
172	0x3c9d8f14	0.019233264
173	0xbc58ec78	-0.013239972
174	0xbc499678	-0.012303941
175	0x3c362000	0.011116028
176	0xbb17eec0	-0.0023183078
177	0x3d71bf36	0.059020244
178	0xbd7fba38	-0.06243345
179	0x3d067d06	0.032834075
180	0x3d62460e	0.05524259
181	0x3cd868f0	0.026417226
182	0xbc8a78e8	-0.016903356
183	0xbcf20ea8	-0.029548004
184	0x3c80e588	0.015734449
185	0xbcdfe834	-0.027332403
186	0xbd59085a	-0.05298648
187	0x3c98e42c	0.018663488
188	0x3b16c240	0.0023003966
189	0xbd12a032	-0.035797305
190	0xb92c9c00	-0.00016461313
191	0xbb444300	-0.0029947162
192	0x3c5c9208	0.013462551
193	0xbb2989c0	-0.002586946
194	0x3ca97590	0.020685941
195	0xbd12ce08	-0.035841018
196	0x3d2dd614	0.04244049
197	0x3d46e0fa	0.048554398
198	0x3c200140	0.009765923
199	0xbd6f094e	-0.058358483
200	0xbd3a6bb8	-0.045512885
201	0xbd207672	-0.03917546
202	0x3c57deb0	0.013175651
203	0xbb84b020	-0.004049316
204	0x3d0b2b80	0.03397703
205	0x3d35f5fa	0.044424035
206	0xbd4b7268	-0.049669653
207	0xbc862ac4	-0.016377814
208	0xbba56730	-0.0050477013
209	0xbca9cbfc	-0.02072715
210	0x3d5fb962	0.054620154
211	0xbd311db0	-0.043241203
212	0x3d3fae8a	0.046797313
213	0x3d76f5da	0.060293056
214	0xbcdf3e70	-0.027251452
215	0xbc8ac98c	-0.016941808
216	0x3c4fe7c8	0.012689538
217	0xbd1afaf2	-0.037836976
218	0x3d036470	0.032078207
219	0xbd142c38	-0.036174983
220	0xbb716520	-0.0036833957
221	0xbb171320	-0.002305217
222	0x3bb18140	0.005417019
223	0xbd0af672	-0.033926435
224	0x3c1b12e0	0.009464949
225	0x3c4665f8	0.012109272
226	0x3ca7662c	0.020434462
227	0x3cb63114	0.0222402
228	0x3c33be40	0.010970652
229	0xbd2ec56a	-0.042668737
230	0x3ce3bbdc	0.02779954
231	0xbc47e4e0	-0.012200564
232	0xbd0fc010	-0.035095274
233	0xbd7b8152	-0.061402626
234	0x3d4a2b3e	0.049357645
235	0xbd0f6266	-0.03500595
236	0x3d60e2ec	0.05490391
237	0xbc802a78	-0.01564525
238	0xbd1e8e08	-0.03870967
239	0x3cbebf54	0.023284592
240	0xbd7f2442	-0.062290438
241	0x3caad118	0.020851657
242	0xbca47d98	-0.020079419
243	0x3c9f33ec	0.019433938
244	0x3cd3fcc4	0.025877364
245	0x3d21d96a	0.039513983
246	0x39ee4a00	0.00045450032
247	0x3d6b80c4	0.057495847
248	0x3d0e6082	0.034760006
249	0xbd008762	-0.03137911
250	0x3cc51930	0.024059862
251	0x3d2690e4	0.040665522
252	0xbcc5c5dc	-0.024142198
253	0x3d1f72c6	0.038927816
254	0xbd414d18	-0.047192663
255	0x3cd3e9f8	0.025868401

fc1.bias f4 [256]
0	0xbe356586	-0.1771451
1	0x3dda8af6	0.10671036
2	0x3e5a7473	0.21333484
3	0xbe6ff1d8	-0.234321
4	0xbd828a6a	-0.06374057
5	0x3d2ac8ac	0.041695282
6	0x3e20d881	0.1570759
7	0x3e30cca7	0.17265569
8	0x3e211a4d	0.15732689
9	0xbda4da6e	-0.08049475
10	0xbd21b8c8	-0.03948286
11	0xbc3d2470	-0.011544332
12	0xbc827388	-0.01592423
13	0x3da56e22	0.08077647
14	0xbd929ffc	-0.07159421
15	0xbd19b7d8	-0.037528843
16	0xbe20d975	-0.15707953
17	0x3b8be600	0.0042693615
18	0xbd9ea13c	-0.07745597
19	0xbd81f68e	-0.06345855
20	0x3d4100e4	0.04711999
21	0xbe3fc4bd	-0.18727393
22	0x3c849e08	0.016188636
23	0xbdf710dc	-0.120637625
24	0xbe228cee	-0.15874073
25	0xbe4ca5b8	-0.19985092
26	0xbe1b55ee	-0.15169498
27	0x3e54e517	0.20790516
28	0x3e6d3db3	0.23168068
29	0xbe3f3758	-0.18673456
30	0xba636900	-0.0008675009
31	0xbd033c18	-0.03203973
32	0x3e688f0f	0.22710823
33	0xbe48bc18	-0.19603002
34	0xbe5d0746	-0.21584806
35	0x3de3e1ce	0.11127053
36	0x3e44571d	0.19173856
37	0x3dc3f22a	0.095676735
38	0xbe03149c	-0.1280083
39	0xbe3112a0	-0.17292261
40	0x3db9623e	0.09051941
41	0x3d9e940a	0.0774308
42	0x3d2e2f34	0.042525485
43	0xbe664c5c	-0.22490066
44	0xbd5b7d08	-0.053586036
45	0x3b96e3a0	0.0046047717
46	0xbe62ec94	-0.2216056
47	0xbe662348	-0.22474396
48	0xbdc72ed8	-0.097257316
49	0x3e1ee5af	0.15517305
50	0x3e102b5d	0.14079042
51	0x3de7fd26	0.11327581
52	0x3dd3f2d6	0.10349052
53	0xbcce5548	-0.02518715
54	0xbe1d2252	-0.15345123
55	0xbe020f53	-0.12701158
56	0xbe2969df	-0.16544293
57	0xbb8be0a0	-0.0042687207
58	0x3e2dab13	0.16959791
59	0xbe03cee1	-0.12871887
60	0x3da9cafe	0.08290671
61	0x3d81a69e	0.06330608
62	0xbb7830c0	-0.0037870854
63	0xbdedc10e	-0.11609088
64	0xbdcdf944	-0.10057309
65	0xbe2f5437	-0.17121969
66	0x3e6971ab	0.22797267
67	0x3dd5ad22	0.10433413
68	0xbe3dc447	-0.18531905
69	0x3d0483b4	0.032352164
70	0xbc8af220	-0.016961157
71	0xbcdccda8	-0.026953533
72	0xbe1eb26c	-0.1549775
73	0xbdcf0462	-0.10108258
74	0x3e26544b	0.16243093
75	0x3da05dea	0.07830413
76	0x3d66e184	0.056367412
77	0x3e01d343	0.12678246
78	0xbe2fb78a	-0.17159858
79	0x3d63ffac	0.05566375
80	0xbd0eb800	-0.034843445
81	0x3d614434	0.054996684
82	0xbd3e5cb0	-0.046475112
83	0xbe22a9a3	-0.15885024
84	0xbe4093b8	-0.1880635
85	0x3c00de10	0.007865444
86	0xbce94620	-0.028475821
87	0x3e085757	0.13314568
88	0x3dfba00a	0.122863844
89	0x3d34d014	0.04414375
90	0x3d9d00c6	0.07666163
91	0xbe0c7e42	-0.13720039
92	0xbdd62e08	-0.104579985
93	0xbc558780	-0.013032794
94	0x3cc3f5c8	0.023920909
95	0xbe277ef4	-0.16357023
96	0x3e055e49	0.13024248
97	0x3c77b970	0.015119895
98	0x3e6d4ad1	0.23173071
99	0x3d09d0dc	0.03364645
100	0x3e09ba35	0.13449939
101	0x3d1469cc	0.03623371
102	0x3da3613a	0.07977529
103	0x3c03b200	0.008038044
104	0x3e3ea2bf	0.1861677
105	0xbdbcf1ec	-0.092258304
106	0xbcad16d8	-0.021129057
107	0x3e45d72d	0.19320364
108	0xbe5f99f7	-0.21836077
109	0x3e080501	0.13283159
110	0x3e252ecf	0.16131137
111	0xbe3ed53e	-0.18636033
112	0xbe3227fe	-0.17398068
113	0xbe273a49	-0.16330828
114	0xbe12c272	-0.14331988
115	0xbe6bac33	-0.23014908
116	0x3cd70768	0.026248649
117	0x3d6500c4	0.055908933
118	0x3e44892d	0.19192953
119	0x3d2cdabc	0.04220079
120	0x3df6886e	0.12037741
121	0xbe324c5c	-0.17411941
122	0xbe0bf063	-0.13665919
123	0x3e437567	0.19087754
124	0x3d55625c	0.052095756
125	0x3e48ba2f	0.19602273
126	0x3be84920	0.0070887953
127	0xbd62fd88	-0.055417567
128	0xbe508b01	-0.20365526
129	0xbe6e95a5	-0.23299272
130	0x3e0bf1c3	0.13666444
131	0x3d03ab84	0.032145992
132	0xbccad858	-0.024761364
133	0x3e3925bd	0.18080802
134	0x3e480183	0.19531827
135	0x3e2c76a9	0.1684214
136	0x3e05d037	0.13067709
137	0x3de0ed1e	0.109827265
138	0xbe2a6098	-0.1663841
139	0x3c0ccd90	0.008593932
140	0xbcb63720	-0.022243083
141	0x3e06e83d	0.1317453
142	0xbe0e9206	-0.13922891
143	0xbd65d29c	-0.056109056
144	0xbe14a8b2	-0.14517477
145	0x3e289e75	0.16466697
146	0xbc2223c0	-0.009896219
147	0x3e5a23cd	0.2130272
148	0x3de4fe92	0.11181368
149	0x3e3db669	0.18526615
150	0xbe5cdd5f	-0.21568821
151	0xbe0f1990	-0.13974595
152	0x3e6be6cd	0.23037262
153	0xbd4c1570	-0.049825132
154	0x3da54692	0.08070101
155	0x3d4526bc	0.048132643
156	0x3d225de4	0.039640322
157	0xbdecf3a8	-0.11569911
158	0xbdd0f460	-0.10202861
159	0x3e6ff111	0.23431803
160	0xbe2b36d1	-0.1672013
161	0xbd23d590	-0.03999859
162	0xbcc53b40	-0.024076104
163	0x3e478df3	0.19487743
164	0xbe1ee314	-0.15516311
165	0x3e5739cb	0.2101814
166	0xbe4a6070	-0.1976335
167	0x3dff0ace	0.12453233
168	0xbe314520	-0.17311525
169	0xbd663e3c	-0.056211695
170	0xbe23cb8b	-0.15995614
171	0xbcc9e0c8	-0.024643317
172	0x3d94a2b6	0.07257597
173	0xbc04e160	-0.008110374
174	0x3e201553	0.15633135
175	0x3e424f43	0.18975548
176	0xbe209456	-0.15681586
177	0x3e684731	0.22683407
178	0xbe398d54	-0.18120319
179	0xbe55488a	-0.20828453
180	0x3d82fbd6	0.0639569
181	0xbd892ed4	-0.06698385
182	0x3d9f580a	0.07780464
183	0x3e609319	0.21931113
184	0x3dff7cbe	0.124749646
185	0x3e619bf3	0.22032146
186	0xbdab9cee	-0.08379541
187	0x3bb70c80	0.005586207
188	0x3cbf58f8	0.023357853
189	0x3e03eb21	0.12882663
190	0x3d148004	0.036254898
191	0x3e5b16f1	0.2139547
192	0x3e5bc5bb	0.21462147
193	0x3e6489bb	0.22318165
194	0xbe277f6e	-0.16357204
195	0xbd36bccc	-0.044613644
196	0xbdba8fe4	-0.09109476
197	0x3d43912c	0.04774587
198	0xbe6fcd26	-0.23418102
199	0xbe11a9ac	-0.14224881
200	0x3e52260d	0.20522328
201	0x3daa272a	0.08308251
202	0xbdf6c957	-0.12050121
203	0x3db46ffa	0.0881042
204	0x3e549fd3	0.20764093
205	0xbe528efa	-0.20562354
206	0x3dbcb11a	0.09213467
207	0xbd13c328	-0.036074787
208	0xbdaba158	-0.08380383
209	0x3e4debbd	0.20109458
210	0xbdfe49fd	-0.12416456
211	0x3e57a6ff	0.21059798
212	0xbe1ad667	-0.1512085
213	0xbde0f2f8	-0.109838426
214	0x3e4f9fd3	0.20275812
215	0x3dda7c62	0.106682554
216	0xbc77eb50	-0.015131786
217	0x3d045b84	0.03231384
218	0x3d1d0d94	0.038343027
219	0xbdefb599	-0.11704559
220	0x3bb26040	0.005443603
221	0x3d7673dc	0.060169086
222	0x3da55902	0.080736175
223	0xbe6d3d90	-0.23168015
224	0x3e404351	0.18775679
225	0xbdfeaded	-0.124355175
226	0xbddb31c2	-0.1070285
227	0x3e66c3fd	0.22535701
228	0xbe3193e3	-0.1734157
229	0x3d09f7d4	0.033683613
230	0xbd5a301c	-0.053268537
231	0x3e4606ff	0.19338606
232	0xbd69c1cc	-0.057069585
233	0xbd047e44	-0.03234698
234	0xbdd263aa	-0.10272916
235	0xbda4544e	-0.08023892
236	0xbd1b6ea4	-0.037947312
237	0xbe04bc70	-0.12962508
238	0xbdc3ed96	-0.095668
239	0xbc91e198	-0.017807767
240	0xbe09a241	-0.13440801
241	0x3d0768ec	0.033059046
242	0xbdd26666	-0.10273437
243	0x3d6324a4	0.055454865
244	0x3e32bdff	0.1745529
245	0xbe6a0510	-0.22853494
246	0xbda30292	-0.079594746
247	0x3dbc05d2	0.09180798
248	0x3b62ae40	0.0034588724
249	0xbdf64df3	-0.120265864
250	0xbe0c91b2	-0.13727453
251	0xbdfffff0	-0.12499988
252	0xbdebbea3	-0.115109704
253	0xbdb01aa0	-0.08598828
254	0x3e472561	0.19447853
255	0x3d9b421e	0.0758097

fc2.weight f4 [128, 256]
0	0x3d232e2a	0.039838947
1	0xbc1bc638	-0.009507708
2	0xbcbee508	-0.02330257
3	0xbd6949be	-0.05695509
4	0xbcf934ca	-0.03042068
5	0xbd162fc5	-0.03666665
6	0xbdae3b3c	-0.08507392
7	0x3dab9f89	0.08380038
8	0x3ce331a0	0.027733624
9	0xbca5ec24	-0.020254202
10	0xbcc783cc	-0.024354838
11	0x3ca98400	0.020692825
12	0x3d5b4f72	0.05354256
13	0x3c528ba8	0.012850679
14	0xbd4ad244	-0.04951693
15	0x3d4146be	0.047186606
16	0x3d540a3a	0.051767565
17	0x3d5738ea	0.05254451
18	0x3d42a292	0.04751832
19	0xbd51fd8f	-0.051267203
20	0xbdb33591	-0.08750451
21	0x3d104fe8	0.035232455
22	0x3da858c1	0.082200535
23	0x3d2d5852	0.042320557
24	0xbc9a40d8	-0.018829748
25	0xbbb50940	-0.0055247843
26	0x3d91c3c7	0.0711742
27	0xbcca9a1c	-0.024731688
28	0x3d881ff9	0.06646723
29	0xbd8dc5f5	-0.06922523
30	0x3d1e03ba	0.038577773
31	0x3c72f6d8	0.01482936
32	0x3c918214	0.017762221
33	0xbdac5416	-0.084144756
34	0x3cfc8e18	0.030829474
35	0xbd096967	-0.033547785
36	0x3b3ef1a0	0.002913572
37	0x3c441840	0.011968672
38	0x3c82821c	0.015931182
39	0xbd14b529	-0.03630558
40	0xbda33958	-0.07969922
41	0x3db0d77d	0.08634851
42	0xbd209d71	-0.039212648
43	0x3d0276e0	0.03185165
44	0x3d703302	0.058642395
45	0xbd579190	-0.052629054
46	0xbcb6bfe4	-0.022308297
47	0xbd8549bb	-0.065082036
48	0x3cfa88dc	0.030582838
49	0xbcddbbec	-0.027067147
50	0xbc81c704	-0.015841968
51	0xbd8949dc	-0.06703541
52	0xbd862bd8	-0.06551331
53	0x3d32e226	0.043672703
54	0xbd082ef6	-0.03324791
55	0xbd8f5ab1	-0.0699972
56	0x3b19c520	0.0023463443
57	0xbd491e17	-0.04910096
58	0x3c535f28	0.012901105
59	0x3d833b1d	0.06407759
60	0x3c0be170	0.008537635
61	0xbd9e70ca	-0.077363566
62	0x3d0d74aa	0.034535088
63	0xbda69f67	-0.08135872
64	0xbaf9f2c0	-0.0019069538
65	0x3ca990dc	0.020698957
66	0xbdab5d7f	-0.08367442
67	0x3ca77d40	0.020445466
68	0xba225e00	-0.00061938167
69	0xbd7e60d2	-0.062104054
70	0xbda35f52	-0.07977165
71	0x3d459722	0.048239835
72	0xbca16200	-0.01970005
73	0xbd4bdfe5	-0.04977407
74	0xbd2bffaf	-0.041991886
75	0xbd92387b	-0.07139679
76	0xbd7235d7	-0.059133377
77	0xbb318540	-0.002708748
78	0x3c8ecfec	0.01743313
79	0xbd91c288	-0.07117182
80	0xbbff2690	-0.0077865794
81	0xbdac7d89	-0.084223814
82	0xbd6ee83a	-0.058326937
83	0xbda5d248	-0.080967486
84	0xbc6e84f8	-0.014558069
85	0x3d6188a2	0.055061944
86	0x3da1d499	0.07901878
87	0xbd58a684	-0.052893177
88	0xbd034540	-0.032048464
89	0xbc925294	-0.017861642
90	0xbd9fce61	-0.078030355
91	0xbdb03998	-0.08604735
92	0x3c65f9a8	0.0140365735
93	0x3bc7f810	0.0061025694
94	0xbc846c10	-0.01616481
95	0x3da2ebab	0.07955106
96	0x3d02427e	0.031801693
97	0xbd96d1f5	-0.07364265
98	0xbd3ef9cb	-0.04662494
99	0xbd9b6f12	-0.07589544
100	0x3d432aca	0.04764823
101	0xbd8f180e	-0.0698701
102	0x3d847189	0.064669676
103	0x3d91ac8b	0.07112988
104	0x3d4708d6	0.04859241
105	0x3c742348	0.01490099
106	0x3d911289	0.070836134
107	0xbda2727e	-0.07931994
108	0x3d625856	0.055260025
109	0xbcbcc598	-0.023043439
110	0x3d52a65a	0.051428176
111	0xbd5e619c	-0.054292306
112	0x3d8c370b	0.06846436
113	0x3d7d5b66	0.061854742
114	0xbda9d0c1	-0.0829177
115	0xbd4b5b3c	-0.049647555
116	0x3d8b3665	0.06797484
117	0xbd836fa0	-0.06417775
118	0xbd8bfcab	-0.06835302
119	0x3d26a83a	0.040687777
120	0xbc3dee48	-0.011592455
121	0xbda37718	-0.079817
122	0xbdb4644e	-0.08808194
123	0xbd94d6a3	-0.07267501
124	0xbcbfa250	-0.023392826
125	0x3cdd22d0	0.026994139
126	0x3d49b882	0.049248226
127	0x3d675142	0.056473978
128	0xbd5fc778	-0.054633588
129	0x3d97f0b1	0.07418955
130	0xbb7d88a0	-0.0038686171
131	0xbcd0aecc	-0.025473975
132	0x3ac83200	0.001527369
133	0xbd398451	-0.045292202
134	0x3d00a062	0.031402953
135	0x3ce19050	0.027534634
136	0xbd07940a	-0.033100165
137	0x3c29c1b0	0.01036112
138	0x3c853e58	0.01626508
139	0x3bcd02e0	0.0062564462
140	0x3cc92bfc	0.024557106
141	0x3d8136a1	0.06309248
142	0x39e6e600	0.00044040382
143	0xbd947f8d	-0.07250891
144	0xbc8167dc	-0.015796594
145	0x3a858100	0.001018554
146	0x3cf40a40	0.029790044
147	0x3d98806b	0.07446369
148	0xbd224450	-0.03961593
149	0xbd32e672	-0.0436768
150	0x3cf89450	0.030344158
151	0xbd9671ee	-0.07345949
152	0x3c7ffce0	0.015624255
153	0x3d867c65	0.06566695
154	0x3da8c177	0.082400255
155	0xbd4e2ea3	-0.050337445
156	0x3d53e482	0.051731594
157	0x3d042b6a	0.032267965
158	0xbd86378a	-0.06553562
159	0x3ccb9844	0.02485288
160	0xbd27fd51	-0.041013066
161	0xbd52e375	-0.05148645
162	0x3cd417dc	0.025890283
163	0x3da062cf	0.07831346
164	0xbd1a677d	-0.03769635
165	0x3db312d5	0.08743826
166	0x3c448c20	0.011996299
167	0xbc6b7a70	-0.014372453
168	0x3d3502f2	0.044192262
169	0x3d81e259	0.063420005
170	0x3ba146c0	0.004921764
171	0x3d8d836f	0.069098346
172	0xbd6c0c2a	-0.057628788
173	0xbd9a2f59	-0.07528562
174	0x3d0f5ac6	0.034998678
175	0x3d4f4df6	0.05061146
176	0xbd7a475d	-0.061103214
177	0xba1dcb80	-0.00060193986
178	0xbcb1ae08	-0.02168943
179	0xbd000211	-0.03125197
180	0xbc9d3650	-0.019190937
181	0xbc3cd200	-0.011524677
182	0x3c0c5558	0.008565269
183	0x3da1bcbd	0.07897327
184	0x3bf9e3f0	0.007626049
185	0x3cd9ec78	0.026602015
186	0x3d234106	0.039856933
187	0xbbde8ea0	-0.0067919046
188	0x3ce39ed4	0.027785696
189	0xbd2ca75e	-0.0421518
190	0xbd5c8929	-0.053841744
191	0x3ca7f648	0.020503178
192	0xbd9a5567	-0.075358205
193	0xbdb22ad0	-0.08699572
194	0xbd0f0b8f	-0.034923133
195	0x3d5c03ea	0.05371467
196	0xb9dc6e00	-0.00042043626
197	0xbd74442c	-0.059635326
198	0xbc21c188	-0.009872802
199	0x3cbff638	0.023432836
200	0x3da7f583	0.082011245
201	0x3c81d544	0.015848763
202	0x3d2e1092	0.04249627
203	0xbd59ecdb	-0.0532044
204	0x3cf13ee8	0.029448941
205	0x3d57f0b6	0.052719794
206	0xba26d400	-0.0006363988
207	0xbd772dc2	-0.060346372
208	0xbcee43d8	-0.029085085
209	0x3c186d10	0.009303346
210	0x3d95a447	0.07306724
211	0xbd50d4b2	-0.050984092
212	0xbb88d340	-0.0041755736
213	0x3cd40b1c	0.025884204
214	0x3c8eafa8	0.017417744
215	0xbd97e1db	-0.074161254
216	0x3d3fb2e6	0.04680147
217	0x3d065e3a	0.032804705
218	0x3d0de93e	0.034646265
219	0x3cf4d1a8	0.029885128
220	0x3da5cc43	0.080956005
221	0xbd187ea0	-0.037230134
222	0x3d879651	0.066204675
223	0xbd2ac0cd	-0.041687775
224	0x3c9ae0d8	0.018906042
225	0xbd3b0058	-0.045654625
226	0xbcbcfae0	-0.023068845
227	0x3db11f29	0.086485215
228	0x3da16503	0.078805946
229	0x3d90851b	0.07056638
230	0x3d951b83	0.07280638
231	0x3d62b386	0.05534699
232	0xbd03fad2	-0.032221623
233	0xbc60ae68	-0.013713457
234	0xbcc97524	-0.02459199
235	0xbcb70e50	-0.022345692
236	0x3c9b1664	0.018931575
237	0x3db0def3	0.08636274
238	0x3cb0be48	0.021575108
239	0xbbec6a50	-0.007214822
240	0x3d55ad06	0.05216696
241	0x3d683e56	0.056700073
242	0x3d99d13d	0.07510612
243	0x3cb3ae44	0.021933682
244	0xbca591dc	-0.020211153
245	0x3d88efc9	0.066863604
246	0xbd91b0e5	-0.07113818
247	0xbda37834	-0.07981911
248	0xbb77da80	-0.0037819445
249	0x3d7ff642	0.06249071
250	0xbc84297c	-0.016133063
251	0x3d18a16e	0.037263326
252	0xbc9aec84	-0.018911608
253	0x3cfa2464	0.03053493
254	0xbd880c80	-0.06643009
255	0xbd9c4f30	-0.07632291

fc2.bias f4 [128]
0	0x3c162588	0.009164222
1	0x3bddcdf0	0.0067689344
2	0xbd7e4568	-0.06207791
3	0xbd10a038	-0.035309047
4	0x3d32c988	0.043649226
5	0x3d55d830	0.052208126
6	0xbd2514e0	-0.04030311
7	0xbcbdb270	-0.023156375
8	0x3d337de4	0.04382123
9	0x3c8f62a0	0.017503083
10	0x3d5cf79c	0.053947076
11	0x3d6c4bb8	0.0576894
12	0xbd5f7506	-0.05455496
13	0x3ad85a00	0.0016506314
14	0xbbf9a470	-0.0076184794
15	0xbcce5a54	-0.025189556
16	0xbca7f158	-0.020500824
17	0x3d4ac64a	0.04950551
18	0x3c9e18f8	0.019299015
19	0xba2e6000	-0.00066518784
20	0xbc3a3b00	-0.011366606
21	0xbd439e9e	-0.04775869
22	0xbd000c58	-0.031261772
23	0x3c1aa530	0.009438798
24	0xbcdbbd38	-0.026823625
25	0xbd30896a	-0.0430998
26	0x3d4c4c42	0.049877413
27	0x3c903c08	0.01760675
28	0x3cb980c0	0.0226444
29	0xbc94d1c0	-0.018166423
30	0xbd4a545c	-0.049396858
31	0xbd07c2c2	-0.03314472
32	0xbd3c7810	-0.046012938
33	0x3d22bac0	0.03972888
34	0x3b1f20a0	0.002428092
35	0xbcf11f14	-0.029433765
36	0xbd0ef8bc	-0.03490518
37	0xbcb47778	-0.022029623
38	0xbb3acba0	-0.0028502718
39	0xbd3bb7e0	-0.045829654
40	0xbd1a109c	-0.037613496
41	0x3d6547ca	0.055976667
42	0xbcbf7cd4	-0.023374952
43	0x3d68268c	0.056677386
44	0x3d19b592	0.037526675
45	0xbd4a60b4	-0.04940863
46	0x3d0a22b6	0.03372451
47	0xbd67ddd6	-0.056608044
48	0xbc617a10	-0.013762012
49	0x3cef0bd0	0.029180437
50	0x3cb6216c	0.022232734
51	0xbd61f558	-0.05516562
52	0x3c2742e0	0.010208815
53	0x3bcc0dc0	0.006227225
54	0x3d6d51da	0.057939388
55	0xbc155d18	-0.009116434
56	0xbcd8b698	-0.026454255
57	0x3c88fd30	0.016722292
58	0xbc7b2e60	-0.015330881
59	0xbd42ce50	-0.047560036
60	0x3d2088a0	0.039192796
61	0xbcd88aec	-0.02643343
62	0x3d405802	0.04695893
63	0x3d501858	0.050804466
64	0x3d57b3fc	0.05266188
65	0x3c115fe0	0.008872956
66	0x3cf3d8e0	0.0297665
67	0x3c7dcc18	0.015490554
68	0x3ce1bd3c	0.027556054
69	0xbc1968d0	-0.009363368
70	0xbc421790	-0.011846438
71	0x3bee9f10	0.0072821453
72	0x3c034c58	0.008013807
73	0xbc142d38	-0.009043984
74	0xbc8fce68	-0.017554477
75	0x3d735c5e	0.05941426
76	0xbc1d4778	-0.009599559
77	0x3b28c4e0	0.0025752112
78	0xbb61b680	-0.0034441054
79	0xbcd6a3f4	-0.026201226
80	0xbcf2d144	-0.029640801
81	0xbc995fa0	-0.018722355
82	0xbd0b2e60	-0.033979774
83	0xbd758eac	-0.059950516
84	0x3cadcd3c	0.021216027
85	0xbb0bb7a0	-0.0021319166
86	0x3d6ca564	0.057774916
87	0xbc623ac8	-0.01380796
88	0xbd406788	-0.046973735
89	0x3b598460	0.0033190474
90	0x3cf531d0	0.029930979
91	0xbcc164d4	-0.023607649
92	0x3d7bcff0	0.0614776
93	0xbd565590	-0.052327693
94	0x3d423d4c	0.04742174
95	0xbc572810	-0.01313211
96	0xbc08c108	-0.0083468035
97	0x3c8f1a4c	0.017468594
98	0xbca58c14	-0.020208396
99	0x3b7d3640	0.0038637072
100	0x3d7c7a2e	0.061639957
101	0xbd582060	-0.05276525
102	0x3d44f55c	0.048085555
103	0xbd62ad28	-0.055340916
104	0x3cfbc308	0.030732647
105	0xbd77402e	-0.06036394
106	0x3c0821b0	0.008308813
107	0x3cbdb4fc	0.02315759
108	0x3d5a89e4	0.05335416
109	0xbd51ef42	-0.051253565
110	0x3cd7f8e8	0.026363805
111	0xbd2e2d84	-0.042523876
112	0xbb285740	-0.002568677
113	0xbc867f20	-0.01641804
114	0x3d0140fe	0.031556122
115	0xbd750e44	-0.059828058
116	0x3d3f9128	0.04676929
117	0xbd17d404	-0.03706743
118	0x3d6a4b2a	0.05720059
119	0x3d3f39bc	0.04668592
120	0xbd282122	-0.041047223
121	0x3bac4900	0.0052577257
122	0x3d3e8ee2	0.046522982
123	0xbc7336e8	-0.014844634
124	0xbcf973cc	-0.030450724
125	0xbc633358	-0.013867222
126	0xbc8ff244	-0.017571576
127	0xbd5ab678	-0.053396672

fc3.weight f4 [1, 128]
0	0xbb449ba6	-0.003
1	0xbb449ba6	-0.003
2	0xbb449ba6	-0.003
3	0xbb449ba6	-0.003
4	0xbb449ba6	-0.003
5	0xbb449ba6	-0.003
6	0xbb449ba6	-0.003
7	0xbb449ba6	-0.003
8	0xbb449ba6	-0.003
9	0xbb449ba6	-0.003
10	0xbb449ba6	-0.003
11	0xbb449ba6	-0.003
12	0xbb449ba6	-0.003
13	0xbb449ba6	-0.003
14	0xbb449ba6	-0.003
15	0xbb449ba6	-0.003
16	0xbb449ba6	-0.003
17	0xbb449ba6	-0.003
18	0xbb449ba6	-0.003
19	0xbb449ba6	-0.003
20	0xbb449ba6	-0.003
21	0xbb449ba6	-0.003
22	0xbb449ba6	-0.003
23	0xbb449ba6	-0.003
24	0xbb449ba6	-0.003
25	0xbb449ba6	-0.003
26	0xbb449ba6	-0.003
27	0xbb449ba6	-0.003
28	0xbb449ba6	-0.003
29	0xbb449ba6	-0.003
30	0xbb449ba6	-0.003
31	0xbb449ba6	-0.003
32	0xbb449ba6	-0.003
33	0xbb449ba6	-0.003
34	0xbb449ba6	-0.003
35	0xbb449ba6	-0.003
36	0xbb449ba6	-0.003
37	0xbb449ba6	-0.003
38	0xbb449ba6	-0.003
39	0xbb449ba6	-0.003
40	0xbb449ba6	-0.003
41	0xbb449ba6	-0.003
42	0xbb449ba6	-0.003
43	0xbb449ba6	-0.003
44	0xbb449ba6	-0.003
45	0xbb449ba6	-0.003
46	0xbb449ba6	-0.003
47	0xbb449ba6	-0.003
48	0xbb449ba6	-0.003
49	0xbb449ba6	-0.003
50	0xbb449ba6	-0.003
51	0xbb449ba6	-0.003
52	0xbb449ba6	-0.003
53	0xbb449ba6	-0.003
54	0xbb449ba6	-0.003
55	0xbb449ba6	-0.003
56	0xbb449ba6	-0.003
57	0xbb449ba6	-0.003
58	0xbb449ba6	-0.003
59	0xbb449ba6	-0.003
60	0xbb449ba6	-0.003
61	0xbb449ba6	-0.003
62	0xbb449ba6	-0.003
63	0xbb449ba6	-0.003
64	0xbb449ba6	-0.003
65	0xbb449ba6	-0.003
66	0xbb449ba6	-0.003
67	0xbb449ba6	-0.003
68	0xbb449ba6	-0.003
69	0xbb449ba6	-0.003
70	0xbb449ba6	-0.003
71	0xbb449ba6	-0.003
72	0xbb449ba6	-0.003
73	0xbb449ba6	-0.003
74	0xbb449ba6	-0.003
75	0xbb449ba6	-0.003
76	0xbb449ba6	-0.003
77	0xbb449ba6	-0.003
78	0xbb449ba6	-0.003
79	0xbb449ba6	-0.003
80	0xbb449ba6	-0.003
81	0xbb449ba6	-0.003
82	0xbb449ba6	-0.003
83	0xbb449ba6	-0.003
84	0xbb449ba6	-0.003
85	0xbb449ba6	-0.003
86	0xbb449ba6	-0.003
87	0xbb449ba6	-0.003
88	0xbb449ba6	-0.003
89	0xbb449ba6	-0.003
90	0xbb449ba6	-0.003
91	0xbb449ba6	-0.003
92	0xbb449ba6	-0.003
93	0xbb449ba6	-0.003
94	0xbb449ba6	-0.003
95	0xbb449ba6	-0.003
96	0xbb449ba6	-0.003
97	0xbb449ba6	-0.003
98	0xbb449ba6	-0.003
99	0xbb449ba6	-0.003
100	0xbb449ba6	-0.003
101	0xbb449ba6	-0.003
102	0xbb449ba6	-0.003
103	0xbb449ba6	-0.003
104	0xbb449ba6	-0.003
105	0xbb449ba6	-0.003
106	0xbb449ba6	-0.003
107	0xbb449ba6	-0.003
108	0xbb449ba6	-0.003
109	0xbb449ba6	-0.003
110	0xbb449ba6	-0.003
111	0xbb449ba6	-0.003
112	0xbb449ba6	-0.003
113	0xbb449ba6	-0.003
114	0xbb449ba6	-0.003
115	0xbb449ba6	-0.003
116	0xbb449ba6	-0.003
117	0xbb449ba6	-0.003
118	0xbb449ba6	-0.003
119	0xbb449ba6	-0.003
120	0xbb449ba6	-0.003
121	0xbb449ba6	-0.003
122	0xbb449ba6	-0.003
123	0xbb449ba6	-0.003
124	0xbb449ba6	-0.003
125	0xbb449ba6	-0.003
126	0xbb449ba6	-0.003
127	0xbb449ba6	-0.003
