models/checkpoint_critic_local_13.pth (torch_old, 349244 bytes, 5 tensors)

fcs1.weight f4 [256, 200]
0	0xbc939c4c	-0.018018864
1	0xbc8af074	-0.01696036
2	0xbd6e4bbc	-0.058177695
3	0xbc908a7c	-0.01764416
4	0x3c91b948	0.017788544
5	0x3d16130a	0.03663925
6	0xbd7a3e62	-0.06109465
7	0x3ce16e70	0.027518481
8	0x3d75845c	0.05994068
9	0x3cad2f00	0.021140575
10	0x3c943dc8	0.018095866
11	0xbd62a846	-0.05533626
12	0xbcc5da6c	-0.024152003
13	0x3c99af68	0.018760398
14	0x3d673c30	0.056453884
15	0xbd63c0f6	-0.055603944
16	0x3c4aa8d0	0.01236935
17	0xbd10c850	-0.035347283
18	0xbd2bb4a0	-0.041920304
19	0xbd7a7b74	-0.06115289
20	0xbd6e1e18	-0.05813417
21	0x3d0c264e	0.034216218
22	0x3d5dea98	0.054178804
23	0x3d1a0b28	0.037608296
24	0xbc68b508	-0.014203317
25	0x3d738da6	0.05946126
26	0x3ba257c0	0.0049543083
27	0xbca9b5ac	-0.02071651
28	0xbb30a8e0	-0.0026956126
29	0xbd0d9dd2	-0.034574337
30	0xbd1362d2	-0.035982914
31	0x3d7ed67e	0.062216274
32	0xbd6a6e12	-0.057233877
33	0xbd7014a6	-0.058613442
34	0xbcacfffc	-0.021118157
35	0x3b3d4d80	0.0028885305
36	0x3d72200e	0.0591126
37	0xbc91dbb4	-0.017804958
38	0x3d2c91ea	0.042131342
39	0x3b9c32b0	0.0047667846
40	0x3d43d7c0	0.047813177
41	0x3d0e4d6c	0.034741804
42	0x3b8cf1a0	0.004301265
43	0x3d733aa4	0.059382096
44	0x3d5a86bc	0.05335115
45	0xba247f80	-0.00062751025
46	0xbcf9b3d4	-0.030481257
47	0x3b771880	0.0037703812
48	0x3b3aca40	0.0028501898
49	0xbd5b1ef4	-0.053496316
50	0xbc83732c	-0.01604613
51	0xbc5757e0	-0.01314351
52	0xbd0d0c40	-0.03443551
53	0x3c80042c	0.01562699
54	0x3d0b3e52	0.03399498
55	0x3d25265a	0.040319778
56	0xbd2bf19c	-0.041978464
57	0x3d663d5a	0.056210853
58	0xbce9f9e4	-0.02856154
59	0x3c3d55e0	0.011556119
60	0xbd396256	-0.045259796
61	0x3d3c7aba	0.04601548
62	0xbccb4788	-0.024814382
63	0x3ba2f660	0.004973218
64	0x3c135848	0.008993216
65	0xbb089120	-0.0020838454
66	0xbca47adc	-0.020078115
67	0xbd1a2ba6	-0.037639283
68	0xbd5ae01c	-0.053436384
69	0x3c0d67c0	0.008630693
70	0xbd176774	-0.036963895
71	0x3d7bdc64	0.061489478
72	0x3d0ed346	0.034869455
73	0x3d12212a	0.03567616
74	0x3d72673e	0.05918049
75	0xbd7b895c	-0.061410293
76	0x3d4f659c	0.05063401
77	0xbd6fa2ec	-0.058504984
78	0xbd277a82	-0.040888317
79	0xbc3d7810	-0.01156427
80	0x3c939b4c	0.018018387
81	0xbbd247f0	-0.006417267
82	0x3d44d64c	0.048055932
83	0xbbcf7b90	-0.0063318685
84	0x3ca7302c	0.020408712
85	0xbcc5c01c	-0.024139456
86	0xbb9869b0	-0.004651271
87	0xbcef8d78	-0.029242262
88	0x3d34c120	0.04412949
89	0x3d37a94c	0.04483919
90	0x3d7eaf4e	0.062178902
91	0x3cd60ac0	0.026128173
92	0xbc225098	-0.00990691
93	0xbd258b6a	-0.04041616
94	0x3c17f338	0.009274296
95	0xbcac9708	-0.021068111
96	0x3b9939e0	0.0046760887
97	0x3d3f4e88	0.046705753
98	0x3cb020ac	0.021499954
99	0xbc05a010	-0.008155838
100	0xbcaa7534	-0.02080784
101	0x3d6ad5ee	0.057332925
102	0x3d1dac32	0.038494296
103	0x3d3b58d2	0.045739003
104	0xbca62d74	-0.020285346
105	0xbc630470	-0.013856038
106	0x3ba51480	0.005037844
107	0xbc90286c	-0.0175974
108	0xbd0b97b6	-0.03408023
109	0x3d450e76	0.048109494
110	0x3ce346c8	0.027743712
111	0x3ca12510	0.019670993
112	0x3bab1bc0	0.005221814
113	0xbbc467f0	-0.0059938356
114	0x3c3532c8	0.0110594705
115	0xbd452384	-0.048129573
116	0x3d4ff7e8	0.05077353
117	0xbd20ae66	-0.03922882
118	0xbd1cce78	-0.03828284
119	0xbd65cbac	-0.05610244
120	0xbbe8d110	-0.0071050003
121	0xbd4ac8c8	-0.049507886
122	0x3d4cab10	0.049967825
123	0x3cf9e544	0.03050483
124	0xbd5c37f4	-0.0537643
125	0x3caf00e0	0.021362722
126	0x3b622900	0.0034509301
127	0x3a8d16c0	0.0010764226
128	0xbc990108	-0.01867725
129	0x3c9f8c38	0.019476041
130	0x3d425180	0.047441006
131	0xbd20dae2	-0.039271243
132	0xbd121406	-0.035663627
133	0x3c8ad008	0.0169449
134	0xbd6649a2	-0.056222565
135	0x3c394898	0.011308812
136	0x3cce507c	0.025184862
137	0x3c41b320	0.011822492
138	0xbcfb7398	-0.030694768
139	0xbd6c3a4e	-0.05767279
140	0xbd62d094	-0.055374697
141	0x3b75e4c0	0.0037520379
142	0x3d36abf6	0.04459759
143	0x3ceb7340	0.028741479
144	0x3cadedc4	0.02123154
145	0x3cd87a8c	0.026425622
146	0xbd779f76	-0.06045481
147	0x3c994b88	0.018712774
148	0xbd4333e8	-0.047656924
149	0x3cf5bf34	0.0299984
150	0xbd776cf8	-0.060406655
151	0xbcb0fbd8	-0.021604463
152	0x3c8292c8	0.015939131
153	0x3bd01110	0.0063496903
154	0xbca03c14	-0.019559897
155	0xbd0b9200	-0.034074783
156	0x3b98f760	0.0046681613
157	0xbd7d3bfc	-0.061824784
158	0xbd69afe8	-0.057052523
159	0x3c502988	0.012705214
160	0xbab62d00	-0.0013898909
161	0x3d338004	0.043823257
162	0x3c71e7a8	0.014764704
163	0x3d1f0d02	0.038830765
164	0x3cf013d8	0.029306337
165	0xbcd9c060	-0.02658099
166	0x3d3953dc	0.04524599
167	0x3d69f92e	0.057122402
168	0x3d01473c	0.031562075
169	0x3d6b37c4	0.05742623
170	0x3d4f6f06	0.05064299
171	0xbd063202	-0.032762535
172	0xbd7fb47a	-0.062427975
173	0xbd6b4b62	-0.057444938
174	0x3d111b84	0.03542663
175	0xbc321660	-0.010869592
176	0x3d0888c2	0.033333547
177	0xbcd4fb90	-0.02599886
178	0xbd1248a0	-0.03571379
179	0xbd0f56a6	-0.034994744
180	0x3c849f78	0.016189322
181	0x3d18c2fa	0.03729532
182	0xbceacf28	-0.028663233
183	0x3cc35a50	0.023846775
184	0x3ce0b878	0.027431712
185	0x3c318a88	0.010836251
186	0xbcd15ea4	-0.025557823
187	0x3c81e6e8	0.015857175
188	0x3d36b922	0.04461015
189	0x3d0fe39c	0.035129175
190	0xbc9c65e0	-0.019091547
191	0x3d1e6dde	0.038678996
192	0x3d4c5bee	0.04989236
193	0x3d26b310	0.04069811
194	0x3d5a3bcc	0.053279683
195	0x3c88292c	0.016621195
196	0x3c482f00	0.012218237
197	0x3cf06150	0.029343277
198	0xbcd36328	-0.025804117
199	0x3c9d3b10	0.019193202
200	0x3d7865f6	0.060644113
201	0x3d6589d0	0.05603963
202	0xbb840dd0	-0.004029967
203	0xbccc3dd4	-0.024931826
204	0xbce1ae8c	-0.02754905
205	0xbd6efd96	-0.058347307
206	0x3d0ba714	0.034094885
207	0xbaa69b00	-0.0012710989
208	0x3c5329d0	0.012888387
209	0xbc875570	-0.016520232
210	0x3d55edb0	0.05222863
211	0x3d4e0c98	0.05030498
212	0x3d4bddc8	0.049772054
213	0xbc3d8fa0	-0.011569887
214	0xbd203a6e	-0.039118223
215	0x3d6b35fc	0.05742453
216	0x3ce0b170	0.027428359
217	0xbc12da90	-0.008963242
218	0xbd3ff530	-0.04686469
219	0xbd311814	-0.043235853
220	0x3d643aac	0.055720016
221	0xbd50687c	-0.050880894
222	0xbd3adf5c	-0.04562317
223	0xbd2b9138	-0.04188654
224	0xbbd99310	-0.0066398457
225	0x3ce477a8	0.027889088
226	0x3d20f08e	0.03929191
227	0x3d430c14	0.04761894
228	0x3c916e30	0.017752737
229	0xbc888e28	-0.016669348
230	0xbd17b4d6	-0.037037693
231	0x3c8945e4	0.01675696
232	0x3d70902c	0.058731243
233	0x3d0f77be	0.035026304
234	0xbd24b808	-0.04021457
235	0x3d7b5058	0.06135592
236	0xbc866ea0	-0.016410172
237	0xbcc5feac	-0.024169289
238	0x3c223170	0.009899482
239	0x3ccaba74	0.02474711
240	0x3c93edbc	0.018057697
241	0x3b52f680	0.0032190382
242	0xbc08cc10	-0.008349434
243	0xbcc603e0	-0.02417177
244	0xbcffb570	-0.031214446
245	0x3d4da94a	0.050210275
246	0xbcf50614	-0.029910125
247	0xbd27ca56	-0.040964447
248	0xbc862bd4	-0.01637832
249	0xbd3b690a	-0.04575447
250	0x3ce88118	0.02838187
251	0x3c8f0944	0.017460473
252	0xbce5a270	-0.028031558
253	0xbd510972	-0.0510344
254	0x3ceda4ac	0.029009186
255	0xbc239700	-0.009984732

fcs1.bias f4 [256]
0	0xbd367e6c	-0.04455416
1	0x3d7deebe	0.06199526
2	0xbd60b154	-0.054856613
3	0x3cd110b4	0.02552066
4	0xbc95c902	-0.018284325
5	0x3ba9b6e0	0.005179271
6	0xbc538188	-0.012909301
7	0xbd24864e	-0.040167145
8	0x3cbc0408	0.022951141
9	0x3d48e0d8	0.049042553
10	0x3cbf44b0	0.023348182
11	0x3ca5c4f8	0.020235524
12	0xbd8cb0a0	-0.06869626
13	0x3aba7840	0.0014226511
14	0xbd757375	-0.05992456
15	0xbbbd61f0	-0.0057794973
16	0x3d6453e2	0.05574406
17	0x3c0819d8	0.008306943
18	0x3d849da1	0.06475378
19	0xbb4788e0	-0.0030446574
20	0xbd894898	-0.06703299
21	0xbd4433a5	-0.047900815
22	0x3cd6578c	0.026164792
23	0x3d837753	0.06419244
24	0x3d83bab7	0.064320974
25	0x3d4cc160	0.049989104
26	0xbd00dec9	-0.031462464
27	0x3d0d879a	0.034553148
28	0xbd6e2f3a	-0.058150508
29	0xbd70717d	-0.05870198
30	0x3d5fe59a	0.054662324
31	0x3d524d50	0.051343262
32	0xbd8d21da	-0.06891222
33	0x3c373848	0.011182852
34	0x3b091880	0.0020919144
35	0x3c5dca20	0.01353696
36	0x3d6cacd6	0.057782017
37	0xbce9d2fe	-0.028542992
38	0xbc9a477c	-0.018832915
39	0x3d64a2f2	0.05581946
40	0xbd183a4d	-0.037164975
41	0x3d846737	0.06464999
42	0x3d056302	0.032565124
43	0xbd6d9adc	-0.058009014
44	0xbd86fa3f	-0.065906994
45	0x3d77480e	0.06037145
46	0x3c9ffe28	0.01953037
47	0x3d2eb516	0.042653166
48	0xbcf2e1ea	-0.02964874
49	0x3d5a4ee8	0.053297907
50	0xbc604680	-0.0136886835
51	0x3cedcf00	0.02902937
52	0x3d7a4b8e	0.06110721
53	0x3d3b5882	0.045738705
54	0x3d6949de	0.05695521
55	0xbb1c1fc0	-0.0023822635
56	0xbd7b0e7a	-0.061293103
57	0xbd47bb12	-0.04876239
58	0x3d55795e	0.052117698
59	0x3bbb3440	0.005713016
60	0xbd482363	-0.048861872
61	0x3d2187e2	0.03943623
62	0xbd28d21c	-0.041216
63	0x3c763678	0.015027635
64	0xbd375d6b	-0.044766825
65	0x3ce17dd4	0.02752582
66	0xbd8e7c30	-0.06957281
67	0x3d83bf4d	0.06432972
68	0xbcc1b050	-0.023643643
69	0x3d16b698	0.03679523
70	0x3cbd5ab8	0.023114547
71	0x3d20d32c	0.03926389
72	0x3d4fb186	0.05070641
73	0x3c9b1b68	0.018933967
74	0xbd82f7ac	-0.06394896
75	0xbd20ed99	-0.03928909
76	0x3c96f258	0.018426105
77	0xbd62ad60	-0.055341125
78	0xbca7d918	-0.02048926
79	0x3d0189c6	0.03162553
80	0xbd3ceae4	-0.046122447
81	0x3bb67100	0.00556767
82	0xbc92ce72	-0.017920706
83	0x3c4112d0	0.01178427
84	0xbd8bbacc	-0.06822738
85	0xbd34789c	-0.044060335
86	0x3d745baa	0.05965773
87	0x3d30f89c	0.043205842
88	0xbd3f83a8	-0.046756417
89	0xbd167c29	-0.036739502
90	0xbd728c74	-0.059215978
91	0x3d10bd04	0.03533651
92	0x3a487b00	0.0007647723
93	0x3d4b2f18	0.04960546
94	0x3d1652d0	0.03670007
95	0x3d3e269a	0.046423532
96	0xbd5b832d	-0.053591896
97	0x39bd9000	0.00036156178
98	0x3d3d6f82	0.04624892
99	0x3d76cc5a	0.06025348
100	0x3d9029d9	0.07039232
101	0xbd2a07e3	-0.041511428
102	0xbc251ca8	-0.010077633
103	0x3cdfe504	0.027330883
104	0x3cf0ce78	0.029395327
105	0x3cebeeec	0.02880045
106	0x3c108358	0.008820377
107	0xbd0b4fad	-0.03401153
108	0xbd213c4a	-0.039364137
109	0x3d40d13a	0.047074534
110	0xbcca1b6a	-0.024671275
111	0x3d42387c	0.04741715
112	0xbc845c94	-0.016157426
113	0x3d899bf1	0.067191966
114	0xbd5d08b4	-0.053963378
115	0x3c214a38	0.009844355
116	0x39e0c600	0.0004287213
117	0x3d80a5c7	0.062816195
118	0x3c6e37e8	0.014539696
119	0xbc076714	-0.008264322
120	0xbcf6b94a	-0.03011765
121	0xbc74981c	-0.014928844
122	0xbd578918	-0.052620977
123	0xbcad2ff4	-0.02114103
124	0xbd73fbdc	-0.059566364
125	0xbccf2d78	-0.025290236
126	0xbc801c12	-0.015638385
127	0x3cbe0470	0.023195475
128	0x3d19f440	0.03758645
129	0x3d1a9d88	0.03774789
130	0x3d6b8ec6	0.057509206
131	0xbd46075e	-0.04834687
132	0xbd6cda82	-0.057825573
133	0xbd2ec062	-0.04266394
134	0x3d25c1a0	0.04046786
135	0xbd47fe04	-0.048826233
136	0x3c9c086c	0.019046985
137	0xbd4340cc	-0.047669217
138	0x3d61ba2a	0.05510918
139	0x3d1ea452	0.038730927
140	0xbd105211	-0.035234515
141	0x3d8c923b	0.06863829
142	0xbd41021b	-0.04712115
143	0xbc1deef4	-0.00963949
144	0xbd0d0f34	-0.034438327
145	0x3d6258ae	0.055260353
146	0x3d8049ab	0.06264051
147	0x3cdcd3f8	0.026956543
148	0xbc59260c	-0.0132537
149	0x3cb2fb60	0.02184838
150	0xbd0f168c	-0.03493361
151	0x3d7a2212	0.06106765
152	0xbd662d48	-0.056195527
153	0xbba70c80	-0.0050979257
154	0xbca47b14	-0.02007822
155	0x3d47711e	0.04869186
156	0xbd70bd88	-0.0587745
157	0xbb344900	-0.0027509332
158	0x3d34b850	0.044121087
159	0x3d266212	0.04062087
160	0xbb6d5bc0	-0.0036218017
161	0xbd88e382	-0.06684019
162	0xbd308c65	-0.04310264
163	0x3cd02a4c	0.025410794
164	0xbc616d40	-0.013758957
165	0xbcd37380	-0.02581191
166	0x3c5357f8	0.012899391
167	0xbcc70510	-0.024294406
168	0xbce1cb98	-0.027562901
169	0x3ca2432c	0.01980742
170	0xbd348d64	-0.044080153
171	0x3d481810	0.048851073
172	0x3d309bd2	0.04311735
173	0x3d4292c8	0.047503263
174	0x3d89b2ff	0.06723594
175	0x3d907ed3	0.0705544
176	0x3d096470	0.03354305
177	0x3cfaccbc	0.030615203
178	0x3d4efeae	0.05053585
179	0xbd60cb94	-0.054881647
180	0xbbd0b910	-0.0063697174
181	0xbd601ba4	-0.05471386
182	0x3d391a76	0.04519125
183	0xbd479f73	-0.048736047
184	0x3d5ba7f4	0.05362697
185	0xbc169550	-0.009190872
186	0x3d862535	0.065500654
187	0x3d83143f	0.06400346
188	0x3d2a26f0	0.04154104
189	0xbcee29aa	-0.029072601
190	0xbd14bf71	-0.036315385
191	0xbd78df11	-0.060759608
192	0xbd46d3e4	-0.04854192
193	0xbbe35fe0	-0.0069389194
194	0xbd5570f6	-0.05210968
195	0x3d1a567a	0.037680127
196	0xbd074873	-0.033028077
197	0xbd2b4b86	-0.04182007
198	0x3d84dd39	0.064875074
199	0xbcecb32a	-0.028894026
200	0xbd2c9fd1	-0.0421446
201	0xbcda7276	-0.026665907
202	0x3ce547b4	0.027988292
203	0xbc16ab3c	-0.009196099
204	0x3bc085c0	0.0058753192
205	0x3ca9cf4c	0.02072873
206	0x3d852855	0.06501833
207	0xbd2fea7a	-0.042948224
208	0xbcd845e2	-0.02640051
209	0x3ce28a7c	0.027653925
210	0xbd051c1f	-0.03249752
211	0x3d4115fa	0.0471401
212	0xbb809cd0	-0.0039249435
213	0xbc83a508	-0.016069904
214	0xbd0c9261	-0.034319285
215	0x3c870fd0	0.016487032
216	0xbbe9b9f0	-0.007132761
217	0x3c308ed0	0.010776237
218	0xbccacd9a	-0.024756242
219	0x3d704c6a	0.058666624
220	0x3ce1e044	0.027572758
221	0x3cd24708	0.025668636
222	0xbd7d92c4	-0.061907545
223	0x3d87201b	0.065979205
224	0xbd0854e0	-0.033284068
225	0x3d711142	0.05885435
226	0x3d5d1942	0.053979166
227	0xbd79fcb4	-0.061032012
228	0x3ae24940	0.0017264262
229	0x3d51f75c	0.05126129
230	0x3d4ccf94	0.05000265
231	0x3c393140	0.011303246
232	0x3d2b07fc	0.04175566
233	0xbd2cc8c8	-0.042183667
234	0xbd8676de	-0.06565641
235	0x3d894969	0.06703455
236	0xbca40f9a	-0.02002697
237	0x3d284372	0.041079946
238	0x3c7caff0	0.015422806
239	0x3d8bc481	0.068245895
240	0xbd4c8b30	-0.049937427
241	0xbd898c8a	-0.06716259
242	0x3d3315ba	0.043721892
243	0x3d418234	0.047243312
244	0x3c35cf40	0.0110967755
245	0xbd09f779	-0.033683274
246	0xbd17f43e	-0.037098162
247	0x3c6e0f28	0.014529981
248	0xbd2557fb	-0.040367108
249	0xbd0d90ee	-0.034562044
250	0x3d79cb4a	0.060984887
251	0x3c1902c0	0.009339035
252	0xbc417694	-0.011808056
253	0x3ca1927c	0.01972317
254	0x3d8b6c07	0.06807714
255	0x39542600	0.00020232052

fc2.weight f4 [128, 276]
0	0xbc94ce20	-0.018164694
1	0x3d9b114d	0.07571659
2	0x3c223d08	0.009902246
3	0xbd2ee6e8	-0.042700678
4	0xbc9a2b0c	-0.018819354
5	0xbd697721	-0.056998376
6	0xbc53e240	-0.01293236
7	0x3d16ba1a	0.036798574
8	0x3da5797d	0.08079813
9	0x3c5d7f08	0.013519056
10	0xbd648883	-0.05579425
11	0x3d91fb71	0.07128037
12	0x3c559418	0.013035797
13	0x3d1a82ae	0.037722282
14	0xbd07961d	-0.033102144
15	0xbdb3e20f	-0.08783352
16	0xba5d0680	-0.00084314495
17	0x3d2817aa	0.041038193
18	0x3cc65634	0.024211027
19	0x3d004ba2	0.03132213
20	0x3cbeb040	0.023277402
21	0xbd7ea5f4	-0.062169984
22	0x3d8d6643	0.069042705
23	0xbc454410	-0.012040153
24	0xbcb106d8	-0.021609709
25	0x3cf06f2c	0.029349886
26	0xbd4cce58	-0.050001472
27	0xbd917934	-0.07103196
28	0x3c9a21e4	0.018814988
29	0x3c9dd0c8	0.019264594
30	0xbda6319d	-0.08114932
31	0x3d38ecfe	0.04514789
32	0x3d846213	0.06464019
33	0xbd09206d	-0.03347819
34	0xbbc7ee20	-0.0061013848
35	0x3da4fc53	0.080559395
36	0xbd186816	-0.03720864
37	0xbd9c2fca	-0.076263025
38	0x3d79991e	0.06093704
39	0xbd3d315b	-0.046189647
40	0x3c0d8c30	0.00863938
41	0xbd811b08	-0.06303984
42	0xbcc29638	-0.02375327
43	0x3d96e83b	0.07368513
44	0xbcfea870	-0.031086177
45	0x3dad71eb	0.08468994
46	0x3d8e9ea5	0.06963853
47	0x3ce8003c	0.028320424
48	0x3d971b8f	0.07378303
49	0xbc87f9e4	-0.01659865
50	0xbd951961	-0.07280231
51	0x3db016c7	0.085980944
52	0xbc9ef748	-0.019405022
53	0x3cb10590	0.021609098
54	0x3c2011e8	0.009769894
55	0xbdb2be11	-0.087276585
56	0x3d81563f	0.06315278
57	0xbc3ca5c0	-0.011514127
58	0x3cdbe35c	0.026841812
59	0x3d385f2a	0.04501263
60	0xbce66e18	-0.028128669
61	0x3d812287	0.06305414
62	0xbd3dca58	-0.04633555
63	0xbc322a20	-0.010874301
64	0x3a798e80	0.00095198303
65	0xbd16f261	-0.036852244
66	0xbc489cd8	-0.012244426
67	0xbc838164	-0.01605291
68	0x3d81c253	0.063358925
69	0xbd70ec16	-0.0588189
70	0x3d43c3f2	0.04779429
71	0x3d161a6a	0.036646284
72	0x3d5b14ca	0.053486623
73	0xbd6eecdc	-0.058331355
74	0xbc9627e0	-0.01832956
75	0xbc67ce40	-0.014148295
76	0x3d27aaa2	0.040934213
77	0xbd32dbea	-0.043666758
78	0x3d8e07c1	0.06935073
79	0x3d45cc3a	0.04829047
80	0xbc9e4714	-0.019321002
81	0xbd1458c8	-0.03621748
82	0x3d368b3a	0.04456637
83	0x3d2732ba	0.04081986
84	0xbd9706f0	-0.0737437
85	0x3d315622	0.043295033
86	0x3d9403f7	0.07227319
87	0x3d101cca	0.035183705
88	0x3d75fd66	0.060056113
89	0x3d97c50f	0.07410633
90	0x3da6948f	0.08133804
91	0x3d6bc862	0.057564147
92	0x3c963d3c	0.018339746
93	0x3d8c731f	0.06857895
94	0x3d922d05	0.07137493
95	0xbbe254b0	-0.006907068
96	0x3da0becb	0.07848891
97	0xbd860b5b	-0.06545135
98	0xbd603534	-0.05473824
99	0xbd89a953	-0.06721749
100	0xbd3a9a5e	-0.045557372
101	0xbda4d6f2	-0.0804881
102	0x3d79db86	0.06100037
103	0x3d8f8a77	0.07008832
104	0xbd8599e0	-0.0652349
105	0x3d854d51	0.065088876
106	0xbd2fcb29	-0.042918358
107	0x3d2bab42	0.04191137
108	0x3c1616e8	0.009160735
109	0x3d9d5003	0.07681277
110	0x3cac4a30	0.02103147
111	0x3d38e7ee	0.04514306
112	0x3c37d518	0.011220239
113	0xbdb31fa9	-0.08746273
114	0xbbb9af50	-0.005666651
115	0x3d1c999a	0.038232423
116	0xbd9c0bb6	-0.07619421
117	0xbcbb64f4	-0.022875287
118	0xbd5fb836	-0.054619037
119	0x3d7943d2	0.060855694
120	0xbd69713a	-0.056992747
121	0xbd1342cd	-0.035952378
122	0xbd9750bf	-0.07388448
123	0x3be19820	0.00688459
124	0x3c466bd8	0.012110673
125	0xbd877716	-0.06614511
126	0xbda2e336	-0.07953493
127	0xbcba9514	-0.022776164
128	0x3d9684e7	0.07349568
129	0xbcf31a0a	-0.029675502
130	0xbbd58560	-0.0065161437
131	0xbd3d7c3b	-0.046261054
132	0xbc8dbd14	-0.017302074
133	0xbd815878	-0.06315702
134	0xbd4e3f9e	-0.05035364
135	0xbd45d4b3	-0.04829855
136	0x3d657bb2	0.05602617
137	0xbda0dbce	-0.078544244
138	0x3d95bbfd	0.073112465
139	0xbc941b80	-0.01807952
140	0xbd650192	-0.0559097
141	0x3db1fabd	0.08690403
142	0x3c415490	0.011799946
143	0x3da570f9	0.080781884
144	0xbd659903	-0.056054126
145	0x3d8d640f	0.0690385
146	0xbd79f127	-0.061020996
147	0xbda950af	-0.08267342
148	0xbdb1308a	-0.08651836
149	0x3d89cb85	0.067282714
150	0x3da596dd	0.080854155
151	0x3db3b14f	0.08774053
152	0xbcb83ab8	-0.022488937
153	0x3bdfffe0	0.0068359226
154	0xbd15fba8	-0.03661695
155	0x3c097f78	0.008392207
156	0xbcd1b4ec	-0.025598966
157	0xbcdae8d8	-0.026722357
158	0x3da76091	0.081727155
159	0x3d8e0aff	0.06935691
160	0xbd7201ae	-0.059083633
161	0x3d5ef2ce	0.054430775
162	0x3c091f08	0.008369215
163	0xbdb3e258	-0.08783406
164	0x3a834700	0.0010015666
165	0xbd9a70c4	-0.075410396
166	0x3d255ebe	0.040373556
167	0x3d03b098	0.032150835
168	0xbc5d9b88	-0.013525851
169	0x3cac5120	0.021034777
170	0xbd79f091	-0.061020438
171	0xbd976ee6	-0.07394199
172	0x3d32b12a	0.043625988
173	0x3c457f50	0.012054279
174	0x3d40742e	0.046985798
175	0xbd20debd	-0.03927492
176	0xbd307ef9	-0.04308984
177	0x3d4a7586	0.049428485
178	0x3d66f72a	0.056388058
179	0x3d884e3f	0.06655549
180	0xbd9d84b8	-0.0769133
181	0x3cc48ee4	0.023993917
182	0x3b905a00	0.00440526
183	0x3d50531e	0.050860517
184	0xbda81a30	-0.0820812
185	0x3d2965de	0.041356914
186	0x3d6981b2	0.057008453
187	0xbd018042	-0.031616457
188	0xbd7644d8	-0.06012425
189	0x3d2fcc7a	0.042919613
190	0x3d073830	0.03301257
191	0xbc8f7e48	-0.01751627
192	0x3db31229	0.08743698
193	0xbc4a4fb8	-0.012348108
194	0xbd12b4cb	-0.03581695
195	0x3d338262	0.043825515
196	0x3ca6ef20	0.020377696
197	0xbd8f8d5e	-0.070093855
198	0x3d770f12	0.060317107
199	0xbd516736	-0.05112382
200	0x3da87bff	0.082267754
201	0x3d808f23	0.06277301
202	0x3d621b9a	0.055202104
203	0x3d680ba2	0.05665172
204	0xbc7d3958	-0.015455566
205	0x3d65216a	0.05594007
206	0x3d8d9709	0.06913573
207	0xbc94594c	-0.018108986
208	0x3d9bf717	0.07615488
209	0xbcec9774	-0.028880812
210	0x3d2d174e	0.042258553
211	0x3da00309	0.07813079
212	0x3d32f9be	0.043695204
213	0xbd0a2aee	-0.033732347
214	0xbd432101	-0.047638897
215	0xbb1725c0	-0.0023063272
216	0x3a123900	0.00055779517
217	0xbd68f8e0	-0.05687797
218	0x3cbd2e74	0.02309344
219	0x3d98ea33	0.07466545
220	0x3d39df6e	0.045379095
221	0xbd4f79c6	-0.05065324
222	0xbd9f7ad3	-0.07787099
223	0x3d803fe9	0.0626219
224	0xbd882c37	-0.06649058
225	0xbd47f704	-0.048819557
226	0x3c85e3ac	0.016343914
227	0xbd9ec511	-0.07752431
228	0x3d965781	0.07340909
229	0xba9d46c0	-0.0011999235
230	0xbd97ec56	-0.074181244
231	0xbb149c20	-0.0022676066
232	0x3d2deb5e	0.04246079
233	0x3d947c8d	0.07250319
234	0xbd9550cd	-0.07290802
235	0xbd289f25	-0.041167397
236	0x39720000	0.00023078918
237	0xbc32d188	-0.010914214
238	0x3d469a6e	0.04848712
239	0x3d0c505a	0.034256317
240	0xbd77f51e	-0.060536496
241	0xbdab308d	-0.0835887
242	0x3cfaeff0	0.03063199
243	0x3d8824ed	0.06647668
244	0x3da68569	0.08130915
245	0xbda42264	-0.08014372
246	0xbd62d84b	-0.055382054
247	0x3d112632	0.035436817
248	0xbd2e3681	-0.042532448
249	0x3d0d55fa	0.03450582
250	0xbdb0bd17	-0.08629816
251	0xbd3163ef	-0.043308195
252	0xbc9941ac	-0.018708073
253	0xbd92bacc	-0.07164535
254	0xbd84a72e	-0.064771995
255	0xbb88b310	-0.0041717365

fc2.bias f4 [128]
0	0x3d257cd4	0.04040225
1	0xbcce6e30	-0.025199026
2	0x3ccaa6d8	0.02473776
3	0x3d06552c	0.03279607
4	0x3c9314c8	0.017954245
5	0x3bf300d0	0.0074158683
6	0xbcda9fb0	-0.026687473
7	0x3d140fda	0.03614793
8	0xbd55e09c	-0.052216157
9	0xbd1bd5ab	-0.038045567
10	0x3c20c318	0.009812139
11	0x3cc1a7f4	0.023639657
12	0x3caecd64	0.021338172
13	0xbc06e708	-0.008233793
14	0x3c3fbd08	0.011702783
15	0x3d4d9344	0.05018927
16	0xbc0108b4	-0.00787561
17	0xbc35f75c	-0.011106338
18	0xbb60ed10	-0.0034320988
19	0xbc883408	-0.016626373
20	0xbd7145e6	-0.05890455
21	0x3d612cc6	0.05497434
22	0xbd64be62	-0.055845626
23	0xbd4916c6	-0.049093984
24	0x3d0ad680	0.03389597
25	0xbd17b0ae	-0.03703373
26	0xbcce7d94	-0.025206365
27	0x3b214580	0.0024608076
28	0x3c8253f4	0.015909173
29	0x3be5a170	0.0070077702
30	0xbcfab181	-0.030602219
31	0xbc691220	-0.014225513
32	0xbd2ccf65	-0.042189974
33	0xbcc0958c	-0.02350881
34	0x3d6d34dc	0.05791174
35	0xbd1d2a3e	-0.038370363
36	0x3d581a84	0.052759662
37	0x3c3bfae8	0.011473395
38	0xbd01020a	-0.031496085
39	0x3cc156c8	0.02360095
40	0x3d0034e4	0.03130044
41	0x3d2a14f8	0.041523904
42	0xbbe00f98	-0.0068377964
43	0x3cb475c0	0.022028804
44	0xbd3dc46d	-0.046329904
45	0xbb973e90	-0.0046156123
46	0x3d5dac8c	0.05411963
47	0x3d6fc006	0.058532737
48	0x3c2e26b8	0.010629348
49	0x3ce4a830	0.02791223
50	0x3c7e6338	0.015526585
51	0xbb240320	-0.0025026277
52	0xbd0ca440	-0.03433633
53	0xbcdb0984	-0.026737936
54	0x3c9a9740	0.01887095
55	0xbd58ab15	-0.05289753
56	0xbd41f65e	-0.047354095
57	0xbd47a257	-0.048738804
58	0x3d2ded00	0.04246235
59	0xbd416dad	-0.047223736
60	0xbc43d154	-0.011951763
61	0xbcde9d98	-0.027174756
62	0x3cc12b3c	0.023580186
63	0xbd0e20df	-0.034699317
64	0x3c4bd8f8	0.012441866
65	0xbd077c92	-0.033077784
66	0xbb0d8090	-0.0021591522
67	0x3cc7eb18	0.024404094
68	0x3d636ae4	0.05552186
69	0xbcd65e12	-0.026167903
70	0x3d741c44	0.05959727
71	0xbc0a37c8	-0.008436151
72	0xbd3bb708	-0.04582885
73	0xbc5b8800	-0.013399124
74	0xbd7324fb	-0.05936144
75	0xbb554ca0	-0.0032546893
76	0x3d1310e6	0.035904787
77	0xbcb4902e	-0.022041406
78	0x3d1c51ae	0.038163833
79	0xbc145254	-0.009052832
80	0x3d1d912a	0.038468517
81	0xbd450bd9	-0.048107002
82	0xbd3e3e68	-0.046446234
83	0x3d4cffc0	0.05004859
84	0xbd6b39cf	-0.057428177
85	0xbc8622d0	-0.016374022
86	0x3d02d7fc	0.03194426
87	0xbd62ea47	-0.055399206
88	0xbc665784	-0.014058951
89	0x3c324178	0.010879867
90	0xbd61b84b	-0.055107396
91	0xbcca1696	-0.024668973
92	0x3d19fef0	0.037596643
93	0xbd3492f9	-0.044085477
94	0xbd6ac471	-0.057316247
95	0xbc8ad1c8	-0.016945735
96	0x3c222480	0.009896398
97	0x3d4c7d6a	0.04992429
98	0xbd31d2d6	-0.04341396
99	0x3b9e0820	0.004822746
100	0xbd1c3868	-0.03813973
101	0x3d1e8c56	0.038708054
102	0x3d22a2e6	0.039706133
103	0xbd69fc6a	-0.057125486
104	0xbc4816dc	-0.012212481
105	0x3c2a12d8	0.010380469
106	0xbcd2c424	-0.025728293
107	0xbcfb68f1	-0.030689688
108	0xbd16e356	-0.0368379
109	0x3d09b744	0.03362204
110	0x3cb51830	0.02210626
111	0xbc245134	-0.010029126
112	0xbd321f14	-0.04348667
113	0xbd3d4f26	-0.04621806
114	0x3cbc25e0	0.022967279
115	0xbd505c68	-0.050869375
116	0x3c9300d8	0.017944738
117	0xbd34d816	-0.044151388
118	0x3c625e78	0.013816468
119	0x3cfc4770	0.030795783
120	0xbc88aa8e	-0.01668289
121	0x3d0fdf7a	0.035125233
122	0xbd71a9f4	-0.05899997
123	0x3c7c8188	0.015411742
124	0x3cb4a4b4	0.022051193
125	0xbcff0c56	-0.031133812
126	0x3cda2064	0.026626773
127	0x3d447c44	0.04797007

fc3.weight f4 [1, 128]
0	0xbac7ebb6	-0.0015252742
1	0xba4736a0	-0.00075993873
2	0xbb140fa0	-0.002259232
3	0x3a880d38	0.0010379916
4	0xbaa60327	-0.0012665734
5	0x39708570	0.00022937893
6	0xba8944b4	-0.0010472746
7	0xbaec1b04	-0.0018013422
8	0x3b3bb88c	0.0028643934
9	0x3a784148	0.0009470177
10	0x3a9c43f4	0.0011922107
11	0xbaadda64	-0.0013263938
12	0x3b3b6b0a	0.0028597736
13	0x3a622a34	0.00086275046
14	0x3ad1b58c	0.001599954
15	0xbac50b9f	-0.0015033371
16	0xb99bd718	-0.0002972416
17	0x39ebad90	0.00044952007
18	0x3b33c188	0.0027428586
19	0x3b0001c6	0.0019532307
20	0x3ada4e94	0.0016655498
21	0x3a2c34ac	0.0006569128
22	0x3b2b826e	0.0026170271
23	0x3a52de5c	0.00080439984
24	0xbb31d67c	-0.00271359
25	0x3ae6ee54	0.0017618635
26	0x3a42d540	0.00074322894
27	0xb976c7f0	-0.0002353487
28	0x3a2c3964	0.0006569831
29	0x3b0745b2	0.0020640907
30	0xbb02564e	-0.0019887867
31	0xbb2e036c	-0.0026552333
32	0x3ae7abf4	0.0017675147
33	0xbaa4574b	-0.0012538222
34	0x3991b990	0.0002779481
35	0xba55bbec	-0.0008153308
36	0xba23d120	-0.00062491186
37	0xbb2d14c4	-0.0026410082
38	0x3aef3f68	0.001825315
39	0x3a473214	0.000759871
40	0xba95fe58	-0.0011443598
41	0xba58194c	-0.00082435156
42	0x3b250920	0.002518244
43	0x39c47518	0.00037471275
44	0xba3b4f28	-0.0007145279
45	0xba0bb470	-0.00053293165
46	0xbb43357e	-0.0029786523
47	0x3966c230	0.0002200685
48	0x3ada01c4	0.0016632606
49	0x39e2ea98	0.00043280865
50	0xbb04b2f8	-0.0020248275
51	0xbb1762a1	-0.002309956
52	0xbb3e58d7	-0.0029044652
53	0x3b10d8ec	0.0022101952
54	0xbb1105d1	-0.002212871
55	0x39f9e688	0.0004766474
56	0x3b01fbd6	0.0019833944
57	0x391f4ba0	0.00015191594
58	0x3b108156	0.0022049746
59	0x3ae884a0	0.0017739721
60	0xbaa70cc0	-0.0012744889
61	0x3b221020	0.002472885
62	0xb9ee92d0	-0.0004550428
63	0x3afdc5e8	0.0019361349
64	0x3b12fb20	0.0022427514
65	0xbaae8079	-0.0013313434
66	0x3a95013c	0.0011368166
67	0xbb313e17	-0.0027045065
68	0xbb43e91b	-0.002989358
69	0x3ad42144	0.001618423
70	0x3ae369f4	0.0017350302
71	0xb9809860	-0.0002452759
72	0xbb09bcb7	-0.0021017024
73	0x39b514a0	0.00034538377
74	0xbb2f41c2	-0.0026742076
75	0x3b0859b0	0.002080541
76	0x3a680078	0.00088501675
77	0x36887400	4.06662e-06
78	0x3b3ab638	0.0028489958
79	0xba949b81	-0.0011337848
80	0x3a1ea7a8	0.00060522044
81	0xb844eb40	-4.6949135e-05
82	0x3a0f3e10	0.0005464265
83	0xbb10c1fc	-0.002208828
84	0xba4f4e18	-0.000790806
85	0x3ae6bf4c	0.0017604618
86	0x3abae2f4	0.0014258311
87	0xb8c95c00	-9.601563e-05
88	0x3a6d82a0	0.0009060297
89	0x3b332346	0.0027334257
90	0x3a1a31a4	0.0005882031
91	0x3ab3b8ac	0.0013711653
92	0xbac9baac	-0.0015390716
93	0xbb1a68e2	-0.002356105
94	0xbb093444	-0.0020935694
95	0xbb3f4ba9	-0.0029189384
96	0xbb14a230	-0.002267968
97	0x3aeea9d0	0.0018208567
98	0xb8cbd5a0	-9.719585e-05
99	0x3a00b3e4	0.00049096183
100	0xba79fcd8	-0.0009536273
101	0xbad47b76	-0.0016211111
102	0x3b014812	0.0019726795
103	0xbb335443	-0.0027363456
104	0xbaf03a5e	-0.0018327942
105	0x3aa24738	0.0012380844
106	0xbaa13ea2	-0.0012301991
107	0x3ac676dc	0.0015141624
108	0x398fdf90	0.00027441652
109	0xbb1e1c22	-0.0024125655
110	0xbadfbe6a	-0.0017070298
111	0xba1aeb8c	-0.0005909733
112	0xbb20e086	-0.002454789
113	0xba7534cc	-0.00093538756
114	0x3b04d9a4	0.0020271325
115	0x3b1d9844	0.0024047056
116	0xbb109aba	-0.002206488
117	0xbb21ab32	-0.002466869
118	0xb8f218a0	-0.00011544046
119	0xb9ca6ea0	-0.00038610864
120	0x3ae988c0	0.0017817244
121	0xbaecd5a7	-0.0018069044
122	0xbaf8d60c	-0.0018984689
123	0xb8956ae0	-7.124781e-05
124	0x3b3a93a8	0.0028469358
125	0x3ace0e1c	0.0015720758
126	0xbb038d04	-0.0020073066
127	0x3ac11334	0.0014730454
