models/checkpoint_critic_local_15.pth (torch_old, 349244 bytes, 5 tensors)

fcs1.weight f4 [256, 200]
000000 80 35 29 3c c4 a7 2d bd 4e 2d 1c bd 22 61 29 bd
       0.010327697 -0.042396322 -0.038129143 -0.0413524
000010 62 f3 70 3d 9c 9d 07 bd b0 38 00 3c 30 05 53 3d
       0.058825858 -0.033109292 0.007826015 0.05151862
000020 f8 0c eb bc b0 4b 75 3c 58 5c 49 3c 80 91 b8 bc
       -0.028692707 0.014971659 0.012290083 -0.022530317
000030 50 32 73 bd 4e b0 5a 3d fa 38 33 bd ae d2 2a bd
       -0.059374154 0.053390794 -0.04375551 -0.041704826
000040 7c 7c 2d 3d fa 59 4d 3d b0 c6 cc 3b 64 10 51 3d
       0.042355046 0.050134636 0.0062492713 0.051041022
000050 58 3d 35 bc 04 e6 d0 3c ce 57 08 3d 90 db 10 bc
       -0.011061989 0.025500305 0.033286862 -0.00884141
000060 62 47 36 bd 28 93 fe 3c 66 f4 5d 3d dc 98 cb 3c
       -0.04450167 0.031076029 0.054188155 0.024853162
000070 30 42 10 bc 9c 16 30 bd d4 57 70 3d 8a 6a 39 bd
       -0.008804843 -0.042990312 0.05867751 -0.04526762
000080 a0 98 7a bb 32 9f 09 3d 92 2f 5b 3d 3a d6 4b 3d
       -0.0038237944 0.033599086 0.053512163 0.04976485
000090 f2 f2 25 bd 00 a0 fa 3a 6c c6 bd bc d8 22 12 3d
       -0.040514894 0.001912117 -0.023165904 0.03567776
0000a0 a4 9e 41 3d 1a bc 13 bd 2c a3 b9 bc a8 15 bd 3c
       0.047270432 -0.03606806 -0.022660814 0.023081616
0000b0 2e 74 4e 3d 72 95 06 3d a0 82 3e 3d a4 35 40 bd
       0.050403766 0.032857366 0.046511292 -0.046926156
0000c0 a8 6b ad bc 00 4c c1 39 a0 77 d8 bc d6 b2 2e bd
       -0.021169499 0.00036868453 -0.02642423 -0.04265102
0000d0 c8 30 53 bd 48 a0 e0 3c 90 74 e7 3b ac 8c b5 bc
       -0.051560193 0.027420178 0.007063456 -0.022161804
0000e0 aa cc 71 bd 60 46 c2 bc 7c 6d 85 bc 62 81 0f 3d
       -0.059033073 -0.023715198 -0.016287558 0.0350355
0000f0 30 3a 16 bc f0 72 1d bc 10 2a 29 3d 00 47 51 3b
       -0.009169146 -0.009609923 0.04129988 0.0031933188
000100 ac 1a 6a 3d b8 28 21 3d 6c db 76 bd fc cb f8 3c
       0.057154343 0.039345473 -0.06026785 0.030370705
000110 08 0b d6 3c 1c d9 0d 3d 60 ad 68 bd 48 9b ae bc
       0.026128307 0.03463088 -0.05680597 -0.021314278
000120 5a 63 06 3d 80 0d c9 bc 46 92 2a 3d 04 20 db 3c
       0.032809593 -0.02454257 0.041643403 0.026748665
000130 a8 d1 4c 3c 30 bb 29 3d f4 0a 01 3d 36 07 3a 3d
       0.012501158 0.04143828 0.031504586 0.045417033
000140 1c 96 21 bd 9c ff 9a 3c c4 38 7e 3d 98 26 cc 3c
       -0.039449796 0.018920712 0.062065855 0.024920747
000150 38 95 6d bd 5a 8a 21 3d fe d7 6a bd 78 57 c4 bc
       -0.058003634 0.039438583 -0.057334892 -0.02396749
000160 80 2c 94 ba d0 fa 18 bc 54 f6 d8 bc 64 98 e0 3c
       -0.0011304766 -0.009337142 -0.026484646 0.027416416
000170 90 23 c2 bb 3c 6b ea bc 3a 3f 21 3d e0 ba 0e bc
       -0.0059246495 -0.028615586 0.03936694 -0.008711547
000180 70 51 2e 3c 94 2d bf bc 1e 87 42 3d 52 4c 1b bd
       0.010639533 -0.023337163 0.04749214 -0.03791458
000190 58 b1 26 3d 70 f8 5d bc 68 a7 59 3d 78 64 77 3d
       0.040696472 -0.013548002 0.053138167 0.06039855
0001a0 70 04 f7 bc 16 08 4c 3d 96 07 43 3d 44 15 fd 3c
       -0.030153483 0.0498124 0.047614656 0.03089393
0001b0 6c 8e 22 bd 30 4a d3 3c ca 59 34 bd f6 cf 02 bd
       -0.039686605 0.025792211 -0.044030942 -0.03193661
0001c0 fe 4a 52 3d 50 b4 57 3c fc d1 6a 3d ec 0c 5e bd
       0.05134105 0.013165548 0.057329163 -0.054211542
0001d0 2a 23 70 bd 12 1e 0d 3d 8a 84 78 bd f6 ca 1d bd
       -0.058627285 0.034452505 -0.060673274 -0.038523637
0001e0 60 9a 2c 3d f4 87 7f bd 28 09 63 3c 3a 66 5b 3d
       0.04213941 -0.062385514 0.0138571635 0.053564288
0001f0 74 4b 91 3c 54 d1 e0 3c 0c d3 53 3d e8 8c 31 3c
       0.017736174 0.027443565 0.05171494 0.010836817
000200 98 62 06 3d 2c ed 3c 3d 14 f1 6d 3d 72 5d 6f bd
       0.03280887 0.046124622 0.05809124 -0.058438726
000210 44 ff f2 bc 10 12 20 3c 24 b8 03 bd 76 47 46 bd
       -0.029662736 0.009769931 -0.032158032 -0.048407994
000220 0a dd 7a 3d 10 ab 22 3d 94 50 94 bc c0 ea 87 bc
       0.061245956 0.03971392 -0.018104829 -0.01659143
000230 66 1b 0a 3d 28 9e 42 3d 4a f3 54 bd 00 dd b6 3a
       0.033717535 0.04751411 -0.05198983 0.0013951361
000240 92 9f 2c 3d 14 e5 1d 3d d4 82 de bc 56 25 02 3d
       0.042144366 0.038548544 -0.027161993 0.031773888
000250 c2 46 46 bd 68 94 5b bc 0a 3e 3f 3d 16 08 14 bd
       -0.048407324 -0.013402082 0.046690024 -0.036140524
000260 44 38 f1 3c dc d7 53 3d 82 1b 1c 3d 90 c3 88 3b
       0.029445775 0.05171953 0.03811217 0.0041737035
000270 62 7e 55 3d 98 d4 3c 3c 80 88 81 3c a0 39 15 3b
       0.05212248 0.011525296 0.015812159 0.0022769943
000280 d0 5b 95 bb e0 2b bf 3b 40 cb 29 3c be 63 5c 3d
       -0.004558064 0.0058340877 0.0103634 0.05380606
000290 74 f5 f5 bc 10 37 4a 3d 20 a8 34 3c 54 7c 80 3c
       -0.030024268 0.049368918 0.011026412 0.015684284
0002a0 54 6e 4c bd 58 7b 3d bd 98 0a 79 bd 74 ec 27 bd
       -0.049909905 -0.046260208 -0.06080112 -0.040996984
0002b0 5e fd 36 3d 20 ee 6b 3b 90 05 08 bc 70 67 c2 bc
       0.044675224 0.0036000088 -0.008302107 -0.023730963
0002c0 f0 db d4 bc 58 9a 92 3c b8 a0 2b 3d 0a b4 1f 3d
       -0.02598378 0.017895862 0.04190132 0.038990058
0002d0 a0 83 94 3c 40 90 f5 bb 54 f5 26 bd 48 ac 09 3c
       0.01812917 -0.0074940026 -0.040761307 0.008402891
0002e0 38 0e ab 3c 32 97 13 3d 80 60 69 bd 66 0d 69 bd
       0.020880803 0.036032863 -0.056976795 -0.056897543
0002f0 c0 1f 8d 3b b8 38 a1 3c e2 4d 22 3d a8 42 06 bc
       0.0043067634 0.019680366 0.039625056 -0.008194603
000300 a2 52 15 bd a0 90 51 3d 94 ca a9 bc 80 19 4e 3d
       -0.036455758 0.051163316 -0.02072648 0.050317287
000310 34 60 b1 bc a6 52 38 3d a2 ef 25 bd 1a d3 37 3d
       -0.021652319 0.045000695 -0.040511735 0.044879057
000320 60 95 77 bc 38 b9 16 bd 88 d5 9c bc c0 14 51 3d
       -0.015111297 -0.036797732 -0.019144788 0.05104518
000330 a0 08 e7 bb ae b0 65 3d b8 e3 30 bd 1c 0d 54 bd
       -0.0070505887 0.056076698 -0.04318592 -0.051770315
000340 6c b1 a8 bc 7a 10 7f bd dc 08 2f 3d 30 21 6a bc
       -0.020592414 -0.062271573 0.04273306 -0.014290139
000350 06 7e 46 3d 80 9c 12 3a 74 08 8f 3c 6e b6 57 3d
       0.04846003 0.00055927783 0.017460085 0.052664213
000360 66 ae 20 3d da 00 1b 3d 3a 7e 68 bd f8 63 52 bd
       0.03922882 0.03784261 -0.056761004 -0.05136487
000370 84 34 7e 3d f0 70 49 3c 4a b5 6d bd 9c 63 7a 3d
       0.0620618 0.012294993 -0.05803422 0.06113015
000380 74 f3 a1 bc cc 6c 76 bd 30 1c 0c 3c 38 b7 27 bd
       -0.019769408 -0.06016235 0.008551642 -0.040946215
000390 c8 47 5e bd a2 b3 37 3d 80 b6 22 bb 6c 2b 64 bd
       -0.054267675 0.044849046 -0.0024828017 -0.055705473
0003a0 ba d5 5d 3d b0 49 dc bb d8 9c 11 bd 90 97 30 bc
       0.054158904 -0.0067226514 -0.03554997 -0.010778323
0003b0 10 bf 17 3d e4 69 20 3d 46 59 4f 3d 14 d5 cd bc
       0.037047446 0.039163485 0.050622247 -0.025126018
0003c0 a0 60 6b bd e8 d8 32 3c 14 a0 95 bc cc 0d 74 3d
       -0.057465196 0.010915972 -0.018264808 0.05958347
0003d0 54 0e 50 bd e6 85 16 3d 44 4b c9 bc 96 cd 76 3d
       -0.050794914 0.03674879 -0.024572022 0.060254656
0003e0 cc 79 5e 3d f0 9e de bc b6 24 54 3d fc 12 ac bc
       0.054315373 -0.027175397 0.051792823 -0.021005146
0003f0 06 d5 63 3d bc cd 60 3d 76 01 04 3d e4 fa 7b bd
       0.055623077 0.054883704 0.032227956 -0.061518565

fcs1.bias f4 [256]
000000 74 08 b7 3c 10 35 f4 3c 90 0b 8b 3b 06 aa 0f 3d
       0.022342898 0.029810458 0.0042433217 0.035074256
000010 10 8b af bb 99 6d 85 3d f4 44 36 bc a4 e0 d1 3c
       -0.0053571537 0.06515045 -0.011124838 0.025619812
000020 f6 3c 6a 3d 9d 81 83 3d 27 50 78 bd 59 49 90 3d
       0.057187043 0.06421206 -0.060623314 0.0704524
000030 e0 75 5d 3c 80 be 7c 3c 06 5d 96 bc d3 cf 8c bd
       0.013516873 0.015426278 -0.018354904 -0.06875577
000040 36 f0 59 3d fe 1e 23 3d 56 4c 47 3d 6e a9 fe bc
       0.0532076 0.03982448 0.048656784 -0.03108665
000050 db 27 57 bd 5a 58 65 bd 3f ef 32 bd 98 2f 5b 3d
       -0.052528244 -0.05599246 -0.043685194 0.053512186
000060 0b f2 19 bd fc ca 3a bd 70 a0 23 bc 28 be b7 3c
       -0.037584346 -0.045603737 -0.009986982 0.02242954
000070 e0 86 19 bb bc ad 9b 3c 88 ef 34 3c fc ad 94 bc
       -0.002342634 0.019003741 0.011043437 -0.018149368
000080 6b c6 14 bd 24 19 28 bc f0 d0 56 3c f8 3f 43 bd
       -0.03632204 -0.0102599 0.013111338 -0.047668427
000090 40 3f 6a bc d0 18 e9 3c 8a 77 16 3d cc 23 ff 3c
       -0.014297307 0.028454214 0.036735095 0.031144999
0000a0 bc 0b aa 3c c0 54 d1 3c 00 ca 01 3c 7a ee ef bc
       0.020757549 0.025553107 0.007921696 -0.02928852
0000b0 00 90 93 bc ea 96 9a bc 3c ab ed 3c 45 5f 08 bd
       -0.018013 -0.01887079 0.029012315 -0.03329398
0000c0 d6 70 52 3d d8 65 82 3c 48 80 47 bc 7e 3f 62 3d
       0.05137714 0.015917704 -0.012176581 0.055236332
0000d0 00 57 13 ba 08 0c 03 3d 16 55 09 3d 8a 6e 7c 3d
       -0.0005620569 0.031993896 0.03352841 0.061628856
0000e0 88 36 49 bd fa 69 ae bc 52 f1 21 3d ca 9f 7c 3d
       -0.04912427 -0.021290768 0.03953678 0.061675824
0000f0 be 75 0e bd b6 0b b1 bc 56 4d 28 bd c0 6f 26 bb
       -0.034780256 -0.02161203 -0.04108938 -0.0025396198
000100 8c 50 5d bc 14 62 31 bc 56 a4 87 bd 23 bb 8c 3d
       -0.013507973 -0.010826606 -0.066231415 0.06871631
000110 18 24 7f 3c 90 0f 4b 3c 60 69 01 3b 30 87 57 bc
       0.01557257 0.012393847 0.0019746646 -0.01315479
000120 9e d8 36 bd 94 83 f3 3c 74 4d ab 3c 70 e5 d1 bc
       -0.044640176 0.029725827 0.020910956 -0.0256221
000130 60 9f 6c bd 00 55 c2 3a 00 3d 9b 3a 28 06 d0 3c
       -0.05776918 0.0014826357 0.0011843741 0.02539356
000140 20 d5 37 3b 5c 1b 2b bc a8 2f 1a bd 14 d6 56 bd
       0.0028050616 -0.010443535 -0.037643105 -0.052450255
000150 2b 3e 87 bd e0 da 55 3c ee 3d aa bc 52 59 ff bc
       -0.066036545 0.013052672 -0.020781484 -0.031170521
000160 02 88 2a bd 90 3e ea bb f8 b5 cd 3c f6 b1 86 bd
       -0.041633613 -0.0071485713 0.025111184 -0.06576912
000170 9e 2a 28 bd 82 83 86 bd 84 b1 b3 3c b8 87 e8 bc
       -0.041056268 -0.06568052 0.021935232 -0.028385028
000180 24 97 0e 3d 14 22 a7 3c 4c bd 83 bd e8 c2 1f 3c
       0.034812108 0.020401992 -0.0643259 0.009751059
000190 58 59 a1 3c 17 b0 75 bd 40 cf c5 bb 28 61 f2 3c
       0.019695923 -0.059982385 -0.006036669 0.029587343
0001a0 9a a4 fc bc 9a 9e 5f 3d 20 8b 39 3d b2 de 59 bd
       -0.030840207 0.054594614 0.045298696 -0.053190894
0001b0 fc 34 b6 3c 13 b0 1c bd f8 3a 46 3c a0 a2 53 3d
       0.022242062 -0.038253855 0.01209902 0.051668763
0001c0 ce 94 f8 bc a0 6b 47 bd d0 cc 78 3c f6 8a d8 bc
       -0.030344393 -0.048686624 0.01518555 -0.02643345
0001d0 34 0d d2 3c 19 4b 86 3d 34 7c b9 bc d0 a2 e2 3b
       0.025641061 0.065572925 -0.022642232 0.0069163814
0001e0 a4 77 9f 3c 00 a5 76 3a 80 58 1d bd fe fc f1 bc
       0.019466229 0.0009408742 -0.03841448 -0.029539581
0001f0 c0 eb f8 bb 80 ca ed 3c ac 0c cd bc de bd 55 bd
       -0.007596463 0.029027224 -0.025030456 -0.052183025
000200 20 9a 7d bb ee 13 64 3d 70 ae cd 3b 62 56 10 3d
       -0.0038696602 0.05568307 0.006276898 0.03523863
000210 a2 49 8d bd e0 1d 8f bd 92 df 39 3d e8 65 03 3c
       -0.0689881 -0.0698812 0.04537923 0.008019902
000220 f8 e8 fc 3c 6c 7e a2 bc 10 1d d4 3b 72 12 66 bd
       0.030872807 -0.019835673 0.006473191 -0.056169935
000230 58 bb 26 3c bc 15 23 3d 3c 6d 4d 3d 7e 43 2f bd
       0.010176502 0.03981565 0.050153002 -0.042788975
000240 9b f5 89 3d 20 d7 55 3d a0 6d 5a 3d 58 99 d0 bc
       0.06736299 0.052207112 0.053327203 -0.025463745
000250 a8 4b f0 bc 7b 96 39 bd 18 97 3b 3c 38 f0 39 3c
       -0.02933295 -0.045309525 0.011449598 0.0113487765
000260 58 66 d9 bc 8a 3b 6e bd f0 c3 26 bd 50 c9 a3 bc
       -0.02653806 -0.05816225 -0.040714204 -0.019993454
000270 4a 54 8d bc be a9 8f bd 43 f6 74 bd 70 49 90 bc
       -0.017252106 -0.07014798 -0.059805166 -0.017613143
000280 56 ee f1 bc 24 12 8d bd 06 b5 5d bd 09 d4 58 bd
       -0.029532593 -0.06888226 -0.054127716 -0.052936587
000290 95 4d 68 bd 4e 59 3d 3d 09 7f 34 bd 77 97 8b 3d
       -0.056714613 0.046227746 -0.044066463 0.06815999
0002a0 b4 cd 42 bc 50 6f fb 3b c0 c8 d9 ba 80 95 56 ba
       -0.011889864 0.0076731816 -0.0016615614 -0.00081857294
0002b0 2c 68 ec 3c 6a 11 85 bd 34 89 53 bd 46 77 87 bc
       0.028858267 -0.06497462 -0.05164452 -0.016536366
0002c0 5c 7d 07 bc d7 69 87 bd c0 2d 36 3b 44 44 5d bd
       -0.008269634 -0.06611984 0.0027798265 -0.05402018
0002d0 45 59 3b bd 4e da 09 3d 0e 10 20 bd 24 0a 61 bd
       -0.04573943 0.033655457 -0.03907781 -0.05494131
0002e0 be 5d 52 3d 26 92 30 3d a2 ea 8f bd 16 14 d6 bc
       0.05135893 0.043108128 -0.070271745 -0.026132625
0002f0 ba 89 26 bd f2 bb 60 bd 95 21 84 3d 8c d5 4f bd
       -0.04065869 -0.05486674 0.06451718 -0.050740764
000300 ec fc 0c bd d3 13 89 bd e2 64 bd bc c0 28 d6 3a
       -0.034420893 -0.06693234 -0.023119394 0.0016339049
000310 c8 98 77 bd 32 39 3f 3d f0 ae e9 3c 00 00 0d 3d
       -0.060448438 0.046685405 0.0285258 0.034423828
000320 c8 10 76 3c 0a fe 84 bd a4 42 4a bd 24 43 4f bc
       0.015018649 -0.064937666 -0.04937996 -0.012650285
000330 6e b1 37 bd d4 e7 24 bc a8 c4 4b bd d2 6f d9 bc
       -0.044846945 -0.010065038 -0.049748093 -0.026542578
000340 82 25 61 3d 88 11 24 3c 18 9e be 3c f4 3e ab 3c
       0.05496741 0.010013945 0.023268744 0.020904042
000350 f8 4a c2 3c 36 aa 61 3d 5f 14 8d 3d 68 8e 3d bd
       0.023717389 0.055093966 0.06888651 -0.046278387
000360 a4 8b 0b 3d 10 91 be 3b 65 0d 8b 3d e0 88 ed bb
       0.03406872 0.0058156326 0.06789664 -0.007248983
000370 36 26 61 3d 60 de 81 bd 6a 35 09 3d 08 65 a5 3c
       0.05496808 -0.06341243 0.033498205 0.020189777
000380 81 81 10 bd fd 09 17 bd da 02 59 bd 09 e4 36 bd
       -0.035279755 -0.03687476 -0.052981235 -0.044651065
000390 c7 42 8f 3d ac 5e ff 3c c0 10 1e bc c8 2d e7 bc
       0.06995159 0.031173073 -0.009647548 -0.028220072
0003a0 d6 60 13 3d 60 a5 f3 3b d9 db 87 bd 9a 3c 6f 3d
       0.03598102 0.0074354857 -0.066337295 0.058407404
0003b0 88 1e 7e 3c 34 47 23 bd 19 8b 8c bd 0c a4 36 3d
       0.015510209 -0.039862826 -0.06862468 0.04459004
0003c0 d8 52 0e 3d 84 7a bb 3c 8b d7 84 bd 89 f8 80 3d
       0.034746975 0.022885568 -0.06486424 0.06297404
0003d0 ef 84 12 bd 7d 60 8d 3d 20 56 71 bd ce 1b 85 bd
       -0.035771307 0.06903169 -0.058920026 -0.06499444
0003e0 66 ab 57 3d 40 de 83 bd c0 33 9b 3b f2 8e 56 3d
       0.052653693 -0.06438875 0.0047363937 0.052382417
0003f0 b9 65 90 3d 18 9b 95 bc ca 8e 2f 3d 75 ff 68 bd
       0.07050652 -0.018262431 0.042860784 -0.056884248

fc2.weight f4 [128, 276]
000000 a1 27 8d 3d 1d 36 b4 3d 7e 79 9f bd 2c 5f 94 bc
       0.06892324 0.08799384 -0.07786845 -0.018111788
000010 12 a8 71 3d 4b d1 8b 3d 78 f6 48 3c 62 23 28 3d
       0.058998175 0.06827029 0.012265794 0.04104937
000020 cd c4 9c 3d 51 ae 17 bd 66 ed 77 3d b8 55 00 3c
       0.07654724 -0.037031475 0.060529135 0.007832937
000030 95 18 a4 bd 16 e5 5d 3d b0 0c 89 bd 28 2c 89 bd
       -0.08012501 0.05417355 -0.06691873 -0.06697875
000040 2a 10 7a bd 00 19 86 b9 98 e0 9c 3c 31 a7 a9 3d
       -0.06105057 -0.00025577098 0.019150063 0.08283842
000050 f8 e4 57 bc f5 a3 87 3d 90 1b d8 3c 05 32 9d bd
       -0.013177149 0.06623069 0.02638033 -0.07675556
000060 00 18 a7 38 e0 fb 97 bd 01 ea a9 bd 60 e0 26 3b
       7.967651e-05 -0.07421088 -0.08296586 0.0025463328
000070 c8 8a 0f 3c 79 31 89 3d f9 8a 36 bd 1f 87 ae 3d
       0.008761115 0.06698889 -0.04456613 0.08521866
000080 c2 c4 95 bd 32 a5 f1 bc 39 48 86 bd e6 71 47 3d
       -0.07312919 -0.029497717 -0.06556744 0.048692606
000090 20 d3 08 3b 24 b3 f7 3c a0 b5 9f bd bc 1c c8 bc
       0.0020877793 0.030236788 -0.07798314 -0.024427764
0000a0 93 43 3b bd 9a 10 7a 3d 18 4e 97 bc d7 9d 82 3d
       -0.04571874 0.06105099 -0.018469855 0.06377762
0000b0 3d 04 ae 3d 10 40 f4 bb b6 97 0e 3d 2b 73 b1 bd
       0.08496902 -0.007453926 0.03481265 -0.08664545
0000c0 30 b6 b0 3c 50 d4 c9 3b 39 12 98 bd 1a 08 49 bd
       0.021571249 0.006159343 -0.07425351 -0.049079992
0000d0 68 8d e6 bc 4c 24 85 bc d3 28 9a 3d 1a a6 1f 3d
       -0.0281436 -0.01625266 0.07527318 0.038976766
0000e0 a8 ea bd 3c 71 82 3f bd c8 c9 1c bc 28 3d 71 3c
       0.023183182 -0.046755258 -0.009569593 0.014724053
0000f0 48 83 d3 3c 88 6a bd bc 94 a0 ce bc 71 eb 80 bd
       0.025819436 -0.023122087 -0.025223054 -0.06294907
000100 f4 5b 9a bc 67 b5 88 3d d9 a3 85 3d 60 f6 8f bd
       -0.018842675 0.06675225 0.06525392 -0.07029414
000110 92 e6 01 bd a4 72 c1 bc 42 5b 69 3d d6 4b 47 3d
       -0.03171403 -0.023614235 0.056971796 0.048656307
000120 f2 4d 1b 3d 31 5b 1c bd 98 aa 23 bd 02 96 4b 3d
       0.03791613 -0.038172904 -0.039957613 0.049703605
000130 68 5e 23 bc 96 22 02 bd 4c 26 02 3d 92 43 aa bd
       -0.009971239 -0.031771265 0.031774804 -0.08313669
000140 20 47 4e 3c 66 44 31 bd 15 d7 97 3d 56 a4 25 3d
       0.0125902 -0.04327812 0.074140705 0.040439926
000150 ba b6 de bc 40 aa 6a bc 80 b8 d5 3a d0 6b 1e 3c
       -0.02718674 -0.014322817 0.0016305596 0.009669259
000160 2a c9 3a 3d 3c 80 6b bd f0 68 54 3c 5e 78 6f bd
       0.045602 -0.05749534 0.012964472 -0.0584644
000170 ba be 51 bd a0 0a 77 bb 6b 6f 9b 3d 25 b2 a7 3d
       -0.05120728 -0.0037695542 0.07589611 0.08188275
000180 68 d3 4c bc 1e d8 8f bd 10 d9 d1 bc d1 86 88 3d
       -0.012501575 -0.07023643 -0.025616199 0.06666339
000190 d4 8c 86 bd 50 a4 5a 3c a1 d5 ae 3d d1 5b 04 bd
       -0.065698296 0.013344839 0.0853684 -0.032314125
0001a0 bb 85 61 bd 4e c8 33 3d 2b 1a 0a bd 93 84 82 bd
       -0.055059176 0.043892197 -0.033716362 -0.06372943
0001b0 f4 42 78 bd 4a ee 40 3d 80 26 74 ba b9 d0 08 bd
       -0.060610726 0.04710225 -0.0009313598 -0.03340218
0001c0 b3 d6 91 3d b4 1c 89 bd 6c a3 80 bc 86 d0 29 3d
       0.07121029 -0.06694928 -0.015702926 0.04145863
0001d0 e6 31 47 bd 1a 69 28 3d a0 2c 47 bc 8b 08 54 bd
       -0.04863157 0.041115858 -0.0121566355 -0.05176596
0001e0 ce 5b 49 3d 2d e4 13 bd 98 2e 69 bd 00 9c d2 3c
       0.049159817 -0.036106277 -0.0569292 0.025709152
0001f0 6a ff 5f 3d c4 62 cd 3c 5a b4 37 3d 2b 28 4f bd
       0.05468694 0.02507151 0.04484973 -0.050575417
000200 ea 82 b1 bd b0 8e a4 3c 99 f0 91 3d 08 fb 18 bd
       -0.08667548 0.02008757 0.071259685 -0.037348777
000210 96 27 d9 bc c2 aa 7e bd a4 a7 93 bd c8 13 43 bd
       -0.026508134 -0.062174566 -0.07209709 -0.047626287
000220 b0 a7 68 bc c8 5c 85 bd 9a c3 39 3d 63 24 9f bd
       -0.014200136 -0.06511837 0.045352556 -0.07770612
000230 e8 99 a8 3c d0 6c f8 bb 1c 33 82 bc c2 dd 04 3d
       0.0205812 -0.007581331 -0.015893511 0.032438047
000240 40 6d d8 3a b0 35 1c bc 78 01 5f bd 4e 45 35 3d
       0.0016512051 -0.0095342845 -0.05444476 0.044255547
000250 16 7a 6d 3d 47 5e 95 3d b0 c9 6d bc c2 0e 70 3d
       0.05797776 0.072933726 -0.014513418 0.058607824
000260 e8 4d 37 3c 94 79 50 bd 4a b3 11 3d 85 c5 a5 bd
       0.011188008 -0.050897196 0.035571374 -0.080943145
000270 94 05 ad bd 20 6a d0 3b cc db aa bc 60 76 ab 3b
       -0.084483296 0.0063603073 -0.02085676 0.0052326173
000280 93 9f 0d bd 7f 72 b0 3d 5f 18 b3 3d c0 3f fb 3b
       -0.03457601 0.086155884 0.08744883 0.0076675117
000290 ce 27 22 3d a4 97 95 bc f8 a6 cd bc d4 45 c9 3c
       0.039588742 -0.018260784 -0.025104031 0.02456943
0002a0 14 26 a0 bc 00 3f c0 3c e4 31 12 bd 20 04 8a bd
       -0.019549407 0.02346754 -0.03569211 -0.06739068
0002b0 fa e6 2c 3d 2c b6 ce 3c 00 33 7b bc d2 b8 1c 3d
       0.042212464 0.02523335 -0.015331984 0.038262196
0002c0 e8 c9 90 bd b8 d2 22 3c 08 92 8b 3c 69 34 83 bd
       -0.070697606 0.009937935 0.017037407 -0.06406481
0002d0 b4 d1 98 bc 14 59 89 bc 20 05 18 bc 40 b8 e6 bb
       -0.018654682 -0.016766109 -0.009278566 -0.0070410073
0002e0 a1 d4 65 bd 44 19 a1 bc 6d 9d 23 bd 4a e9 6e 3d
       -0.05611098 -0.019665368 -0.039945055 0.05832795
0002f0 0b b1 a6 3d 6b 50 38 bd 6e d4 94 bd a5 fb 89 3d
       0.08139237 -0.044998568 -0.0726708 0.067374505
000300 8a 02 8a bd ba 41 0d 3d 68 06 64 bc e3 31 b4 3d
       -0.067387655 0.03448651 -0.013917543 0.08798578
000310 d7 e1 31 bd d6 93 91 bd d3 9a 8d bd e6 3e 46 bd
       -0.04342827 -0.071082756 -0.06914296 -0.04839983
000320 0e da 72 3d ce 82 8a bd b6 62 4b 3d 08 ff 95 bd
       0.059289984 -0.0676323 0.049654685 -0.07324034
000330 a6 1c 5a 3d 6f f7 ac 3d 14 76 c4 3c f6 3f 70 3d
       0.053249978 0.08445632 0.023982085 0.058654748
000340 62 2f 45 3d b8 31 7f bc cd 13 ab 3d 4a 3d 57 3d
       0.04814089 -0.015575819 0.08353386 0.052548684
000350 85 17 aa bd bc 31 8d bd 50 e4 9e bc d0 8d f5 bc
       -0.08305267 -0.06894252 -0.019395977 -0.029974848
000360 13 df ac bd 00 8c a6 bb 4b 89 60 bd 97 97 02 bd
       -0.084409855 -0.0050826073 -0.054818433 -0.03188285
000370 00 4b ec 3c 3a e8 a9 bd e0 3f 0c 3d 84 0a 86 bc
       0.028844357 -0.08296247 0.034240603 -0.016362436
000380 d0 c4 f3 3b b4 95 6f bd c8 87 ba 3c 9d 9c 87 3d
       0.0074392334 -0.058492377 0.022769824 0.066216685
000390 67 37 ad 3d 7e 6a 57 3d 7a de 6a 3d f6 79 63 3d
       0.08457833 0.052591793 0.057341076 0.055536233
0003a0 54 05 fd 3c cd 0d 95 bd d6 a3 05 3d b8 23 4c bd
       0.03088633 -0.07278023 0.03262695 -0.04983875
0003b0 4c 07 b4 3c d9 6e a0 bd c4 29 86 3c cf 05 09 bd
       0.021976136 -0.078336425 0.016377337 -0.033452805
0003c0 cb 3a 95 3d 4c 20 dd bc ca 8b 7b 3d bc 41 bd 3c
       0.072866045 -0.02699294 0.06141261 0.023102634
0003d0 fe 59 47 3d e0 b6 10 bc 59 66 ad 3d df 02 82 3d
       0.048669808 -0.008832663 0.08466787 0.06348204
0003e0 e0 cd 15 3b f6 45 5d 3d d7 b0 b1 bd 8a b4 3e bd
       0.0022858307 0.054021798 -0.08676308 -0.046558894
0003f0 f3 8c 7e bd b5 ad 65 bd 91 69 80 3d 56 a1 7b 3d
       -0.06214614 -0.056073863 0.06270135 0.06143316

fc2.bias f4 [128]
000000 40 c4 58 3c e0 07 ad 3b f6 18 2f 3d 80 e7 17 bd
       0.013230383 0.00528048 0.042748414 -0.03708601
000010 bc 83 5b bd 64 d9 00 bc ae 4f 30 bd e7 9e 3c bd
       -0.05359243 -0.00786433 -0.04304474 -0.04604998
000020 e8 21 0b 3c 46 64 06 3d 00 31 65 3c fc 16 fc 3c
       0.008491971 0.032810472 0.013988733 0.030772679
000030 20 c5 a0 bc 6b 89 36 bd 1e 59 0c 3d 94 93 b5 3c
       -0.019625247 -0.044564646 0.034264676 0.022165097
000040 d6 0b 5c bd 00 17 32 3b c0 ac 70 3c 6c fb a9 3c
       -0.053722225 0.0027174354 0.014689624 0.02074977
000050 aa c0 af bc bc 7d 07 3d cc 9e c2 bc 96 09 6a bd
       -0.021454174 0.033078894 -0.02375736 -0.057138048
000060 79 77 52 bd 10 2d 8d 3c 9f 68 37 bd f0 20 4c 3d
       -0.05138347 0.017233402 -0.04477751 0.0498361
000070 dc f1 43 bc b0 33 5d bd 00 cf 06 3b a6 1b 5e bd
       -0.011959519 -0.05400437 0.002057016 -0.054225586
000080 ce 7b 51 3d 34 8f 2d bc 68 04 19 bd f8 a4 12 bd
       0.05114346 -0.010593224 -0.037357718 -0.035801858
000090 38 47 84 bc 22 8a 23 3d a0 49 a4 3b 38 e8 31 3c
       -0.016147241 0.039926656 0.0050136596 0.010858588
0000a0 80 d1 a5 bb 50 e1 e1 3b 00 7e 0e bc 60 3a 13 bc
       -0.0050603747 0.0068933144 -0.008697033 -0.008986086
0000b0 1e 2a 53 3d d3 99 58 bd 54 ad 9b bc 50 35 9d 3b
       0.051553838 -0.052881073 -0.019003548 0.004797615
0000c0 9e 32 25 bd 7c 28 b3 bc f8 7c 34 bc 6c 2f 1a bc
       -0.040331475 -0.02186989 -0.011016123 -0.00941072
0000d0 a8 77 41 3d 8e 9e 19 3d 30 52 9d 3b ae 89 40 3d
       0.047233254 0.037504725 0.0048010573 0.0470063
0000e0 2a 7e 71 3d f4 a1 87 3c d8 ac 54 3d 8e a5 3c 3d
       0.05895821 0.016556717 0.05192265 0.046056323
0000f0 84 c9 72 bd b0 ac 4e bd 90 e0 a5 3b 7a 81 e8 bc
       -0.05927421 -0.050457656 0.0050621703 -0.028382052
000100 00 a1 4a 3d 04 01 c9 3c 04 3d 5a bd de e3 48 bd
       0.049469948 0.024536617 -0.053280845 -0.049045436
000110 06 e2 a6 bc 64 e5 13 3d 0b 31 1f bd da be 18 3d
       -0.020371448 0.036107436 -0.03886513 0.037291385
000120 1a aa 24 3d b8 63 db 3c 10 fb bf 3c e8 4d 0d 3c
       0.040201284 0.026780948 0.023435146 0.008624531
000130 20 01 ab 3a 62 60 3c 3d fb 4f 56 bd f0 d6 4e 3d
       0.00130466 0.045990355 -0.05232237 0.05049795
000140 b8 39 33 bd 60 d7 1e bd 6a 54 28 3d b0 89 17 3c
       -0.043756217 -0.038779616 0.04109613 0.009249136
000150 f8 0d 2a 3d ca a7 4f 3d 4e bd fe bc 46 07 0d 3d
       0.041517228 0.050697125 -0.031096127 0.034430765
000160 fe b8 ef bc 90 c2 0c bc 03 c8 58 bd 20 66 a7 3c
       -0.029263016 -0.008591309 -0.05292512 0.02043444
000170 a2 75 4a 3d 70 18 4a bd d0 d9 17 3c 00 55 05 bd
       0.04942859 -0.04933971 0.009268239 -0.032551765
000180 da 44 73 bd 3b 4b 45 bd ac 4e fa 3c 8c 24 0f 3d
       -0.059391834 -0.04816745 0.030555092 0.034946963
000190 c4 2d 1c 3d 28 3c 8a bb a0 36 a1 3b 80 a2 c4 bc
       0.038129583 -0.004218597 0.004919842 -0.024003267
0001a0 8a ca 67 3d fc 49 23 3d 4c 3c 08 bc 14 84 89 bc
       0.05658964 0.03986548 -0.008315157 -0.016786613
0001b0 5e 64 06 bd 99 cb 5f bd 10 f6 85 bb 9a 09 cb bc
       -0.03281056 -0.054637525 -0.004088171 -0.024784852
0001c0 67 34 17 bd 9c 1c 48 3d 81 3c 4f bd 84 1e 5a bc
       -0.03691521 0.04885541 -0.05059481 -0.01331294
0001d0 40 4b 12 bc 20 f3 06 3b e0 c7 06 3c bc e7 b9 3c
       -0.008929074 0.002059169 0.008226365 0.022693507
0001e0 ac 34 72 3d 50 b2 52 3d ce 45 a5 bc c8 76 1d bd
       0.059132263 0.051439583 -0.020174887 -0.038443357
0001f0 a8 c5 c0 bb f4 fb 1f 3d c0 6a 79 3c c9 51 60 bd
       -0.0058829375 0.03905864 0.015223205 -0.054765496

fc3.weight f4 [1, 128]
000000 94 ab f1 3a ca 68 9e ba 60 f9 7b ba ae 48 23 3b
       0.0018437975 -0.0012085673 -0.000961205 0.0024915147
000010 e9 84 f4 ba a8 db 52 3a 88 58 b0 39 86 34 2b bb
       -0.0018655333 0.00080435956 0.00033635297 -0.0026123836
000020 a0 5c 16 b9 97 cc d8 ba 7c cb 39 ba 24 06 e8 ba
       -0.0001433962 -0.0016540465 -0.00070875115 -0.0017702025
000030 d0 8e 18 b9 e0 a6 80 3a f2 d3 41 3b 82 49 cd ba
       -0.00014549051 0.0009815358 0.0029575792 -0.0015662166
000040 08 3d d0 39 6c d3 41 3b 08 66 b7 3a ba 8a 40 bb
       0.00039718323 0.002957548 0.00139922 -0.0029379562
000050 ac ab ee 3a b4 7b 31 ba 84 d0 47 3a 6b 01 29 bb
       0.0018209121 -0.00067704474 0.0007622319 -0.0025788199
000060 fe ef 27 3b 51 b1 00 bb 84 ce e7 3a a0 96 8f b8
       0.0025625224 -0.0019636939 0.0017685448 -6.8468275e-05
000070 df 1d 33 bb 30 81 00 ba 8c 9e d6 3a 72 3c 23 3b
       -0.0027331037 -0.0004902063 0.0016374155 0.0024907854
000080 70 d5 db 3a 60 74 e9 b9 84 d4 9d ba d4 2a 02 3b
       0.0016771983 -0.0004452793 -0.0012041484 0.0019861953
000090 3f 9f 37 bb f8 c0 2c bb 84 55 0d 3b 90 bc ea 3a
       -0.0028018502 -0.0026360136 0.0021565864 0.0017908979
0000a0 d4 3d ef ba c8 7d fd ba 84 05 ba 3a c6 3a 1d 3b
       -0.0018252679 -0.0019339854 0.0014192318 0.002399133
0000b0 24 94 02 bb c1 f1 3b bb 49 fc d6 ba 86 3f 1f 3b
       -0.0019924724 -0.0028678032 -0.0016402091 0.0024299338
0000c0 ca 7b dc ba be fa 02 bb 40 d5 fa ba 5f 0c e1 ba
       -0.001682156 -0.001998588 -0.001913704 -0.0017169825
0000d0 8d 3e dc ba 70 19 4e ba c0 88 c2 3a ed 40 37 bb
       -0.001680331 -0.0007862067 0.001484178 -0.0027962283
0000e0 34 43 1d ba 4e 15 c8 ba 6f 44 9a ba 28 ef 49 3a
       -0.0005999089 -0.0015265138 -0.0011769662 0.00077031786
0000f0 74 db fa ba 80 e5 b7 38 78 17 81 39 b0 d7 21 3b
       -0.0019138888 8.768868e-05 0.00024622283 0.002469521
000100 18 a2 dd 3a fa 43 24 bb 10 09 0f ba 08 91 01 3a
       0.001690927 -0.0025064931 -0.00054563675 0.0004942571
000110 64 aa 34 3b 20 c7 16 3a 0c b0 a7 3a 4e f7 01 bb
       0.002756738 0.0005751718 0.0012793555 -0.0019831243
000120 2a 67 31 3b 1c fb 7c ba 34 85 bb 3a e0 c3 15 39
       0.0027069547 -0.00096504553 0.0014306665 0.00014282716
000130 f6 3a c2 ba 4c 70 cf 3a 35 e9 96 ba c0 33 31 39
       -0.0014818597 0.0015826314 -0.0011513593 0.00016899314
000140 40 34 05 3b ef 04 17 bb 61 fd 03 bb c8 2f ee ba
       0.0020325333 -0.0023043712 -0.002014004 -0.0018172199
000150 30 c9 f3 3a 18 ca 8a b9 f8 cc 8d 3a ec e5 03 3b
       0.0018599387 -0.00026471983 0.0010818532 0.0020126058
000160 8b a7 d5 ba a0 23 04 bb 26 35 06 bb a2 f7 21 3b
       -0.0016300542 -0.0020162836 -0.0020478456 0.002471425
000170 00 2c 03 b8 48 f4 89 3a 00 42 0b 3b 01 84 a4 ba
       -3.1273812e-05 0.0010525072 0.0021249056 -0.0012551547
000180 d6 bf 0d 3b e0 b9 c2 38 cc ad 0a bb 94 1e 56 ba
       0.0021629236 9.285263e-05 -0.002116072 -0.00081680086
000190 cc f0 39 bb bc c9 5d 3a 70 36 53 ba 00 6a dd 37
       -0.0028372286 0.0008460542 -0.0008057123 2.6394613e-05
0001a0 6c 0e dc 3a fc e2 a5 3a f0 ec 2b b9 07 4b e0 ba
       0.0016788966 0.0012656148 -0.00016396097 -0.0017112204
0001b0 28 38 87 39 50 e9 f2 3a c3 4a e7 ba 8e 8f db ba
       0.00025791046 0.0018532667 -0.0017646182 -0.0016751157
0001c0 18 f6 0d 3a a4 2b c2 3a 08 1a 1e 3a e5 a1 9e ba
       0.0005415394 0.0014814031 0.00060311006 -0.0012102692
0001d0 04 ec 13 ba b8 2c ae 3a 8c 65 82 3a 5a 08 cc ba
       -0.0005642774 0.0013288474 0.0009948476 -0.0015566454
0001e0 27 15 1a bb 50 f0 1b 3b 33 fb 0f bb 52 11 0f 3b
       -0.0023511143 0.002379436 -0.0021969795 0.0021830392
0001f0 2c 9c eb 3a e8 1c 63 ba b8 d1 b8 3a ea 91 16 bb
       0.001797562 -0.000866367 0.0014100587 -0.0022975155
