models/checkpoint_actor_local_8.pth (torch, 147743 bytes, 5 tensors)

fc1.weight f4 [256, 12]
00000000: 62ab 203d 2cc0 283d c857 da3c 683b 77bd
00000010: 0678 4bbd b4bc 11bd 84d8 223d 60d5 ec3b
00000020: 6a26 1f3d 9229 203d 9073 19bc 8a59 673d
00000030: 4a5b 323d fa70 083d 5417 c1bc e0cd 2fbc
00000040: 0ab4 013d 44ea 69bd c87b 37bd ec22 05bd
00000050: 08d0 703c 6ec4 6e3d 5489 78bd e0a7 363c
00000060: a419 c33c 00ae 453b b05b a8bb 9e02 7a3d
00000070: 3cf6 e13c 90c4 853c 0e5d 703d 70f5 ffbc
00000080: aad3 243d 92e3 28bd a230 4e3d 6493 37bd
00000090: a48e afbc d4f4 a3bc 807a 92ba f093 0cbd
000000a0: 24b7 d3bc 1c73 f9bc 8087 3d3a 5c3a 243d
000000b0: 7079 4b3c 1c14 9e3c 1422 1c3d 3471 bf3c
000000c0: 2c49 0dbd 3417 06bd b068 a73b 8092 aabc
000000d0: 5030 5d3c 4ae4 7e3d 8623 35bd cc16 463d
000000e0: e6d2 6abd 9875 853c bca4 5b3d 9272 04bd
000000f0: 9485 e8bc 7c72 5a3d 58d5 2f3d 6c0c 52bd
00000100: c0aa 463c 6891 6fbc e808 343d 8a85 2cbd
00000110: e8d6 01bd 007c c63a e8aa 3f3c c035 79bc
00000120: 14e5 363d 7414 7fbd 6ca7 693d 88fc 3c3c
00000130: d21f 1fbd c863 e4bc 9238 5b3d 1891 22bd
00000140: 969d 783d f6ca 38bd 6e16 4bbd 526e 2ebd
00000150: 76ce 763d 8234 3cbd e8d8 853c 3450 1cbd
00000160: 28b9 3ebc 9844 e1bc 90c3 40bd 5027 bcbc
00000170: 9e72 78bd 74cc 553d 54cb e13c ec29 4d3d
00000180: c0c7 11bb f4f7 3e3d 309d 623d e007 e1bc
00000190: 6cca df3c 8476 193d 16b6 463d 3057 973c
000001a0: fcde 833c 5a34 44bd 2a1a 403d 82b2 253d
000001b0: 6e7c 743d 2e94 643d 0cac 31bd b062 ec3b
000001c0: 48ab 5e3c 9aac 0ebd 9c56 e0bc 8075 003b
000001d0: ec57 cc3c c010 19bd 4087 493b c804 1ebc
000001e0: b067 2a3c b82a 86bc aca4 f03c 18dc 00bd
000001f0: b0f2 a8bc 6043 52bb 9acb 6bbd 6016 483b
00000200: e003 febc e4a6 1bbd 3472 0f3d 0cc8 3bbd
00000210: 0a74 353d 869f 34bd 70a8 7abc 90e6 05bc
00000220: f429 a3bc f062 25bd 60a0 d53b 6c4d 4b3d
00000230: d075 fe3c b28d 07bd e01d 81bc 7058 893b
00000240: 80c0 f1bc 062c 7b3d 12dc 7dbd 80b4 dc3c
00000250: 6890 02bd 6c83 e13c 4cd1 d3bc c007 0c3b
00000260: e0e4 d23b 203b 71bc 187b e2bc 8020 603b
00000270: 2017 1a3b 78d1 acbc 96b1 083d 38c2 55bd
00000280: f817 54bc 18d4 493c e688 053d 50d9 b4bb
00000290: d622 3d3d 40b1 1d3c c0c8 813c 76cb 483d
000002a0: 56c6 29bd 4003 a83a d680 4a3d 3e5b 773d
000002b0: e2c1 47bd b071 52bc 9856 6bbd 402a aabb
000002c0: d4fc 32bd b833 80bc 74af 313d ba01 58bd
000002d0: 1476 e53c c04a fcba 401e 3abd 2aa3 7bbd
000002e0: 846e babc 020c 4b3d e6aa 443d 16dc 483d
000002f0: 4e7a 7f3d 2849 133d 70c0 26bd eca2 283d
00000300: 609a d53c 8275 56bd 8089 623b 9aa6 14bd
00000310: 702c 783c 00f4 6d3c 4054 373d 4027 d33a
00000320: 149c cd3c 845e 35bd 60d4 293d d05e b7bb
00000330: e0d6 bbbc 949c 30bd 9088 593c ce81 2bbd
00000340: 808a 0dbd ccc3 c53c 00fa 4aba b45d 01bd
00000350: 86ba 1abd 1807 3a3c 7858 7c3d 2815 8a3c
00000360: e0eb ecbb 8c88 333d cc67 45bd c05d 4dbd
00000370: 24ec ed3c aafe 113d 6413 6dbd a8b0 333d
00000380: a02b 093d 80f4 ebba f4a6 1ebd 02cd 45bd
00000390: c493 d33c 266f 0e3d a0d6 243c 5c78 aa3c
000003a0: b2e0 7cbd 90d0 f23c ded5 5d3d 9edf 673d
000003b0: e8f3 223c e099 123d f08c c83c 36fa 23bd
000003c0: 7420 893c 2cbc 30bd cca1 2dbd 904d 5dbd
000003d0: 809b dcbb 8081 393b f419 c9bc ca93 123d
000003e0: b082 46bc 44fc 8dbc e8aa 763d 561f 2fbd
000003f0: 90f0 ccbb b485 b63c b86f e33c 8af1 6d3d
0.039225943 0.041198894 0.026653185 -0.06035939 -0.04967501 -0.035580352 0.039757267 0.0072275847
0.038854994 0.039102145 -0.009365931 0.056481875 0.04354409 0.033310868 -0.023570694 -0.010730237
0.03166584 -0.05710818 -0.04479578 -0.032504007 0.014698036 0.0582928 -0.06067784 0.011148423
0.023815937 0.0030163527 -0.005137883 0.061037652 0.027583234 0.01632908 0.058682494 -0.031244963
0.04024092 -0.041232653 0.05033935 -0.044818297 -0.021430321 -0.020014204 -0.0011175424 -0.03432077
-0.025844164 -0.030450396 0.0007229969 0.04009472 0.01241909 0.019296698 0.038118437 0.02336941
-0.03449361 -0.032736972 0.0051089153 -0.02082181 0.013500288 0.062229432 -0.04422333 0.048361585
-0.057330035 0.016291425 0.0536239 -0.032335825 -0.028384008 0.053331837 0.04292807 -0.051281378
0.012125671 -0.01462207 0.043953806 -0.04211954 -0.03169909 0.0015143156 0.011698462 -0.015210569
0.04465206 -0.062275365 0.05704443 0.0115348175 -0.038848706 -0.02787961 0.053520747 -0.039689153
0.06069716 -0.045115434 -0.049581937 -0.04258568 0.06025549 -0.045948513 0.01633878 -0.038162425
-0.011640824 -0.027498528 -0.047061503 -0.022967964 -0.060656182 0.052196935 0.027562775 0.050088808
-0.0022244304 0.046623185 0.055325687 -0.027469575 0.027318202 0.03746654 0.048513494 0.018474191
0.016097538 -0.04790149 0.046899952 0.04045344 0.059688978 0.055805378 -0.043376967 0.007213913
0.013590641 -0.034832574 -0.027385049 0.0019601285 0.024944268 -0.03736949 0.0030750781 -0.009644695
0.010400698 -0.016377792 0.029375397 -0.031459898 -0.020623535 -0.0032083616 -0.057567216 0.0030530915
-0.031007707 -0.038000956 0.035021022 -0.045845076 0.044300117 -0.044097446 -0.015298948 -0.008172646
-0.019917466 -0.040377557 0.0065193623 0.049634382 0.031062037 -0.033094116 -0.015761316 0.004191451
-0.029510736 0.06132128 -0.061977454 0.026941538 -0.031875998 0.027528487 -0.025856636 0.0021366924
0.0064359754 -0.014723569 -0.027646586 0.003419906 0.0023512319 -0.021095976 0.033372484 -0.052187175
-0.012945168 0.0123186335 0.03260126 -0.0055190697 0.0461758 0.009624779 0.015842795 0.04902216
-0.041448914 0.0012818351 0.049439274 0.06038975 -0.048768885 -0.012844488 -0.05745563 -0.005193025
-0.043698147 -0.015649661 0.043380216 -0.05273602 0.028010406 -0.0019248351 -0.045439005 -0.061434902
-0.022757776 0.049572 0.048014544 0.049038015 0.0623725 0.03595844 -0.040710866 0.041171
0.026074588 -0.052358158 0.003456682 -0.036291696 0.0151473135 0.014523506 0.04475808 0.001610972
0.025098838 -0.04427959 0.041462302 -0.0055960193 -0.022929609 -0.043118075 0.013277188 -0.04187184
-0.034555912 0.024141215 -0.00077429414 -0.031583503 -0.03777554 0.01135423 0.061607808 0.016855791
-0.007230267 0.043831393 -0.04819469 -0.050138235 0.029043265 0.035643257 -0.05787982 0.043869644
0.03348887 -0.0018001944 -0.038733438 -0.048291214 0.025827296 0.03477397 0.010060936 0.020809345
-0.061737724 0.029640466 0.054159038 0.056609742 0.009945847 0.035791278 0.024481267 -0.04003354
0.016739108 -0.043148205 -0.04239063 -0.054029047 -0.006732404 0.0028305948 -0.024548508 0.035785474
-0.012116119 -0.017332204 0.060221583 -0.042754494 -0.006254263 0.022280551 0.027763233 0.058091678

fc1.bias f4 [256]
00000000: e8af 693e c97f 0dbe 8801 033e 3080 47bd
00000010: 3e2a 81be b0c9 8a3e e2d3 043e 4c1c bd3d
00000020: 18f1 593e 021b 0e3e 6083 4cbc 6cdc e73d
00000030: 9418 553e 3eb5 823e 288d 40be 6ef1 3d3e
00000040: 5c18 44bd 183e 89bd f4c2 d03d 4854 d03d
00000050: 4ce1 4ebe 3470 863e 70fb fb3d b070 9b3d
00000060: 4527 91be 66db 9bbd 00d6 883d 2a4b 30be
00000070: 123c 56be 7e6e 82be 378c 22be 8018 c8bb
00000080: c0d9 903b eb4c 88be 3cb9 de3d 402c db3b
00000090: 599e 65be 60c5 8ebd 5e04 253e 8059 25be
000000a0: 242b 803d d4c1 9a3d 0c60 5e3e 868d 833e
000000b0: da04 48be 0354 6cbe 2615 033e 3cd1 6d3e
000000c0: a0cb 4b3e caab 8b3e ae4e e0bd be5f dbbd
000000d0: 7acb 223e 382e 7fbe 9421 49bd 7068 513d
000000e0: 203a 233c 0882 1bbe 3e97 3fbe 2034 b63d
000000f0: b96e 87be b195 45be cf48 90be 0a23 27be
00000100: a1dd 15be ba11 3bbe f085 a43d 30d2 dc3c
00000110: f029 653d b642 3c3e 7091 773d c06a 4c3c
00000120: c0ec d13c 8465 bebd c62a 833e 5084 503d
00000130: 1e0a 1e3e e672 833e 5eaa 4fbe b814 913e
00000140: 705e 75bd 2073 12be dc08 99bd 103e 933d
00000150: a050 65bc 3602 64be a0f4 eabc db1b 6fbe
00000160: 00b8 18bc 14e2 babd 305c 42bd c686 fabd
00000170: 076c 49be 489e 4f3e 5db3 92be dc4b 8cbe
00000180: 921a 033e 5c87 91be 948e 883e e257 923e
00000190: d086 c9bc c84b 0cbd 3470 15be 000d 9ebc
000001a0: 7049 953d 44fd 743e 78db 063e 2602 75be
000001b0: dc86 1f3e 04b7 5f3e 40e2 923e 78ff 663e
000001c0: 7a2f 3cbe 8a2b e6bd d84b 173d 2047 5f3e
000001d0: bc7b 683e 880a 88be fc80 863e b446 5dbe
000001e0: c071 733d 34d3 5d3e f081 823c 1513 27be
000001f0: 6c3f 083e e886 27bd ae8f 4c3e 4853 e03d
00000200: d8ae b53d cceb 9bbd 9c60 743e ec75 2cbe
00000210: db61 75be 6203 853e c04a 7cbc 0052 19bb
00000220: 30ea ac3d 804c ef3d 2c59 f2bd 989f 2f3e
00000230: 3818 4ebd fa1e 813e 4e60 193e e44e 8e3e
00000240: fc84 51be 68c6 4fbd a489 36be 381c 4cbd
00000250: 681e 603e 18e2 ab3d f0ad 9e3d 2086 84be
00000260: 98a2 c6bd abc2 8ebe 6096 c13d 6807 783e
00000270: 3dcb 1abe aa16 36be ec98 713e d0fe 233d
00000280: f093 17be c6a0 853e 94f8 03be 4ca6 ac3d
00000290: 980e c2bd dd93 15be 209b 563c 5e42 253e
000002a0: 10d4 f8bc 008d 933e fc1f 1d3e 9272 b1bd
000002b0: b8eb 3b3e 0aa6 183e f883 7ebd 54f4 323e
000002c0: 60d8 0f3c 4e65 443e 2669 473e d004 ba3c
000002d0: 0cdf 87bd fc30 003e a18c 31be 216d 4abe
000002e0: aa8c 8e3e 6cac 763e 409f 6bbd 523e 81be
000002f0: d859 f43d f9f3 15be 121d 873e ec7b bb3d
00000300: 2040 053c 08b8 46bd 0ac3 293e 20c6 133e
00000310: 6ccb 8ebe 10f1 343d b2a7 8d3e 1055 8abc
00000320: 582e 8abd c0f6 8abd c090 60bc d0c5 3f3e
00000330: 9899 9b3d 3836 713d 18d3 16be 1c8a 84be
00000340: c81c 383d fa86 833e 6846 983d 602c b23c
00000350: 50e1 213d 94c1 b5bd 30a4 753d 5c03 113e
00000360: 90f3 923d f378 42be 97c9 51be 240a e5bd
00000370: 4253 573e 4cfb 7abe f84d 7b3d c4f7 bfbd
00000380: 5c80 e53d f8b5 663d b860 1a3d 7c73 7d3e
00000390: 287e 463d 496b 47be a002 62bc 1295 8d3e
000003a0: a771 89be 0858 fc3d 1082 863c dc69 52be
000003b0: 473b 85be 487e 0c3d bc23 db3d a097 213d
000003c0: e048 04be 048e 303e 20f8 19bd 7c0b fa3d
000003d0: 405e b53c b0cf e4bd 38c6 743e 1478 853e
000003e0: 2e4e 8ebe 3421 133e e25e 8f3e 8265 833e
000003f0: 10b9 9e3d c054 953b 7072 943c 705b f5bc
0.22821009 -0.13818277 0.12793553 -0.048706234 -0.2522754 0.27107 0.12971452 0.09233913
0.21283376 0.1387749 -0.012482494 0.11321339 0.20810157 0.25528902 -0.18803847 0.1854913
-0.047874793 -0.067012966 0.10193434 0.101723254 -0.20203131 0.2625748 0.12303817 0.07589853
-0.28350273 -0.07610206 0.06681442 -0.17216173 -0.20921353 -0.25474924 -0.158738 -0.0061064363
0.004420489 -0.26621184 0.108751744 0.0066886246 -0.22423686 -0.0697124 0.16114947 -0.16147423
0.062582284 0.07556501 0.21716326 0.2569391 -0.195331 -0.23078923 0.12801036 0.23224348
0.19901896 0.27279502 -0.10952507 -0.10711621 0.15897933 -0.24919975 -0.04910429 0.05112499
0.009962589 -0.15186322 -0.18710038 0.08896661 -0.26451662 -0.19295384 -0.2818055 -0.1632196
-0.14635326 -0.18268481 0.08033359 0.026955694 0.055948198 0.18384823 0.060441434 0.012476623
0.025625587 -0.09296706 0.2561857 0.050907433 0.15433547 0.25673598 -0.20279834 0.2833612
-0.059904516 -0.14301729 -0.07472393 0.07189572 -0.013996273 -0.22266468 -0.0286811 -0.2335047
-0.009321213 -0.09125152 -0.047451198 -0.12232737 -0.19670115 0.20275223 -0.28652468 -0.27401626
0.12803105 -0.28423584 0.26671278 0.28582674 -0.024600416 -0.034251958 -0.14593583 -0.019293308
0.07289398 0.23924738 0.13169658 -0.23926601 0.15578789 0.21847159 0.2868824 0.22558391
-0.18377486 -0.11238773 0.036937565 0.21804476 0.22703451 -0.26570535 0.26270282 -0.21609002
0.059434652 0.21662599 0.0159311 -0.16315873 0.13305444 -0.04090014 0.19976684 0.10953385
0.088712394 -0.07613334 0.23864979 -0.16841859 -0.2396311 0.25979143 -0.015398681 -0.0023394823
0.08443105 0.11684513 -0.118334144 0.17150724 -0.050316066 0.25218946 0.14978144 0.27794564
-0.20460886 -0.050726324 -0.17825943 -0.0498316 0.21886599 0.08392733 0.0774802 -0.2588358
-0.09698981 -0.27882895 0.0945251 0.24221575 -0.15116592 -0.17782083 0.23593491 0.04003793
-0.14802527 0.26099223 -0.12887794 0.08430156 -0.0947544 -0.14607187 0.013098508 0.16138598
-0.030374557 0.28818512 0.15344232 -0.08664431 0.18351638 0.14907089 -0.062137574 0.17476016
0.008779615 0.1917927 0.19473705 0.022707373 -0.0663434 0.12518686 -0.17338802 -0.19768192
0.27841693 0.24089211 -0.05752492 -0.2524286 0.11931199 -0.1464385 0.26389366 0.091544956
0.008132964 -0.04851535 0.16578308 0.14431047 -0.27889574 0.044175208 0.27667004 -0.016886264
-0.067471206 -0.06785345 -0.013706386 0.18727803 0.07597655 0.058889598 -0.14728963 -0.2588662
0.044949323 0.25688916 0.07435304 0.021749675 0.039521515 -0.08874813 0.059971035 0.14161438
0.07175362 -0.18991451 -0.20487057 -0.11183575 0.21027854 -0.24509925 0.061353654 -0.093734294
0.11206123 0.056325883 0.037689894 0.24751085 0.048460156 -0.1947452 -0.013794571 0.27652794
-0.26844522 0.12321478 0.01641944 -0.20548195 -0.26021788 0.03430012 0.10700175 0.03945124
-0.12918425 0.17241675 -0.037590146 0.12209222 0.022139668 -0.11172426 0.2390374 0.26068175
-0.2779402 0.14368135 0.28002077 0.25663382 0.077501416 0.004557222 0.018120974 -0.029950827

fc2.weight f4 [128, 256]
00000000: c844 87bc c1bd a4bd b3d2 813d 186a 8ebd
00000010: ec5d cc3c d014 55bc a521 a33d 7f83 9abd
00000020: 209a 9fbc 7600 f9bc fcf9 f13c c305 0ebd
00000030: 1011 90bd 6c43 ec3c d161 83bd 82df 0ebd
00000040: b0a7 bc3b 9843 993c c114 34bd 7667 1a3d
00000050: ac8b 51bd 709b 0ebd 076e 79bd 3a33 1a3d
00000060: eb5f 903d fc7a ba3c 5838 f1bc 59c7 1cbd
00000070: a226 493d 6088 b53c 9755 8b3d a300 8c3d
00000080: 8264 3e3d a882 723c 0b37 aa3d 90d9 8b3c
00000090: 00c1 8c39 8306 9d3d 357f a1bd 5bf4 b03d
000000a0: 98f0 1dbc 1e0f aabd d9ef 9a3d 32ba 433d
000000b0: 6b6e 983d 1241 263d b44b fcbc fc85 913c
000000c0: 2d58 acbd b067 c73b 9221 8fbd c85d 6ebd
000000d0: 0238 373d 2039 d3bc 3091 b1bd fff8 8ebd
000000e0: b892 78bc 4cc3 2ebd b6c7 013d 681f 12bd
000000f0: 28e2 30bc fd0f 983d 10ce d83b cccd 6fbd
00000100: 53da 813d abfe 933d c7d8 b03d 4054 47bd
00000110: 1684 2cbd 9010 10bc a089 01bc a1b7 963d
00000120: 8a83 343d 54e0 b9bc 632a b03d aaff 92bd
00000130: 0e3b 073d 38f5 47bc e0fc 573b a856 aabc
00000140: 2033 6cbc 38b6 fc3c 1be6 aa3d beb6 6e3d
00000150: 1008 9d3b 4204 1d3d 0a3f 433d 9c8c 9fbd
00000160: c285 75bd dc21 b4bc 1031 c4bb 1a80 79bd
00000170: 548c 90bc bd13 ae3d 5445 a63c b8b2 353c
00000180: 4024 6bbc 941a d83c ccb8 35bd fa70 8abd
00000190: 208c 053c 9e8b ddbc 538a 53bd 88a1 283c
000001a0: 8224 4e3d 1002 793c bdcd 17bd 32b9 5fbd
000001b0: cbca 903d 661b a0bd 382c 103d c02e 96bd
000001c0: 80cb 493c 6e95 f6bc a0b8 d63c 3c48 ba3c
000001d0: 0fbe af3d c319 83bd 004e d0bc f803 e43c
000001e0: b3de 813d cd95 963d 4ebd 0bbd d8ff 2ebc
000001f0: 069e 3d3d 3848 31bc 5863 42bc be8c d6bc
00000200: 5c1a 27bd 2e96 1f3d d842 0dbc 44ef acbd
00000210: 28e6 1fbd 3366 9a3d 40ab d2bc ceab 4cbd
00000220: 3879 77bd ddaf b2bd 14a9 ae3c 4af3 5a3d
00000230: 62f9 b2bd b1c6 a23d 1f14 b23d 1710 953d
00000240: 2b26 a7bd 6af0 513d 9089 b6bb 37af 8a3d
00000250: 3093 05bc be4f 7b3d dc6d 84bc 7f27 09bd
00000260: 908c c13c 004c e93a f52f 21bd ccaf a6bc
00000270: 09dd ae3d 44f5 953c 3f3c 89bd 47db 833d
00000280: 0607 573d dc54 e73c 4005 2dbc 1be5 953d
00000290: 2168 9f3d b0fe e3bb b300 88bd 0aec 253d
000002a0: 3048 1cbd ae73 54bd 68c4 063c 40f6 f0bb
000002b0: 285a 05bc 67f0 97bd 417f 14bd 6c33 e33c
000002c0: 1ecb a8bd 507a 66bc 92d6 333d 1e2c 63bd
000002d0: 6316 b43d 2bfb a93d 0c98 aabc 852a ab3d
000002e0: f86b 06bd b447 37bd 54d3 98bc c630 7bbd
000002f0: 9acf 20bd 7723 8ebd 20d0 453c c08c 4c3b
00000300: e05e d43c 0301 90bd efa9 8f3d 2920 55bd
00000310: 2668 77bd 1608 acbd 3697 2f3d f8c8 93bd
00000320: a528 8f3d 0b49 ac3d e16a 9e3d 8007 173b
00000330: d42c e0bc 22da 373d c056 a53c 771c 8a3d
00000340: f0c1 e93b 6f09 8e3d 2db5 813d 800d c23b
00000350: eb1f 9fbd 7870 773c 3081 953c 2029 48bc
00000360: e05d 40bc 0eae 1c3d c8a0 88bd 00c1 2f3b
00000370: fd03 9d3d 1a25 503d 8384 14bd 73ba ac3d
00000380: 3d54 ab3d 84bc 60bd 73d8 abbd 4893 82bd
00000390: 1e22 413d ae4b 14bd f23a 2cbd 4119 92bd
000003a0: e32b 8e3d 507a 223c 9af3 643d a04e a7bb
000003b0: 708a 4bbc d27b d9bc b80e 183c 870e 2bbd
000003c0: a09f 28bb 811b 41bd 502e b6bc 5261 593d
000003d0: c2fb 80bd 0899 87bd 0dd8 ae3d 2896 073d
000003e0: d0bd 20bd 9d17 98bd 7810 3c3c 9bf5 acbd
000003f0: 1ca5 dfbc 48fe 4abc 74f3 8cbc 000a 0239
-0.01651229 -0.08044005 0.06339016 -0.069538295 0.02494713 -0.01300545 0.079654016 -0.07544612
-0.019482672 -0.030395728 0.029538147 -0.034673464 -0.070345044 0.028840743 -0.064151414 -0.034881122
0.0057572946 0.018708989 -0.043965105 0.037696324 -0.051158592 -0.034816206 -0.060895946 0.03764651
0.07049545 0.022763722 -0.029445812 -0.03827605 0.04910911 0.022159755 0.06803434 0.06836059
0.04648257 0.014801659 0.0831128 0.017071515 0.00026846677 0.07667258 -0.07885591 0.08640357
-0.009639882 -0.083036646 0.075652786 0.04778499 0.074429356 0.0405894 -0.030797817 0.017764084
-0.08415256 0.0060853586 -0.06988825 -0.058194906 0.044731148 -0.025784075 -0.086702704 -0.06981086
-0.015171699 -0.04266672 0.0316846 -0.035674483 -0.010796107 0.074249245 0.0066163614 -0.058545873
0.0634047 0.072263084 0.08635097 -0.04866433 -0.042118154 -0.008793011 -0.0079063475 0.07359243
0.044070758 -0.022689976 0.086018346 -0.0717767 0.033015303 -0.012204461 0.0032957122 -0.020793274
-0.014416486 0.030848607 0.083446704 0.058279745 0.004792221 0.03833414 0.04766754 -0.07790491
-0.059942015 -0.021988802 -0.005987294 -0.060913183 -0.017645039 0.084998585 0.02029673 0.011089973
-0.014351904 0.026379861 -0.04436569 -0.0675983 0.008151084 -0.027044114 -0.051645588 0.010292418
0.050327785 0.015198246 -0.03706144 -0.054619975 0.0706993 -0.07817726 0.03519842 -0.073331356
0.012316585 -0.03010055 0.026211083 0.022739522 0.08581173 -0.06401398 -0.025427818 0.027833924
0.06341305 0.07352791 -0.034116082 -0.010681115 0.04629328 -0.010820441 -0.011864506 -0.026190158
-0.040796623 0.038961582 -0.008621894 -0.08444074 -0.039037853 0.07539024 -0.025716424 -0.049968533
-0.060418338 -0.087249495 0.021320857 0.053454675 -0.08738972 0.07948054 0.08695244 0.072784595
-0.08161577 0.051254667 -0.005570598 0.06771701 -0.008152768 0.061355345 -0.016165666 -0.033484932
0.023626596 0.0017799139 -0.039352376 -0.020347498 0.08538253 0.018305428 -0.06700944 0.06438308
0.052496932 0.028238706 -0.010560334 0.07319089 0.07783533 -0.0069578514 -0.06640758 0.040508308
-0.03815478 -0.051868133 0.008225538 -0.007353574 -0.008139171 -0.074189 -0.03625417 0.02773448
-0.082418665 -0.0140672475 0.043905802 -0.055461995 0.087933324 0.082998596 -0.020824455 0.08357719
-0.03281781 -0.044746116 -0.018655457 -0.06132581 -0.039260484 -0.06940358 0.012073547 0.0031211823
0.025924146 -0.07031443 0.07014834 -0.052032623 -0.060402058 -0.0839998 0.042868815 -0.07216066
0.06990174 0.08412369 0.07735229 0.0023045242 -0.027365126 0.044885762 0.020182967 0.067437105
0.007133715 0.06935393 0.06333385 0.0059220195 -0.0776976 0.015102498 0.018250078 -0.012216836
-0.011741132 0.03825193 -0.066712916 0.0026817918 0.07666776 0.050816633 -0.036259186 0.08434
0.083656766 -0.054867283 -0.08390894 -0.06375748 0.047151677 -0.036204986 -0.042048402 -0.07133723
0.069419645 0.009916857 0.05589638 -0.0051058084 -0.012423143 -0.0265483 0.009280853 -0.0417619
-0.002572991 -0.04714537 -0.02223888 0.053071328 -0.06298019 -0.06620985 0.08537302 0.033102185
-0.03924352 -0.07426379 0.011478536 -0.08445283 -0.02730041 -0.012389727 -0.017205931 0.00012401491

fc2.bias f4 [128]
00000000: 24b6 e33c e8f0 c0bc e00d 27bb 92fb 233d
00000010: a0cf 71bb 68f6 2f3d 8e00 303d fa26 6abd
00000020: 2cd9 fc3c e887 1e3d 6c0e e4bc 1029 5dbc
00000030: 003e 173b 2c47 eabc 8070 39ba 90a0 753d
00000040: 08af bc3c 4064 113b 4881 463d c096 c7ba
00000050: 18ea e63c e0c5 0c3d 8049 4cbb 264b 13bd
00000060: 98bf 2fbd 848b f0bc f89c fb3c 1868 2a3c
00000070: da0b 223d a482 743d 3097 613c 6e7d 02bd
00000080: 90a5 cbbc 201a 33bc 6492 ca3c e846 5d3c
00000090: ee08 17bd 043c 4bbd 10d9 9b3c f035 f23c
000000a0: d8bf 4b3c bca1 0dbd b8f8 6a3d e46e ce3c
000000b0: 28ba 133d c842 1cbc dc8d 963c 20a3 16bd
000000c0: 4087 bbbc dc82 aebc 8054 b53b a015 e93b
000000d0: 5821 38bd 1039 003c a078 2abb 0008 f639
000000e0: bc81 5fbd 668c 0abd 4ea2 68bd d6a9 4abd
000000f0: 3aca 753d 36ca 353d 388b 023d 4089 dfba
00000100: 9c15 143d 9097 fe3b 6a8c 303d 10c9 803b
00000110: e07f d03c da7a 27bd f405 743d 7a90 7dbd
00000120: 905a 123d 78c7 893c 4833 c23c a0cb ffbb
00000130: 3e1c 703d 6896 2f3c 22ef 483d 7897 7abd
00000140: 781d 09bd 00d4 59bc c60d 623d 4e39 05bd
00000150: d4d7 e33c ac43 3fbd 7c4e 59bd 62d0 673d
00000160: e041 bdbc f6d6 653d 7cea 9cbc 7807 7bbd
00000170: 185a 733d f498 433d e807 923c d252 6c3d
00000180: 96a0 63bd 0ab2 193d e0c5 223d a68f 72bd
00000190: d2e9 673d 9c52 3fbd 6a9c 633d c800 edbc
000001a0: ccb4 97bc 6442 773d cc84 d43c 10c1 f8bc
000001b0: 440c cf3c 504a d0bc d0cf 8abc 9801 74bd
000001c0: 0000 48b5 aa57 483d a03d 223d d07c 4ebd
000001d0: 7209 66bd d0e1 dfbc e421 c93c fa60 1f3d
000001e0: b28e 463d 689f 09bc d6ac 743d 3283 77bd
000001f0: 7014 9dbc d67b 51bd 40dc 8f3b 0042 fd39
0.027796812 -0.023552373 -0.0025490448 0.040034838 -0.0036897436 0.0429596 0.04296928 -0.057166077
0.030865274 0.03870383 -0.027838908 -0.01349856 0.0023077726 -0.02859839 -0.0007073954 0.059967577
0.02303268 0.0022184998 0.048463136 -0.0015227422 0.028187796 0.034368396 -0.003117174 -0.03596034
-0.042907327 -0.029363401 0.030714497 0.010400794 0.039562084 0.0596949 0.013768956 -0.0318579
-0.02485922 -0.010931522 0.024728008 0.013505675 -0.03687375 -0.049617782 0.019024402 0.029566735
0.012435876 -0.03457807 0.057366103 0.025199361 0.036066204 -0.009537406 0.01837819 -0.036776662
-0.02289164 -0.021302633 0.005533755 0.0071131736 -0.044953674 0.007826105 -0.002601184 0.00046926737
-0.054567084 -0.0338253 -0.05679541 -0.049478374 0.06000731 0.044382297 0.03187105 -0.0017054453
0.03615342 0.0077695325 0.04310266 0.0039302185 0.0254516 -0.040888645 0.05957599 -0.06190536
0.0357309 0.016818747 0.023706093 -0.0078062564 0.058620684 0.010717012 0.04905618 -0.061179608
-0.03347537 -0.013295174 0.055188917 -0.032525353 0.027812876 -0.046695396 -0.053053364 0.056595214
-0.0231027 0.056113206 -0.01915478 -0.06128642 0.059412092 0.04775329 0.017826036 0.05769617
-0.05557307 0.037523307 0.03973949 -0.059219025 0.056619473 -0.04670964 0.05556909 -0.028931037
-0.018518828 0.06036605 0.025942229 -0.030365497 0.025274403 -0.02542606 -0.016944796 -0.059571832
-7.4505806e-07 0.048911728 0.03960955 -0.050412 -0.05616135 -0.027329355 0.024552293 0.038910843
0.04847593 -0.008399822 0.05973514 -0.060427852 -0.019174784 -0.05114349 0.0043902695 0.00048305094

fc3.weight f4 [1, 128]
00000000: a69b 44bb a69b 44bb a69b 44bb a69b 44bb
00000010: a69b 44bb a69b 44bb a69b 44bb a69b 44bb
00000020: a69b 44bb a69b 44bb a69b 44bb a69b 44bb
00000030: a69b 44bb a69b 44bb a69b 44bb a69b 44bb
00000040: a69b 44bb a69b 44bb a69b 44bb a69b 44bb
00000050: a69b 44bb a69b 44bb a69b 44bb a69b 44bb
00000060: a69b 44bb a69b 44bb a69b 44bb a69b 44bb
00000070: a69b 44bb a69b 44bb a69b 44bb a69b 44bb
00000080: a69b 44bb a69b 44bb a69b 44bb a69b 44bb
00000090: a69b 44bb a69b 44bb a69b 44bb a69b 44bb
000000a0: a69b 44bb a69b 44bb a69b 44bb a69b 44bb
000000b0: a69b 44bb a69b 44bb a69b 44bb a69b 44bb
000000c0: a69b 44bb a69b 44bb a69b 44bb a69b 44bb
000000d0: a69b 44bb a69b 44bb a69b 44bb a69b 44bb
000000e0: a69b 44bb a69b 44bb a69b 44bb a69b 44bb
000000f0: a69b 44bb a69b 44bb a69b 44bb a69b 44bb
00000100: a69b 44bb a69b 44bb a69b 44bb a69b 44bb
00000110: a69b 44bb a69b 44bb a69b 44bb a69b 44bb
00000120: a69b 44bb a69b 44bb a69b 44bb a69b 44bb
00000130: a69b 44bb a69b 44bb a69b 44bb a69b 44bb
00000140: a69b 44bb a69b 44bb a69b 44bb a69b 44bb
00000150: a69b 44bb a69b 44bb a69b 44bb a69b 44bb
00000160: a69b 44bb a69b 44bb a69b 44bb a69b 44bb
00000170: a69b 44bb a69b 44bb a69b 44bb a69b 44bb
00000180: a69b 44bb a69b 44bb a69b 44bb a69b 44bb
00000190: a69b 44bb a69b 44bb a69b 44bb a69b 44bb
000001a0: a69b 44bb a69b 44bb a69b 44bb a69b 44bb
000001b0: a69b 44bb a69b 44bb a69b 44bb a69b 44bb
000001c0: a69b 44bb a69b 44bb a69b 44bb a69b 44bb
000001d0: a69b 44bb a69b 44bb a69b 44bb a69b 44bb
000001e0: a69b 44bb a69b 44bb a69b 44bb a69b 44bb
000001f0: a69b 44bb a69b 44bb a69b 44bb a69b 44bb
-0.003 -0.003 -0.003 -0.003 -0.003 -0.003 -0.003 -0.003
-0.003 -0.003 -0.003 -0.003 -0.003 -0.003 -0.003 -0.003
-0.003 -0.003 -0.003 -0.003 -0.003 -0.003 -0.003 -0.003
-0.003 -0.003 -0.003 -0.003 -0.003 -0.003 -0.003 -0.003
-0.003 -0.003 -0.003 -0.003 -0.003 -0.003 -0.003 -0.003
-0.003 -0.003 -0.003 -0.003 -0.003 -0.003 -0.003 -0.003
-0.003 -0.003 -0.003 -0.003 -0.003 -0.003 -0.003 -0.003
-0.003 -0.003 -0.003 -0.003 -0.003 -0.003 -0.003 -0.003
-0.003 -0.003 -0.003 -0.003 -0.003 -0.003 -0.003 -0.003
-0.003 -0.003 -0.003 -0.003 -0.003 -0.003 -0.003 -0.003
-0.003 -0.003 -0.003 -0.003 -0.003 -0.003 -0.003 -0.003
-0.003 -0.003 -0.003 -0.003 -0.003 -0.003 -0.003 -0.003
-0.003 -0.003 -0.003 -0.003 -0.003 -0.003 -0.003 -0.003
-0.003 -0.003 -0.003 -0.003 -0.003 -0.003 -0.003 -0.003
-0.003 -0.003 -0.003 -0.003 -0.003 -0.003 -0.003 -0.003
-0.003 -0.003 -0.003 -0.003 -0.003 -0.003 -0.003 -0.003
