models/checkpoint_actor_local_16.pth (torch_old, 152633 bytes, 5 tensors)

fc1.weight f4 [256, 18]
0.062367946 0.013365231 -0.054906182 -0.059617497 0.008756191 -0.044349797 0.05280581 0.056983232
-0.0028575286 0.04242739 -0.05901224 0.0033142418 -0.059512608 -0.0011751577 -0.0032668188 -0.051963232
0.05747255 -0.020970084 -0.0041265413 0.01740098 -0.061885506 -0.02026105 0.050858945 -0.028556615
0.02198866 0.014810666 0.0067723915 -0.057352543 -0.047203623 -0.013364807 0.043032423 0.020629093
-0.04988785 0.03542261 -0.039799504 -0.055109747 0.036710314 -0.0065978765 0.06102699 -0.012080811
0.059192248 0.048571445 0.051801987 -0.010018334 0.048776127 0.007801801 0.017909214 0.040114462
0.049527287 -0.033682235 -0.043390192 -0.04202219 0.044262417 -0.043551855 0.06069401 -0.03009794
-0.007892013 0.060002074 -0.041604497 0.026893467 -0.008362085 -0.00031109154 0.032761067 0.043697745
-0.027283534 -0.035627954 -0.03462653 0.03347885 -0.0031817555 0.05245188 0.0025551915 0.034410723
-0.0032887757 -0.011222534 0.055040658 -0.030742936 -0.011217356 -0.012683928 -0.01593054 -0.013193309
0.05339612 0.055768043 0.014219418 -0.028062642 0.02653268 0.04972031 0.018489152 -0.011209354
-0.056283936 0.011099711 -0.0045993105 0.03748145 -0.05502195 0.0557713 -0.023552477 0.056248374
0.03686385 -0.018454619 -0.03740634 -0.030422129 0.036662504 -0.046133168 -0.03524047 0.025497518
-0.044843234 0.031275444 0.026233412 -0.05280044 0.046423554 -0.025226079 0.025875397 0.05624024
-0.0006849915 0.050010458 -0.061527923 0.025145784 -0.0020552874 -0.02366303 -0.03385832 0.045111306
-0.04274918 0.017323226 0.037337318 0.01560387 -0.04762932 0.023008674 -0.014948167 0.06183233
-0.05985348 0.0012559667 -0.029528514 0.027160153 -0.038041934 0.020312749 0.020854943 0.005911164
-0.025865369 0.0098018795 0.022086486 -0.041615874 0.04973381 -0.0058643743 -0.035086527 -0.060583726
0.05262267 -0.040348463 -0.031939447 0.03795726 -0.033217333 0.029957153 -0.047246903 0.038420595
0.012496628 0.056923613 0.007403843 -0.03217166 0.009060875 0.015894555 0.018651702 0.021660417
-0.03155458 0.036358282 0.045989864 -0.031294055 0.02962333 -0.005776517 0.02838321 0.021528587
-0.039201826 -0.04687187 -0.03665848 -0.025149822 -0.06152053 -0.0027586892 -0.023229264 -0.011238404
0.005837865 -0.0010245442 0.03974367 -0.030132376 0.026243262 -0.0049324185 0.05728823 -0.0194043
0.03985899 -0.056043938 0.013548672 -0.0005657971 0.019290492 0.038155027 -0.0082331225 -0.0009904578
-0.023276687 0.02907326 -0.05323454 -0.021410905 0.0077107325 0.05844319 -0.037428916 -0.0044939816
0.032695666 -0.032485217 0.01566264 0.015690766 -0.045082822 0.051258497 0.04872258 -0.015860692
0.014127396 -0.005055785 -0.03543882 -0.00461331 0.026433885 0.061934717 0.02591417 0.053567916
0.03252691 0.062328987 0.039244846 0.013983689 0.01024127 0.062031902 -0.01741638 -0.038415633
0.016069874 0.049875565 0.010251865 -0.051144674 -0.0425637 -0.014535859 0.017888218 0.032984756
-0.005012192 -0.0274738 0.060886152 -0.019702025 -0.0597962 -0.033738367 -0.046075493 -0.048154734
0.05827345 0.009794608 0.05258078 -0.062105656 0.059036367 0.0007739067 0.054596238 -0.02758874
0.040202737 -0.038812168 0.0607706 -0.06241885 -0.0095317215 0.016168766 0.041999534 -0.04484815
00000000: 8875 7f3d d8f9 5a3c 4ee5 60bd 7a31 74bd
00000010: 2076 0f3c 22a8 35bd e84a 583d 4067 693d
00000020: 6045 3bbb 58c8 2d3d d2b6 71bd c033 593b
00000030: 7ec3 73bd c007 9aba 2018 56bb 66d7 54bd
00000040: 5668 6b3d 74c9 abbc f037 87bb 808c 8e3c
00000050: a87b 7dbd 80fa a5bc 7851 503d 90ef e9bc
00000060: 9021 b43c 70a8 723c f0ea dd3b 80ea 6abd
00000070: 9658 41bd 10f8 5abc c442 303d 58fe a83c
00000080: 3457 4cbd 4c17 113d ce04 23bd c2ba 61bd
00000090: 8e5d 163d 0033 d8bb 70f7 793d 98ee 45bc
000000a0: 9273 723d daf2 463d 522e 543d f023 24bc
000000b0: 7ac9 473d 40a6 ff3b 58b6 923c 104f 243d
000000c0: 20dd 4a3d 62f6 09bd eab9 31bd 761f 2cbd
000000d0: 824c 353d 6e63 32bd 489a 783d f48f f6bc
000000e0: 804d 01bc bcc4 753d 7a69 2abd b04f dc3c
000000f0: 2001 09bc 001a a3b9 7830 063d 68fc 323d
00000100: b881 dfbc 9eee 11bd 8cd4 0dbd 1e21 093d
00000110: 0085 50bb c8d7 563d 0075 273b 42f2 0c3d
00000120: 8088 57bb b8de 37bc 5072 613d 9cd8 fbbc
00000130: 00c9 37bc 40d0 4fbc c480 82bc c028 58bc
00000140: e4b5 5a3d 086d 643d 90f8 683c a0e3 e5bc
00000150: 105b d93c 86a7 4b3d 9076 973c 70a7 37bc
00000160: fc89 66bd 90db 353c d0b5 96bb 2686 193d
00000170: b25e 61bd 7270 643d 20f1 c0bc b264 663d
00000180: 8cfe 163d 242e 97bc 6437 19bd d437 f9bc
00000190: 6c2b 163d 22f6 3cbd 5058 10bd 2ce0 d03c
000001a0: 8aad 37bd ae1a 003d 74e7 d63c 4645 58bd
000001b0: a026 3e3d eca6 cebc a4f8 d33c 2a5c 663d
000001c0: 0091 33ba c4d7 4c3d b404 7cbd 88fe cd3c
000001d0: 00b2 06bb f8d8 c1bc 06af 0abd a2c6 383d
000001e0: c419 2fbd 70e9 8d3c 04ef 183d 60a7 7f3c
000001f0: f616 43bd b07c bc3c 28e9 74bc e643 7d3d
00000200: ec28 75bd 409f a43a c8e5 f1bc f87e de3c
00000210: dcd1 1bbd ec66 a63c fcd7 aa3c 70b2 c13b
00000220: 9ce3 d3bc 1098 203c b8ee b43c 6875 2abd
00000230: aeb5 4b3d f029 c0bb e4b6 0fbd a426 78bd
00000240: de8a 573d 6e44 25bd f0d2 02bd 1279 1b3d
00000250: e60e 08bd b468 f53c f885 41bd ea5e 1d3d
00000260: a8be 4c3c bc28 693d f09b f23b 6ec6 03bd
00000270: 1074 143c 4c35 823c 74cb 983c 3071 b13c
00000280: 603f 01bd 6cec 143d de5f 3c3d 322e 00bd
00000290: a0ac f23c f048 bdbb e883 e83c b85c b03c
000002a0: 1892 20bd b8fc 3fbd 3427 16bd 0007 cebc
000002b0: f4fc 7bbd 20cb 34bb 4c4b bebc 4821 38bc
000002c0: 904b bf3b 004a 86ba 42ca 223d 2cd8 f6bc
000002d0: 1cfc d63c 20a0 a1bb 10a7 6a3d c4f5 9ebc
000002e0: 2e43 233d 548e 65bd 40fb 5d3c 0052 14ba
000002f0: 1807 9e3c 7248 1c3d 38e4 06bc 40d2 81ba
00000300: c0ae bebc 0c2b ee3c 760c 5abd ec65 afbc
00000310: 50aa fc3b 2062 6f3d 104f 19bd 4042 93bb
00000320: e4eb 053d 380f 05bd f04e 803c ec89 803c
00000330: c4a8 38bd 6ef4 513d 5491 473d 48ee 81bc
00000340: 9876 673c 00ab a5bb 4c28 11bd 402b 97bb
00000350: e08b d83c 42af 7d3d f449 d43c 086a 5b3d
00000360: f03a 053d ae4c 7f3d 34bf 203d d81b 653c
00000370: 00cb 273c 2a15 7e3d ccac 8ebc b659 1dbd
00000380: f8a4 833c 524a 4c3d 70f7 273c 147d 51bd
00000390: 4657 2ebd d027 6ebc 508a 923c 061b 073d
000003a0: 503d a4bb bc10 e1bc c263 793d 2466 a1bc
000003b0: dcec 74bd 3e31 0abd a8b9 3cbd e63d 45bd
000003c0: 24b0 6e3d 9079 203c f25e 573d 8062 7ebd
000003d0: 1ed0 713d 00e0 4a3a 4ea0 5f3d c801 e2bc
000003e0: a0ab 243d 82f9 1ebd 98ea 783d e8aa 7fbd
000003f0: f02a 1cbc 5c74 843c b407 2c3d b2b2 37bd

fc1.bias f4 [256]
0.07134174 -0.0072264373 -0.07857886 0.07314204 -0.15712036 0.23532723 -0.1625121 -0.2015156
-0.114183515 -0.053870082 0.0904689 0.021087602 -0.18095559 0.15546845 0.016911104 -0.15383884
-0.0557639 -0.11824759 -0.07307392 0.17152058 -0.102551684 0.1702498 0.15130474 0.1441866
-0.22656962 0.17750238 -0.12976024 -0.14299634 -0.15314707 0.05296676 -0.115535304 0.23000793
0.08055933 0.049160734 -0.16452631 -0.117036514 -0.02683054 0.19953437 -0.110562116 -0.084209174
0.06466402 0.20812483 -0.055230826 -0.054573312 0.19350447 -0.178631 0.23153438 -0.16042529
0.16732676 -0.19314209 -0.17132585 0.21419863 0.114256576 -0.20796387 0.16207908 -0.19691272
-0.15340568 -0.12238073 -0.1385966 0.06697814 0.1226158 0.13452251 0.22327314 -0.00498423
0.19564943 0.09957008 0.23334633 0.13805397 0.120588735 0.10336165 -0.022811979 0.066113845
0.013137728 0.014651343 0.164409 -0.15652055 0.025094941 0.09235765 -0.1617766 0.1384757
-0.11156293 0.19855471 0.18746664 0.1288615 -0.02578862 0.11404766 0.08708532 -0.09722516
-0.16414037 -0.19717796 -0.19304344 -0.21198854 0.017051563 0.12239553 -0.034336984 0.23013641
-0.16824415 -0.17056866 0.05586426 -0.14428364 -0.002985239 -0.03887841 -0.099219635 0.21233188
-0.12033681 0.17669858 -0.012307107 0.18763088 0.10635592 0.10194112 -0.14813653 0.09907456
-0.16042872 -0.04585363 -0.005030617 -0.10112676 -0.2159406 -0.06317812 0.17715408 0.07415284
-0.15238376 -0.054077327 0.085399196 0.2097636 0.04202588 -0.19695197 -0.1621623 -0.10963905
0.0817657 0.17450495 -0.15621786 -0.09525792 0.09903033 -0.21330658 0.07738198 -0.055311337
-0.1850526 -0.18614507 0.20437624 0.016982213 -0.23545603 0.0049953014 0.21037285 0.069891855
-0.057197347 -0.20856419 0.014372423 0.08682443 0.03327121 0.21389784 0.04770039 -0.039434478
-0.093239844 0.10871421 -0.01600276 0.17845957 0.016724244 0.068239525 -0.061706915 0.042639002
-0.19197668 0.0610141 0.15856276 0.14261477 0.07442786 -0.11676136 -0.023760006 -0.16056007
0.13409142 0.029454425 0.07779403 -0.10650289 0.14703448 0.21740828 -0.041921705 0.02062799
-0.22848734 0.20727612 0.012074843 -0.18792967 -0.07480726 -0.22177134 -0.07445039 -0.10561408
-0.13299562 0.051330313 -0.040090695 0.10765143 0.027631685 0.10312213 -0.21440923 0.11862333
0.14853342 0.15083195 -0.23048307 -0.017851666 0.14928307 0.08937828 -0.10603593 0.009060115
-0.03717169 0.012403622 -0.039130196 -0.052581087 0.17457722 0.03751625 0.09996484 -0.16524051
-0.12213058 -0.16808964 -0.16621211 0.14596637 0.047140345 -0.1279135 0.118811384 0.030527517
0.022181824 0.21106179 0.20240448 -0.02217953 -0.0712772 0.048374996 -0.19664742 -0.2252526
-0.15322436 0.00052939355 -0.21750388 0.038105533 0.15244468 -0.08722046 0.10349105 -0.16234204
-0.027351707 0.047623083 0.016929641 -0.18425256 -0.18872558 0.098881915 0.1236272 0.14621605
-0.16090062 -0.12017871 0.20740168 0.14672168 0.083063826 0.19192968 0.20805384 0.07872833
-0.21441434 -0.14056462 0.16262259 0.06677352 0.034606054 -0.19893757 -0.14167327 0.23342545
00000000: 9e1b 923d c0cb ecbb f4ed a0bd 7ecb 953d
00000010: 29e4 20be 9ff9 703e 9269 26be 1b5a 4ebe
00000020: 0cd9 e9bd e0a6 5cbd c247 b93d e8bf ac3c
00000030: 6c4c 39be 1f33 1f3e 2889 8a3c ee87 1dbe
00000040: b068 64bd cb2b f2bd c8a7 95bd 17a3 2f3e
00000050: 9e06 d2bd f755 2e3e a1ef 1a3e a7a5 133e
00000060: de01 68be 2fc3 353e dedf 04be a26d 12be
00000070: 96d2 1cbe acf3 583d c69d ecbd 3387 6b3e
00000080: 4afc a43d c45c 493d 9679 28be d7b0 efbd
00000090: b8cb dbbc bd52 4c3e 646e e2bd dc75 acbd
000000a0: 926e 843d ad1e 553e b839 62bd 4488 5fbd
000000b0: 0926 463e 0beb 36be 5917 6d3e 8746 24be
000000c0: b557 2b3e 0ac7 45be 0b70 2fbe e356 5b3e
000000d0: 5aff e93d 7bf4 54be 0ff8 253e 7da3 49be
000000e0: 6116 1dbe c0a2 fabd 44ec 0dbe d62b 893d
000000f0: fe1d fb3d 45c0 093e b7a1 643e c052 a3bb
00000100: 5358 483e 66eb cb3d 57f2 6e3e 055e 0d3e
00000110: 3af7 f63d 46af d33d 30e0 babc b266 873d
00000120: a03f 573c 300c 703c d55a 283e ec46 20be
00000130: e893 cd3c 0226 bd3d c4a8 25be 93cc 0d3e
00000140: 1b7b e4bd ed51 4b3e 41f7 3f3e 45f4 033e
00000150: a842 d3bc d291 e93d ca59 b23d fc1d c7bd
00000160: 6a14 28be 05e9 49be 2ead 45be 8613 59be
00000170: b8af 8b3c 82aa fa3d f0a4 0cbd e1a8 6b3e
00000180: 3248 2cbe 8da9 2ebe ecd1 643d 17bf 13be
00000190: 00a4 43bb f83e 1fbd aa33 cbbd 876d 593e
000001a0: 2573 f6bd 79f0 343e c0a3 49bc 4f22 403e
000001b0: 22d1 d93d 82c6 d03d 1ab1 17be 9ae7 ca3d
000001c0: 6d47 24be 04d1 3bbd e0d7 a4bb 8c1b cfbd
000001d0: 881f 5dbe 8863 81bd e167 353e 72dd 973d
000001e0: 7d0a 1cbe 3080 5dbd c6e5 ae3d 45cc 563e
000001f0: 5423 2c3d c7ad 49be e00d 26be 708a e0bd
00000200: c674 a73d 6db1 323e 93f7 1fbe 9616 c3bd
00000210: 6ad0 ca3d 0a6d 5abe 727a 9e3d 248e 62bd
00000220: 6e7e 3dbe d09c 3ebe 0148 513e 481e 8b3c
00000230: 631b 71be a0af a33b fb6b 573e 7623 8f3d
00000240: c447 6abd da91 55be 507a 6b3c 02d1 b13d
00000250: 6447 083d 0908 5b3e 7c61 433d 0c86 21bd
00000260: 88f4 bebd 8ea5 de3d 3818 83bc 1bbe 363e
00000270: 4801 893c 2ac1 8b3d 64c0 7cbd 3ca6 2e3d
00000280: 8995 44be ece9 793d 475e 223e 9b09 123e
00000290: a26d 983d 9420 efbd 58a4 c2bc dc69 24be
000002a0: 434f 093e 684a f13c 7a52 9f3d 301e dabd
000002b0: 3590 163e 47a0 5e3e 18b6 2bbd 08fc a83c
000002c0: 96f8 69be 3140 543e 90d5 453c a370 40be
000002d0: 8c34 99bd 0718 63be 7279 98bd 324c d8bd
000002e0: 0130 08be bc3f 523d 2436 24bd 5a78 dc3d
000002f0: d85b e23c b231 d33d 188e 5bbe caf0 f23d
00000300: 2519 183e b173 1a3e c103 6cbe a83d 92bc
00000310: a9dd 183e f60b b73d 5e29 d9bd e070 143c
00000320: 5841 18bd 9038 4b3c fc46 20bd 445f 57bd
00000330: 5fc4 323e a4aa 193d 5eba cc3d cf34 29be
00000340: 991f fabd b11f 2cbe 8233 2abe 3578 153e
00000350: 3c16 413d c2fb 02be 6253 f33d d814 fa3c
00000360: a8b6 b53c 9520 583e 1f43 4f3e d8b1 b5bc
00000370: c8f9 91bd dc24 463d f15d 49be 9ea8 66be
00000380: d9e6 1cbe 00c7 0a3a 56b9 5ebe 8c14 1c3d
00000390: 751a 1c3e a4a0 b2bd 1ef3 d33d fe3c 26be
000003a0: b010 e0bc 6c10 433d 08b0 8a3c b4ac 3cbe
000003b0: 4741 41be 9a82 ca3d 4230 fd3d a9b9 153e
000003c0: 22c3 24be 4120 f6bd 1b61 543e 353e 163e
000003d0: 5e1d aa3d 3789 443e 110c 553e 523c a13d
000003e0: 6f8f 5bbe 2cf0 0fbe 8986 263e 8ec0 883d
000003f0: 14bf 0d3d 4ab6 4bbe cc12 11be 1507 6f3e

fc2.weight f4 [128, 256]
0.014527366 -0.03413292 -0.06393131 -0.0677953 -0.057216085 0.086405985 0.06412742 -0.011356287
-0.03161536 0.038384356 0.029871568 -0.014870837 0.06943899 0.055515148 -0.0015744492 -0.010493472
-0.0166718 0.021138802 0.042689554 -0.039241202 0.050542988 -0.0040063187 0.06266215 -0.0819593
-0.04987069 0.054635935 -0.018673718 -0.0264594 -0.03185226 -0.024086699 0.06346295 0.07164966
-0.0101553425 -0.020584196 -0.05922319 0.026229367 -0.053649228 -0.059608877 0.031191535 0.010198809
-0.052943278 -0.060113125 0.026014939 0.07752416 0.0535857 -0.053018373 0.07818424 0.076947995
-0.019095227 -0.025568038 -0.08270354 0.05178625 0.07590286 -0.07237638 0.05337908 -0.024939373
0.021707661 0.030703358 0.06314846 -0.0071803033 -0.037076835 -0.062224995 0.048792444 -0.06750494
-0.04732875 -0.04476153 -0.053841535 -0.08624147 -0.03205667 0.02931916 0.08692568 0.06985722
-0.07556856 0.04388679 -0.023149304 -0.0009303093 -0.08245623 -0.0619194 -0.0028243586 -0.07364341
-0.07973245 0.04806327 0.03925007 0.069679774 -0.03708108 -0.08415345 0.031862743 0.0041598007
-0.05232371 0.07767513 0.015017062 -0.07144715 -0.06586608 0.04149068 -0.05534941 0.024887092
-0.056527153 -0.062066868 0.061541907 0.035029173 -0.009812258 -0.0486651 -0.018986762 0.078405775
-0.08121652 -0.033135295 0.042366542 -0.034293037 0.048503257 -0.008236177 -0.068381086 -0.030377857
0.061727293 0.040922277 0.04827138 -0.052832097 -0.07403895 0.0539665 0.035592347 0.046048515
-0.023688607 0.024308212 -0.018600054 -0.03309027 -0.001460433 -0.086891234 -0.084927045 -0.08400793
0.062018238 0.07268772 0.006132543 -0.04376301 0.07786723 0.033312187 0.003692314 0.03470146
0.03677485 0.072009064 -0.02562084 0.06040766 -0.012183897 0.05395662 0.028683893 -0.016365118
-0.05762452 0.03106974 -0.023306996 0.064816736 -0.001013957 -0.080313735 -0.027682293 0.040826075
-0.055612598 -0.0584704 -0.06957239 0.05004918 0.050816007 -0.045223042 0.0085852 0.07738701
0.034269653 -0.054715987 -0.003559418 -0.011454679 0.04146897 -0.04963022 -0.05073257 0.076463796
0.015803427 -0.07074665 0.06679828 -0.004864 -0.01629617 -0.016759388 0.05211424 0.015570387
0.05668006 -0.047426805 -0.036496695 0.08719503 -0.057168856 0.033619083 -0.014226183 -0.07819456
-0.078386374 0.025986545 0.073455356 -0.061071783 0.044744454 -0.031457912 -0.08244501 -0.07156822
-0.009393655 -0.07063884 -0.03966524 0.062121622 0.020207316 -0.022807196 0.020719454 -0.024569497
0.08571025 -0.032867335 0.06350108 0.034327477 0.03821636 -0.05404205 0.03144852 -0.069934785
0.07128207 -0.027409632 0.036688752 -0.08684336 0.03466767 -0.05764708 0.0076728985 0.012908317
0.03678923 -0.041756347 0.027954109 6.681681e-05 0.03167285 -0.0015803874 0.079198726 -0.03536872
0.04552976 -0.04489436 0.080963366 -0.054395627 0.02160868 0.08162863 0.053444482 0.00949996
0.0039470196 -0.018178329 -0.0262267 -0.016833663 -0.06263 0.077741586 -0.030977827 0.011289939
0.049908467 0.06870804 -0.025366947 -0.045973707 0.08204045 -0.025009304 -0.013491392 -0.07997867
0.009186104 -0.07344805 0.048448406 -0.085191295 -0.07015483 0.06217573 0.03525707 -0.04107554
00000000: 3004 6e3c f6ce 0bbd 6bee 82bd 43d8 8abd
00000010: 6a5b 6abd 9ff5 b03d 3d55 833d b80f 3abc
00000020: 1c7f 01bd ea38 1d3d 38b5 f43c d0a4 73bc
00000030: 0736 8e3d da63 633d c05d ceba d0ec 2bbc
00000040: 4c93 88bc 482b ad3c 3edb 2e3d 62bb 20bd
00000050: 2a06 4f3d 7047 83bb 0355 803d 47da a7bd
00000060: 3545 4cbd eec9 5f3d a0f9 98bc 62c1 d8bc
00000070: 8477 02bd 7851 c5bc ddf8 813d 0fbd 923d
00000080: 9862 26bc 30a0 a8bc 0494 72bd f8de d63c
00000090: 4bbf 5bbd 7028 74bd 6485 ff3c e818 273c
000000a0: 0ddb 58bd 2e39 76bd 481d d53c fdc4 9e3d
000000b0: ae7c 5b3d cb29 59bd 0f1f a03d e996 9d3d
000000c0: 986d 9cbc 1074 d1bc 7960 a9bd d21d 543d
000000d0: f572 9b3d 113a 94bd 06a4 5a3d a84d ccbc
000000e0: 44d4 b13c 9c85 fb3c fb53 813d c048 ebbb
000000f0: e1dd 17bd a3df 7ebd 96da 473d 0840 8abd
00000100: cbdb 41bd de57 37bd f188 5cbd 5e9f b0bd
00000110: db4d 03bd bc2e f03c 1706 b23d 4d11 8f3d
00000120: b0c3 9abd a2c2 333d 9ca3 bdbc 00e0 73ba
00000130: d0de a8bd 329f 7dbd e018 39bb 5bd2 96bd
00000140: c44a a3bd fedd 443d aec4 203d 45b4 8e3d
00000150: 55e2 17bd a558 acbd 8282 023d f04e 883b
00000160: 6351 56bd 2314 9f3d 200a 763c e252 92bd
00000170: cce4 86bd 22f2 293d 10b6 62bd 04e0 cb3c
00000180: 0489 67bd d439 7ebd 5e13 7c3d c07a 0f3d
00000190: 98c3 20bc 0e55 47bd 208a 9bbc 3593 a03d
000001a0: d954 a6bd e0b8 07bd 8a88 2d3d db76 0cbd
000001b0: 5aab 463d 08f1 06bc 620b 8cbd fcda f8bc
000001c0: c2d5 7c3d 1e9e 273d 36b8 453d 7866 58bd
000001d0: bca1 97bd fa0b 5d3d 48c9 113d 5e9d 3c3d
000001e0: 9c0e c2bc 0422 c73c 245f 98bc aa89 07bd
000001f0: 006c bfba 08f4 b1bd 3bee adbd 590c acbd
00000200: d606 7e3d 4ddd 943d 80f3 c83b d840 33bd
00000210: db78 9f3d 5c72 083d c0fa 713b 1e23 0e3d
00000220: 3aa1 163d 7d79 933d cce2 d1bc 066e 773d
00000230: f89e 47bc 9e01 5d3d 7cfa ea3c 2410 86bc
00000240: b007 6cbd f885 fe3c 50ee bebc a3be 843d
00000250: c0e6 84ba 877b a4bd fac5 e2bc 3e39 273d
00000260: 09ca 63bd a87e 6fbd f87b 8ebd 5e00 4d3d
00000270: 7224 503d cc3b 39bd f0a8 0c3c 157d 9e3d
00000280: 565e 0c3d df1d 60bd 2045 69bb 68ac 3bbc
00000290: 5edb 293d 0f49 4bbd f5cc 4fbd 0d99 9c3d
000002a0: 3076 813c 9fe3 90bd 89cd 883d 3062 9fbb
000002b0: 8c7f 85bc fc4a 89bc be75 553d f01a 7f3c
000002c0: 5a29 683d 9c42 42bd 8f7d 15bd 4f93 b23d
000002d0: e429 6abd 2ab4 093d f014 69bc 7824 a0bd
000002e0: 0989 a0bd bce1 d43c c36f 963d 6826 7abd
000002f0: f645 373d 03da 00bd eed8 a8bd 5c92 92bd
00000300: d8e7 19bc 19ab 90bd 0578 22bd 3e73 7e3d
00000310: d089 a53c 28d6 babc d8bb a93c f845 c9bc
00000320: db88 af3d e69f 06bd db0c 823d f89a 0c3d
00000330: c288 1c3d 325b 5dbd 2ad0 003d f839 8fbd
00000340: 55fc 913d 2a8a e0bc f246 163d eeda b1bd
00000350: b0ff 0d3d 581f 6cbd f06c fb3b 687d 533c
00000360: 4eb0 163d b408 2bbd 0400 e53c 0020 8c38
00000370: 64bb 013d 0025 cfba f132 a23d cade 10bd
00000380: 6a7d 3a3d 26e3 37bd 1fd0 a53d f3cd 5ebd
00000390: b004 b13c e92c a73d 9ae8 5a3d b8a5 1b3c
000003a0: 0056 813b b8ea 94bc 60d9 d6bc c0e6 89bc
000003b0: 2844 80bd fb36 9f3d 36c5 fdbc 70f9 383c
000003c0: d26c 4c3d cdb6 8c3d 58ce cfbc ed4e 3cbd
000003d0: d304 a83d 50e0 ccbc 000b 5dbc dbcb a3bd
000003e0: 5081 163c ee6b 96bd d671 463d c678 aebd
000003f0: 56ad 8fbd faab 7e3d b869 103d d33e 28bd

fc2.bias f4 [128]
-0.058574952 -0.025954656 0.03603497 0.009136282 -0.04517939 0.060392007 0.0155112 0.016594082
0.021360844 0.017518952 -0.041315645 -0.0017124712 -0.021429919 0.024020985 0.024815358 -0.025100738
0.022535034 0.05084604 0.055140987 -0.06075511 0.025900587 -0.047726065 -0.0068564713 -0.031019174
0.029241905 0.056608945 0.029949881 -0.052637875 -0.0544943 0.04975026 0.0020072982 -0.05858971
0.03776887 0.039120495 -0.024409771 0.02580858 0.035940118 -0.025021434 -0.049516104 -0.038515337
-0.01130835 -0.027384497 -0.02157741 -0.0054706857 -0.02827771 0.024468437 -0.010121025 -0.017021
-0.007835254 0.05794763 0.0153035745 -0.05942592 0.03414415 -0.04719057 -0.030982263 0.060420796
0.025469795 0.01673697 -0.05551865 0.0076344237 -0.016650662 -0.034348443 0.003389649 -0.0065095946
-0.04975319 0.020569883 0.024794757 -0.017840222 0.01919078 0.006498754 -0.019030146 0.030044258
-0.04901673 -0.057091042 0.057334334 -0.037290394 0.04508447 0.034285955 -0.0327482 -0.02172947
0.044009887 0.017435804 0.048925504 0.0053065717 -0.009598643 0.051926665 0.030270241 0.039730906
-0.045019917 -0.012215145 -0.041761078 0.032979466 -0.0353363 -0.017563075 -0.003816314 0.02347409
0.060084164 -0.026402675 -0.027703531 0.052766107 -0.027355716 -0.059473023 -0.0126733035 -0.049724072
-0.0035219043 0.037086368 -0.0032480508 0.039705023 -0.03826139 -0.02697844 -0.060734674 0.015855484
0.055545785 0.05770985 0.04198257 -0.0072894767 -0.02707398 -0.049577355 0.030224577 0.0031508133
-0.0379569 -0.00056542456 0.057065398 0.06109491 -0.034352034 -0.050175272 0.052380346 -0.045114897
00000000: 4aec 6fbd dc9e d4bc 6899 133d 58b0 153c
00000010: 060e 39bd 9c5d 773d b022 7e3c 50f0 873c
00000020: f0fc ae3c e883 8f3c 983a 29bd 0075 e0ba
00000030: cc8d afbc a8c7 c43c 9449 cb3c 10a0 cdbc
00000040: 649b b83c f043 503d 84db 613d 5ada 78bd
00000050: 782d d43c 687c 43bd 40ac e0bb ec1b febc
00000060: b88c ef3c c8de 673d 7459 f53c d09a 57bd
00000070: 6a35 5fbd eec6 4b3d e08c 033b c4fb 6fbd
00000080: 88b3 1a3d d03c 203d 00f7 c7bc 846c d33c
00000090: f235 133d c0f9 ccbc 66d1 4abd 42c2 1dbd
000000a0: a846 39bc 7455 e0bc 1cc3 b0bc 7043 b3bb
000000b0: a8a6 e7bc 0872 c83c a8d2 25bc a06f 8bbc
000000c0: 705f 00bc 7e5a 6d3d d8bb 7a3c 9868 73bd
000000d0: bcda 0b3d e64a 41bd 84ce fdbc cc7b 773d
000000e0: 08a6 d03c f81b 893c 8667 63bd 302a fa3b
000000f0: f866 88bc f4b0 0cbd e024 5e3b 704e d5bb
00000100: 00ca 4bbd 2c82 a83c 601e cb3c a825 92bc
00000110: fc35 9d3c 80f3 d43b 1ce5 9bbc 601f f63c
00000120: c4c5 48bd 4cd8 69bd 68d7 6a3d d0bd 18bd
00000130: 7eaa 383d 6e6f 0c3d fa22 06bd 0002 b2bc
00000140: b643 343d 88d5 8e3c 1c66 483d c0e2 ad3b
00000150: a043 1dbc 0eb1 543d 4cf9 f73c e0bc 223d
00000160: ce66 38bd 0822 48bc aa0d 2bbd 7a15 073d
00000170: ccbc 10bd 70e0 8fbc 201b 7abb bc4c c03c
00000180: d01a 763d 6c4a d8bc 84f2 e2bc 4621 583d
00000190: 1819 e0bc fc99 73bd b0a3 4fbc 78ab 4bbd
000001a0: c0cf 66bb e0e7 173d 40dd 54bb bca1 223d
000001b0: fab7 1cbd e401 ddbc ecc4 78bd 5ce3 813c
000001c0: fa83 633d 2a61 6c3d eaf5 2b3d 90dc eebb
000001d0: 40ca ddbc a011 4bbd 8899 f73c e07d 4e3b
000001e0: b278 1bbd 0039 14ba 68bd 693d a83e 7a3d
000001f0: b8b4 0cbd 9684 4dbd c68c 563d 66ca 38bd

fc3.weight f4 [1, 128]
-0.003 -0.003 -0.003 -0.003 -0.003 -0.003 -0.003 -0.003
-0.003 -0.003 -0.003 -0.003 -0.003 -0.003 -0.003 -0.003
-0.003 -0.003 -0.003 -0.003 -0.003 -0.003 -0.003 -0.003
-0.003 -0.003 -0.003 -0.003 -0.003 -0.003 -0.003 -0.003
-0.003 -0.003 -0.003 -0.003 -0.003 -0.003 -0.003 -0.003
-0.003 -0.003 -0.003 -0.003 -0.003 -0.003 -0.003 -0.003
-0.003 -0.003 -0.003 -0.003 -0.003 -0.003 -0.003 -0.003
-0.003 -0.003 -0.003 -0.003 -0.003 -0.003 -0.003 -0.003
-0.003 -0.003 -0.003 -0.003 -0.003 -0.003 -0.003 -0.003
-0.003 -0.003 -0.003 -0.003 -0.003 -0.003 -0.003 -0.003
-0.003 -0.003 -0.003 -0.003 -0.003 -0.003 -0.003 -0.003
-0.003 -0.003 -0.003 -0.003 -0.003 -0.003 -0.003 -0.003
-0.003 -0.003 -0.003 -0.003 -0.003 -0.003 -0.003 -0.003
-0.003 -0.003 -0.003 -0.003 -0.003 -0.003 -0.003 -0.003
-0.003 -0.003 -0.003 -0.003 -0.003 -0.003 -0.003 -0.003
-0.003 -0.003 -0.003 -0.003 -0.003 -0.003 -0.003 -0.003
00000000: a69b 44bb a69b 44bb a69b 44bb a69b 44bb
00000010: a69b 44bb a69b 44bb a69b 44bb a69b 44bb
00000020: a69b 44bb a69b 44bb a69b 44bb a69b 44bb
00000030: a69b 44bb a69b 44bb a69b 44bb a69b 44bb
00000040: a69b 44bb a69b 44bb a69b 44bb a69b 44bb
00000050: a69b 44bb a69b 44bb a69b 44bb a69b 44bb
00000060: a69b 44bb a69b 44bb a69b 44bb a69b 44bb
00000070: a69b 44bb a69b 44bb a69b 44bb a69b 44bb
00000080: a69b 44bb a69b 44bb a69b 44bb a69b 44bb
00000090: a69b 44bb a69b 44bb a69b 44bb a69b 44bb
000000a0: a69b 44bb a69b 44bb a69b 44bb a69b 44bb
000000b0: a69b 44bb a69b 44bb a69b 44bb a69b 44bb
000000c0: a69b 44bb a69b 44bb a69b 44bb a69b 44bb
000000d0: a69b 44bb a69b 44bb a69b 44bb a69b 44bb
000000e0: a69b 44bb a69b 44bb a69b 44bb a69b 44bb
000000f0: a69b 44bb a69b 44bb a69b 44bb a69b 44bb
00000100: a69b 44bb a69b 44bb a69b 44bb a69b 44bb
00000110: a69b 44bb a69b 44bb a69b 44bb a69b 44bb
00000120: a69b 44bb a69b 44bb a69b 44bb a69b 44bb
00000130: a69b 44bb a69b 44bb a69b 44bb a69b 44bb
00000140: a69b 44bb a69b 44bb a69b 44bb a69b 44bb
00000150: a69b 44bb a69b 44bb a69b 44bb a69b 44bb
00000160: a69b 44bb a69b 44bb a69b 44bb a69b 44bb
00000170: a69b 44bb a69b 44bb a69b 44bb a69b 44bb
00000180: a69b 44bb a69b 44bb a69b 44bb a69b 44bb
00000190: a69b 44bb a69b 44bb a69b 44bb a69b 44bb
000001a0: a69b 44bb a69b 44bb a69b 44bb a69b 44bb
000001b0: a69b 44bb a69b 44bb a69b 44bb a69b 44bb
000001c0: a69b 44bb a69b 44bb a69b 44bb a69b 44bb
000001d0: a69b 44bb a69b 44bb a69b 44bb a69b 44bb
000001e0: a69b 44bb a69b 44bb a69b 44bb a69b 44bb
000001f0: a69b 44bb a69b 44bb a69b 44bb a69b 44bb
