models/checkpoint_critic_local_15.pth (torch_old, 349244 bytes, 5 tensors)

fcs1.weight f4 [256, 200]
00000000: 785d 49bd 50f4 ce3c 4074 90bb d057 573c
00000010: 4690 5e3d 60d8 903c b8e1 643c e21f 593d
00000020: 48b4 103c 20a1 3ebb 2abe 5cbd 3c26 f13c
00000030: ca6a 0a3d 8065 b5bb 48ec 35bc 285d 863c
00000040: f8dc a6bc 089e 793c fa40 1f3d fcc4 843c
00000050: f686 743d 9c07 e73c d0f9 cdbb f884 1c3c
00000060: b081 c23b c446 063d 84e6 e63c 20c1 693b
00000070: d62f 2ebd c083 b13c 5ee3 5abd 7011 063c
00000080: f0d3 c73c 6031 51bb 8edc 4b3d decf 36bd
00000090: 603f c6bb 5007 7b3d ae7c 24bd cccd ae3c
000000a0: 0251 5d3d 2800 7f3d 00cc 3cba a447 4f3d
000000b0: 48d7 7cbd 4ef7 13bd 34ec eabc a009 cebc
000000c0: 1ae0 1bbd 0450 d5bc c4f1 ba3c 62ab 143d
000000d0: 7439 0c3d f6d0 45bd c0d2 96ba e2a4 50bd
000000e0: 3e0b 783d 30bd 28bd ccab 91bc 787b afbc
000000f0: bc86 e7bc 0c41 97bc e82e 59bc 8007 e0bb
00000100: d894 45bd 48ee 7bbc 4e99 52bd 0ccd 42bd
00000110: 8030 55ba 88f9 bdbc d819 253c 74f3 a93c
00000120: d24b 5b3d 6053 253b 0809 6b3c b868 473d
00000130: 1cd9 abbc 9cec 31bd e86a a0bc 4259 623d
00000140: 8809 a13c 0084 d9bc 80a9 6d3b 8ec9 643d
00000150: a0e6 583d d8bd 513d d0ff b23c 8814 41bd
00000160: 28ab 32bc 389b 36bc 4ce1 783d 9822 53bc
00000170: 6c98 8cbc 18da 29bd 20eb bbbc f0fb a33c
00000180: 9c0e efbc ec4a 863c 6098 e9bc 9036 3bbc
00000190: 5cc8 233d 6431 bebc 7eee 503d 7839 76bd
000001a0: 685e 7c3c c444 92bc b27c 4ebd 2871 15bd
000001b0: 0010 123a 487e c43c e84e 5ebc e01a 423b
000001c0: 0ed9 2b3d 48c3 7e3c 0e40 533d b4bc 553d
000001d0: 08d8 13bc 2c1a 7f3d 34b9 e53c 7c60 933c
000001e0: 1ea7 7c3d ba21 4abd 701f 9f3b e4c3 ca3c
000001f0: 6874 2a3c 888f 563d f87f efbc 7ee5 17bd
00000200: 7e43 0dbd e836 713c 0052 37b9 e4a2 e93c
00000210: 2458 b1bc 5c11 e8bc 42a3 3ebd 00f9 86b9
00000220: 88dd 48bc ae29 48bd faef 653d c0e1 233b
00000230: d8f7 6abc 30c2 d33c c02a 3dbc a424 8f3c
00000240: b83c 68bd 98d0 733d d020 5ebd cc51 543d
00000250: 8cf9 1bbd a898 8fbc 68b7 b73c ca2c 193d
00000260: 002d 6ebb 20e8 b9bb f4f3 b7bc 60b7 be3c
00000270: 8c69 2fbd 1e0f 43bd 8059 2d3b 8857 febc
00000280: 00b6 ddbc 8849 97bc 862e 51bd 880a 9fbc
00000290: 3ce3 e23c a8de 16bc 907e 273d 1ca5 25bd
000002a0: 70ed f53b 42fa 793d 5847 6a3d c0f9 293c
000002b0: 9633 6fbd a061 eebc e8ad 31bc 7e2f 173d
000002c0: 8092 9e3a c0e6 db3a 80d7 38bb f0f9 e03c
000002d0: 5ee4 03bd 90b1 563c bea8 1c3d 805e 94ba
000002e0: 7031 d8bb 98ee 56bc 1eec 753d f258 1dbd
000002f0: 00e0 8d37 9649 7ebd fcab c23c 0038 f4ba
00000300: ee3a 153d 98a6 2e3c 580d edbc 56da 7c3d
00000310: 10c1 133d b82d 983c 9064 61bc ec24 813c
00000320: 3ad7 213d 605d 973b 80cf 40bc 60fb 07bd
00000330: 4858 0f3c ca8b 20bd 5011 d1bb bc33 2bbd
00000340: d834 1b3d 0eee 09bd cc88 8dbc 7c38 fc3c
00000350: 6cec 1dbd 3894 fbbc 80e8 7bbb 4456 c43c
00000360: 18e7 42bc 703f a03c dc63 4a3d 7272 1c3d
00000370: 8e91 233d 9082 33bd 6850 f93c 683d 09bc
00000380: 1caa 37bd fab7 10bd 4282 70bd 0839 793d
00000390: 3076 223d 90ad 46bd f87e 52bd 88db f53c
000003a0: 804a 553d 9860 39bd ecc6 94bc 2a47 1d3d
000003b0: c0d8 ffba 5c2d 5fbd 6258 443d da0c 6b3d
000003c0: 045c dbbc 6017 763d c855 5c3d 869c 54bd
000003d0: f4fe ed3c 7034 983c 100f 6ebc 50f5 59bd
000003e0: c02f a1bc 6864 633c 80dd 003a 00f1 343a
000003f0: 6442 dc3c be5f 7cbd f8e5 ad3c f0f1 c7bc
-0.049161404 0.025262982 -0.0044083893 0.013143495 0.05433681 0.0176813 0.013969831 0.05300892
0.008832045 -0.0029087737 -0.053892292 0.029437177 0.03379325 -0.0055357814 -0.011103697 0.016401842
-0.020369038 0.0152354315 0.038880326 0.01620721 0.05969902 0.02820187 -0.0062858835 0.009553187
0.00593587 0.03278233 0.02818609 0.003566809 -0.04252609 0.021669269 -0.05343949 0.008182868
0.024393052 -0.00319203 0.049770884 -0.04463183 -0.0060500354 0.06128627 -0.040157966 0.021338366
0.054032333 0.06225601 -0.0007202029 0.05060543 -0.061728746 -0.03612452 -0.028677084 -0.025151074
-0.038055517 -0.026039131 0.022820361 0.036296256 0.03423448 -0.048294984 -0.00115069 -0.050938495
0.060557596 -0.04119605 -0.017782114 -0.02142118 -0.028262489 -0.018463634 -0.013255812 -0.0068368316
-0.04823765 -0.015376635 -0.051415734 -0.04755883 -0.0008132532 -0.023190275 0.010076962 0.02074597
0.053539105 0.0025226697 0.014345415 0.048683852 -0.02097755 -0.04343854 -0.019582227 0.055260904
0.019657865 -0.0265522 0.003626436 0.05585628 0.052954316 0.05120644 0.021850497 -0.04713872
-0.010905065 -0.0111454055 0.060761735 -0.012886666 -0.017162524 -0.041467756 -0.022939265 0.020017594
-0.029181771 0.016393147 -0.02851504 -0.011426583 0.039986 -0.02321691 0.051008694 -0.0601134
0.015403368 -0.017855056 -0.050411887 -0.036484867 0.0005571842 0.023985997 -0.013568617 0.002961807
0.041955046 0.015549488 0.05157476 0.052181914 -0.009023674 0.06228082 0.028042413 0.017990343
0.061682813 -0.04934857 0.0048560426 0.024751611 0.01040373 0.052382976 -0.029235825 -0.037084095
-0.034488194 0.014722563 -0.00017482787 0.028520055 -0.021648474 -0.02832859 -0.046542414 -0.0002574399
-0.012259848 -0.048867874 0.056137063 0.0025006384 -0.014341317 0.025849432 -0.011545837 0.017473526
-0.05669853 0.059525102 -0.05423051 0.05183582 -0.038079783 -0.017528847 0.022426322 0.03739623
-0.003634274 -0.0056734234 -0.022455193 0.0232808 -0.042825267 -0.04762184 0.0026451051 -0.031047598
-0.027064323 -0.01846768 -0.05106976 -0.019414201 0.027696244 -0.009208359 0.040892184 -0.040440664
0.0075051114 0.06102968 0.057196945 0.010374486 -0.058398806 -0.029099286 -0.010844685 0.036910526
0.0012098104 0.0016777143 -0.002820462 0.02746293 -0.03220021 0.013103858 0.038246863 -0.0011319667
-0.0065976903 -0.013118409 0.060039632 -0.038414903 1.6912818e-05 -0.062081896 0.02376365 -0.0018632412
0.036433153 0.010659836 -0.028937027 0.06173166 0.03607279 0.018576488 -0.013756886 0.015764676
0.039511897 0.0046192855 -0.011768222 -0.033198714 0.008749075 -0.039195813 -0.0063802376 -0.041797385
0.037892193 -0.033674292 -0.017277144 0.030788653 -0.038555548 -0.030710325 -0.0038438141 0.023966916
-0.011895917 0.0195615 0.04941164 0.03819508 0.039933734 -0.043825686 0.030433849 -0.008376457
-0.044839963 -0.035331704 -0.058717974 0.060845405 0.039663494 -0.048505366 -0.051390618 0.030011907
0.052073 -0.045258135 -0.01816126 0.038397945 -0.0019519553 -0.054486617 0.04793585 0.057385303
-0.026777275 0.060080886 0.053792745 -0.051907085 0.029052235 0.018579692 -0.014529958 -0.053212464
-0.01967609 0.013878919 0.00049158186 0.0006902367 0.026887126 -0.061614744 0.021227822 -0.024407357

fcs1.bias f4 [256]
00000000: d005 563c 5e26 753d 7e1a d9bc ec20 ea3c
00000010: 71a8 78bd e679 223d d0ae 413d b05e 5c3d
00000020: 2bfb 833d c0ff 2dbb 00f8 49ba 23d7 7abd
00000030: ac58 61bc 44ee e93c 7876 a33c c090 2e3b
00000040: 5835 223d 320a 543d 3cab e93c 1a3a e0bc
00000050: 09d2 10bd 8459 a13c 40a2 693b 381c bebc
00000060: 885c 1b3c 60a9 84bd 00f1 2e3b d2a5 e1bc
00000070: 03da 40bd e0eb 523c 8e0a 3d3d 3e92 9abc
00000080: ce67 02bd 10d6 c73b 848b 50bc b41a d73c
00000090: e0cc 443c 1190 863d ec95 b2bc 7680 5c3d
000000a0: 246e dc3c 2648 1abd fced f73c 450e 15bd
000000b0: e44a fe3c da3e 5a3d 7c4e f03c d025 cc3c
000000c0: a0d5 c03b f29b b6bc 3090 d1bb a090 523c
000000d0: e6a7 e7bc 9058 c83b 8049 23bc 8e6e 473d
000000e0: 52c3 423d 94a8 7ebd 4a50 debc 2662 4bbd
000000f0: 3c21 59bd 32c7 6c3d a2d1 593d e362 8fbd
00000100: 2cd9 df3c 8036 823b b7d4 18bd b23e 693d
00000110: 5266 5e3d ce80 293d 6a14 27bd 10e8 b33b
00000120: d659 8ebd 58c0 383d 9cb3 94bc 4066 97ba
00000130: 78a8 8e3c f02e 183d 10c6 86bb 65c7 18bd
00000140: 4ff7 30bd 70ea 503d 90db eebb f890 8cbd
00000150: 2f47 12bd 2e45 5e3d 9615 6fbd 2612 8abc
00000160: 6094 c7bc fcf4 e13c c15c 2ebd 57dc 893d
00000170: c0d3 923a 7cd5 aa3c 44cb 4bbc 8b34 3dbd
00000180: 3259 3ebd a67c d6bc da1c 793d 4cad 8bbd
00000190: b254 17bd 24e0 d93c daef 41bd 541e de3c
000001a0: 8ec9 08bd 603c 313b 6870 83bd dbf2 87bd
000001b0: d053 853c 023d b9bc 0ef8 373d 08f9 81bc
000001c0: eac8 453d e6b6 1bbd da93 1f3d 14b7 5cbd
000001d0: d029 513c 7ab0 4ebd a00c 713c 07ec 32bd
000001e0: 166f 36bd 9cfd 7bbd 65b8 05bd f8af 193d
000001f0: 6015 223c d6d4 29bd 8980 823d fe1d 6abd
00000200: 9ed1 ebbc 7c65 33bd 6011 3a3c 6014 1dbb
00000210: e89f 0dbc 103f 5bbd 8a6c a1bc a82d 04bc
00000220: 3e18 733d 3448 74bc 28bd 083d 3f34 853d
00000230: 328d 073d 1aa8 653d 0ed8 313d f09c 61bc
00000240: 96c2 bcbc f624 303d 0ee5 7bbd 3847 543c
00000250: 37d9 20bd 650f 8ebd e0e8 1e3c 4019 1fbb
00000260: f0c0 35bc 4b37 04bd f880 68bc 3a96 583d
00000270: 16f6 47bd 1ab3 efbc 68ec 05bc 2cac d0bc
00000280: 7942 13bd 1984 893d 2044 143c 4c14 5fbd
00000290: b65f a1bc 66b2 f2bc ba40 453d c717 8c3d
000002a0: f0ab 113c a0e1 44bb 3211 9abc ce04 293d
000002b0: d0ba 253d 7bd9 883d d727 89bd 60e5 0dbb
000002c0: 1713 30bd e0ac 923b 40cc 32bb 7081 a33c
000002d0: ba9e 7dbd d658 adbc bd50 8dbd 8ba7 13bd
000002e0: c0a3 813c 0019 2bbb da5b 113d 2884 6a3c
000002f0: 380e 4cbc b88c 5ebd 6960 863d 2efb 653d
00000300: 39d0 903d d41a 4a3d acb7 bb3c ac1c 50bd
00000310: 45be 1dbd 50bb 283c 2840 4a3d b4d9 eebc
00000320: 723c 2f3d 27dc 1cbd b823 003d 92d7 86bd
00000330: 38ac 213d 3af8 1c3d 2d44 13bd 079e 88bd
00000340: d053 923b 8e07 65bd 808b 8bbd 2056 02bb
00000350: 34c8 473d 604b fbbc 258a 8e3d e071 8fbd
00000360: ba22 413d 72c0 693d 138b 81bd 6ee2 763d
00000370: 285d 5fbd 6cd4 a23c 1e69 dbbc 5014 1a3d
00000380: 22f7 1f3d b0b1 80bd 104f 883c 9cc2 303d
00000390: a831 d53c 82da 183d bc42 58bd f0dd c63b
000003a0: 6609 87bd e4ab b03c 5ed2 523d 535d 14bd
000003b0: fc62 5d3d 3c3c 183d 94fc 1b3d 9062 d2bb
000003c0: b1ef 86bd 0af3 7a3d ea66 69bd e9d8 5ebd
000003d0: 4e6a fabc de50 343d 189f 7e3c a8e9 093d
000003e0: 0275 793d d730 8c3d 4ca6 9fbc 0af5 58bd
000003f0: b03d ccbb 87ee 0bbd 00ea a33b 6f7e 83bd
0.013062909 0.059851043 -0.02650189 0.028580151 -0.060707513 0.039667033 0.047285855 0.05380124
0.06444391 -0.0026550144 -0.00077044964 -0.061240327 -0.013754051 0.028555997 0.019953951 0.002663657
0.039601654 0.051767536 0.028524034 -0.027371455 -0.035356555 0.019696005 0.0035649687 -0.023206815
0.00948251 -0.06477618 0.002669394 -0.02754489 -0.047082912 0.01287362 0.046152644 -0.018868562
-0.031837277 0.0060985163 -0.012728576 0.02625785 0.012011737 0.06570447 -0.021800004 0.053833447
0.026907988 -0.037666462 0.030264847 -0.03639056 0.03104157 0.053282596 0.0293343 0.024920374
0.005884841 -0.022291157 -0.0063953623 0.012851864 -0.028278302 0.006114073 -0.009966254 0.048689418
0.047549553 -0.062172487 -0.027137894 -0.04965415 -0.05301021 0.057807155 0.053178437 -0.07001283
0.027325235 0.003973782 -0.037312236 0.056944557 0.0542968 0.041382603 -0.040790953 0.0054903105
-0.069507286 0.04510531 -0.01815205 -0.0011550859 0.017414317 0.037154138 -0.0041129664 -0.037299532
-0.0432046 0.051004827 -0.0072893575 -0.06863588 -0.035712417 0.054265194 -0.058370195 -0.016854357
-0.024362743 0.027582638 -0.042568926 0.067314796 0.0011202022 0.02085375 -0.012438599 -0.046192687
-0.046471782 -0.026182484 0.06081853 -0.06820163 -0.036946006 0.026596136 -0.04734788 0.027114071
-0.033395343 0.0027044043 -0.06417924 -0.06638118 0.016275316 -0.022612099 0.044914298 -0.015865818
0.04828731 -0.038016222 0.03895936 -0.053885534 0.0127663165 -0.05046127 0.014712483 -0.043682124
-0.044539534 -0.061521158 -0.032646555 0.037521333 0.0098927915 -0.04146274 0.063721724 -0.05715751
-0.028786477 -0.043797955 0.011356682 -0.0023968443 -0.008644082 -0.053526938 -0.019705076 -0.008067526
0.05934929 -0.014909793 0.03338352 0.06504106 0.03309364 0.056068517 0.043418936 -0.013770327
-0.023042005 0.043004 -0.06149774 0.012956433 -0.039269652 -0.0693653 0.009699076 -0.0024276525
-0.011093363 -0.032279294 -0.014190905 0.052877642 -0.04881867 -0.029260207 -0.008174039 -0.025472723
-0.035952065 0.06714649 0.009049445 -0.054462716 -0.019698959 -0.029626083 0.04815743 0.06840473
0.008891091 -0.003004171 -0.018807027 0.041264348 0.04046136 0.06682106 -0.06697052 -0.002165161
-0.042986955 0.0044761747 -0.0027282387 0.019959182 -0.06191895 -0.021160524 -0.06900165 -0.036048453
0.015825152 -0.002610743 0.035487987 0.014313735 -0.012454562 -0.05433342 0.065613575 0.056147747
0.07070965 0.04934199 0.02291473 -0.050808594 -0.038511533 0.010298565 0.04937759 -0.029156543
0.042782255 -0.03829589 0.031284064 -0.065840855 0.03947088 0.038322665 -0.03595369 -0.06670766
0.0044655576 -0.055915408 -0.06813717 -0.001988776 0.048774913 -0.03067559 0.06959943 -0.07004142
0.04715226 0.057068296 -0.063253544 0.060274534 -0.0545322 0.019876681 -0.026783522 0.037617028
0.039054044 -0.06283891 0.016639262 0.043154344 0.026024655 0.03731776 -0.052798018 0.0060689375
-0.065935895 0.021566339 0.051470153 -0.036221813 0.054049477 0.03716682 0.038082674 -0.006420441
-0.06588686 0.061266936 -0.056982912 -0.05440608 -0.030568268 0.044022433 0.015540861 0.033670098
0.060902603 0.06845253 -0.019488476 -0.052968062 -0.0062329397 -0.034163024 0.00500226 -0.064206

fc2.weight f4 [128, 276]
00000000: 15c4 49bd 1663 aabd 382d 5c3c 79e0 983d
00000010: 4045 55bc c58a 9a3d d02c 3dbc 56a0 3a3d
00000020: 90b7 273c 0017 d9ba 5694 7bbd 4445 ed3c
00000030: 902e d23b 40b0 44bb 62f3 a9bd 8fc5 59bd
00000040: 2dd4 a73d b2a2 dcbc 9000 12bc bab2 3a3d
00000050: 50e1 35bd 0e30 403d 321d 733d 14b5 0f3d
00000060: 8864 2c3c 458c 33bd b37c 9e3d c0da cf3b
00000070: fc0b c03c 7618 723d 38ea 573c ba29 283d
00000080: 02d8 d9bc 8599 983d df7b 893d 0d98 993d
00000090: 090d 8f3d 6256 81bd f2fa 5dbd a8d9 1a3c
000000a0: fcaf 9fbd 867f 183d 07e6 903d 82fb 92bd
000000b0: 0016 8abd 566a a3bd 561d 273d f97d 8a3d
000000c0: 00d1 c0bc 3aa0 343d be5a 4d3d 80b8 b83b
000000d0: ee09 283d be81 393d 4010 d0bb d80b 143d
000000e0: d131 99bd 2297 473d d28e 293d 1064 b7bb
000000f0: 630e a53d 98a6 463c 083b 823c 3cb0 91bd
00000100: 7727 843d 007c 23bb b592 963d 22eb 2f3d
00000110: 3ebc 29bd 7c93 2bbd 2849 52bc 3804 e03c
00000120: 600e 62bc 2d06 853d 00ac d2ba a6a7 9ebd
00000130: b8df a8bc 1fdc 863d 0287 edbc 1adf 473d
00000140: 6bed a6bd 306b 75bd 1f47 893d a065 a93c
00000150: 95b0 9ebd a541 6fbd 397c 49bd 6016 f13b
00000160: 5c4a f33c 2955 8bbd 42a7 653d d0be c6bb
00000170: 9824 f83c b1c8 a83d 863e 783d 62cb 83bd
00000180: 2bec 803d 26c6 38bd 3ae2 e0bc 81b6 9ebd
00000190: 8499 083d 88e8 75bd bcec f2bc 048e 943c
000001a0: 2eb5 353d e3c5 96bd a348 7ebd 28bd 1c3c
000001b0: 4c71 85bd 611c 90bd acae c2bc c150 a03d
000001c0: 50b1 e6bb bef4 6bbd 406c 73bd 181f 8fbc
000001d0: 354a 883d 4246 713d 45b7 acbd c4ac b23c
000001e0: d662 f1bc 1cdc bdbc 3c37 13bd e6d0 573d
000001f0: e50d b23d 2133 a7bd 76b4 593d 8091 693b
00000200: 3aa6 41bd b7f8 15bd e976 993d 909a aabc
00000210: de71 5d3d 7a64 3d3d 367e 263d 044b f63c
00000220: dd6a ad3d 315e 85bd fb77 9ebd d89e 31bc
00000230: c49b 28bd aae2 9fbd cb43 903d 9894 723c
00000240: 62b2 753d 7648 dabc 2a90 1d3d 3b04 a73d
00000250: 00cb e9bc 20ef 46bc 941f 083d 1d65 09bd
00000260: a8d4 8bbd c440 d7bc 1c20 87bd 8233 fdbc
00000270: a1c2 8b3d b015 b23c e0b2 8abc 69b9 833d
00000280: a33e 98bd 003f cb3a 0f43 a23d 165f 403d
00000290: 2341 823d 1d8c 933d 863a 57bd 10b7 31bd
000002a0: 8e87 96bd 0b1e a83d aa04 6dbd 6dde 8b3d
000002b0: 7e13 203d 382c 4bbc c0e3 0ebc 50f0 213c
000002c0: 307d 96bd a3e4 3ebd c58f 8f3d bad5 dfbc
000002d0: 10be 8fbd 103e 683c 0249 8dbd df70 ab3d
000002e0: ccfc 3cbd a7ba b33d 9c35 98bd b50d 2dbd
000002f0: b081 09bd a7ff 52bd c081 cfbc cf2b b13d
00000300: c83f fe3c bc59 c63c f778 803d a036 2ebb
00000310: aa35 6fbd 804b 743b 6163 84bd 6640 fbbc
00000320: d6b7 d4bc 5efd 403d dd24 b1bd 3a3b 60bd
00000330: e04d 84bb 96ed 98bd cef6 aabd 8063 99bb
00000340: ac48 983c ddc7 64bd 8626 2a3d 2c0d fb3c
00000350: 88f6 0f3c f93a 23bd b7b6 5abd 8538 893d
00000360: c1c0 8b3d e24e ecbc 9945 af3d 6b0a 913d
00000370: 0296 1a3d 8590 12bd be3c 2e3d 90ef c53c
00000380: 841b a03c 66f7 a1bd 4b19 85bd c24d 2c3d
00000390: 3c93 afbd ae20 9cbd 8904 4bbd 3807 063c
000003a0: 4550 853d 84f5 a43c 808e f83b ac60 b13c
000003b0: b4f4 f4bc 08dd a5bc 658e 9e3d fcf1 35bd
000003c0: c80d 10bc c8b5 2c3c f15a a2bd 8cc9 b8bc
000003d0: 6a6c 9dbd f656 d5bc 38a1 823c 286f 36bc
000003e0: c6e4 45bd f078 503c 008b 423c 74a3 b5bc
000003f0: da6a 8dbd d0b0 51bc 20f4 95bb ff1e a53d
-0.049259264 -0.083196804 0.013438515 0.0746469 -0.013016999 0.075459994 -0.011546329 0.045563065
0.010236636 -0.0016562641 -0.06142076 0.028963692 0.006414242 -0.003001228 -0.08298375 -0.053166922
0.08194766 -0.026933048 -0.008911267 0.045580603 -0.044404328 0.04692083 0.059354015 0.0350848
0.010522015 -0.043834943 0.07738628 0.0063432157 0.023443215 0.05910536 0.013178401 0.04105542
-0.026592258 0.074511565 0.0671308 0.074997045 0.06984908 -0.06315304 -0.0541944 0.009451307
-0.07797238 0.03723099 0.07075124 -0.071768776 -0.067424774 -0.07979266 0.04079946 0.067623086
-0.023537159 0.044098116 0.050135367 0.0056372285 0.041025095 0.045289747 -0.0063495934 0.036144108
-0.07480205 0.048728116 0.04139597 -0.005596645 0.08059385 0.01212468 0.015897289 -0.07113692
0.0645284 -0.0024945736 0.07352201 0.04294885 -0.041439287 -0.0418887 -0.012834825 0.027345762
-0.013797373 0.064953186 -0.0016072989 -0.0774682 -0.02061449 0.065849535 -0.02899504 0.04879675
-0.08150753 -0.059916675 0.067030184 0.020678341 -0.07748524 -0.058412213 -0.049190734 0.0073574036
0.029698543 -0.068033524 0.056067713 -0.006065227 0.030290887 0.08241404 0.060606502 -0.064352766
0.062950455 -0.045110844 -0.027451623 -0.077496536 0.03334953 -0.060036212 -0.0296539 0.018134125
0.04436224 -0.07361963 -0.06208099 0.009566583 -0.0651575 -0.07036663 -0.02376493 0.078279026
-0.0070401803 -0.05760645 -0.059429407 -0.017470881 0.06654779 0.058904894 -0.084333934 0.021810897
-0.029466074 -0.023176245 -0.035941347 0.052689455 0.086940564 -0.08164049 0.053150617 0.0035639703
-0.047277667 -0.036614146 0.074933834 -0.020825654 0.05406367 0.0462384 0.040647708 0.030065067
0.08467648 -0.06512106 -0.07737728 -0.010841094 -0.041164175 -0.078069046 0.070441805 0.014805935
0.059984572 -0.02664588 0.038467564 0.08155104 -0.02853918 -0.012141973 0.03323324 -0.033543695
-0.0682767 -0.026276 -0.06597921 -0.03090835 0.06824232 0.021738857 -0.016930997 0.064318486
-0.07433822 0.0015506446 0.07922947 0.04696568 0.0636008 0.07204459 -0.052546047 -0.043387473
-0.07350074 0.08208855 -0.057865776 0.06829534 0.03908109 -0.012400679 -0.008721292 0.009883955
-0.07348096 -0.046604764 0.07009844 -0.027323592 -0.070186734 0.014174953 -0.06898691 0.08371138
-0.046139523 0.087758355 -0.074321 -0.0422494 -0.033570945 -0.05151334 -0.025330424 0.08650934
0.031036273 0.02421271 0.06273072 -0.0026582852 -0.058400787 0.0037276447 -0.064642675 -0.030670356
-0.025966566 0.04711663 -0.08649609 -0.054743983 -0.0040376037 -0.07467191 -0.083478555 -0.004681051
0.01858934 -0.055854667 0.041540645 0.03064593 0.008786805 -0.039851163 -0.053396907 0.06700233
0.06823874 -0.028846208 0.085581966 0.07082065 0.037740715 -0.035782356 0.042538397 0.024162084
0.01954437 -0.07908516 -0.06498965 0.042066343 -0.085730046 -0.07623421 -0.049564872 0.008180432
0.06509451 0.020136602 0.0075853467 0.021652542 -0.02990184 -0.020246997 0.07742003 -0.044420227
-0.008792348 0.010541387 -0.07927502 -0.022557043 -0.07686694 -0.026042443 0.015946016 -0.0111349
-0.04831388 0.012724146 0.0118739605 -0.022172667 -0.06905146 -0.012798503 -0.004576221 0.08062553

fc2.bias f4 [128]
00000000: ac73 8e3c f4a8 bb3c 7146 2fbd 48d4 3cbc
00000010: 2070 e4bc b00e 48bb a49f 153d 1cf4 6f3d
00000020: b0c7 223d e031 373d e8b2 083c 1816 e2bb
00000030: 0fc0 57bd e831 7abc 3f9e 73bd dfdb edbc
00000040: d4f3 dc3c 5047 5d3c 8b2d 00bd 04ed 053d
00000050: 3079 e53b a04b bcbb 5ce0 0dbd c6e7 5f3d
00000060: 708e d63c 8e81 603d 78ca c6bb 9088 e5bc
00000070: ecbd 06bc 4a27 143d 90b1 ce3b 282e 4ebc
00000080: e0f1 0abd 0093 c53c 9c0c 65bd 1ed7 4ebd
00000090: 8cbd 2cbc 4814 23bd 2087 ee3c 64a3 2bbc
000000a0: 785b 6dbc 249f 563d a4d4 ee3c 1af0 58bd
000000b0: 334c 43bd 7297 afbc 24a7 513d 46f7 2dbd
000000c0: b0f4 71bc 60a3 cfba 0458 433d 30af 493c
000000d0: 201b a93c dfea 46bd d01a 603d 40f9 703d
000000e0: 08a2 793c 0409 19bc ccb4 a33c 2481 923c
000000f0: 5228 323d c8be 283d bc8c 653d 284c 16bc
00000100: 42db 47bd 20d5 1abd e893 373d 1a95 323d
00000110: 9064 5e3c 3cbb 3a3d e6a6 46bd 407d 553c
00000120: 8ca6 5abc 7012 bf3c 50e9 bd3b 98b8 223d
00000130: 90ae cb3b f4f5 79bc c078 60bb a789 74bd
00000140: 3c44 44bd 84c0 10bc 032e 21bd bc06 d63c
00000150: 4012 b2ba 30d5 373d 0251 013d f64b 223d
00000160: faab d4bc 4e94 30bd 0841 30bd 4c2d 5abd
00000170: 1029 e63c a9c8 2ebd c08b b03b 4ed2 44bd
00000180: 124f 553d ac9c 623d f457 1b3d 2c07 40bc
00000190: 8c11 12bd c254 243d d0ce bd3b 6093 023c
000001a0: 6acc 263d 2986 edbc b825 a2bc dea3 ddbc
000001b0: c6b3 5c3d 8856 1cbd 9c0d 263d b8b4 353d
000001c0: 8454 b63c ccb2 b13c 101e 8e3b 5855 e83c
000001d0: c0d3 053c 50f3 f83b 50f4 da3c 7078 75bb
000001e0: 4e10 36bd 94c8 603d 100d 733c 8630 6bbd
000001f0: 3a2a 42bd ccc4 52bd 2e7b ddbc a21c 043d
0.017389141 0.022907712 -0.042791788 -0.011525221 -0.027885497 -0.0030526333 0.0365292 0.05858241
0.039741218 0.0447253 0.008343436 -0.0068996064 -0.052673396 -0.015270688 -0.059477087 -0.029035507
0.026971735 0.013505772 -0.031293433 0.03269674 0.007002972 -0.00574632 -0.034637794 0.054664396
0.026190966 0.054811053 -0.0060666166 -0.02801922 -0.008223992 0.03617028 0.006307788 -0.012584247
-0.033922076 0.024117947 -0.05592023 -0.05049812 -0.010543238 -0.039814264 0.029117167 -0.010475967
-0.01448714 0.052397862 0.02915413 -0.052963354 -0.04768009 -0.02143452 0.05118479 -0.042472146
-0.014767811 -0.0015841536 0.04769136 0.012309834 0.020642817 -0.048563834 0.05471307 0.058831453
0.015236385 -0.009340528 0.019983672 0.017883845 0.043495484 0.04119757 0.056042418 -0.0091734305
-0.048793085 -0.037800908 0.04481879 0.043599226 0.013573781 0.045588717 -0.04849901 0.01303035
-0.013345372 0.023324221 0.0057956353 0.039726824 0.006215878 -0.015256394 -0.003425166 -0.059701588
-0.047916636 -0.008834962 -0.03935052 0.026126258 -0.0013585761 0.044881046 0.031571396 0.039623223
-0.025960911 -0.043110184 -0.04303077 -0.053265855 0.028095752 -0.042671833 0.0053877532 -0.048052125
0.05207736 0.055325195 0.037925676 -0.01172046 -0.035661265 0.040119894 0.0057924762 0.007969707
0.04072229 -0.028994637 -0.019793376 -0.027055677 0.053882383 -0.03816846 0.040540323 0.0443618
0.022257097 0.021691702 0.00433708 0.028361008 0.008168161 0.0075973645 0.026727825 -0.003745582
-0.044449143 0.054878786 0.014834657 -0.057419322 -0.04740355 -0.05145721 -0.027036276 0.03225387

fc3.weight f4 [1, 128]
00000000: fc1b 163b 566c a8ba a8f9 14ba d009 c63a
00000010: 3c72 25bb 66f2 2cbb ff0d 36bb 588a 9c3a
00000020: 229c c6ba 2848 03bb e8d0 32bb 54a1 293b
00000030: e8be a53a c882 593a 687f 363b 2865 18bb
00000040: 8682 423b 3a99 3d3b f444 19ba 18a9 86ba
00000050: a312 07bb 7040 1f3b 22f9 423b c67d 333b
00000060: 84ed 96ba c0d0 c13a ae9c 3b3b 7a2a 053b
00000070: 7876 65ba c0d7 973a 8c26 36bb 60a9 01b9
00000080: 46f0 3cbb 4ed2 89ba 1cff e4ba 2cb2 13ba
00000090: d225 a0ba e129 07bb d081 75ba 4487 313b
000000a0: 440b 11ba f2d1 13bb ac56 35ba 7433 f1ba
000000b0: e1a9 9aba ab73 0dbb 7582 24bb a240 16bb
000000c0: d4a4 263b 5050 db3a 688c eb3a 60da 8938
000000d0: f065 3639 0c58 83ba a99c 42bb 4a70 413b
000000e0: 3828 283b 5eb1 313b 4079 52b9 1086 11bb
000000f0: 580d 083b c01f 12bb c186 adba f441 20ba
00000100: 306f 273b e0c7 f8ba 61a5 94ba 10e4 c2ba
00000110: 488d 0b3b fafc 0b3b 89f6 3dbb fc60 f33a
00000120: 3c9f 25ba 370c 90ba bc33 1d3b 95d2 8cba
00000130: 08bd 6b3a 9c0c 223b b039 09ba ec2d d3ba
00000140: 08e9 1eba 82de a1ba 9870 283b 504a 9f3a
00000150: 48bc d03a c4d5 c93a 4e9e 19bb 7c74 c03a
00000160: 402e cb39 0030 c7b5 ccdb 0e3b 8c43 35ba
00000170: f7b1 8fba 689e cb39 f09c 19b9 bcd2 e4ba
00000180: 3ca9 0bba 580c 943a 6626 f7ba ccf7 a63a
00000190: 0db1 2cbb 38cc 1dbb a479 36ba 9741 21bb
000001a0: 8ac4 003b e157 feba a4ba f2ba 52b1 31bb
000001b0: 7491 3abb 3c0c e9ba 80b8 17ba 4447 4dba
000001c0: 300a 62b9 ae13 333b 9830 c73a d046 003a
000001d0: a9b9 a9ba 607f 21b9 b072 ddb9 e0b5 ad39
000001e0: 64fb 72ba 980a bb3a 20af fc38 241f 193b
000001f0: 007c 1bba 709f a03a 1c2d 5cba 82b2 0bbb
0.0022904864 -0.001284967 -0.00056829536 0.0015109126 -0.002524509 -0.0026389598 -0.0027779338 0.0011943085
-0.0015152732 -0.0020032022 -0.0027285162 0.0025883513 0.0012645395 0.0008297381 0.0027846936 -0.0023253653
0.0029679849 0.0028930441 -0.00058467616 -0.0010273783 -0.0020610474 0.0024299882 0.0029750546 0.00273882
-0.0011514877 0.0014786944 0.0028627324 0.0020319507 -0.000875331 0.0011584684 -0.0027793972 -0.00012365496
-0.0028829738 -0.0010514946 -0.0017471048 -0.00056341547 -0.0012218303 -0.0020624327 -0.0009365352 0.0027088681
-0.000553299 -0.0022555557 -0.0006917517 -0.0018402175 -0.0011799895 -0.0021583836 -0.0025102173 -0.0022926708
0.0025427835 0.0016732309 0.0017970921 6.5733446e-05 0.00017394847 -0.0010020747 -0.0029695428 0.0029516392
0.0025658738 0.0027113776 -0.0002007233 -0.0022205152 0.0020759907 -0.0022296757 -0.0013239012 -0.00061133434
0.002554845 -0.0018980466 -0.0011340791 -0.0014868993 0.0021293927 0.0021360503 -0.0028986058 0.0018568332
-0.0006317978 -0.0010989968 0.0023987135 -0.0010743911 0.00089927064 0.0024726754 -0.00052347314 -0.0016111708
-0.0006061946 -0.0012349638 0.0025701877 0.0012152884 0.0015925253 0.001539879 -0.0023440304 0.0014683153
0.00038753636 -1.4840625e-06 0.002179849 -0.00069146673 -0.0010963072 0.000388372 -0.00014649681 -0.0017457823
-0.0005327647 0.0011295183 -0.0018856048 0.0012738644 -0.0026350648 -0.0024078023 -0.0006960875 -0.0024605745
0.0019648396 -0.0019404852 -0.0018518758 -0.0027113748 -0.0028468044 -0.0017780135 -0.00057876855 -0.0007830749
-0.00021556835 0.0027324962 0.0015196977 0.00048933644 -0.0012949008 -0.00015401607 -0.00042237854 0.0003313264
-0.00092690275 0.0014270125 0.00012048916 0.0023364509 -0.0005931258 0.0012254547 -0.0008399056 -0.0021316116
