models/checkpoint_critic_local_5.pth (torch_old, 349244 bytes, 5 tensors)

fcs1.weight f4 [256, 200]
00000000: 38fa 4cbd 76bf 7dbd b0a7 cdbb 50bb f93c
00000010: a84c f4bc 6c91 c73c 82eb 7e3d f2fb 2dbd
00000020: c4db 733d f8d8 263d b80d 7dbd 28f0 d2bc
00000030: 7006 d93b 9092 903b 7010 cabc 70b7 b13b
00000040: b849 893c 7415 e4bc 6030 0bbd 1c79 c0bc
00000050: fc64 743d ec88 e33c bec2 79bd 4cef d7bc
00000060: c492 433d 50f7 a3bc e6bf 3fbd b2a7 08bd
00000070: 4684 753d 905a 633c e0f5 a3bb 9896 f23c
00000080: 60c2 0bbc 2055 1fbb ac49 ac3c e89f 83bc
00000090: 3add 00bd f080 dabb b005 903c 9453 083d
000000a0: 4092 27bd 8ace 6fbd 004c e8b8 a0cb 333b
000000b0: eab9 6d3d 889b 14bd 4adc 50bd d4d1 123d
000000c0: 1804 3fbd ea3d 4c3d 3a9f 3ebd 6ed0 403d
000000d0: e03f 933b 5099 513d f449 45bd 0c16 abbc
000000e0: 88c9 7fbd 36e1 4cbd ac2e 113d 2af0 74bd
000000f0: 1297 1ebd c007 aabc 3c93 2dbd 7a2b 3e3d
00000100: 2015 313c 3ce4 693d 9efd 033d ce47 0abd
00000110: 6851 03bc f630 25bd 5449 edbc 2819 34bc
00000120: dc90 a9bc 80bd 223a 9c9a b13c 90a4 963b
00000130: c026 02bc 94f9 31bd 805b 27bb 54dc 4a3d
00000140: 0edb 6bbd 60fc 58bb f8c3 09bd aebe 20bd
00000150: 285e bc3c c046 b8ba 64a1 693d d8ee bbbc
00000160: 8475 39bd 10e7 82bb aa52 7d3d 40b8 4f3d
00000170: 40cb 16bc 9004 b8bb 56e3 36bd c072 c43a
00000180: 406e b93c 00c0 0aba 8ab4 003d a631 1e3d
00000190: d65b 243d 04d0 d23c 488a cabc 9023 01bc
000001a0: aa8e 1cbd 0035 763c 34ef 083d 9632 793d
000001b0: bcb9 0a3d e8db b03c 80bf f23b e8aa 313d
000001c0: 5005 cb3b 1a6b 373d c0db 22bd 8440 0b3d
000001d0: 1048 403d f04f 31bc 00a4 6bbd e296 63bd
000001e0: 0089 8c3c 8887 dcbc 960d 49bd 864a 303d
000001f0: 98a8 583c 7c79 4fbd 0683 5ebd 8479 3fbd
00000200: 4059 363b d812 f83c 88ac 55bc 4cc3 d4bc
00000210: f030 47bc 5461 fb3c c4f7 a9bc 5acb 51bd
00000220: 88e6 7d3d ca42 433d f0a3 273d 8010 11bd
00000230: 608a fabb e836 423c ac80 25bd 4ab1 16bd
00000240: 943e 083d 30b6 433d 94c0 29bd 9a10 393d
00000250: 4662 793d 0035 ae39 989d 82bc b082 67bc
00000260: 18ca 1dbc 8480 903c 4858 f03c 1ac4 42bd
00000270: fe59 773d 2c44 88bc c4eb 4e3d 60cd 71bb
00000280: 242e f6bc c629 1abd 40f1 9e3b 3ed0 0abd
00000290: 3a45 243d 4207 073d 2ca8 8bbc 6837 333c
000002a0: 6ab9 0abd acd9 963c ca84 35bd b0b7 dfbb
000002b0: 2011 2dbd a003 15bb a2e5 7d3d 0000 d8bc
000002c0: c002 9c3a b023 013d bc16 223d 28f0 3ebc
000002d0: 00f3 66bb 4858 b8bc 300c 793d c8af f9bc
000002e0: c89d 383c 127a 37bd 82b4 1bbd 7871 4fbd
000002f0: b8d3 1fbc 9412 fa3c 88ce c9bc 3627 153d
00000300: a0b8 2cbb 8c3c bcbc 36f3 0e3d 04b1 353d
00000310: e280 6c3d eedb 19bd 4471 353d 0cdd 303d
00000320: 605f 983c c0e7 e5ba ea70 54bd 98ae 2bbd
00000330: 3010 893c 8ecf 02bd d0c7 143d 16aa 70bd
00000340: be4e 0dbd 0a5e 463d a8d8 e83c 8431 abbc
00000350: 2aa1 00bd 78c8 c2bc 54b4 b23c 60e2 50bc
00000360: c0bf 44bb b8f8 52bd 7488 7dbd 9eb3 633d
00000370: c05c 72bc eae2 39bd c0cf b73b 10a3 513d
00000380: 5c2a cc3c ba74 7b3d 8c5d 813c 58a3 313c
00000390: 448a 163d 009b 6a3d 8693 6ebd f610 75bd
000003a0: 1008 0bbc f86e c63c 98d3 943c 8875 713d
000003b0: 94a5 28bd 24cd 71bd f059 55bc 74c9 b0bc
000003c0: 308f 4b3c 002d 78bc 3e81 563d a2e4 4fbd
000003d0: f090 7ebc a875 7d3d 1225 7dbd 4e7e 4a3d
000003e0: 84d7 debc b40a 49bd 409c 8cbb f6c9 5ebd
000003f0: 408d ab3c f036 063c 445f d43c 5e6c 663d
-0.050043315 -0.06195017 -0.0062760934 0.030484825 -0.029821709 0.024361335 0.062236317 -0.042476602
0.059535757 0.04073426 -0.06178066 -0.025749281 0.006623082 0.004412003 -0.024666041 0.005423479
0.016758785 -0.02784226 -0.03398168 -0.02349525 0.05966662 0.02777525 -0.060976736 -0.026359223
0.04774739 -0.020015389 -0.046813868 -0.03336305 0.0599406 0.013876572 -0.005003676 0.029612824
-0.008530229 -0.0024312213 0.021031223 -0.01606746 -0.031460978 -0.0066682026 0.017580837 0.03328283
-0.04091096 -0.05854658 -0.00011076778 0.0027434602 0.05803863 -0.03628114 -0.050991334 0.03584464
-0.046634763 0.049863733 -0.04653857 0.047073774 0.0044936985 0.0511716 -0.04816623 -0.020884536
-0.062448055 -0.050019465 0.0354449 -0.05979935 -0.03871829 -0.020755649 -0.04237674 0.04642818
0.010808259 0.057102427 0.03222429 -0.033759885 -0.008015014 -0.040329896 -0.02896563 -0.010992326
-0.020698957 0.0006208047 0.021680169 0.004597254 -0.007943809 -0.043450907 -0.0025536716 0.049526528
-0.057581954 -0.0033109412 -0.033634156 -0.039244346 0.022994116 -0.0014059171 0.05703868 -0.022941038
-0.045278087 -0.00399483 0.061846413 0.050712824 -0.009203732 -0.0056157783 -0.0446504 0.0014987811
0.02263558 -0.00052928925 0.031422175 0.038621567 0.040126644 0.025733955 -0.02472414 -0.007882014
-0.038221993 0.015027285 0.033431247 0.060839258 0.033868536 0.021589234 0.0074080825 0.04337588
0.0061957017 0.044779874 -0.03976035 0.033997074 0.046943724 -0.010822281 -0.05752945 -0.055563815
0.01715517 -0.026920095 -0.049085222 0.04303982 0.01322379 -0.050652966 -0.054324172 -0.046746746
0.0027824193 0.030282423 -0.013041623 -0.025972031 -0.012157664 0.030686058 -0.020748027 -0.05121932
0.06198743 0.047671117 0.040927827 -0.035416126 -0.00764589 0.011853911 -0.040405914 -0.03679017
0.033262804 0.04778117 -0.041443422 0.045181848 0.060884736 0.00033227354 -0.015944287 -0.014130279
-0.009630702 0.017639406 0.02933897 -0.0475503 0.060388558 -0.01663407 0.050517812 -0.0036896095
-0.030051298 -0.037637495 0.0048505366 -0.03389 0.040105082 0.032965906 -0.017047964 0.010938503
-0.03386823 0.01841434 -0.04431609 -0.006827317 -0.04225266 -0.0022737756 0.061986573 -0.026367188
0.0011902675 0.031528175 0.039572462 -0.011653937 -0.0035240054 -0.022503033 0.06080264 -0.030479327
0.011268087 -0.04479415 -0.038013943 -0.05064532 -0.0097550675 0.030526437 -0.024634615 0.036414348
-0.0026355162 -0.02297809 0.034899913 0.04435827 0.0577401 -0.037563257 0.04429747 0.043179557
0.018600166 -0.001754038 -0.051865496 -0.041914552 0.016731352 -0.03193622 0.03632337 -0.058755957
-0.034498923 0.048429526 0.028423622 -0.020897634 -0.031403698 -0.023777232 0.021814503 -0.0127492845
-0.0030021518 -0.051506728 -0.06189771 0.05559122 -0.014792621 -0.045382418 0.0056094825 0.0511809
0.024922542 0.061390616 0.015791677 0.010842167 0.036752954 0.057276726 -0.058246158 -0.05983063
-0.008485809 0.024222836 0.018167302 0.058949977 -0.041173533 -0.059033528 -0.013021931 -0.021580435
0.012424275 -0.015147448 0.05236935 -0.05075515 -0.0155374855 0.061879784 -0.06180293 0.04943686
-0.027202375 -0.049082473 -0.0042910874 -0.054391824 0.020941377 0.008191809 0.025924332 0.05625569

fcs1.bias f4 [256]
00000000: 75f5 8c3d 0a89 4bbd 4028 863b c86a 203d
00000010: bcad a33c 3094 593c c79b 883d 4bf1 21bd
00000020: 2c83 3dbc 38ee 91bc 10d8 b23c b5e6 11bd
00000030: 6e85 02bd 7039 103c e168 813d 92eb 383d
00000040: 02b7 4e3d 0c19 51bc d8d9 673c 0c09 823c
00000050: 0041 81bd 806d e2ba dc20 e73c f021 de3b
00000060: 3892 c83c 004a c9ba c0c7 cdbb 1ce0 9c3c
00000070: 4ef6 273d 79da 61bd d22e 583d 8cb1 8bbd
00000080: 5211 773d f4ce a8bc c0c4 f0bc 18da e1bc
00000090: 1811 0b3d 8eeb 1f3d 6a72 613d a26d 6c3d
000000a0: 64f2 4bbd de9c 86bd 0092 c03a c052 ac3a
000000b0: b148 6cbd ef1d 883d d605 89bc b874 6a3c
000000c0: d44c 66bc 329e 7e3d 387a 0f3d 208c 21bb
000000d0: a3ac 7dbd ea38 2dbd ac81 d03c a06b c73c
000000e0: 248f 30bd 1a63 fbbc d8aa d73c 20d8 b53b
000000f0: 819d 7ebd 2b68 13bd b01d 85bd 76aa c8bc
00000100: 786d 57bd c2c9 433d b214 fdbc 900f 133c
00000110: b629 193d ae31 81bd 64f2 73bd 5c3d 333d
00000120: 90f6 383c 46f1 763d 183a e4bc 600c 513c
00000130: ad2b 09bd 5236 2a3d 4e18 2ebd 40fd 713c
00000140: 3e6d 123d 0831 093d 9a2d 143d 5a3a 443d
00000150: ec1a ff3c 4cac be3c 74a4 1cbd f065 ddbc
00000160: d22d 7bbd e94e 86bd a3f1 02bd 7835 2abd
00000170: 248c 9ebc a29f 723d 80fe 1fbd a917 883d
00000180: 8ad9 6d3d ea48 363d d034 e53c 44de 29bd
00000190: b8ae 15bd 8e9b 0a3d 40b3 7bbd 88c4 693c
000001a0: 9a8d 6d3d 21a8 8a3d d8e2 28bc d062 6d3c
000001b0: bc2c 1fbc ec48 f73c e0eb 803b 9fb6 823d
000001c0: 610e 8ebd 7c0f 073d 60d1 1d3d 22fb e6bc
000001d0: 4f89 7cbd 0639 403d 90d4 ee3b d6c7 4c3d
000001e0: ac42 62bd acd8 44bd a08f 6b3b fe05 793d
000001f0: 2b40 843d 88f7 77bc c002 d13b fd88 88bd
00000200: 0cf5 86bd 5348 813d 763b 7a3d a07b 76bb
00000210: 66dc e0bc 1ca8 ebbc 4e18 32bd eadf 0fbd
00000220: 2629 713d 0871 84bc 5efc 6b3d 915f 873d
00000230: 361a 2d3d 9773 1bbd d2ad 603d f6fa 5a3d
00000240: 422c b6bc b4fe 3ebc 1ce2 a13c 00a7 fe3c
00000250: 7859 2c3d e83d 6fbd 446e 503d 0041 a539
00000260: b0b2 823b 42f5 72bd 0d85 1abd 3efa 1cbd
00000270: 463a 793d 88b2 0fbc 5995 893d 4897 68bd
00000280: a00c 0dbc 80c1 98bb 5c84 873c f967 803d
00000290: a5c7 09bd 0b8e 6cbd 7015 1a3c dc32 84bd
000002a0: 6a59 5f3d 6000 11bb 5a81 7c3d 2415 cfbc
000002b0: f2d0 26bd d08d 613c 5107 86bd 59d4 853d
000002c0: 2652 4cbd c063 91bc cd1c 29bd 402c c03a
000002d0: f058 883b 10ec adbc 4433 3fbd 5a1f 033d
000002e0: f090 943c 3edf 0e3d 90a2 a8bb 68d3 b0bc
000002f0: 6c1e 88bd 40c5 e33c 3057 d53c a091 413d
00000300: 182b 1dbd c80a 003c ce4c 5e3d 98fc 433d
00000310: 904d e1bb 5422 39bc 2166 3cbd 7065 febb
00000320: 0445 22bd aa89 2cbd d891 ecbc e4b6 91bc
00000330: 7cbe 80bd 8897 2d3c 40c8 87ba 20c0 2d3c
00000340: 84a7 01bd 8025 33bc f6e2 d1bc 9488 3c3d
00000350: 76ce 07bd 00b0 53bc c308 903d 1b19 803d
00000360: 0f30 873d d68d 57bd 99a2 30bd 48d8 573c
00000370: e006 89bd fc10 24bc 1c17 e53c fd03 863d
00000380: 94cf c1bc 6ca4 7fbd 405d dfba 2eaa 44bd
00000390: 540a 503d 9c5a f03c 4464 86bc c79a 20bd
000003a0: b88e 1d3d 99fd 80bd 206b 943b ca8d b6bc
000003b0: 3c8d 593d e84c 36bd 8454 eb3c 80ee 923c
000003c0: 06de debc 0090 e13c 5986 883d 029c aabc
000003d0: 9bdf 37bd a04e ec3b d8b6 843c 61da 04bd
000003e0: e0d0 623b 434f 73bd 90dc 443d 6ee6 243d
000003f0: 9c63 163d b57d 2bbd 8c79 d23c c412 2a3d
0.06882755 -0.049691238 0.0040941536 0.039164335 0.019980304 0.01327996 0.06670337 -0.039536756
-0.011566918 -0.017813787 0.021831542 -0.03562041 -0.03186553 0.008802757 0.06318832 0.045146532
0.0504675 -0.012762319 0.014151059 0.015873455 -0.06311226 -0.0017275065 0.02821391 0.006778948
0.024483785 -0.0015357137 -0.0062799156 0.019149832 0.04100638 -0.055139992 0.052779026 -0.06820974
0.060319252 -0.020606495 -0.029390693 -0.027569816 0.03395185 0.039043 0.055040754 0.05772174
-0.04979171 -0.06572889 0.0014691949 0.001314722 -0.05768651 0.066463344 -0.016726416 0.0143100545
-0.014056403 0.062162586 0.035028666 -0.0024650171 -0.061932217 -0.042290606 0.025452457 0.024343312
-0.04310526 -0.030686904 0.026326582 0.0055494457 -0.062161926 -0.035988014 -0.06499803 -0.024495345
-0.052594632 0.047799833 -0.030893657 0.008975878 0.037393294 -0.06308304 -0.059557334 0.04375969
0.011289254 0.06028869 -0.027859733 0.012759298 -0.033488918 0.04155571 -0.042503648 0.014769852
0.035748713 0.033494025 0.0361763 0.04790721 0.031140767 0.023275517 -0.038242772 -0.027026147
-0.061322995 -0.0655802 -0.031968724 -0.041554898 -0.019353934 0.05923427 -0.03906107 0.06645138
0.05806879 0.04450313 0.027979285 -0.041471735 -0.036543578 0.033839755 -0.061450243 0.014268048
0.05799637 0.06770349 -0.01030799 0.014488891 -0.009715255 0.030186139 0.0039343685 0.063824885
-0.06936336 0.03297375 0.038529754 -0.028195921 -0.061654385 0.04692938 0.007288523 0.049995266
-0.055239365 -0.048058197 0.0035943761 0.06079673 0.064575516 -0.0151347 0.0063785017 -0.066667534
-0.06589708 0.06312623 0.061091863 -0.0037610307 -0.027448844 -0.028766684 -0.04348021 -0.03512565
0.058877133 -0.016167179 0.057613723 0.06610025 0.042261325 -0.037952032 0.054853268 0.05346199
-0.0222379 -0.011657406 0.019761138 0.031085491 0.04207751 -0.058408648 0.050886407 0.0003151968
0.0039885864 -0.059315927 -0.037724543 -0.038324587 0.06084659 -0.0087705925 0.06717939 -0.056784898
-0.008608967 -0.004661739 0.016542606 0.06269831 -0.03363766 -0.05775265 0.009404525 -0.06455013
0.05452863 -0.0022125468 0.061646797 -0.025278635 -0.04072661 0.013766721 -0.06544364 0.06534643
-0.04988303 -0.01774776 -0.041287232 0.0014661625 0.004160993 -0.021230727 -0.04667975 0.03201232
0.018135518 0.03488087 -0.005146332 -0.021585181 -0.066464275 0.027804017 0.02604255 0.04725802
-0.038371176 0.00781507 0.054272465 0.047848314 -0.0068757012 -0.011299688 -0.045995835 -0.007763557
-0.0396166 -0.042123474 -0.028878137 -0.017787404 -0.06286332 0.01059521 -0.0010359362 0.010604888
-0.031653896 -0.010934234 -0.025620919 0.04602869 -0.03315588 -0.01292038 0.07032921 0.062547885
0.06600963 -0.0526255 -0.043123815 0.013174124 -0.066907644 -0.010013815 0.027965121 0.065437295
-0.023658551 -0.062412664 -0.001704134 -0.04801386 0.0507911 0.02934008 -0.016405232 -0.039210107
0.038466185 -0.0629837 0.004529372 -0.022284407 0.053113207 -0.044506937 0.028726824 0.017935991
-0.027205478 0.027534485 0.0666625 -0.020826343 -0.04489098 0.0072115213 0.016200468 -0.032434825
0.0034609362 -0.05940176 0.048061907 0.040258817 0.03671609 -0.04186793 0.025692724 0.041521803

fc2.weight f4 [128, 276]
00000000: 99b1 9ebd cc41 b3bc 0066 ceb9 05e5 863d
00000010: a40e 2cbd a2f6 5e3d 8f90 8fbd 6084 293c
00000020: 60b0 99bc 38dd 2e3c 8ee8 0a3d 562f 5cbd
00000030: a29d 2c3d 30d1 fc3c 5802 e03c 6443 5cbd
00000040: 97f6 9abd 7f7d 62bd 408e ffba da64 273d
00000050: 6a3e 643d 3e76 713d e44a d33c c0f4 b2bb
00000060: c0c2 baba 31b5 5ebd f032 90bb 4eab 3ebd
00000070: 12a7 36bd d2c0 04bd c86e c03c 287f 703c
00000080: d827 7abc 1c73 893c a02b d1bc cf39 7ebd
00000090: 9847 84bc af00 8b3d d8de ca3c 2fcd 81bd
000000a0: f645 2f3d c1e7 8a3d b095 79bc 061b 253d
000000b0: fc7f b1bc 27bd aebd 004e a239 70f6 6dbc
000000c0: 329b 253d b1de a23d e1b9 953d 2eeb 323d
000000d0: 8ee8 efbc 85f3 9f3d e397 a33d ce59 7cbd
000000e0: 4223 06bd b089 4abd d75a 48bd 6251 4a3d
000000f0: d021 c93b dc7f 033d cbfb 7fbd d718 3dbd
00000100: 8471 023d e51b 8e3d b574 993d 186d 84bd
00000110: fabf 09bd dac3 dabc cf11 b3bd 115a b0bd
00000120: 18a2 f73c 1811 123c eacc 3cbd 7cf6 b2bc
00000130: 3a92 61bd 1edd 6c3d 8200 89bd b46c 94bd
00000140: 14d8 b6bc f081 653c 8799 7dbd 66ee 3e3d
00000150: d8ed 253c 004c 163a 668e 753d b8c9 103d
00000160: 26bb 18bd 0e53 8bbd 72a1 56bd 3cdb 03bd
00000170: 96bc 523d c9b5 ae3d b2fe 75bd 96b2 93bd
00000180: 0ca0 d2bc 87ce a63d 7807 9c3c 1a2e eabc
00000190: 24df a4bd 1027 99bb 32b6 3a3d b84e 7d3c
000001a0: dacc 723d b98a b0bd a47d dfbc 0685 013d
000001b0: e08a d4bc e1da 873d 7636 4e3d 7470 a7bd
000001c0: 88cf d23c 7007 293c cbe5 21bd d857 03bd
000001d0: 68d7 d33c 000b 223a 1e8a 043d 1145 85bd
000001e0: ef10 98bd 40f8 13bd 80a7 1dbb de44 abbd
000001f0: 1cbb 843c b6a2 8cbd 55dd a83d 4868 6bbd
00000200: 2d70 ae3d 00f0 8837 378f 86bd 789f 8cbc
00000210: b387 a93d 3ce1 03bd 504d d03c 109b a83c
00000220: 6537 66bd a4bc 0dbd 1843 16bd 58c1 23bc
00000230: 1230 383d 3e57 243d f3cb a73d a0fe a03c
00000240: cc14 acbc 034e ae3d 60cf e1bb 870a abbd
00000250: 3569 a13d 44d4 b5bc 79c1 56bd 0fe1 883d
00000260: b9d8 863d 1f63 1bbd cfe3 a53d 593c 883d
00000270: ae9b 3b3d 7b2f a0bd 30ba 2dbc 70e6 ef3c
00000280: 1a53 60bd 901e ca3c c46e 8c3c 6ce8 82bc
00000290: 86c8 323d a121 a53d 65dd a53d 21b9 983d
000002a0: 3b0b a93d 3602 b5bd ec28 e43c 2b80 853d
000002b0: 722e 29bd b080 563c 80e8 253c ba27 783d
000002c0: 9679 31bd 8c17 7ebd 65ed ae3d b0ee 9cbd
000002d0: 14ff 803c bde8 b33d dc07 063d 9807 e13c
000002e0: dae8 8ebd 5c26 bdbc 8968 5ebd 4b80 18bd
000002f0: dd2a a5bd 8ff8 a63d 3843 a6bd 5d80 a23d
00000300: 24a7 983c c6ec 003d 34d5 ffbc 739d 813d
00000310: 5e7f 673d 861a 7a3d f2af f6bc ff53 9b3d
00000320: 00ea ba39 2a11 023d 6e06 203d ce6b 56bd
00000330: 8372 4dbd 8956 873d 9155 9c3d f499 87bc
00000340: 431f ad3d 4be4 51bd 0f99 883d 482e b03c
00000350: 9ad9 7abd 66f5 493d 5d3f 8f3d 80e6 8abd
00000360: f2f8 223d 0441 8f3c 863c 9bbd 4052 f63a
00000370: 48ee 883c 623e 1c3d 8f86 6ebd e51e 30bd
00000380: 350c 2dbd 7985 97bd ec03 bbbc dad5 583d
00000390: 567a 653d 0046 0cb9 526a f6bc 42bc 583d
000003a0: 9e71 87bd 954e b43d 25cd abbd 686f 44bc
000003b0: 4ea4 523d afc0 9f3d f8ec dbbc f70a a53d
000003c0: 008a 053c 706b 983c 101c bcbc 125b 85bd
000003d0: 8440 34bd 7e2f 7f3d e87c 1b3c 70bf e23c
000003e0: 6b29 3ebd b8fd 2abc e87f 703c 1c64 e1bc
000003f0: d07b 263c ef54 ac3d ce1c 1d3d be17 6c3d
-0.07748718 -0.02188196 -0.00039367378 0.06586651 -0.04200615 0.054434426 -0.07009994 0.010346502
-0.01876086 0.01067286 0.033913188 -0.05375608 0.042142518 0.030861467 0.027344868 -0.053775206
-0.075665645 -0.055295464 -0.001949735 0.040867664 0.055723585 0.058950655 0.025792547 -0.0054613054
-0.0014248714 -0.054372016 -0.0044006035 -0.046550088 -0.044592924 -0.03241045 0.023490325 0.014678754
-0.015268289 0.016778521 -0.025533497 -0.06206685 -0.01614742 0.0678724 0.024764463 -0.06337964
0.04279133 0.06782485 -0.015233442 0.040308975 -0.021667473 -0.08532172 0.00030957162 -0.014524087
0.04043121 0.07952631 0.07310844 0.043681316 -0.029285695 0.078101195 0.079879545 -0.061609082
-0.03274847 -0.049447715 -0.048914757 0.04939402 0.006138064 0.032104358 -0.062495988 -0.046166267
0.03184654 0.06938914 0.07492963 -0.064661205 -0.03363035 -0.026704717 -0.08743631 -0.08610929
0.03022866 0.008915208 -0.04609386 -0.021846049 -0.055071093 0.05782806 -0.0668955 -0.07247296
-0.022319831 0.01400803 -0.061913993 0.046614073 0.010127507 0.0005733371 0.059950255 0.035348624
-0.037287854 -0.06802951 -0.05240006 -0.0321915 0.05144938 0.085307665 -0.06005735 -0.07211797
-0.025711082 0.08144861 0.01904653 -0.028586436 -0.08050373 -0.004673846 0.04558391 0.015460663
0.059277393 -0.08620209 -0.02728159 0.031621 -0.025945127 0.06633545 0.050344907 -0.081757456
0.025733724 0.010316715 -0.03952579 -0.032066196 0.02585955 0.00061814487 0.03235828 -0.06507314
-0.07425105 -0.03612542 -0.0024056137 -0.08362745 0.016202502 -0.06866972 0.08245341 -0.057472497
0.085174896 1.6324222e-05 -0.06570285 -0.017165884 0.08277836 -0.032197222 0.02542749 0.020581752
-0.056205172 -0.03460373 -0.03668508 -0.009994827 0.04496772 0.040122263 0.08193197 0.019652665
-0.02100601 0.08510973 -0.006891176 -0.08351617 0.07881395 -0.022195943 -0.052430604 0.066835515
0.06584305 -0.037936326 0.08100092 0.066521354 0.045802765 -0.07821556 -0.010603473 0.029284686
-0.05476675 0.024672776 0.01714266 -0.015979968 0.043648265 0.08063055 0.08098868 0.074571855
0.08254095 -0.08838312 0.027851544 0.06518587 -0.04130406 0.013092205 0.010126233 0.06058476
-0.043328844 -0.062034175 0.08541373 -0.076627135 0.01574663 0.08784626 0.03272234 0.027469441
-0.06978007 -0.02308958 -0.05429891 -0.037231725 -0.08064816 0.081528775 -0.0811829 0.079346396
0.018634386 0.031475805 -0.031229593 0.06328859 0.05651795 0.06106045 -0.030113194 0.0758438
0.00035651028 0.03175465 0.03906863 -0.052348904 -0.050158035 0.06608302 0.07633508 -0.016552903
0.08453228 -0.051243108 0.066698186 0.021506444 -0.061242677 0.049306296 0.069945075 -0.06782246
0.039788194 0.017487057 -0.07579903 0.0018792823 0.016715184 0.03814543 -0.058233794 -0.042998213
-0.04224797 -0.07398505 -0.022829019 0.05293832 0.05602487 -0.00013377517 -0.030079994 0.05291391
-0.06613468 0.08804051 -0.083887376 -0.011989452 0.051426224 0.07800423 -0.026846394 0.08058732
0.008150578 0.018605918 -0.0229626 -0.06511511 -0.04400684 0.06230115 0.009490229 0.027679175
-0.046426218 -0.010436468 0.014678933 -0.027513556 0.010161355 0.08414637 0.03835755 0.05763983

fc2.bias f4 [128]
00000000: fa25 073d 4e1f 633d b6f2 e0bc 7557 fabc
00000010: 00fc c7b9 680c 053d c07b f73b 6a71 443d
00000020: 9383 59bd 54a7 bb3c 7c2b 16bc 227e 233d
00000030: b6de 64bd f6d8 37bd e365 6cbd 921f 6c3d
00000040: 1a4a 1f3d cce9 07bd 408d 543d 4406 01bd
00000050: 009e f439 e27c 2b3d 0696 503d cae6 613d
00000060: bc5a 25bc 2075 d53c b46d e23c fe6e 0fbd
00000070: 868c 533d ccc1 0fbd 642b 59bc 20ab 993b
00000080: 20df d23b 1078 123c 1280 603d 52f2 46bd
00000090: ca4d 5c3d 60f8 0f3b 086f df3c e031 ff3c
000000a0: f0ac 0b3c b048 223d 92c8 2c3d 942f 23bd
000000b0: ee07 95bc f606 653d 2020 5b3d d07a 093c
000000c0: 2089 f0bc 980f 523d b025 c73b 3010 623c
000000d0: aa55 07bd c03e 5d3b 0acd bebc a244 90bc
000000e0: 9af6 713d e81a 28bd 2297 04bd d809 5b3d
000000f0: 584b 7abc 333c 65bd 244a e13c b8be 563c
00000100: 20b1 aa3c 008a e539 9cfc 3b3d 2644 11bd
00000110: f0df 413d 6eff 09bd 24c7 c33c 6e29 27bd
00000120: 4fbf 4abd c8b0 103d 12ad 65bd 2209 59bd
00000130: 0a2f 043d 9481 c6bc 6c12 293d 8c4b 993c
00000140: 18e9 873c d129 0bbd 064d 86bc 922a 49bd
00000150: 6813 a2bc f42d 093d 80cb 273a d03d f83c
00000160: e099 343d 8cf5 eb3c 1827 9dbb 2883 0abd
00000170: a38e 6cbd 5ad8 2f3d 1094 ec3c 5641 6d3d
00000180: 36dd 6abd 924b 073d d898 8fbb 6654 bebc
00000190: 4224 99bc cd07 48bd 5e36 4d3d 0002 43bc
000001a0: a038 573c b4c1 2cbd 40ba e43b 484b e3bc
000001b0: d049 42bc 98e8 72bc 88c7 013d aab8 75bd
000001c0: 2c15 a4bc bc0e 1abc ca7c 12bd a88d b33c
000001d0: d856 c8bb 10bd 543c 5c5e 523d 5463 3fbc
000001e0: d133 64bd e4ce c13c a0e6 193b 7b44 f9bc
000001f0: df27 74bd be37 96bc 3875 55bc 6e97 633d
0.0329952 0.055449776 -0.027459484 -0.03055928 -0.00038143992 0.032482535 0.007552594 0.047959723
-0.053103995 0.022906937 -0.009165641 0.03991521 -0.055876456 -0.044884644 -0.057714354 0.057647295
0.038889028 -0.03318195 0.05189252 -0.031500116 0.00046657026 0.041867144 0.050924323 0.05515174
-0.010092434 0.026056826 0.027640201 -0.03501796 0.051647685 -0.03509693 -0.013254974 0.004689589
0.00643529 0.008939758 0.054809637 -0.04857094 0.053785123 0.0021968111 0.027274624 0.031151712
0.008525118 0.0396201 0.042183466 -0.039840296 -0.018192258 0.05591484 0.053497434 0.008391097
-0.029362261 0.051284403 0.0060774907 0.013797805 -0.03304068 0.0033759326 -0.02329113 -0.017610852
0.05907307 -0.041041285 -0.032370694 0.053476185 -0.015276752 -0.055965614 0.027501173 0.013106994
0.020836413 0.00043781102 0.045895204 -0.035465382 0.047332704 -0.033690862 0.023898669 -0.040810995
-0.049498852 0.03532484 -0.056073256 -0.052987225 0.032271422 -0.02423171 0.041277334 0.018712781
0.01659064 -0.033975426 -0.01639415 -0.049112864 -0.019784644 0.03349109 0.00064008683 0.030302912
0.04409206 0.02880361 -0.00479592 -0.033816487 -0.057753216 0.04293094 0.028879195 0.057923637
-0.05733987 0.033031054 -0.004382234 -0.023233604 -0.018694047 -0.048835564 0.050100677 -0.011902332
0.013136059 -0.042176917 0.0069802105 -0.027745858 -0.011858419 -0.0148259625 0.03168443 -0.059990562
-0.020029627 -0.009402927 -0.03576354 0.021918133 -0.006113868 0.012984529 0.05135952 -0.0116813965
-0.05571348 0.023658223 0.002348341 -0.030428162 -0.059608337 -0.018337127 -0.013028435 0.055564336

fc3.weight f4 [1, 128]
00000000: 0ad4 053b 8840 a6ba 90e3 6e3a ccc3 f63a
00000010: 9c5c 223b 32e6 19bb c0bc 3638 500d bc39
00000020: f834 a5ba 10a7 23bb e2ee 083b a286 02bb
00000030: 2a40 11bb 9cca 1fbb 9421 263a 0c52 f73a
00000040: 3ca4 c53a ccb7 10bb e46a 153b 21cf 29bb
00000050: 6c77 44bb 0ea7 123b 89bc fbba c2a6 183b
00000060: 42a4 19bb 0684 ffba 84c3 2a3b 2ccb 063a
00000070: 24f9 043b 38fc a1b9 1996 0dbb 6587 3dbb
00000080: efa6 0abb ebc8 11bb 9921 33bb ea65 3d3b
00000090: c011 c0b9 846d 403a 5d7a 27bb 54ae c73a
000000a0: fc7d a3ba 564d 063b b87b 7bba 805d 72ba
000000b0: 4c61 eb3a 8b7f a0ba 52d5 2dbb 202c e238
000000c0: 001f 07b8 c0fd 1cbb 08d5 b639 dc24 1eba
000000d0: 00d6 213a 9db2 b0ba 989a 273a e8bf 933a
000000e0: 43f0 30bb 7c9e d83a f0f1 cbba f8e4 be3a
000000f0: 60f4 1abb 8838 de3a 08b5 b4ba c086 b0b9
00000100: 940e 6b3a b604 f7ba 7cf0 c8ba a88e 13bb
00000110: ae56 18bb 1c1c e03a caaa 43bb f09e 7aba
00000120: 1861 c43a 766e c3ba c96c 07bb 241e 5d3a
00000130: d323 18bb 18fb 413b a014 ab39 d811 3fba
00000140: ac50 173a 6bdb a0ba cea9 1cbb e4e7 433b
00000150: b829 86ba 69b6 d0ba b8c7 153a 20d0 9f3a
00000160: e6e7 07bb a298 103b 2c07 e73a d470 563a
00000170: 146a 46ba 20bf 3eba c0e3 99ba 50f5 b839
00000180: 10bf 32bb c426 3aba 5844 ac3a 0430 f2ba
00000190: 5053 ff3a 80f0 7a39 809b 9437 ae88 2d3b
000001a0: 687d b939 484d 783a fcde ccba 3082 a2ba
000001b0: 9683 feba 2cae 133b 4bf5 8aba 6083 853a
000001c0: f7ad 3ebb 5f7a 22bb 5c01 953a 10fb 3fbb
000001d0: ada6 35bb 605f 5db9 5a29 353b 80e4 963a
000001e0: 20a1 14ba 594e deba f0b0 153a b753 cbba
000001f0: 5ce7 d43a e2b9 263b a0a3 1d3b 6430 41bb
0.0020420575 -0.0012684027 0.0009112889 0.0018826663 0.0024774438 -0.0023483154 4.356797e-05 0.00035868073
-0.0012604287 -0.0024971403 0.0020894338 -0.0019916673 -0.002216349 -0.002438224 0.0006337401 0.0018869056
0.0015078853 -0.0022082208 0.0022799307 -0.0025910812 -0.0029978408 0.0022377404 -0.0019205968 0.0023292755
-0.0023443853 -0.0019494302 0.0026056478 0.00051419693 0.00202901 -0.0003089623 -0.0021604358 -0.0028919813
-0.002115663 -0.0022245 -0.0027333258 0.0028899857 -0.00036634319 0.0007340538 -0.0025555112 0.0015234449
-0.0012473459 0.0020492873 -0.00095933257 -0.00092455 0.0017958074 -0.0012245042 -0.0026524854 0.00010784739
-3.221538e-05 -0.0023954958 0.00034872466 -0.0006032714 0.0006173551 -0.0013480965 0.00063935807 0.0011272402
-0.0026998676 0.0016526724 -0.0015559774 0.0014564088 -0.0023644194 0.0016954103 -0.0013786862 -0.00033669733
0.0008966711 -0.0018846008 -0.0015330459 -0.002251545 -0.0023245024 0.0017098221 -0.0029856437 -0.00095604267
0.001498255 -0.0014910239 -0.0020664206 0.0008434972 -0.0023214712 0.0029599126 0.00032631028 -0.00072887307
0.0005772214 -0.0012272423 -0.0023904922 0.0029892856 -0.0010235822 -0.0015923503 0.00057136593 0.0012192763
-0.0020737587 0.0022063632 0.0017626039 0.0008180265 -0.00075689075 -0.00072764046 -0.0011740848 0.00035277987
-0.0027274527 -0.00071011134 0.0013142927 -0.0018477445 0.0019479785 0.00023931451 1.7715385e-05 0.0026479173
0.00035379385 0.0009471965 -0.0015630419 -0.0012398418 -0.0019417878 0.0022534234 -0.0010601667 0.0010186248
-0.002909539 -0.0024792177 0.0011368203 -0.0029293932 -0.0027717755 -0.00021111732 0.0027643056 0.001151219
-0.00056697614 -0.0016960605 0.00057102647 -0.001551262 0.0016243267 0.0025440385 0.0024053827 -0.0029478306
