models/checkpoint_critic_local_2.pth (torch_old, 349244 bytes, 5 tensors)

fcs1.weight f4 [256, 200]
000000 de 55 24 3d c8 72 37 3d 84 d9 e9 3c 32 be 1f bd
       0.04012095 0.0447872 0.028546102 -0.038999744
000010 e6 b8 0d bd f2 95 43 bd ae b8 0c bd 08 1c 4c 3c
       -0.03460016 -0.04775042 -0.03435581 0.012457855
000020 bc c6 e5 3c 30 92 51 3c 48 5f 7c bd 08 4f 67 bc
       0.028048865 0.0127912015 -0.061614305 -0.014117964
000030 ea a3 2c 3d 10 e6 25 bd 40 b9 f4 ba 68 46 69 bc
       0.042148508 -0.040502608 -0.0018670931 -0.014237978
000040 2c 7f 3e bd 20 de 58 bd 5c 9b 28 bd 80 39 a1 3b
       -0.046508 -0.05294621 -0.041163787 0.0049201846
000050 5c 41 c9 3c 50 2f 64 3c 74 53 e8 3c 2e a3 31 3d
       0.024567299 0.013927296 0.028360106 0.04336851
000060 58 93 59 bc 5c 5a 65 3d 00 5a 80 3a e4 3e e6 3c
       -0.013279758 0.055994377 0.0009792447 0.02810616
000070 a4 86 db 3c b4 cd f5 bc b4 02 e9 bc 3e 77 28 3d
       0.0267976 -0.030005313 -0.028443672 0.041129343
000080 1e ec 5f bd 2a 9c 0c 3d 08 8b 38 3c f8 eb 25 bc
       -0.05466854 0.034328617 0.011263616 -0.01012706
000090 d0 96 67 bd 74 45 23 bd 90 b7 90 bb 60 8d 4c 3b
       -0.05654031 -0.039861158 -0.0044164136 0.0031212196
0000a0 ea 19 00 bd e4 b4 1d bd 0a a0 5e bd 62 bd 47 3d
       -0.031274714 -0.03850259 -0.054351844 0.048764594
0000b0 50 ba f5 3b d4 33 d4 3c 7c 3d 51 bd 58 f2 5b bc
       0.007499017 0.02590362 -0.051084027 -0.0134244785
0000c0 ae eb 2f 3d 34 fe ed bc 92 66 2e bd 98 0b 15 bd
       0.04294937 -0.029051878 -0.042578287 -0.03638801
0000d0 5c 6b 14 bd a6 ba 14 3d 2a 36 79 3d dc 63 e1 bc
       -0.0362352 0.036310814 0.06084267 -0.027513437
0000e0 02 c3 26 bd 08 74 8e 3c d8 01 3f 3d 94 48 c8 bc
       -0.040713318 0.017389312 0.046632618 -0.02444867
0000f0 f0 8f 85 bc ca 44 5e 3d 66 5f 6b bd 7e 97 3e bd
       -0.016303986 0.05426482 -0.057464026 -0.046531193
000100 0c 79 3e 3d 1c c3 b8 3c 5e 5f 07 3d f0 da 77 bd
       0.046502158 0.022553973 0.033049934 -0.06051153
000110 88 e4 7f 3c 24 51 b3 3c 20 dc 77 3d a0 59 83 3c
       0.015618451 0.021889277 0.060512662 0.016033947
000120 e8 f4 6b 3c 86 3f 28 bd 8a 39 7b bd 80 c4 00 3d
       0.014401652 -0.041076206 -0.06133417 0.031437397
000130 34 16 0a bd 8e 63 60 bd 1e a7 32 bd e0 d1 24 bd
       -0.03371258 -0.054782443 -0.043616407 -0.040239215
000140 88 cb 29 bd 64 20 8a bc e8 a1 18 3c fa 50 34 bd
       -0.04145387 -0.016861148 0.009315945 -0.044022538
000150 54 b7 cc 3c e2 47 51 3d 40 af e1 bb 5c c0 23 bd
       0.024989761 0.051093943 -0.0068873465 -0.03997837
000160 68 ab 05 bd fc 8c c9 3c de 63 3b 3d 76 9d 0c 3d
       -0.03263417 0.02460336 0.045749538 0.034329854
000170 28 53 12 bc 3c 70 5a 3d a0 61 5a bd 10 17 36 3d
       -0.008930959 0.05332969 -0.05331576 0.044455588
000180 ea bc 74 3d b2 72 48 bd 00 34 be 3a 80 12 dd ba
       0.059750475 -0.048937507 0.0014511347 -0.0016866475
000190 82 b7 17 bd 90 be a1 3c 6c d0 31 3d 8e bf 35 bd
       -0.03704024 0.019744188 0.043411657 -0.044372134
0001a0 74 bb 0c bd 7c a1 0b 3d 68 24 46 bc 48 0c 8d 3c
       -0.034358457 0.03408955 -0.012093641 0.01721777
0001b0 ce 6b 6c 3d 38 04 b8 bc 50 e3 e4 3b 6e 21 79 bd
       0.057719998 -0.02246295 0.0069851056 -0.060822897
0001c0 4a c7 2f 3d 00 34 86 3c 1c 96 e7 bc d8 0c e3 3c
       0.042914666 0.016382217 -0.02826982 0.027716085
0001d0 b8 03 b6 3c 10 d4 23 bc 78 4b e1 bc 70 c3 d3 3c
       0.02221857 -0.00999929 -0.027501807 0.025850028
0001e0 ce 9a 69 3d 00 8a 16 bb c0 55 25 bb c8 46 57 bd
       0.0570324 -0.0022970438 -0.0025228113 -0.052557737
0001f0 84 49 b9 3c 7c 52 02 bd 56 27 1f bd c0 fe eb bc
       0.022618063 -0.031816944 -0.038855873 -0.028807998
000200 88 18 1b bd 74 62 88 3c 18 ca 7e bc 2a 91 67 bd
       -0.03786519 0.016648509 -0.015551113 -0.056534924
000210 86 11 6f bd 90 ab 65 3c c4 6a 54 bd f8 d9 5a 3c
       -0.05836632 0.0140179545 -0.051859632 0.013357632
000220 1c d7 18 bd 38 8e 76 bd 22 95 19 3d 22 de 1c bd
       -0.03731452 -0.060194224 0.03749574 -0.03829778
000230 70 a9 c8 bb d8 d8 88 3c 60 79 03 bc 1c 7a 64 bd
       -0.006123714 0.016704962 -0.0080245435 -0.055780515
000240 58 51 7a 3d 18 e6 e8 3c ec db 09 3d 68 05 ed 3c
       0.06111273 0.02843003 0.033657 0.028933242
000250 68 17 b6 3c e8 08 11 bd dc af 07 bd c4 d1 69 3d
       0.022227958 -0.035408884 -0.033126697 0.057084814
000260 90 5c 53 bc 62 f1 19 3d a0 d9 4c 3c 1c ee fd bc
       -0.012900487 0.037583716 0.012503058 -0.030997328
000270 9e 45 2a 3d 70 ae 7d 3d e0 32 f6 3b 90 01 27 bd
       0.0415703 0.061933935 0.007513389 -0.040772974
000280 10 bb 2e bc c8 f7 43 bd 12 30 6a bd 84 9a 5c bd
       -0.010664716 -0.047843724 -0.05717475 -0.053858295
000290 68 5a 31 bd 32 0a 28 bd be 0d 4f 3d c0 a9 91 3b
       -0.04329911 -0.041025348 0.050550215 0.0044452846
0002a0 94 7f fd bc 88 f0 2d 3d ce be 54 bd c0 a8 cd ba
       -0.030944623 0.042465717 -0.051939778 -0.001569055
0002b0 50 aa e1 3c 50 3d f6 bc f4 79 7d 3d 08 2b 37 bd
       0.027547032 -0.030058533 0.06188388 -0.044718772
0002c0 08 95 6d bd 38 89 77 bc 0e b3 51 bd 72 52 26 3d
       -0.058003455 -0.015108399 -0.05119615 0.04060597
0002d0 9c 9c f8 3c c6 2c 7a 3d de 63 07 bd 24 aa a7 bc
       0.030348115 0.061077856 -0.033054225 -0.020466872
0002e0 c0 50 75 3c d0 9c 6d bd d0 49 fd 3b 98 a8 57 bc
       0.014972866 -0.058010876 0.0077297464 -0.0131627545
0002f0 98 59 32 bd e4 6e 79 bd 26 d0 76 3d d0 e4 12 bd
       -0.043542475 -0.06089677 0.0602571 -0.035862744
000300 18 73 70 3c 14 12 a5 3c 20 0f 89 3c 16 a3 6f bd
       0.014675878 0.020150222 0.016730845 -0.05850514
000310 ee 0b 6d 3d 3e bc 63 bd f2 80 53 3d cc 66 f4 bc
       0.057872705 -0.055599444 0.051636644 -0.029834174
000320 7c 8b d9 bc 74 bb 40 3d 64 dc c2 bc 50 38 5d bc
       -0.02655577 0.04705377 -0.023786731 -0.0135021955
000330 fe 13 0d bd 30 4b f4 3c a8 26 64 bc 3c f2 26 bd
       -0.034442894 0.029821008 -0.013925232 -0.040758356
000340 50 96 f8 bc 60 76 eb 3c 6e ba 40 3d 6e 75 5b bd
       -0.030345112 0.028742969 0.047052793 -0.053578787
000350 44 da 1a 3d ea fe 69 3d 4c af 1d 3d 10 88 cf 3b
       0.03780581 0.05712787 0.038497254 0.0063333586
000360 8c 9d f6 3c dc 6a 44 bd 40 30 88 bc 40 39 d6 bb
       0.030104421 -0.04795347 -0.01662457 -0.0065375865
000370 80 68 74 3d f0 4c d0 bb 0e c9 7d bd fc 1a e2 bc
       0.05966997 -0.006356828 -0.06195932 -0.027600758
000380 20 ff 1c 3b a0 d0 8f bc 48 f1 2d 3d 28 fc 8a bc
       0.0023955777 -0.017555535 0.04246643 -0.01696594
000390 6c f1 65 3d f2 85 67 3d 70 a8 6a 3d c8 eb 42 3c
       0.05613844 0.056524225 0.05728954 0.011897035
0003a0 68 04 72 bc 5c 49 d8 bc 44 c6 9a bc 4c ce 74 3d
       -0.014771558 -0.026402168 -0.018893369 0.059767053
0003b0 ac 9c f9 3c f0 4a 7e 3c 94 f8 5a 3d 74 bf 1d 3d
       0.030470215 0.015520796 0.05345972 0.038512662
0003c0 fc 13 2a bd c0 c1 45 bd 30 33 e3 3b 8c 45 9b bc
       -0.041522965 -0.048280478 0.0069335923 -0.018954061
0003d0 0c e8 30 3d 00 34 6c bd 24 2c 80 bc 00 b6 f2 bc
       0.043190047 -0.05766678 -0.015646048 -0.0296278
0003e0 b0 d5 7f 3c 86 b2 1e 3d e0 f0 e0 3b de 92 3d bd
       0.015614912 0.038744472 0.006864652 -0.04628264
0003f0 84 af 54 3d b0 23 78 bc 50 14 d7 bc f0 6c ad bc
       0.051925197 -0.015145227 -0.026254803 -0.02117011

fcs1.bias f4 [256]
000000 84 0b f3 3c 84 b5 80 bc 60 75 46 3b 70 4c f9 bc
       0.029668577 -0.015711553 0.0030282363 -0.030431956
000010 34 45 e8 3c 7c 33 a9 3c 04 da b6 3c 48 7e 57 bc
       0.028353311 0.020654432 0.022320755 -0.013152666
000020 70 1c e4 3b 76 cc 1d 3d 4a ca 56 bd 98 2e 64 bc
       0.006961398 0.038525067 -0.05243901 -0.013927124
000030 10 d5 f7 bb cb 7b 69 bd 7e 7f 13 3d 80 fa 1c 3a
       -0.007563241 -0.057002824 0.036010258 0.0005988255
000040 8c 7e b8 bc 64 b6 44 3d d8 69 47 bd 90 cc dd bb
       -0.02252128 0.048025504 -0.048684925 -0.0067687705
000050 30 a5 fb bb 38 b7 3c bd 68 93 39 3d 44 b9 dd bc
       -0.007679604 -0.04607317 0.045306593 -0.02706588
000060 35 7e 8f 3d 3a 27 36 bd e0 f5 d4 3b 2f 67 82 bd
       0.07006494 -0.044471003 0.006499037 -0.06367337
000070 9e d0 92 bc a0 28 ca bb 88 48 cf 3c 5e 34 7a 3d
       -0.017921742 -0.0061693937 0.02530314 0.061085097
000080 2c 2b aa 3c da 7e 61 3d ba 41 34 3d 61 e8 52 bd
       0.02077254 0.055052616 0.044007994 -0.051491145
000090 64 6d 01 bd 33 84 88 3d 05 c3 8f 3d 99 c1 82 3d
       -0.031598464 0.0666584 0.07019619 0.06384582
0000a0 b5 4e 84 3d a0 14 6d 3b ae 02 16 3d cc 26 95 bc
       0.06460325 0.0036175624 0.03662365 -0.018206976
0000b0 40 40 5c 3b 6a 15 a4 bc 38 9b b2 3c b8 b9 84 bc
       0.0033607632 -0.020029742 0.02180253 -0.016201839
0000c0 78 0f de 3c be 3f 77 3d 9b f1 7d bd 78 cb 6e bc
       0.027106985 0.060363524 -0.06199799 -0.014574878
0000d0 cc f1 49 bd c4 6b 4c bc 10 40 61 bc 9e d9 6d 3d
       -0.04930286 -0.012476865 -0.013748184 0.058068864
0000e0 f7 f4 74 bd 2c 8c e4 bc d4 fa d1 3c 7e ab 4d bd
       -0.05980393 -0.02789887 0.0256323 -0.050212376
0000f0 1a 26 8e bd 4e 3b 6e 3d 1a 2d 76 3d 5c be 30 3d
       -0.06940861 0.058162026 0.060101606 0.04315029
000100 cc 5e 6d bd 46 37 10 bd c0 f7 49 3b a2 4b 61 bd
       -0.057951733 -0.035208963 0.0030817837 -0.05500377
000110 38 f2 50 bd 2a 10 90 bd 34 af f7 bc 62 a7 66 3d
       -0.051012248 -0.07034333 -0.03023491 0.056311972
000120 40 07 28 bc 73 fb 09 bd a8 fc 3d bd 9a 4d ca bc
       -0.010255635 -0.033687066 -0.04638353 -0.024695206
000130 40 af 9c bc 50 ff 44 3d 28 e1 53 bd ca 41 38 3d
       -0.019126534 0.048095047 -0.051728398 0.044984616
000140 0c 3c a1 3c 4c 51 93 bc 50 2f 99 bb b3 52 90 bd
       0.019681953 -0.017983101 -0.0046748295 -0.070470236
000150 be 79 75 3d 30 10 db 3c 9c 67 a3 3c 5d cf 89 3d
       0.059930556 0.026741117 0.019946866 0.067290045
000160 4a c3 84 bd a7 36 86 3d 7e 76 68 3d 5f c0 15 bd
       -0.06482561 0.06553393 0.056753628 -0.036560412
000170 30 0b fb bc 8a 88 24 3d 86 6a 51 bd b6 58 06 3d
       -0.030644983 0.040169276 -0.05112698 0.032799445
000180 be 8e 70 3d 12 55 17 3d 70 a0 93 bc d8 bc 73 3c
       0.05872988 0.036946364 -0.018020838 0.014876567
000190 00 c0 16 38 f4 11 34 3d 5d 12 8b 3d 20 9a 1c bb
       3.59416e-05 0.043962434 0.06790612 -0.0023895577
0001a0 16 b4 53 3d ec 9a 55 bd 40 a4 a4 bc 59 53 85 3d
       0.051685415 -0.0521497 -0.020097852 0.06510038
0001b0 18 8e 00 3c 78 d1 86 bd 17 51 86 3d 4a 1e 18 bd
       0.007846378 -0.06582922 0.065584354 -0.03713826
0001c0 52 d5 65 3d b3 24 2c bd b8 27 47 3d e0 f1 59 bc
       0.05611164 -0.042027187 0.048621863 -0.013302296
0001d0 14 16 4d bc 04 18 fa bc 63 7b 74 bd 00 e7 9d 3c
       -0.012517471 -0.03052903 -0.059687983 0.019275188
0001e0 40 73 80 bb b8 f6 70 bc 32 8e 1d bd b6 18 52 bd
       -0.003919989 -0.01470726 -0.038465686 -0.051293097
0001f0 5c 01 0e 3d 00 1a 29 b9 ec 7a c3 bc be 76 2b bd
       0.034669265 -0.00016126782 -0.023862325 -0.04186129
000200 a2 4c 02 3d cc 76 23 bc 39 8d 47 bd 65 b0 70 bd
       0.031811364 -0.009977054 -0.048718665 -0.058761973
000210 40 b9 41 3b 54 a9 48 bd b0 93 c3 3b f8 dd 9d bc
       0.002955988 -0.04898961 0.0059685335 -0.019270882
000220 98 0b 7a bd b6 ef 94 bc d2 c4 27 3d 42 2d 39 3d
       -0.061046213 -0.01818071 0.040959187 0.045209177
000230 1b 33 18 bd 44 64 3d 3d e6 04 39 bd 80 d1 3e 3d
       -0.037158113 0.0462382 -0.045170687 0.046586514
000240 86 24 1a 3d bf 8b 1f bd 24 89 34 3d 78 f4 10 3c
       0.037632488 -0.03895163 0.0440761 0.008847348
000250 10 20 01 3d 40 a9 03 3c 64 04 ea 3c f6 75 09 3d
       0.031524718 0.008035958 0.028566547 0.033559762
000260 e0 52 bb 3c 4a 48 07 bd e2 db 5d 3d 0e d6 72 3d
       0.022866666 -0.033027925 0.054164775 0.05928617
000270 7c ca d2 bc 62 63 56 3d d3 6c 8e 3d b7 96 87 3d
       -0.025731318 0.052340873 0.0695435 0.066205435
000280 1a 6f 76 3d 0c f9 e3 3c 24 59 8b bd de f9 6a 3d
       0.06016455 0.027828716 -0.068041116 0.0573672
000290 5c 6a 6d bd d0 89 a8 bb 6a d3 45 3d ee a6 8d bc
       -0.05796276 -0.0051433817 0.048297323 -0.017291512
0002a0 58 34 30 bd 18 9c 87 bd c0 44 c2 3c 34 00 35 3d
       -0.04301867 -0.066215694 0.023714423 0.044189647
0002b0 c0 37 c3 bb 48 cf 28 3c e0 76 4d 3d 51 b1 85 bd
       -0.0059575737 0.010303326 0.050162196 -0.06527961
0002c0 02 00 d2 bc 10 cf 8f bd 16 57 61 3d bc 06 6d bd
       -0.02563477 -0.07021916 0.055014692 -0.05786775
0002d0 ba 6f 63 3d 80 a4 30 bb bc c0 1c 3d 04 a9 18 bd
       0.055526473 -0.0026953518 0.038269743 -0.03727056
0002e0 a8 42 85 3c 40 66 38 3b a2 80 1c 3d be 65 c3 bc
       0.016267136 0.0028137118 0.03820861 -0.023852225
0002f0 92 df 87 bc 18 5c a2 3c 5c 6f 41 3d c8 13 12 3c
       -0.016586099 0.019819304 0.04722534 0.008915849
000300 8f 0e 57 bd 06 22 7d 3d 20 d9 0b 3d 9a 76 90 bd
       -0.05250412 0.061800025 0.034142613 -0.070538715
000310 e0 dd 94 3c c0 ed 69 3c 00 eb 2f 3a 69 6c 76 bd
       0.018172204 0.014277875 0.0006710738 -0.06016198
000320 48 d9 2f 3d 00 19 00 bc f0 e3 c4 bb ab ae 75 bd
       0.042931825 -0.00781846 -0.0060086176 -0.05998103
000330 34 1e 18 bd e8 3c 83 bc c0 73 3c 3c d2 3f db bc
       -0.03713818 -0.016020253 0.011502206 -0.02676383
000340 d7 3a 1a bd c0 b6 5b 3b dc c0 ac 3c 46 80 c5 bc
       -0.03765377 0.0033525676 0.021088056 -0.024109017
000350 40 83 a0 3c 8e 5c 13 3d 7c 85 5b bc 7a 76 b7 bc
       0.019593835 0.03597694 -0.013398524 -0.022395361
000360 08 a6 51 3d a4 3d 0f bc e7 04 04 bd 5e 50 8e bc
       0.05118373 -0.008742724 -0.032231238 -0.017372306
000370 42 d9 71 3d b8 aa 05 bd ec c1 ae 3c 88 91 35 3c
       0.059045084 -0.032633513 0.021332704 0.011082061
000380 2e 2a ec bc 20 4e 4a 3c 2d 61 80 bd 3e 53 53 bd
       -0.028828707 0.012347728 -0.06268535 -0.051593058
000390 18 60 16 3d 04 73 05 bd 16 cd 52 bd b0 b5 a6 3b
       0.036712736 -0.03258039 -0.051465116 0.005087577
0003a0 b5 92 42 bd 1a 1f 3a 3d 04 8c 0a bc 58 ec ae 3c
       -0.047503192 0.045439817 -0.008456234 0.021352932
0003b0 9d 2b 88 3d bc f3 56 bd 5d 23 87 bd e0 ae bf 3b
       0.066489436 -0.052478537 -0.06598542 0.005849704
0003c0 2e 8d 75 3d 74 55 4f bd ca a9 12 bd 88 67 98 3c
       0.059949093 -0.050618604 -0.035806455 0.018604055
0003d0 c8 29 30 bd da 40 8a bd f6 f3 68 3d 10 f0 91 bc
       -0.043008596 -0.06750651 0.056873284 -0.017814666
0003e0 00 c6 e5 3b f2 0f 94 bc a0 f6 b7 bc 47 ca 80 3d
       0.007012129 -0.01807401 -0.022456467 0.06288581
0003f0 c0 70 ab 3b 5c 35 70 bd 05 03 68 bd 48 d6 42 bd
       0.0052319467 -0.058644637 -0.056643505 -0.047567636

fc2.weight f4 [128, 276]
000000 34 b4 a4 3c 24 ac 0c 3d 9a 98 8a bd df e9 a3 bd
       0.020105459 0.034343854 -0.06767388 -0.08003592
000010 6b 2c 82 3d 10 7d ec 3c 2e 36 8d bd e8 91 4a bd
       0.06356128 0.028868228 -0.068950996 -0.049455553
000020 8b c1 a8 3d 64 6c ce 3c 96 ec 1f 3d 11 a3 a9 3d
       0.082400404 0.025198169 0.039043985 0.082830556
000030 c0 2b 5f 3c 02 6e 94 bd df 16 2c bd fd 70 83 3d
       0.013621271 -0.07247545 -0.042014 0.06418035
000040 80 85 28 3b 50 09 5b bd 7e 8a ac bd 4a 39 dd bc
       0.0025714338 -0.053475678 -0.08424853 -0.027004857
000050 80 d1 14 bd 5d 76 89 3d aa 92 29 3d 13 41 96 3d
       -0.036332607 0.06712029 0.041399635 0.07336631
000060 ff eb 8e bd 5e 45 04 3d a8 ff 14 3d dc 11 e7 3c
       -0.069786064 0.032292716 0.036376625 0.028206758
000070 31 11 89 3d fc b0 ab bc e4 19 9a bc 19 59 a0 3d
       0.06692732 -0.020958416 -0.018811174 0.07829494
000080 8e 0a 2a 3d 78 c8 67 3c e0 f6 b7 3b 45 d4 73 bd
       0.041513972 0.014146917 0.0056141466 -0.059528608
000090 9f 21 84 3d 87 5c 12 bd 81 00 8e bd 4c a1 f7 3c
       0.06451725 -0.035732772 -0.0693369 0.03022828
0000a0 58 66 c8 bc 00 a7 97 3b b6 b5 27 3d cc 77 b8 3c
       -0.024462864 0.0046280622 0.040944777 0.022518061
0000b0 51 18 ad bd a0 6d a5 3b 00 57 6e bc 0e e5 75 3d
       -0.084519036 0.0050484687 -0.01454711 0.060032897
0000c0 6a 46 3c 3d 69 c4 11 bd ca a8 74 3d 2a 18 aa bd
       0.04596559 -0.035587702 0.059731282 -0.0830539
0000d0 10 24 25 bc 40 7e f5 ba 88 d8 46 bc c0 5e 8e 3b
       -0.010079399 -0.0018729642 -0.012136586 0.004344791
0000e0 40 a7 ce 3c 52 93 93 bd 40 b1 a3 bb 68 fe b5 3c
       0.025226235 -0.072058335 -0.004995495 0.022216037
0000f0 e1 fe 86 3d 44 61 14 3d 30 b8 dc 3b 33 4a a6 bd
       0.06591583 0.036225572 0.006735824 -0.08119621
000100 60 de 07 3c 58 bf 64 bc 40 bd a4 3b d1 6f 5c bd
       0.008292764 -0.0139616355 0.005027443 -0.053817574
000110 f0 da 4c bd 59 ba 8d 3d e3 37 2a bd db fd 88 bd
       -0.050013483 0.069203086 -0.041557204 -0.06689044
000120 19 b3 a1 bd be e0 38 3d 26 bb 4c 3d f4 9b ae bc
       -0.07895488 0.045136206 0.049983166 -0.021314599
000130 ef 58 0c bd 56 d7 44 3d 95 ca 9a 3d 18 b8 82 bc
       -0.0342645 0.048056923 0.07558171 -0.015956923
000140 20 ee 23 3c 96 3e 1b 3d 5c c3 0f bd 00 f5 eb ba
       0.010005504 0.037901483 -0.03509842 -0.0018002093
000150 8e bc 0f bd ba 07 76 3d 0a de 72 3d e7 e1 49 bd
       -0.03509193 0.060065962 0.059293784 -0.049287703
000160 92 9e 52 3d 96 49 90 bd 0b c9 0c bd bc 53 b0 bc
       0.051420756 -0.070452854 -0.034371417 -0.021524303
000170 89 db a4 bd c6 e1 5f 3d 6a 7e 57 3d c1 de 92 3d
       -0.080496855 0.054658674 0.052610792 0.07171393
000180 4f d8 91 bd a0 3e e4 3c 16 45 6f 3d 05 a6 90 3d
       -0.07121336 0.027861893 0.058415495 0.07062916
000190 66 3d 4c bd 26 1a ea bc 58 1a 15 3d ce a2 15 3d
       -0.04986324 -0.028576922 0.036402076 0.036532216
0001a0 2d 2b 9c 3d ce e5 63 3d ac 24 bb 3c 0c 80 36 bd
       0.076254226 0.05563908 0.022844635 -0.04455571
0001b0 61 4d 73 bd 95 d4 1a bd a2 eb d8 bc 62 bd 44 bd
       -0.059399966 -0.03780039 -0.026479546 -0.048032172
0001c0 bb 2d 37 bd 2d af 11 bd 2a d1 34 3d cc 6f da 3c
       -0.044721346 -0.03556745 0.044144787 0.026664637
0001d0 56 6b 6e 3d c8 c4 1f 3c 77 d6 8d 3d 60 4c ae bc
       0.058207832 0.009751506 0.069256715 -0.021276653
0001e0 01 42 15 bd 16 0f 67 3d 71 ac 81 bd 78 c5 53 bd
       -0.0364399 0.05641087 -0.06331719 -0.051701993
0001f0 2c 98 a4 bd f8 55 70 bc 34 ad a7 bc 2d 37 a9 3d
       -0.08036837 -0.014668934 -0.020468332 0.08262477
000200 c6 56 3f 3d d0 e9 04 3d eb 82 98 bd 62 94 6d 3d
       0.046713613 0.032449543 -0.074468456 0.058002837
000210 48 6e 46 3c 1f c7 17 bd 27 92 a1 3d 90 65 f8 3b
       0.012111254 -0.03705513 0.078892045 0.0075804666
000220 72 07 9e bd 66 b3 6a 3d 84 e5 98 bd 47 0e a5 3d
       -0.07716264 0.057299994 -0.07465652 0.08059364
000230 40 59 60 3c 88 f5 0b 3c ea 09 51 3d f4 bc 04 bd
       0.013693154 0.008542426 0.051034845 -0.032406762
000240 e0 24 b7 bc ce 6a 48 bd 06 b7 4c 3d 14 4a a8 bc
       -0.02235645 -0.048929982 0.049979232 -0.020543136
000250 f8 ad ba bc 10 3f 1f 3c d3 81 99 bd ae ec 36 3d
       -0.022788033 0.009719625 -0.07495465 0.04465931
000260 7e 7d 3b bd 60 57 eb bb 8b 65 b0 3d a8 fb 77 bd
       -0.045773976 -0.007182047 0.08613118 -0.060542732
000270 34 9e 4a bd 08 ca 36 bc 28 9c b9 bc 6f bc b1 3d
       -0.04946728 -0.011156566 -0.022657469 0.08678519
000280 da 26 7f 3d 5a 1b a2 bd 88 05 08 3d 48 55 29 bd
       0.06229291 -0.07915373 0.0332084 -0.041341096
000290 6c fb 3b bd d6 b7 1a 3d 94 ed 87 bd de ff 38 bd
       -0.04589407 0.037772976 -0.06637111 -0.04516589
0002a0 a8 54 65 bc 7f df 93 bd e2 92 67 bd 62 2a 3d bd
       -0.013997234 -0.07220363 -0.056536563 -0.046182998
0002b0 9d 47 64 bd 9f d5 a8 bd 9c 3c aa bc 7c b5 ab bc
       -0.05573236 -0.0824387 -0.020780854 -0.020960562
0002c0 d2 d6 35 3d 0f 9d 0c bd 39 df 9c 3d 60 fa 3b bc
       0.04439432 -0.03432947 0.07659764 -0.011473268
0002d0 33 13 2f bd fa 04 25 bd 10 d2 33 bc d9 4c 64 bd
       -0.04274292 -0.04028795 -0.010975376 -0.05573735
0002e0 4a ae d9 bc fa 53 37 3d 0c f9 f6 3c 29 5a 32 bd
       -0.026572365 0.04475782 0.030148052 -0.043543015
0002f0 47 6a a9 3d e6 40 30 3d b3 68 b1 3d 80 23 70 bc
       0.08272224 0.043030642 0.08662548 -0.014656901
000300 2c 6f b1 bc 62 56 7a 3d 98 49 9d 3c 68 74 bd 3c
       -0.021659456 0.061117537 0.019200131 0.023126796
000310 81 2a 80 3d c1 4c b2 3d c8 30 c0 3c bb 1d 24 bd
       0.06258107 0.08706046 0.02346076 -0.040067416
000320 9a 4b 78 3d 0f 24 a6 3d 48 d6 8a 3c f8 f6 3b 3c
       0.060618974 0.081123464 0.01694788 0.011472456
000330 0e 90 1a 3d a3 f7 96 3d 4f 77 25 bd e8 96 47 bc
       0.037735038 0.07371452 -0.040396985 -0.012181975
000340 d8 80 0e 3d 80 3b 5f bc 36 30 a0 bd 0c 91 86 3c
       0.034790844 -0.013625026 -0.078216955 0.016426586
000350 21 df 8e 3d 68 40 21 bc 6a f3 68 3d 6b 29 86 3d
       0.06976152 -0.009842016 0.056872763 0.065508686
000360 84 79 b4 3c c4 51 fe 3c 9d 6b af 3d a0 9d ad bb
       0.0220306 0.031044848 0.085654475 -0.0052983314
000370 4c c6 87 3c 60 06 b1 bb 07 d2 a5 3d c1 4c 72 bd
       0.016574048 -0.0054023713 0.080967 -0.05915523
000380 08 e4 a2 bd e4 b1 84 3c 9c 5f ce 3c bc e9 84 3c
       -0.0795365 0.016198106 0.025192074 0.016224734
000390 80 0f 13 3c e8 f9 84 bd 10 21 75 3c ea f1 5b 3d
       0.008975863 -0.06492978 0.014961496 0.053697504
0003a0 0f 42 84 3d 80 4e 0e 3b 34 9e 46 bd a8 c0 a7 bc
       0.06457912 0.002171427 -0.048490718 -0.020477608
0003b0 d3 4e 5a bd c0 31 86 3c 00 20 ac b9 80 ab 5e 3a
       -0.05329783 0.016381145 -0.00032830238 0.00084941834
0003c0 8c 0c 3a bd 38 04 84 bc f9 4c 8a bd 23 46 ab 3d
       -0.045422122 -0.016115293 -0.067529626 0.08362987
0003d0 10 8b ce bb 02 ba 46 3d f8 aa 2e bd d0 89 80 3c
       -0.0063031986 0.048517235 -0.042643517 0.015690714
0003e0 d6 60 5e bd e4 6f b0 bd 6d 8d 84 3d ca 18 68 bd
       -0.05429157 -0.086150914 0.06472287 -0.056664266
0003f0 48 37 59 bc 00 c2 31 3b ac d9 04 3d f6 e8 94 bd
       -0.013257809 0.002712369 0.03243415 -0.07270996

fc2.bias f4 [128]
000000 64 ca 46 3d f0 53 0d 3b f0 09 0d bc e0 54 17 3c
       0.04853286 0.0021564923 -0.008608326 0.009236544
000010 f8 d4 12 3c ec a9 25 3d 72 b9 da bc e4 68 f6 3c
       0.0089619085 0.040445253 -0.026699755 0.030079313
000020 14 6e 28 3d b0 ca c9 3c b6 f3 03 3d 8b 79 00 bd
       0.041120604 0.024632782 0.032214843 -0.031365912
000030 f0 b2 02 3b a8 61 b2 3c 40 f7 b9 bb 08 20 69 3c
       0.001994308 0.021775082 -0.0056752264 0.014228828
000040 26 a8 70 3d 34 4d dd 3c e8 b1 5f 3c d0 3e b5 3c
       0.05875411 0.027014352 0.013653256 0.022124678
000050 b2 1f 72 3d e2 ea 6c 3d 51 25 5e bd 02 13 21 3d
       0.05911226 0.05784119 -0.054234806 0.039324768
000060 08 fc 9a bc 20 75 6d 3b 34 88 05 3d 60 4d 65 bd
       -0.018919006 0.0036233142 0.032600597 -0.055981994
000070 4e 08 16 bd 14 68 2e 3d e9 16 02 bd d5 15 55 bd
       -0.036629014 0.042579725 -0.03176013 -0.052022774
000080 54 e2 6e bd 18 9c 35 3d d2 5e e8 bc 18 e7 e0 bc
       -0.058321312 0.044338316 -0.028365526 -0.027453944
000090 64 41 09 3d a0 65 f3 3c 70 79 b0 3c 20 4f d3 3a
       0.033509627 0.029711545 0.02154228 0.0016121604
0000a0 a8 e3 53 3c 5c b4 4b bc b8 72 58 bd 56 e1 1d 3d
       0.012932695 -0.012433138 -0.05284378 0.038544975
0000b0 b4 22 e5 bc 00 a6 42 ba 2a 44 2f bd 00 7e 54 3b
       -0.02797065 -0.00074252486 -0.042789616 0.0032423735
0000c0 90 4b dd 3b 28 ca 2c 3d 70 a3 6c 3d b2 80 4e 3d
       0.0067533925 0.04218498 0.057773054 0.050415702
0000d0 60 ff 5d 3d 90 3b 65 3c 40 01 aa 3c 52 4b 51 bd
       0.054198623 0.013991252 0.02075255 -0.05109722
0000e0 a8 36 f1 bb 88 60 2f 3d 08 4f 00 3c b0 8f 48 3c
       -0.007361252 0.04281667 0.0078313425 0.012241289
0000f0 64 e5 2a 3d 4c c2 dc 3c aa 7e 90 bc 8e a1 0a 3d
       0.04172267 0.026948117 -0.017638523 0.033845477
000100 50 e2 a6 3b 84 2d 30 bd 16 c1 ac bc 02 4d 51 bd
       0.0050928965 -0.043012157 -0.021088164 -0.05109883
000110 ea 43 69 bd 00 03 38 3c d2 f5 86 bc 64 ce 8e 3c
       -0.056949534 0.011231184 -0.016474638 0.0174324
000120 20 06 f1 3b 4c 0e eb bc 40 d3 0c 3b 9b 6f 04 bd
       0.0073554665 -0.02869334 0.002148822 -0.032332998
000130 aa 3e 70 bd d0 06 ea bb ba 9a 08 bd 28 be 81 3c
       -0.05865351 -0.0071419254 -0.033350684 0.015837744
000140 4e a2 40 bd 14 3a bb 3c ee 16 1a bd b6 05 65 bd
       -0.047029786 0.022854842 -0.037619524 -0.05591365
000150 96 16 94 bc de 83 41 3d e9 7f 67 bd 4c be 65 bd
       -0.018077176 0.0472449 -0.05651847 -0.056089684
000160 53 3d 3f bd 37 7b 67 bd d8 6b 1f 3c ae ab 6b bd
       -0.046689343 -0.05651399 0.009730302 -0.057536773
000170 02 45 29 bd f2 a2 59 3d 97 c0 40 bd b6 a5 17 3d
       -0.041325577 0.053133912 -0.047058668 0.03702327
000180 c0 8a 31 3d c0 92 ac ba c8 83 3a 3d d4 76 61 3d
       0.043345213 -0.0013166294 0.045535833 0.055044964
000190 c4 54 a0 3c 18 32 63 3c d0 8e 8e 3c 14 0a 22 bd
       0.01957167 0.013866924 0.017402083 -0.039560392
0001a0 8a e7 63 bd a2 de 24 3d 83 7c ee bc 4e a9 2d 3d
       -0.055640735 0.04025138 -0.029112106 0.04239779
0001b0 48 a1 7a 3c 92 b3 2c 3d 3c f7 53 bc 8a a3 2e bd
       0.0152972415 0.04216344 -0.012937363 -0.04263643
0001c0 a6 f3 39 3d 7e 00 5c 3d d8 47 4c 3c 50 4e 4e 3d
       0.045398377 0.053711407 0.012468301 0.050367653
0001d0 f0 0c 42 bd b0 59 e2 bc e2 a4 54 bd f2 b9 3f 3d
       -0.04737562 -0.027630657 -0.051915057 0.04680819
0001e0 18 cc 85 bc e4 64 66 3d 67 cc ee bc e0 21 a9 bc
       -0.016332671 0.05624856 -0.029150201 -0.020646036
0001f0 87 49 40 bd f0 2b 2e 3d ef 23 55 bd dd 2e 40 bd
       -0.04694512 0.04252237 -0.052036222 -0.046919692

fc3.weight f4 [1, 128]
000000 d8 da a7 3a dc 0b 26 3a 67 3a 1e bb a0 b8 bc b8
       0.0012806309 0.00063341646 -0.0024143697 -8.998928e-05
000010 40 bc ca 38 29 2c 43 bb a4 2a 82 ba 00 f6 dc b9
       9.667175e-05 -0.002978096 -0.0009930921 -0.00042144954
000020 02 9c 39 3b ba e8 31 bb 69 9b ca ba ec 6b 13 3b
       0.0028321748 -0.0027146772 -0.0015457693 0.0022494746
000030 a0 2c ac 39 cc 46 58 3a 15 4c 17 bb 59 cb ac ba
       0.00032839645 0.00082502957 -0.002308612 -0.0013183161
000040 4c 87 bf 3a f1 39 e6 ba 1f 3a da ba e0 87 fa 38
       0.0014612465 -0.0017564875 -0.0016649402 0.00011946238
000050 f3 da a6 ba e8 3f c0 3a 00 4c 36 b8 44 58 2d 3b
       -0.0012730047 0.0014667483 -4.3462962e-05 0.0026450315
000060 c4 20 8c 3a 90 34 53 39 02 f3 43 3b 34 08 7f ba
       0.0010690917 0.00020142109 0.0029899483 -0.00097287004
000070 20 42 10 39 2c a5 df 3a d4 d5 c9 3a 56 5d 1e bb
       0.00013757544 0.0017062775 0.0015398809 -0.002416452
000080 ec 74 19 3b 93 88 0b bb b0 12 03 ba ec 78 e8 ba
       0.0023415638 -0.0021291121 -0.0005000038 -0.0017736233
000090 84 17 31 3a c6 29 86 ba 20 7c 61 39 e9 b9 b6 ba
       0.0006755518 -0.0010235838 0.00021503912 -0.0013940904
0000a0 f0 8e ea b9 48 0a 88 3a 09 b6 b8 ba f0 be 02 bb
       -0.00044738455 0.0010379041 -0.0014092337 -0.0019950233
0000b0 20 20 15 39 d4 eb 0a 3b 3c ad 64 3a 80 06 84 b8
       0.00014221715 0.0021197693 0.00087233237 -6.295461e-05
0000c0 c8 5a 72 3a c0 7a 5a 39 d2 85 0f bb 00 0e 18 38
       0.0009245095 0.00020835828 -0.0021899831 3.6252663e-05
0000d0 d1 da 41 bb c0 e6 73 38 3c 59 3c 3b c6 6f ce ba
       -0.0029579888 5.8150617e-05 0.0028739711 -0.0015749864
0000e0 b7 cf be ba df 00 df ba 15 de 0f bb cf c1 41 bb
       -0.0014557753 -0.0017013809 -0.002195244 -0.0029564982
0000f0 84 19 1e 3b 74 fd 81 ba 56 bb 3c 3b c0 55 02 3b
       0.0024124095 -0.0009917454 0.0028798184 0.0019887537
000100 fe 59 3e 3b 20 7f 37 3b 83 aa 27 bb bf 8f 0f bb
       0.0029045339 0.0027999356 -0.002558381 -0.0021905748
000110 61 46 96 ba 90 c0 d0 39 4b d5 39 bb 4a d0 33 bb
       -0.0011465066 0.00039816322 -0.0028355892 -0.0027437382
000120 ac 7d 84 3a a4 69 0a 3a 66 04 1d bb 20 40 39 bb
       0.0010108254 0.0005280024 -0.002395892 -0.0028266981
000130 44 53 d5 3a a7 33 06 bb 58 e5 a8 b9 20 39 5b 39
       0.0016275425 -0.0020477565 -0.0003221433 0.00020906748
000140 30 40 44 3b b4 70 a9 3a c0 88 c5 3a 60 25 37 3b
       0.0029945485 0.0012927265 0.0015070662 0.0027945861
000150 18 0a 77 3a 63 29 03 bb c8 cc 3b bb 08 34 94 3a
       0.00094238063 -0.0020013682 -0.0028655995 0.001130701
000160 c2 4d 17 3b 83 94 2d bb 62 68 1c bb 73 9d a0 ba
       0.0023087119 -0.0026486225 -0.0023865928 -0.0012253955
000170 f8 b7 b8 ba d0 d6 11 3b 4a b9 2a 3b a9 4b 43 bb
       -0.0014092913 0.0022253282 0.0026050382 -0.0029799736
000180 cc a1 50 3a d0 ea 80 3a 80 c7 33 bb c3 fa a6 ba
       0.000795868 0.0009835605 -0.0027432144 -0.0012739528
000190 30 d0 9e 3a 5c 10 92 3a 7d 01 ea ba ac 54 cc 3a
       0.0012116488 0.0011143791 -0.0017853227 0.0015589199
0001a0 e7 bc ca ba cc 52 e6 3a 66 3b 02 bb 9b a6 ee ba
       -0.0015467674 0.0017572283 -0.001987183 -0.0018207611
0001b0 6c a9 27 bb 4c 75 dc ba 20 5c a2 b9 0f 0d b3 ba
       -0.002558316 -0.0016819625 -0.00030967686 -0.0013660508
0001c0 78 06 ed ba a6 0a 15 bb a0 c5 34 3b 80 b4 8b b9
       -0.0018083593 -0.0022741943 0.0027583614 -0.0002664663
0001d0 e4 b6 25 3b d8 2f 30 3b da 65 3d bb 6e 08 1b 3b
       0.0025286013 0.0026883986 -0.002889982 0.0023656148
0001e0 0c bd 79 ba 1e d1 28 3b 28 70 4a ba 44 09 37 3a
       -0.00095267664 0.002575941 -0.0007722401 0.00069822767
0001f0 78 af 23 3a 68 20 35 3b 3b 24 98 ba 60 d2 d8 39
       0.00062441034 0.0027637724 -0.0011607477 0.00041355472
