models/checkpoint_critic_local_0.pth (torch_old, 349244 bytes, 5 tensors)

fcs1.weight f4 [256, 200]
0	0xbcff7730	-0.031184763
1	0x3d582b6e	0.052775793
2	0x3d18979c	0.03725396
3	0xbd34ded4	-0.044157818
4	0xbce8926c	-0.028390132
5	0xbcb00268	-0.021485522
6	0xbc931b00	-0.01795721
7	0x3b5c59c0	0.003362283
8	0x3d5c26d2	0.05374796
9	0xbd1c033a	-0.038089015
10	0x3d471b0c	0.04860978
11	0xbd453c7c	-0.048153386
12	0x3be7da60	0.007075593
13	0xbd763380	-0.060107708
14	0x3d4adfcc	0.049529836
15	0xbca36350	-0.019944817
16	0xbd74727c	-0.059679493
17	0x3d34586c	0.04402964
18	0x3d6a6640	0.05722642
19	0xbcf63670	-0.030055255
20	0x3ab066c0	0.0013458356
21	0xbd1ef23e	-0.03880524
22	0x3d703d4c	0.058652207
23	0x39687c00	0.00022171438
24	0x3bd85b70	0.006602697
25	0x3d6f0342	0.058352716
26	0xbd3c302e	-0.045944385
27	0x3c84c42c	0.016206823
28	0xbc9ca094	-0.019119538
29	0xbd6d8c48	-0.05799511
30	0x3d5d32aa	0.054003395
31	0xbc1378d0	-0.009000972
32	0xbd5c2c34	-0.053753093
33	0xbcbfa690	-0.023394853
34	0x3d20372c	0.039115116
35	0x3d61ea94	0.05515535
36	0x3c8d965c	0.017283611
37	0x3b5ab960	0.0033374652
38	0xbd667dfe	-0.0562725
39	0xbb83d1d0	-0.0040228143
40	0x3c6435e0	0.01392886
41	0x3d45453c	0.04816173
42	0xbccd3f88	-0.025054708
43	0xbcc095c8	-0.023508921
44	0x3d62a54c	0.05533342
45	0xbcbf6218	-0.023362204
46	0xbd6c1d64	-0.057645217
47	0x3d14a52c	0.036290333
48	0x3d46aff0	0.04850763
49	0x3ccfd654	0.025370754
50	0x3cb9a5e8	0.022662118
51	0x3d0d114c	0.034440324
52	0x3d1c1580	0.03810644
53	0x3d78f234	0.060777858
54	0x3d6f7dbe	0.058469526
55	0x3d3839aa	0.044976868
56	0x3d6748b4	0.05646582
57	0x3d7fb310	0.062426627
58	0xbcc7b1f8	-0.024376854
59	0x3d2199e6	0.03945341
60	0xbd488882	-0.04895831
61	0xbd3271d8	-0.0435656
62	0xbbd3ecd0	-0.0064674392
63	0x3cbc61ac	0.022995792
64	0x3cdd175c	0.026988678
65	0xbcc78098	-0.02435331
66	0xbb5fc100	-0.0034142137
67	0xbd2ba968	-0.041909605
68	0xbd532364	-0.051547423
69	0x3d1140e8	0.03546229
70	0xbd6911cc	-0.056901738
71	0x3c8d14c0	0.017221808
72	0xba127b80	-0.0005587861
73	0x3d0369f8	0.03208348
74	0x3c060120	0.008178979
75	0x3d229dc0	0.039701223
76	0xbbd583f0	-0.0065159723
77	0xbd5a8dce	-0.05335789
78	0xbb876240	-0.0041315854
79	0xbcb90c28	-0.022588804
80	0x3cbe9f04	0.023269184
81	0xbd067886	-0.032829784
82	0xbd09e352	-0.033664055
83	0x3d605e64	0.054777518
84	0xbd53635c	-0.05160843
85	0xbbed86d0	-0.007248737
86	0x3b45a500	0.0030158162
87	0x3a591c80	0.000828214
88	0xbc0d78a8	-0.008634724
89	0xbcd1f4f4	-0.025629498
90	0xbcf793ac	-0.030221783
91	0xbd02da92	-0.031946726
92	0x3d66bcf6	0.05633255
93	0xbd2e4a34	-0.042551234
94	0x3c8734ec	0.016504727
95	0xbcc52010	-0.02406314
96	0x3d4c86ea	0.04993335
97	0xbc8ad7bc	-0.016948573
98	0x3d16ad3e	0.03678631
99	0x3c9bfec4	0.01904238
100	0xbcd2b000	-0.025718689
101	0x3c70af18	0.014690183
102	0xbc068588	-0.008210547
103	0xbd135916	-0.03597363
104	0x3d70f1ce	0.058824353
105	0x3ccc7f00	0.024962902
106	0x3d1754ee	0.03694623
107	0xbd2c8a5e	-0.042124145
108	0xbd78470a	-0.060614623
109	0xbd5ae262	-0.05343855
110	0x3d238c16	0.03992852
111	0xbc466e30	-0.012111232
112	0xbc99cf54	-0.01877562
113	0xbd59c0aa	-0.053162254
114	0xbd37e392	-0.044894762
115	0x3c57f828	0.013181724
116	0x3d58ca48	0.052927285
117	0x3c030888	0.0079976395
118	0xbc990ec4	-0.018683799
119	0x3ba6ce40	0.005090505
120	0x3c4c88b8	0.012483768
121	0x3d26b926	0.040703915
122	0xbd41c7f2	-0.047309823
123	0xbd1ff3a2	-0.039050706
124	0x3cf15fbc	0.029464595
125	0x3bc7ae80	0.0060938
126	0xbcbc6920	-0.022999346
127	0x3c7c2b20	0.015391141
128	0xbd743a78	-0.059626073
129	0xbb3acd80	-0.0028503835
130	0x3d1ba42e	0.03799837
131	0x3bc8a660	0.006123349
132	0x3d19804e	0.037475877
133	0x3cc2152c	0.023691736
134	0xbd13f22e	-0.036119632
135	0xbd5e3ed2	-0.05425913
136	0x3ba2fea0	0.0049742013
137	0x3c050738	0.008119397
138	0x3d528966	0.051400565
139	0xbd49c054	-0.049255684
140	0xbc87bbd8	-0.016569063
141	0x3bb05e00	0.0053822994
142	0xbc3088f8	-0.010774843
143	0x3b8d6110	0.0043145493
144	0xbd4441d0	-0.047914326
145	0xbca228f0	-0.019794911
146	0x3c093be8	0.008376099
147	0x3ccd3ebc	0.025054328
148	0xbd7b4606	-0.061346076
149	0x3d465d32	0.04842872
150	0xbd1744d2	-0.036930867
151	0xbd5ccc60	-0.053905845
152	0x3cbcc28c	0.023041986
153	0x3ca54968	0.020176604
154	0x3985c800	0.00025516748
155	0x3cac05e4	0.020998903
156	0xbcabe0f0	-0.020981282
157	0xbca0dd98	-0.019636914
158	0xbc3d54e0	-0.01155588
159	0xbcb8f654	-0.022578396
160	0xbd1c5d66	-0.03817501
161	0x3cdf78a8	0.027279213
162	0x3b586800	0.0033020973
163	0xbd58798e	-0.0528503
164	0xbd0eed56	-0.03489431
165	0xbd016990	-0.031594813
166	0xbcc30a10	-0.02380851
167	0xbd5b2310	-0.053500235
168	0xbd321dc6	-0.043485425
169	0x3cfbe510	0.030748874
170	0x3d2ab128	0.041672856
171	0xba9482c0	-0.001133047
172	0xbd4a5c36	-0.049404345
173	0x3d489718	0.04897222
174	0xbce61f20	-0.028091013
175	0xbcd01660	-0.025401294
176	0x3d132628	0.03592506
177	0x3caf8e6c	0.021430217
178	0x3ac87480	0.0015293509
179	0x39f33c00	0.00046393275
180	0x3d61ba06	0.055109046
181	0x3cc8f948	0.024532929
182	0x3d2768f0	0.04087156
183	0x3c4675b0	0.01211302
184	0x3c868b0c	0.016423725
185	0x3c428998	0.011873625
186	0xbd6e5934	-0.05819054
187	0x3d25e7f0	0.040504396
188	0x3d7c1b40	0.061549425
189	0x3d31e636	0.043432437
190	0x3d655920	0.0559932
191	0xbd140f8c	-0.03614764
192	0xbcdad3ac	-0.026712261
193	0x3d07d42a	0.03316132
194	0x3aa68340	0.001270391
195	0x3d64da6e	0.055872373
196	0xbd3c3dee	-0.0459575
197	0xbce990c4	-0.028511412
198	0x3d4ad6f8	0.049521416
199	0x3b9d1e90	0.004794903
200	0xbd3c22b2	-0.045931526
201	0xbc165540	-0.009175599
202	0xbd6123b8	-0.054965705
203	0x3c6f3060	0.014598936
204	0x3cf0008c	0.029297136
205	0xbccaa0ec	-0.024734937
206	0x3d3bb172	0.045823522
207	0xbd2cdd68	-0.042203337
208	0xbc85cc60	-0.016332805
209	0xbcc89428	-0.024484709
210	0x3d59b846	0.053154252
211	0xbcf3ceb0	-0.029761642
212	0xbc95cf24	-0.018287249
213	0xbcc51b28	-0.0240608
214	0x3d10b57c	0.035329327
215	0xbc8e4954	-0.01736895
216	0x3cc8ffd4	0.02453605
217	0x3d10deb6	0.035368644
218	0xbd1f5860	-0.03890264
219	0x3b32e080	0.0027294457
220	0x3d63244c	0.055454537
221	0x3d1dab0c	0.0384932
222	0xbd4949ac	-0.049142525
223	0xbc16e398	-0.009209536
224	0x3d5cdfae	0.053924255
225	0x3d3b0294	0.045656756
226	0x3c7ba548	0.01535923
227	0x3b181200	0.0023204088
228	0x3ca14968	0.019688323
229	0xbce0fb08	-0.027463451
230	0x3c5449c0	0.0129570365
231	0xbcb4b884	-0.02206064
232	0x3c99a984	0.01875759
233	0x3d165fb8	0.03671238
234	0xbd7d84b4	-0.061894134
235	0xbc838968	-0.016056731
236	0xbd5a26fe	-0.053259842
237	0xbbf3b740	-0.0074376166
238	0x3d08717c	0.033311352
239	0xbd6f7f88	-0.058471233
240	0x3ba8e710	0.005154498
241	0xbd33129e	-0.043718927
242	0x3d64ffa8	0.055907875
243	0x3bdf8ea0	0.006822422
244	0xbd0abf62	-0.033873923
245	0xbc75f5c8	-0.015012212
246	0xbc0cccb0	-0.008593723
247	0x3b874740	0.0041283667
248	0x3d2410ce	0.04005509
249	0xbd56777e	-0.05236005
250	0xbd0c9b9c	-0.03432809
251	0xbd497df4	-0.049192384
252	0xbd2ec87c	-0.042671666
253	0x3d3bd854	0.045860603
254	0x3d32f120	0.043686986
255	0x3d01f1ec	0.031724855

fcs1.bias f4 [256]
0	0x3d795caa	0.060879387
1	0x3d719f12	0.058989592
2	0x3bc8a0e0	0.0061226934
3	0x3d18ca72	0.037302442
4	0xbcca7486	-0.024713766
5	0x3d1919cc	0.037378117
6	0x3d7f6fbe	0.062362425
7	0xbc2ab154	-0.010418255
8	0xbc60472c	-0.013688844
9	0xbd7452ca	-0.059649266
10	0xbd535a3e	-0.051599734
11	0xbbcfbe90	-0.0063398555
12	0x3ce49d44	0.027907021
13	0x3c546c80	0.012965322
14	0xbd299937	-0.041405883
15	0xbd3bbf28	-0.045836598
16	0x3c8ae978	0.01695703
17	0xbd2b4c10	-0.041820586
18	0x3d6534da	0.055958606
19	0xbd4c8d7a	-0.04993961
20	0x3b1c8b60	0.0023886785
21	0xbd710673	-0.05884404
22	0x3b40ad80	0.002940029
23	0xbd82f24e	-0.06393872
24	0x3cb61c4c	0.02223029
25	0x3c20fe50	0.009826258
26	0xbd72f8d8	-0.059319347
27	0x3d74c74a	0.05976037
28	0x3d01c48c	0.031681582
29	0xbc8a5d90	-0.016890317
30	0x3d4c2c66	0.04984703
31	0x3d3bb042	0.04582239
32	0xbcc0d7c2	-0.023540381
33	0xbd0f88a8	-0.035042435
34	0x3d82c3f1	0.06385029
35	0xbc761464	-0.01501951
36	0x3d071ea0	0.03298819
37	0xbd0f3dec	-0.034971163
38	0xbc7d9258	-0.015476786
39	0x3d40ded8	0.04708752
40	0x3d45099e	0.048104875
41	0xbba399e0	-0.0049927086
42	0xbcd8bce2	-0.026457254
43	0x3d3a2a2c	0.045450374
44	0xbd8ae27f	-0.06781482
45	0xbd22f540	-0.03978467
46	0xbcbee360	-0.02330178
47	0xbd7b759e	-0.061391465
48	0xbd697d8b	-0.057004493
49	0xbc97944a	-0.018503327
50	0xbd09c38b	-0.03363375
51	0xbcea34f8	-0.02858971
52	0xba745600	-0.00093206763
53	0xbc4c2f40	-0.012462437
54	0x3c4a7b68	0.012358524
55	0x3d6c04a6	0.05762162
56	0xbc8cfa6a	-0.01720925
57	0x3d6294f2	0.055317827
58	0x3d6a7a82	0.05724574
59	0xbd858aed	-0.065206386
60	0xbc042f00	-0.008067846
61	0x3d695542	0.056966074
62	0x3d8cca6f	0.06874549
63	0x3bc97920	0.0061484724
64	0x3d8acb1d	0.06777022
65	0xbcaf83be	-0.021425124
66	0x3c9eb558	0.01937358
67	0x3ab6b1c0	0.0013938472
68	0xbccc00ca	-0.02490272
69	0x3d8e7681	0.069561966
70	0x3d90299d	0.07039187
71	0x3d8719e1	0.06596733
72	0x3d08cae2	0.03339661
73	0xbce8b178	-0.028404936
74	0xbbb82d30	-0.005620621
75	0xbc2bf4f8	-0.010495417
76	0x3d8edbd5	0.069755234
77	0xbb63af20	-0.0034741834
78	0xbd521b5c	-0.051295623
79	0x3d05a6a0	0.03262961
80	0xbd208923	-0.039193284
81	0xbd025b4a	-0.03182534
82	0x3c9218ac	0.01783403
83	0x3d1a8c3e	0.0377314
84	0xbcc13fbc	-0.023589961
85	0x3d90cf65	0.07070807
86	0xbc046860	-0.008081526
87	0x3d854919	0.06508083
88	0xbd29b34c	-0.041430756
89	0xbd07bd45	-0.033139486
90	0x3d749d3a	0.059720255
91	0x3d900687	0.07032495
92	0xbd106be0	-0.035259128
93	0x3c1df940	0.009641945
94	0x3d467660	0.048452735
95	0x3bed4640	0.0072410405
96	0x3bf35be0	0.007426724
97	0x3c811268	0.015755847
98	0x3d70ce16	0.05879029
99	0x3bf1e610	0.007382162
100	0xbcdf17c8	-0.02723302
101	0xbc9fe750	-0.019519478
102	0xbcfe234e	-0.031022694
103	0xbc4727e4	-0.012155507
104	0x3d1e81f6	0.03869816
105	0xbd006012	-0.03134162
106	0xbd3f32b8	-0.04667923
107	0x3beab850	0.007163085
108	0x3d102268	0.035189062
109	0x3d1e9d88	0.038724452
110	0xbb126140	-0.0022335798
111	0xbc95de78	-0.018294558
112	0x3c2a0ed0	0.010379508
113	0xbc972f86	-0.018455278
114	0x3d12abde	0.035808437
115	0xbd8afaa2	-0.06786086
116	0xbd5a9bc2	-0.0533712
117	0xbbd92400	-0.006626606
118	0xbb0777e0	-0.0020670816
119	0x3d68bcee	0.056820802
120	0x3cc53434	0.024072744
121	0xbd3601de	-0.044435374
122	0xbd524f00	-0.05134487
123	0xbd68a6a5	-0.05679955
124	0xbc857a20	-0.016293585
125	0xb99b1f00	-0.00029587
126	0xbd1022dc	-0.035189494
127	0x3c13b818	0.009016059
128	0xbd16951b	-0.03676329
129	0x3d5cae26	0.05387702
130	0xbd8fcb90	-0.07021248
131	0xbd903926	-0.0704215
132	0xbc616b58	-0.013758503
133	0xba901600	-0.0010992885
134	0xbce0c90a	-0.027439613
135	0xbd288c5b	-0.04114948
136	0xbd857b41	-0.065176494
137	0x3d46d164	0.048539534
138	0x3d607c6a	0.05480615
139	0xbc0b2864	-0.008493517
140	0xbd50d9a0	-0.050988793
141	0x3d851f15	0.06500069
142	0x3ca599f8	0.02021502
143	0x3cc13428	0.02358444
144	0x3a0b2700	0.00053082407
145	0xbd2adbb4	-0.04171343
146	0x3cfaf3d8	0.030633852
147	0x3d02ba94	0.031916216
148	0x3d1f9a92	0.03896577
149	0x3ce62158	0.028092071
150	0x3d331d94	0.04372938
151	0xbc77d708	-0.015126951
152	0x3cc7f10c	0.024406932
153	0xbcb2ca70	-0.021825045
154	0xbbb6d3f0	-0.005579464
155	0x3d5ec7b2	0.054389663
156	0x3c0ea2b8	0.008705787
157	0x3c510aa8	0.012758888
158	0xbc624cc4	-0.013812248
159	0xbd4902ee	-0.04907506
160	0x3ce7226c	0.028214656
161	0x3d11e51e	0.035618894
162	0x3c107c98	0.008818768
163	0xbd2e8bd4	-0.04261382
164	0xbba8f6b0	-0.0051563606
165	0x3acd7440	0.0015674904
166	0x3d57acf4	0.052655175
167	0x3d88ba1d	0.06676123
168	0x3d428b0a	0.04749588
169	0x3b401fc0	0.00293158
170	0xbd5e646c	-0.05429499
171	0xbd56368a	-0.052298106
172	0xbcb426fe	-0.02199125
173	0x3d166eb2	0.03672666
174	0xbc6a40c8	-0.014297672
175	0x3d64a876	0.05582472
176	0x3d5be39a	0.053683855
177	0x3bac9cf0	0.005267732
178	0xbce407ae	-0.027835693
179	0xbd224508	-0.039616615
180	0x3d6575fa	0.056020714
181	0xbbd1b8b0	-0.0064001903
182	0x3d0b3cae	0.033993416
183	0x3d8f2261	0.06988979
184	0x3d7bcd4e	0.06147509
185	0xbb05b700	-0.0020403266
186	0x3d0db412	0.034595557
187	0x3d05013c	0.03247188
188	0xbd7d8be6	-0.061900996
189	0xbd7c0464	-0.061527625
190	0x3b993f20	0.0046767145
191	0x3d6101da	0.054933406
192	0xbb7ef420	-0.0038902834
193	0xbd0fe5cd	-0.035131264
194	0xbca4116c	-0.020027839
195	0x3d88762d	0.06663165
196	0xbd04e316	-0.03244313
197	0x3d25e942	0.040505655
198	0x3cd154b8	0.025553092
199	0x3c0331c0	0.008007467
200	0xbd797a44	-0.060907617
201	0x3aee92c0	0.0018201694
202	0x3d681f2e	0.05667036
203	0xbd40af32	-0.04704208
204	0x3c8fae4c	0.017539166
205	0xbd596542	-0.053075083
206	0x3d8a0455	0.067391075
207	0xbd7332b6	-0.059374534
208	0xbd41dcec	-0.04732983
209	0x3bd06740	0.0063599646
210	0x3d316958	0.043313354
211	0xbcf0aaec	-0.029378377
212	0xbd764f67	-0.060134318
213	0x3d7a2052	0.06106598
214	0x3c555530	0.013020799
215	0xbd02b4aa	-0.031910576
216	0x3c764228	0.015030421
217	0xbd1c24b9	-0.03812096
218	0x3d1afcde	0.03783881
219	0xbd7a5676	-0.06111761
220	0x3bfd7c30	0.0077357516
221	0xbd77b579	-0.0604758
222	0x3d1a46da	0.037665226
223	0xbcd2ab40	-0.025716424
224	0xb8f26000	-0.000115573406
225	0x3ce8f218	0.028435752
226	0x3d8a9715	0.06767098
227	0x3c2f4ba8	0.01069919
228	0x3c76aca8	0.015055813
229	0xbd1adc0f	-0.03780752
230	0xbd23f8e4	-0.040032282
231	0x3d63a5b2	0.05557794
232	0x3d11f7b4	0.03563662
233	0xbca7909a	-0.020454694
234	0x3d58f852	0.05297119
235	0xbd8d0cde	-0.0688722
236	0x3d053064	0.032516852
237	0x3d384ffa	0.044998147
238	0xbceb4bbe	-0.02872264
239	0xbd21c661	-0.03949583
240	0x3d5291f2	0.051408716
241	0xbd784c02	-0.06061936
242	0xbd8b88bf	-0.068131916
243	0xbd6227d0	-0.05521375
244	0x3cd4f58c	0.025995992
245	0x3d8a2a15	0.06746308
246	0xbc222144	-0.009895626
247	0x3d7599fe	0.05996131
248	0x3d0d3f1a	0.034484006
249	0x3d5114ec	0.051045343
250	0x3c7d3938	0.015455537
251	0xbd44e16f	-0.048066553
252	0x3d3e32d0	0.046435177
253	0x3d3bd3bc	0.045856223
254	0xbd8c5db7	-0.06853812
255	0x3c6431c0	0.013927877

fc2.weight f4 [128, 276]
0	0x3d19ecb6	0.03757926
1	0x3d2baf96	0.0419155
2	0xbd9d65f4	-0.07685462
3	0x3d49515a	0.04914985
4	0x3c195270	0.009358034
5	0xbcd2fd8c	-0.025755666
6	0x3c584760	0.013200611
7	0x3da25837	0.07926982
8	0x3d2d593a	0.04232142
9	0x3d59deae	0.05319088
10	0xbd2ba0e8	-0.0419015
11	0xbb881f70	-0.0041541383
12	0x3d8e8f8d	0.06960974
13	0x3dabbee9	0.083860226
14	0x3c5e9728	0.013585843
15	0x3c3402f0	0.0109870285
16	0xbcf1ae4c	-0.029502057
17	0x3d93be2f	0.07214009
18	0xbb9dcab0	-0.004815422
19	0xbc8e9e6c	-0.017409526
20	0x3c446ef8	0.011989348
21	0xbd0ed7e8	-0.034873873
22	0x3ca8381c	0.020534568
23	0x3befa5d0	0.0073134676
24	0x3dafcd2f	0.085840575
25	0x3dad63ab	0.08466276
26	0xbd3780f8	-0.04480073
27	0x3d301b1a	0.042994596
28	0x3da3f969	0.080065556
29	0xbc2f5048	-0.010700293
30	0xbd8f41d2	-0.06994976
31	0xbd80bed5	-0.06286398
32	0x3cf986c0	0.030459762
33	0x3d78d2e2	0.06074799
34	0xbcf6c08c	-0.03012111
35	0x3d84ba8f	0.06480896
36	0x3dac36f1	0.08408917
37	0xbcf78ce6	-0.030218553
38	0xbda14f65	-0.078764714
39	0xbd6b9561	-0.057515506
40	0x3bb07d80	0.0053860545
41	0xbc9ff4a4	-0.019525833
42	0xbd112772	-0.03543801
43	0x38fa9000	0.00011947751
44	0x3d902e01	0.070400245
45	0xbd913bd1	-0.07091487
46	0x3d05a2c6	0.032625936
47	0x3d0e277e	0.03470563
48	0x3c414528	0.011796273
49	0x3d97ed33	0.07418289
50	0xbcc67e9c	-0.024230294
51	0xbd423fa3	-0.04742397
52	0x3c62b208	0.013836391
53	0x3d03d6ba	0.0321872
54	0xbc080d00	-0.008303881
55	0xbcf62fda	-0.030052114
56	0x3d44aa4e	0.048013978
57	0xbd0c68d0	-0.034279644
58	0x3c389d48	0.0112679675
59	0x3c924b14	0.017858066
60	0x3d8b880b	0.068130575
61	0xbd08a3e6	-0.03335943
62	0x3c4ebce0	0.0126182735
63	0x3c4aea18	0.012384914
64	0xbcd337dc	-0.025783472
65	0xbd04a322	-0.032382138
66	0xbcbe5f70	-0.023238868
67	0xbc7a4d40	-0.015277207
68	0x3bf1e6a0	0.007382229
69	0xbd977c94	-0.07396808
70	0xbd27796b	-0.040887278
71	0xbd918e18	-0.0710718
72	0x3d8b2a81	0.06795216
73	0xbca6c290	-0.020356447
74	0xbda365ea	-0.07978423
75	0xbdaa7cd8	-0.08324593
76	0xbd418b0f	-0.047251757
77	0xbd338c59	-0.043835018
78	0xbd970d1a	-0.07375546
79	0xbda304f5	-0.0795993
80	0xbdaf71cf	-0.08566629
81	0xbccea1b4	-0.02522359
82	0x3db2c953	0.08729806
83	0xbda3fb25	-0.080068864
84	0xbd509b2e	-0.05092924
85	0xbd563b47	-0.052302625
86	0xbd3a80b0	-0.045532882
87	0xbb10cd00	-0.0022094846
88	0xbd87ee2d	-0.06637225
89	0xbd0ef735	-0.034903724
90	0x3d850e5b	0.06496879
91	0xbccd5870	-0.025066584
92	0x3d8d9feb	0.069152676
93	0x3c34a4c8	0.011025615
94	0xbd8132c6	-0.063085124
95	0x3d4996e6	0.049216174
96	0x3dada267	0.084782414
97	0xbd0ecf44	-0.034865633
98	0xbd4c1f97	-0.049834814
99	0x3d296d26	0.041363858
100	0xbd836f7e	-0.0641775
101	0xbd9d6868	-0.076859295
102	0x3d349b0a	0.04409317
103	0xbda01ce4	-0.078180104
104	0x3c2f2950	0.010691002
105	0x3c8b1f10	0.016982585
106	0x3d86ef35	0.06588594
107	0x3c86b2dc	0.016442709
108	0xbdab475d	-0.08363221
109	0x3c275c08	0.010214813
110	0xbd6cc033	-0.057800483
111	0xbd60fcd2	-0.05492861
112	0x3d0fa850	0.035072625
113	0xbd26169e	-0.040548913
114	0xbda8291a	-0.082109645
115	0x3cf07658	0.029353306
116	0xbd08bbf1	-0.03338236
117	0xbc5b53f0	-0.0133867115
118	0x3d64baa6	0.055842064
119	0x3d81bb33	0.063345335
120	0x3bd19a90	0.006396599
121	0xbd6ed1f2	-0.05830569
122	0xbd361513	-0.04445369
123	0x3d9391a7	0.07205515
124	0xbd212d3d	-0.039349783
125	0xbd0e4276	-0.03473135
126	0x3d13a3a4	0.03604473
127	0xbd6120f0	-0.054963052
128	0x3ce3edfc	0.02782344
129	0xbd38b4fe	-0.045094483
130	0x3db332e5	0.08749942
131	0x3c9e16fc	0.01929807
132	0x3c80cb74	0.015722014
133	0x3d8699c7	0.065722995
134	0xbc79e5f0	-0.015252575
135	0xbd510a67	-0.05103531
136	0xbcc2275c	-0.023700409
137	0xbcda1ffa	-0.026626576
138	0xbd9010a0	-0.07034421
139	0xbc2aeaf8	-0.0104319975
140	0x3d5811f6	0.052751504
141	0x3c725140	0.014789879
142	0xbd3ade0f	-0.045621928
143	0xbda76f5f	-0.08175539
144	0xbd8fd9f4	-0.07023993
145	0x3ce728f8	0.028217778
146	0xbd475e9d	-0.048674215
147	0x3d390cc6	0.045178197
148	0x3da73fcf	0.081664674
149	0x3db0d44f	0.08634245
150	0xbd9e9780	-0.0774374
151	0xbd7034a0	-0.058643937
152	0xbda8c7cc	-0.08241233
153	0xbd386b44	-0.04502417
154	0xbd43b9a7	-0.047784474
155	0x3d9e5f59	0.0773303
156	0x3c391638	0.011296801
157	0x3da532d9	0.08066339
158	0x3c881b44	0.016614564
159	0xbd452cd4	-0.048138455
160	0xbdab8578	-0.083750665
161	0x3daeb0c7	0.08529811
162	0x3d912d89	0.07088763
163	0x3da91d7d	0.082575776
164	0x3d8bb2b9	0.06821198
165	0x3d016a08	0.03159526
166	0xbd94da1f	-0.07268166
167	0xbd5c37e3	-0.053764235
168	0xbd9ac790	-0.07557595
169	0xbc7cedf0	-0.015437588
170	0xbc712ed8	-0.014720641
171	0x3c99350c	0.018702053
172	0x3b552380	0.003252238
173	0xbb640900	-0.0034795403
174	0x3d45b812	0.048271246
175	0xbc19a720	-0.009378225
176	0xbc55d3a0	-0.013050944
177	0xbdb2c9bf	-0.08729886
178	0x3c347e98	0.01101651
179	0xbda0cd3d	-0.07851646
180	0x3d8c31bd	0.06845424
181	0xbc9fa55c	-0.01948803
182	0x3d03c70c	0.032172248
183	0xbd062192	-0.03274686
184	0x39fcf200	0.0004824549
185	0xbd80842e	-0.06275211
186	0x3bb420f0	0.0054970905
187	0xbcacffe8	-0.02111812
188	0xbd451088	-0.04811147
189	0xbd3b72e8	-0.04576388
190	0xbda6af34	-0.08138886
191	0xbb879da0	-0.0041386634
192	0xbd94e488	-0.072701514
193	0xbd94ed89	-0.07271869
194	0x3b56e000	0.0032787323
195	0xbd7e5728	-0.062094837
196	0xbd3ca23c	-0.046053156
197	0xbda999c6	-0.08281283
198	0x3cac0138	0.020996675
199	0x3d974071	0.07385338
200	0xbd00a34a	-0.031405725
201	0xbd6a8c37	-0.057262626
202	0x3daa6b43	0.0832124
203	0x3da3b063	0.079926275
204	0xbcc5f114	-0.024162807
205	0xbc583ce8	-0.013198115
206	0x3d9f9ddf	0.077937834
207	0xbda5134f	-0.080603234
208	0x3c4e2938	0.0125830695
209	0x3d95cc33	0.073143385
210	0xbcaecc8c	-0.02133777
211	0x3d249696	0.040182672
212	0xbdaa0a56	-0.08302753
213	0xbc5dbf08	-0.013534315
214	0xbd27111c	-0.0407878
215	0x3d088918	0.033333868
216	0x3ca171d0	0.01970759
217	0xbd45d4cc	-0.048298642
218	0xbc08f5b8	-0.008359365
219	0xbd96ce0f	-0.07363521
220	0xbd031e94	-0.032011583
221	0xbd9251db	-0.07144519
222	0xbd425c6b	-0.047451418
223	0x3d9602c5	0.07324747
224	0x3bb45620	0.005503431
225	0xbbf5c580	-0.0075003505
226	0xbdb3a9a2	-0.08772589
227	0x3c28af28	0.010295667
228	0x3d993cc3	0.074822925
229	0x3d45df76	0.048308812
230	0xbd9993d2	-0.074988976
231	0x39f69300	0.000470303
232	0x3d8f3013	0.06991591
233	0x3d950bf1	0.07277668
234	0xbc95e1d8	-0.018296167
235	0xbc9fe7f0	-0.019519776
236	0xbd4ff6d8	-0.050772518
237	0x3ae5d540	0.0017534867
238	0xbaf3d2c0	-0.0018602237
239	0x3d90b475	0.070656694
240	0x3d843785	0.06455902
241	0x3d27d8d2	0.04097826
242	0xbd1f269f	-0.03885519
243	0xbd4d5aae	-0.050135307
244	0xbd90ba8e	-0.070668325
245	0x3ce03da0	0.027373135
246	0xbd2809d6	-0.041025005
247	0xbd5ba0f4	-0.053620294
248	0x3d4b3fde	0.049621455
249	0x3ca806c8	0.020511046
250	0xbc718450	-0.014741018
251	0xbd9bc796	-0.07606427
252	0xbd411496	-0.047138773
253	0xbd75b45a	-0.05998645
254	0x3d806d6d	0.06270871
255	0xbc015790	-0.007894412

fc2.bias f4 [128]
0	0xbd22d7e2	-0.039756663
1	0xbca3de60	-0.020003498
2	0xbd0206f2	-0.031744905
3	0xbd17eca9	-0.03709093
4	0x3c2538a0	0.010084301
5	0xbc2d8f44	-0.010593239
6	0xbd482217	-0.048860636
7	0xbd70984f	-0.058739003
8	0x3d4b407c	0.049622044
9	0xbc29499c	-0.010332491
10	0x3d387bec	0.045040056
11	0xbd215a18	-0.03939256
12	0xbd321434	-0.0434763
13	0x3d66a8e2	0.056313403
14	0xbcbda022	-0.023147646
15	0x3bedc7a0	0.007256463
16	0x3ca8e834	0.020618536
17	0x3c44e5e8	0.012017705
18	0xbca9c376	-0.020723086
19	0x3ca16e30	0.019705862
20	0x3d449cce	0.048001103
21	0x3c2d77f8	0.010587685
22	0xbd499a5b	-0.04921947
23	0x3d4983d4	0.049197987
24	0x3d63df5a	0.055632927
25	0x3d04484a	0.032295503
26	0xbd35d302	-0.044390686
27	0x3c8e0374	0.017335631
28	0x3ce3b5b0	0.027796596
29	0x3cb4a508	0.02205135
30	0x3cfee420	0.031114638
31	0x3d65aaf0	0.05607122
32	0x3d36af64	0.04460086
33	0xbd27ce17	-0.040968027
34	0xbcb5a600	-0.022173882
35	0xbd04b674	-0.032400563
36	0xbd1bdaea	-0.03805057
37	0x3caedadc	0.021344595
38	0x3d367788	0.044547588
39	0xbcf56741	-0.029956462
40	0x3d25deda	0.04049573
41	0xbcf97553	-0.030451452
42	0xbcaf8078	-0.021423563
43	0x3d4c9174	0.049943402
44	0x3cf5a2d0	0.029984862
45	0x3bc8ac60	0.0061240643
46	0x3cf16d30	0.02947101
47	0x3d0cd29e	0.034380548
48	0x3d4c9106	0.049942993
49	0x3d519f70	0.051177442
50	0xbcb9e44e	-0.022691872
51	0xbb774360	-0.0037729368
52	0x3cab2bcc	0.020894907
53	0xbd2c7524	-0.0421039
54	0x3b9c4820	0.00476934
55	0xbc9c16e8	-0.019053891
56	0x3d46e322	0.048556454
57	0xbbf5f6d0	-0.007506229
58	0x3d401c46	0.046901964
59	0xbd3e903d	-0.046524275
60	0x3c0cf720	0.008603841
61	0x3cf28b44	0.029607423
62	0xbd40d0e1	-0.047074202
63	0x3cd2ea40	0.025746465
64	0xbc8c20e4	-0.017105527
65	0xbce414bc	-0.027841918
66	0x3c91e79c	0.017810635
67	0xbd3c0e93	-0.045912337
68	0x3c566418	0.013085388
69	0x3c16e338	0.009209447
70	0x3c1c69c8	0.009546705
71	0x3c67a100	0.0141375065
72	0x3c1d3f30	0.009597585
73	0x3d05a658	0.03262934
74	0xbce34306	-0.02774192
75	0xba80c2a0	-0.0009823628
76	0x3c4592e8	0.012058951
77	0xbcbfa31e	-0.02339321
78	0x3d2b008a	0.04174856
79	0x3bae67d0	0.005322434
80	0x3d4b7f22	0.04968179
81	0xbd321d0c	-0.043484733
82	0xbc907d20	-0.01763779
83	0x3d5d0454	0.053959206
84	0x3cc25ed4	0.023726858
85	0x3d56c8d8	0.052437633
86	0x3a401c80	0.00073284656
87	0x3c16cf08	0.0092046335
88	0xbd6fc82b	-0.058540504
89	0x3bde3e30	0.0067823157
90	0xbd4c5b62	-0.049891837
91	0x3c4bf108	0.012447603
92	0x3d1f9280	0.038958073
93	0x3d358f1e	0.04432594
94	0x3d764dd0	0.0601328
95	0xbcb56e5a	-0.022147346
96	0x3a382700	0.00070248544
97	0xbcd7360c	-0.026270889
98	0x3d3da0be	0.046295874
99	0xbc0ced54	-0.008601505
100	0xbd40a1fd	-0.047029484
101	0xbd5989c4	-0.0531099
102	0x3d6fbece	0.058531575
103	0x3d02dd36	0.031949244
104	0x3d2f421e	0.042787664
105	0x3cfa43a4	0.030549832
106	0xbb33ec40	-0.0027454048
107	0x3d66819a	0.05627594
108	0xbb7d9010	-0.0038690604
109	0xbacc4440	-0.0015584305
110	0xbca8f2b6	-0.020623546
111	0x3d67b400	0.056568146
112	0xbd1ef9b0	-0.03881234
113	0x3d4a1b64	0.049342528
114	0x3cc2b238	0.023766622
115	0xbc82c88a	-0.015964765
116	0xbd2ca8ae	-0.042153053
117	0x3cbfe620	0.023425162
118	0xbd6915bf	-0.056905504
119	0xbd764094	-0.06012018
120	0x3d0af9f2	0.033929773
121	0x3d0a245e	0.03372609
122	0xbd6ee6c5	-0.058325548
123	0x3d2f0e5e	0.04273831
124	0x3d6b2cf0	0.057415903
125	0x3d4a8af0	0.049448907
126	0xbd6eb68c	-0.05827956
127	0x3bb74e20	0.00559403

fc3.weight f4 [1, 128]
0	0x3ae3138c	0.0017324551
1	0xbadafcd5	-0.001670743
2	0x3b13f21a	0.0022574724
3	0xb949aa80	-0.0001923237
4	0xb9ea1790	-0.00044649513
5	0x3b2cbd84	0.0026358077
6	0xbab4d572	-0.0013796522
7	0x39db2da8	0.00041804952
8	0x3b3da268	0.0028935913
9	0xbad1fb96	-0.0016020413
10	0x3a82b99c	0.0009973529
11	0xb914fc50	-0.00014208374
12	0x39468b20	0.0001893458
13	0xbaa79329	-0.0012784946
14	0x3a277dc0	0.00063892826
15	0x3b0c42ec	0.0021402193
16	0x3aa44bc4	0.0012534787
17	0xbb2ef458	-0.0026695933
18	0xb9953208	-0.0002845677
19	0xb9f6ad08	-0.00047049695
20	0xbb2c296c	-0.0026269807
21	0xbaf16154	-0.0018415847
22	0x3b0b842e	0.0021288502
23	0xba970c93	-0.0011524133
24	0xb8db08e0	-0.00010444387
25	0x38903ce0	6.877794e-05
26	0x3acf06a0	0.0015794821
27	0x3b1bcdbe	0.0023773755
28	0x3b22ca60	0.0024839863
29	0x3a82715c	0.0009951997
30	0xbac725a4	-0.0015193713
31	0xbb02ce17	-0.0019959265
32	0x3acd4588	0.0015660981
33	0xba7dd174	-0.0009682395
34	0xba7104c4	-0.00091941305
35	0x3adbd5b4	0.0016772063
36	0xba1d2140	-0.00059940293
37	0x3a628528	0.00086410576
38	0x3ae1ec9c	0.0017236653
39	0xb9c0fc18	-0.00036808918
40	0xbad2ced8	-0.0016083373
41	0xba1f0200	-0.00060656667
42	0xba826a8c	-0.0009949966
43	0x3a1251ec	0.00055816653
44	0x3b34c1f2	0.002758142
45	0x3afaea3c	0.0019143294
46	0xbab2feff	-0.0013656317
47	0x3acfe5d0	0.0015861336
48	0xbab28493	-0.0013619832
49	0xbb3a8e8b	-0.002846631
50	0x3b2c5e20	0.002630122
51	0xbaf50c3c	-0.0018695663
52	0x39064720	0.00012805732
53	0x3a988d00	0.0011638701
54	0xb9fca788	-0.00048190006
55	0xb9090d30	-0.00013070251
56	0xbaec9914	-0.0018050992
57	0x39e21098	0.00043118442
58	0xba11e950	-0.00055660773
59	0xb9e6e8e0	-0.00044042524
60	0x3a83ac98	0.0010045944
61	0x3aff01a4	0.0019455445
62	0xbaaca97f	-0.0013173072
63	0xbb3caadb	-0.0028788361
64	0xba9da7fc	-0.0012028213
65	0x39d76710	0.00041084783
66	0xbab941ae	-0.0014133954
67	0xbb447411	-0.0029976408
68	0xbb2a466c	-0.0025981916
69	0xbb1bbe6a	-0.0023764619
70	0x3af493b0	0.0018659737
71	0xba316e48	-0.00067684473
72	0x3b27653a	0.0025542513
73	0x3a131b38	0.0005611661
74	0x3a50a904	0.00079597556
75	0xb9c3dd18	-0.00037358026
76	0xbac94d48	-0.0015358115
77	0x3acbbd4c	0.0015544086
78	0xbb42eacf	-0.0029742008
79	0xbb3f6441	-0.0029204043
80	0x3a266ff0	0.00063490774
81	0xbad3390b	-0.0016115023
82	0x3b2b8fd6	0.0026178262
83	0x3b21e65e	0.002470396
84	0x39d5f9c8	0.00040812627
85	0xbab6e50c	-0.0013953759
86	0xb9e7a2a0	-0.00044180918
87	0x3b3fb078	0.002924947
88	0x3aa6b3dc	0.0012718397
89	0xb9676e00	-0.00022070855
90	0x39e17698	0.00043003703
91	0xbb172a5b	-0.0023066017
92	0xbae810f4	-0.0017705248
93	0xb9d70d08	-0.00041017705
94	0x3b0cdd9a	0.002149439
95	0xbad854ce	-0.0016504766
96	0x396dc140	0.00022674073
97	0x39fab320	0.00047817174
98	0xbb3b8a02	-0.0028616195
99	0x3b27585e	0.0025534849
100	0xbb3bc298	-0.0028649922
101	0xb9aee318	-0.00033357064
102	0xba770358	-0.00094228005
103	0x3b0498de	0.0020232718
104	0xbb347dba	-0.002754076
105	0x3b0cc3ee	0.0021479088
106	0x3b0085d0	0.0019611008
107	0x3b1d7f8a	0.0024032318
108	0x3b093d60	0.0020941123
109	0x3b20c834	0.0024533393
110	0x3b08ddd0	0.0020884164
111	0x3ae0a1e4	0.0017138091
112	0xba366ea8	-0.0006959238
113	0xbb267f3a	-0.0025405423
114	0x3ac2e880	0.0014870316
115	0x3ac7fe1c	0.0015258226
116	0x3a028a04	0.00049796724
117	0xb9b87378	-0.00035181246
118	0x3aa396ac	0.0012480817
119	0xb9f48928	-0.00046641496
120	0x3ad70a20	0.0016406216
121	0xbb203d51	-0.002445061
122	0x3b0015f6	0.001954434
123	0xbabdbbae	-0.0014475489
124	0x3a901798	0.001099336
125	0xb9951b58	-0.00028439867
126	0x3ae5b6ac	0.0017525754
127	0xbaed9d4c	-0.0018128543
